Project/Assets/ML-Agents/Examples/MyTest/Scripts/TFModels/ppo/MoveToGoal/checkpoint.pt (torch, 145634 bytes, 11 tensors)

network_body._body_endoder.seq_layers.0.weight f4 [128, 1]
00000000: 04da b7bf 9c7f 5bbf 46ad 293f 7931 fdbe
00000010: ac1b ddbe decf 943f 3aff 26c0 2dd9 853d
00000020: 49fd d1bd d93a 37bf 9d0e 9dbf 933c 26c0
00000030: d509 493f 6d63 b3bf 8d3f fcbe 9c2f 00bf
00000040: 92fc 27bf e93a 96bf 7bae 9ebf 9f4b 89bf
00000050: 90f1 9abf 0407 b5bf 258c 2dbe 2b2a 08bf
00000060: 0302 553d 990e 5bbf 9c58 95bf a19d fbbf
00000070: 47ee aebf 4bf0 9d3e a8f8 d23e 44e3 8cbf
00000080: 4c4c 9dbf e7f6 6f3f 57b3 87bf 65fc b0bc
00000090: cce1 d9be 04d1 ad3f 7402 0440 63d0 5abd
000000a0: ef71 1abf 75d3 6bbf c9fa 7d3f db6a 9d3f
000000b0: 2491 883f 7a9b bcbe 3dee 0d40 e929 8f3f
000000c0: 4131 1bbf 1cfd fa3e 664c 1c3f aab6 e03e
000000d0: 90e5 a43f 637b ec3e 6b9d 19be 2dd6 c9be
000000e0: 8740 ddbf 7624 ba3e 7cb5 b93e 349a 1340
000000f0: 01dd d2bf d5ab c63f 6a1d 44be b511 34bf
00000100: 5209 ad3f 1c5d 14c0 bc8b d03e 2201 0240
00000110: c664 37bf ed6e 81bf 8c57 6bbf 607c 9f3f
00000120: e14c d6be f81c babf ddcd 03c0 0556 21c0
00000130: 82ad 6e3f aa17 3b3f 56a3 96bf 959b 1fbf
00000140: 9b94 de3e 3253 6d3f ea35 cfbf c28f fd3e
00000150: d282 cf3f 6a94 8cbe 896f 7bbf 67f9 01c0
00000160: 35b5 92be d06b 5ebf 3286 7c3f 9366 38bd
00000170: 6bd4 cb3d 06d9 643e 5491 e6bf 4d16 45bf
00000180: 7feb 07bf 8183 7c3e 02b6 06bf dad2 7abe
00000190: 51e5 7c3f 2a80 1e40 4ff7 883f 80dd 02bf
000001a0: 3a8e a7bf 7e4f 673d 66bf 773e 70f7 b3bd
000001b0: f3aa 633f 7a72 7a3f 738c 483f 0495 d2bf
000001c0: b975 d93f 91f5 213c 3007 0dbe 326b 0abe
000001d0: 4b53 3abf 71e5 2bbf eff7 79bf 523c b23d
000001e0: d414 a5bf fb64 993f e129 0fbe 4a37 93be
000001f0: e09f 12bf 867f 653f d81e f8bf 6bd5 ecbe
-1.4363408 -0.8574159 0.6628002 -0.49451807 -0.43185174 1.1625936 -2.6093278 0.065355636
-0.102533884 -0.7157417 -1.2270085 -2.5974472 0.7853063 -1.4014717 -0.49267235 -0.50072646
-0.65619767 -1.1736728 -1.2396997 -1.0726203 -1.2104969 -1.4142766 -0.16947992 -0.53189343
0.05200387 -0.8556915 -1.1667666 -1.965748 -1.3666466 0.3084739 0.41205335 -1.1006856
-1.2288909 0.9373612 -1.0601605 -0.021604726 -0.42555082 1.3579412 2.0626497 -0.05342139
-0.603301 -0.9211953 0.9921079 1.2298235 1.0669293 -0.3683737 2.217666 1.1184665
-0.6062203 0.49021232 0.61054075 0.43889362 1.2882557 0.46187887 -0.15001456 -0.39421216
-1.7285317 0.36355942 0.36271274 2.3062868 -1.6473695 1.5521189 -0.19151846 -0.7033952
1.3518469 -2.318183 0.4073161 2.0313191 -0.71638143 -1.0111977 -0.9193046 1.2459831
-0.4185553 -1.454009 -2.05944 -2.5208752 0.932335 0.73082983 -1.1768596 -0.62346774
0.43472752 0.9270507 -1.6188328 0.4952374 1.6211798 -0.2745698 -0.98217064 -2.0308473
-0.28653875 -0.8688326 0.98642266 -0.045019697 0.09952625 0.22348413 -1.8013101 -0.76987153
-0.53093714 0.2465954 -0.5262147 -0.24494496 0.9878741 2.4765725 1.0700473 -0.5111923
-1.3090279 0.056472294 0.24194106 -0.08787429 0.8893272 0.9783093 0.7833931 -1.6451726
1.6989051 0.009885208 -0.13772273 -0.13517454 -0.72783345 -0.67146975 -0.9764394 0.087029114
-1.2896981 1.1983942 -0.1398082 -0.2875312 -0.572752 0.8964771 -1.9384413 -0.46256575

network_body._body_endoder.seq_layers.0.bias f4 [128]
00000000: 0000 0000 0000 0000 0000 0000 0000 0000
00000010: 0000 0000 0000 0000 0000 0000 0000 0000
00000020: 0000 0000 0000 0000 0000 0000 0000 0000
00000030: 0000 0000 0000 0000 0000 0000 0000 0000
00000040: 0000 0000 0000 0000 0000 0000 0000 0000
00000050: 0000 0000 0000 0000 0000 0000 0000 0000
00000060: 0000 0000 0000 0000 0000 0000 0000 0000
00000070: 0000 0000 0000 0000 0000 0000 0000 0000
00000080: 0000 0000 0000 0000 0000 0000 0000 0000
00000090: 0000 0000 0000 0000 0000 0000 0000 0000
000000a0: 0000 0000 0000 0000 0000 0000 0000 0000
000000b0: 0000 0000 0000 0000 0000 0000 0000 0000
000000c0: 0000 0000 0000 0000 0000 0000 0000 0000
000000d0: 0000 0000 0000 0000 0000 0000 0000 0000
000000e0: 0000 0000 0000 0000 0000 0000 0000 0000
000000f0: 0000 0000 0000 0000 0000 0000 0000 0000
00000100: 0000 0000 0000 0000 0000 0000 0000 0000
00000110: 0000 0000 0000 0000 0000 0000 0000 0000
00000120: 0000 0000 0000 0000 0000 0000 0000 0000
00000130: 0000 0000 0000 0000 0000 0000 0000 0000
00000140: 0000 0000 0000 0000 0000 0000 0000 0000
00000150: 0000 0000 0000 0000 0000 0000 0000 0000
00000160: 0000 0000 0000 0000 0000 0000 0000 0000
00000170: 0000 0000 0000 0000 0000 0000 0000 0000
00000180: 0000 0000 0000 0000 0000 0000 0000 0000
00000190: 0000 0000 0000 0000 0000 0000 0000 0000
000001a0: 0000 0000 0000 0000 0000 0000 0000 0000
000001b0: 0000 0000 0000 0000 0000 0000 0000 0000
000001c0: 0000 0000 0000 0000 0000 0000 0000 0000
000001d0: 0000 0000 0000 0000 0000 0000 0000 0000
000001e0: 0000 0000 0000 0000 0000 0000 0000 0000
000001f0: 0000 0000 0000 0000 0000 0000 0000 0000
0.0 0.0 0.0 0.0 0.0 0.0 0.0 0.0
0.0 0.0 0.0 0.0 0.0 0.0 0.0 0.0
0.0 0.0 0.0 0.0 0.0 0.0 0.0 0.0
0.0 0.0 0.0 0.0 0.0 0.0 0.0 0.0
0.0 0.0 0.0 0.0 0.0 0.0 0.0 0.0
0.0 0.0 0.0 0.0 0.0 0.0 0.0 0.0
0.0 0.0 0.0 0.0 0.0 0.0 0.0 0.0
0.0 0.0 0.0 0.0 0.0 0.0 0.0 0.0
0.0 0.0 0.0 0.0 0.0 0.0 0.0 0.0
0.0 0.0 0.0 0.0 0.0 0.0 0.0 0.0
0.0 0.0 0.0 0.0 0.0 0.0 0.0 0.0
0.0 0.0 0.0 0.0 0.0 0.0 0.0 0.0
0.0 0.0 0.0 0.0 0.0 0.0 0.0 0.0
0.0 0.0 0.0 0.0 0.0 0.0 0.0 0.0
0.0 0.0 0.0 0.0 0.0 0.0 0.0 0.0
0.0 0.0 0.0 0.0 0.0 0.0 0.0 0.0

network_body._body_endoder.seq_layers.2.weight f4 [128, 128]
00000000: 7f94 7ebd 8422 3e3d a7ed 52bc bcd6 643c
00000010: 421b 123e 212e bebd 437b 873d 79c8 523d
00000020: e31c 4f3d d8ca c13d 4aae 45be 0c1f 8a3d
00000030: 9b64 fa3d 11e2 e8bd b370 b3bd 90d3 303e
00000040: 0de5 733d c97f 583a ecc6 a1bd 0fd1 b1bd
00000050: b66f ef3c 2ec2 b03d 8d27 03bc 606f cfbb
00000060: 1c07 5c3d 3490 24bc fac7 243d 0a84 253d
00000070: a34d 61bd d862 883d b0bf 3e3c 421f bf3c
00000080: 5cc5 253e 3718 ff3d 7a6c 26be 67ff 02be
00000090: f1ef b0bc f4e2 593e 4fbc 6c3d 18c7 b5bd
000000a0: 784a d73d cb2f 4f3e 1a71 c5bc c306 f93c
000000b0: a108 01be eb05 4bbd 21c1 273e 2efd 93bd
000000c0: 4172 25bd dfbc d63c c8fe 573d 78f6 e83d
000000d0: d191 e9bb dfac 9ebd 725d a4bc 0f5b 9d3d
000000e0: 8646 03be d26d 6e3d adb1 ac3d 831f c23d
000000f0: 9e5a 8d3d 86bc a9bd b244 b33d 977d 333e
00000100: 3ca9 a43d e174 0ebd 2e22 553d ca09 dfbc
00000110: 9d74 92bd aab8 09bc da9c 4c3d 730c 1fbe
00000120: 12a0 36be 76ce fa3c 4f7f 6a3d 9c9e cc3d
00000130: f6b9 dd3d 3d28 f5bc 288c 8dbb 92d6 c4bd
00000140: be43 3e3c 37fc 5abd 3355 73bd 27f1 ebbd
00000150: 7c65 edbc 6fe3 743d 249f e7bc c263 923b
00000160: 7fcb a4bd 7d1c d93c 00d3 96bc 45bc 9cbb
00000170: f85c cb3d 0521 40bd b399 2abe f55d 393e
00000180: 2160 413c 7d32 3ebd 01cd 273d 57f3 4c3d
00000190: 4500 44bd fbc0 7abd a67b 103d c97c e53d
000001a0: b0fa 0cbd 52f2 1cbe 89da dcbb 4c4e 863c
000001b0: 4879 cebd 607e c13c 921b 1a3e 7d32 8fbd
000001c0: 7154 f9bd f05f 0abe 761d 1f3e 6501 c7bd
000001d0: 1bb9 80bd 93f8 eebd 1e87 b0bd 35e9 a8bd
000001e0: 02e2 1abe bafa 0fbe ff85 c2bd 31b0 06bd
000001f0: 1f4c f63d ec6a 5f3c ce22 9abd 118d 19bd
00000200: aaee 243d 5ea6 57bd 6002 b83d 20cb 503d
00000210: 84b9 0bbd e378 7e3b e8ca 803d d3eb 0d3e
00000220: e178 553d f814 833c 778b 5cbe b991 fe3d
00000230: 190d ccbc 8386 803c 46a5 11bd 0ebd 81bd
00000240: b502 df3d a2f3 e3bd 79be 88bd b703 35be
00000250: 118b f03d 1cec 863d d7bc c33d 2d72 89bd
00000260: 909b 6bbd 5208 e03b c83d 8c3d 6fc1 72bd
00000270: a2c9 4ebd 9bdc 853d 0aa2 bf3c 5b9b 4d3d
00000280: 7bb6 8b3a f589 a43d c1fc 05be 915f 3ebd
00000290: 995f 4f3e 371c d03b e6c4 543d 3269 d53d
000002a0: a7a6 fd3d 188c f23d 476c 19bb 86ba 52be
000002b0: 5fb2 6a3d 8504 e2bc 958c 683d ab84 cf3d
000002c0: 9417 b23b bea9 a3bd d3aa 8b3c 2de4 f83d
000002d0: 02bd 30bd a8bb 12be 73ae 13be 181c f83d
000002e0: dd1a 0b3e 2146 04be 1894 df3b 9e59 6d3c
000002f0: 8357 743d 4569 acbd 6333 4dbd 5db3 38bd
00000300: 0bbb 1a3e f2e9 db3d 6c84 593c 9b3e a33c
00000310: 6e67 ebbb 4cad 0c3e c73c c6bb 8b16 5cbd
00000320: 360a fbbc 37cc 9abd 19ad 3c3d 064f 063e
00000330: a9d5 723d 49a3 333d 8251 423e 032b 2cbc
00000340: e30a ea3d be21 e43d 3392 ddbd ec13 9b3d
00000350: bcb9 af3b 26dc a63d 7274 06bd 8596 393d
00000360: 0475 293d 03d1 27be bdce fcbd cde2 b43c
00000370: 0cb3 313e e062 67bd e416 0fbe 8841 0bbd
00000380: e3f5 cdbb 7268 a0bd 7028 4b3d 5d76 163d
00000390: 0955 18bd 6fbb 19be 1a97 3dbe 3094 8f3d
000003a0: 7435 d33d d51d dfbc e2ba ec3d afd8 da3d
000003b0: d0df 903d 3636 983d 9b04 bfbd 68e2 2abe
000003c0: dd06 903d e8b2 09bd 4c7b 82bd 69fe 09be
000003d0: 579a babd 281e ac39 328f 23bc 7c6f 233e
000003e0: bda5 853d 0f6e edbd d807 94bc a428 06be
000003f0: 8b69 263d e2e7 763d 32d7 56bd 1c7f 043d
-0.062153336 0.046419635 -0.012874044 0.013967212 0.1426821 -0.09286142 0.06615307 0.051460717
0.050564658 0.094625175 -0.19304767 0.06744203 0.1222622 -0.11371244 -0.0876173 0.17268205
0.05954461 0.00082587876 -0.078992695 -0.08682453 0.029228073 0.08630787 -0.008005035 -0.0063304156
0.053717718 -0.010044146 0.040229775 0.040409125 -0.05500568 0.06659478 0.011642382 0.023330335
0.16188568 0.124557905 -0.16252318 -0.12792741 -0.021598788 0.21277982 0.057796773 -0.08875865
0.10512251 0.20233075 -0.024101783 0.030398732 -0.12600948 -0.04956619 0.16382267 -0.072260246
-0.040392164 0.026213108 0.052733213 0.11375135 -0.0071279784 -0.07747816 -0.02006409 0.07683384
-0.12819871 0.0582102 0.084323265 0.09478667 0.069020495 -0.08287911 0.08753337 0.17528377
0.080400914 -0.034779433 0.05203455 -0.027226347 -0.071511485 -0.008405844 0.049954273 -0.15532093
-0.178345 0.030616026 0.057250317 0.0999119 0.10826485 -0.029926414 -0.0043196864 -0.096112385
0.011612831 -0.053463187 -0.059407424 -0.115206055 -0.028979056 0.05978721 -0.028274126 0.0044674585
-0.08046626 0.026502842 -0.01841116 -0.0047831857 0.09929842 -0.04690649 -0.16660194 0.18102248
0.011802704 -0.046434868 0.04096699 0.050036754 -0.04785182 -0.061219197 0.03527417 0.112054415
-0.03441876 -0.15326813 -0.0067399186 0.016394757 -0.10081726 0.02361983 0.1504958 -0.06992052
-0.12174309 -0.1351316 0.15538582 -0.09717063 -0.06285306 -0.116685055 -0.086195216 -0.08247606
-0.15125278 -0.14060488 -0.09498214 -0.032882873 0.12026238 0.013636332 -0.0752617 -0.037488047
0.04026667 -0.052648894 0.08984828 0.050974965 -0.03411247 0.0038829378 0.06288701 0.13859491
0.052117232 0.01600121 -0.21537577 0.12430138 -0.02490859 0.01568914 -0.035558008 -0.063348874
0.10889188 -0.11130454 -0.06676955 -0.17677198 0.11745275 0.06588003 0.09557503 -0.067112304
-0.057521403 0.0068369294 0.06847721 -0.059266504 -0.05048526 0.06536218 0.023392696 0.050196987
0.0010659242 0.08034126 -0.13084699 -0.046477858 0.20251311 0.0063510197 0.05194559 0.10420455
0.12385302 0.11843127 -0.0023410486 -0.20578966 0.057299014 -0.027590046 0.056774694 0.10132726
0.0054349396 -0.0799136 0.017049229 0.12152896 -0.043149002 -0.14329398 -0.14422016 0.121147335
0.13584466 -0.12917377 0.006823074 0.014486698 0.05965377 -0.08418516 -0.050097834 -0.04509293
0.15110414 0.10737981 0.013276201 0.019927314 -0.0071839606 0.13737983 -0.0060497257 -0.053732436
-0.030644517 -0.07558482 0.046063516 0.13116083 0.059285793 0.043856893 0.18976405 -0.010508302
0.11427858 0.11139248 -0.10818901 0.07572159 0.0053627174 0.08147459 -0.032825895 0.045309562
0.04137136 -0.16388325 -0.1234412 0.022080803 0.17353457 -0.05649078 -0.13973576 -0.033998042
-0.0062854155 -0.07832421 0.04959911 0.036733974 -0.03719047 -0.15012906 -0.18514672 0.070106864
0.1031293 -0.027235905 0.115590826 0.1068586 0.07073939 0.07432215 -0.0932705 -0.1668793
0.07032559 -0.033617884 -0.06371173 -0.13475956 -0.09111469 0.00032828865 -0.009982871 0.15960497
0.06525753 -0.11593258 -0.018070146 -0.1310144 0.040627997 0.060279734 -0.05245132 0.032347783

network_body._body_endoder.seq_layers.2.bias f4 [128]
00000000: 0000 0000 0000 0000 0000 0000 0000 0000
00000010: 0000 0000 0000 0000 0000 0000 0000 0000
00000020: 0000 0000 0000 0000 0000 0000 0000 0000
00000030: 0000 0000 0000 0000 0000 0000 0000 0000
00000040: 0000 0000 0000 0000 0000 0000 0000 0000
00000050: 0000 0000 0000 0000 0000 0000 0000 0000
00000060: 0000 0000 0000 0000 0000 0000 0000 0000
00000070: 0000 0000 0000 0000 0000 0000 0000 0000
00000080: 0000 0000 0000 0000 0000 0000 0000 0000
00000090: 0000 0000 0000 0000 0000 0000 0000 0000
000000a0: 0000 0000 0000 0000 0000 0000 0000 0000
000000b0: 0000 0000 0000 0000 0000 0000 0000 0000
000000c0: 0000 0000 0000 0000 0000 0000 0000 0000
000000d0: 0000 0000 0000 0000 0000 0000 0000 0000
000000e0: 0000 0000 0000 0000 0000 0000 0000 0000
000000f0: 0000 0000 0000 0000 0000 0000 0000 0000
00000100: 0000 0000 0000 0000 0000 0000 0000 0000
00000110: 0000 0000 0000 0000 0000 0000 0000 0000
00000120: 0000 0000 0000 0000 0000 0000 0000 0000
00000130: 0000 0000 0000 0000 0000 0000 0000 0000
00000140: 0000 0000 0000 0000 0000 0000 0000 0000
00000150: 0000 0000 0000 0000 0000 0000 0000 0000
00000160: 0000 0000 0000 0000 0000 0000 0000 0000
00000170: 0000 0000 0000 0000 0000 0000 0000 0000
00000180: 0000 0000 0000 0000 0000 0000 0000 0000
00000190: 0000 0000 0000 0000 0000 0000 0000 0000
000001a0: 0000 0000 0000 0000 0000 0000 0000 0000
000001b0: 0000 0000 0000 0000 0000 0000 0000 0000
000001c0: 0000 0000 0000 0000 0000 0000 0000 0000
000001d0: 0000 0000 0000 0000 0000 0000 0000 0000
000001e0: 0000 0000 0000 0000 0000 0000 0000 0000
000001f0: 0000 0000 0000 0000 0000 0000 0000 0000
0.0 0.0 0.0 0.0 0.0 0.0 0.0 0.0
0.0 0.0 0.0 0.0 0.0 0.0 0.0 0.0
0.0 0.0 0.0 0.0 0.0 0.0 0.0 0.0
0.0 0.0 0.0 0.0 0.0 0.0 0.0 0.0
0.0 0.0 0.0 0.0 0.0 0.0 0.0 0.0
0.0 0.0 0.0 0.0 0.0 0.0 0.0 0.0
0.0 0.0 0.0 0.0 0.0 0.0 0.0 0.0
0.0 0.0 0.0 0.0 0.0 0.0 0.0 0.0
0.0 0.0 0.0 0.0 0.0 0.0 0.0 0.0
0.0 0.0 0.0 0.0 0.0 0.0 0.0 0.0
0.0 0.0 0.0 0.0 0.0 0.0 0.0 0.0
0.0 0.0 0.0 0.0 0.0 0.0 0.0 0.0
0.0 0.0 0.0 0.0 0.0 0.0 0.0 0.0
0.0 0.0 0.0 0.0 0.0 0.0 0.0 0.0
0.0 0.0 0.0 0.0 0.0 0.0 0.0 0.0
0.0 0.0 0.0 0.0 0.0 0.0 0.0 0.0

action_model._discrete_distribution.branches.0.weight f4 [5, 128]
00000000: 9279 95ba cb92 0b3c 1082 7e3b 64e0 c13b
00000010: e026 363c 50ce 12bc 7c9b 2fbc 11c5 b9bb
00000020: 0e93 46bc 49c4 933a 0bde 203c 1709 82bb
00000030: fbd5 7abc 8d1d 75bb 6bab 083a 2ba0 f5ba
00000040: 833b 2dba 8d59 36bb f354 48bb b300 0cb9
00000050: ed05 163b 6cca bc3b 6f74 04bc 7317 ecba
00000060: ffbe 86bb 2790 083a 658e 9b3a 93bc 92bb
00000070: d75e 7d39 8065 973b fdb8 c13b e707 94bc
00000080: 2a6b 7739 af57 5ebc b8b3 00b9 a380 04bb
00000090: d80c a5bb 4bc0 2fbb e26c 2bbc 9be9 b33b
000000a0: d936 84bb e25b b4bb 7539 2fbc ff9c bcbb
000000b0: fd18 d93b 7a16 4dbc fc37 abbb 9944 c53b
000000c0: b379 a4bb 0456 44bc 3bc6 00ba 4b12 943b
000000d0: e132 183c 874c bcbb 9f2e 7e3b 5426 163c
000000e0: 52d6 3aba 3725 0abc 837e 0cbc 2e66 123b
000000f0: 8d15 d03b f090 3dba c75f 0abc 5d4e 93bb
00000100: f722 7b3b 0d88 df3b 4629 023a aa7d c8bb
00000110: 405a 55bb f1c0 03bc f081 33bb 5631 a5ba
00000120: e032 2dbc 9431 15bc c33a 69bb 185d 1d3c
00000130: 0b27 63bb 13a0 7c3b 13d2 0f3c 1f34 c73c
00000140: 2d1a abbb 3f8f f63b b318 d23c 4e8c 13bc
00000150: b38e eeb9 f94c bb3b 329c 083c 43d5 2c3b
00000160: de86 963a 4c68 0e3c ea15 10bc 5125 973c
00000170: 7343 ec3b 1d9f c9bb 0bec a4bb b35f f53b
00000180: a8b7 01bc 51d3 bfbb bb97 9fb9 a2e2 8cbb
00000190: 6553 c1ba 8503 f73b ef12 113c 2c24 1f3c
000001a0: 4983 923b 7751 43bc da9a debb 5fa0 e53b
000001b0: 8f17 79bc d8c1 583b 3716 6cba b8bb b4bb
000001c0: 5eac 11bb 7a53 b4bc e222 5f3c 6e81 c9b9
000001d0: 3a4e 3cbc 4c16 a3bc 10fa 913a 5824 6ebb
000001e0: fa43 433c ed20 133c 2f71 4cbb ab41 d1bb
000001f0: ef43 953c 369a a1bc 3828 91bb 76f4 17bc
00000200: 1ea1 863a 96aa b5bb 908f 84bb d33f 3fbb
00000210: e4b9 973c e9ea b93c bf2f ac3c 7046 7bbb
00000220: 0d24 d23b b1b8 11ba 609f 7e3b 18f2 4ebb
00000230: 4b80 61bb ad7b 833a e3db 21bc c2c5 65bb
00000240: b3c7 be3a 2b85 39bc 60fd d13b 0376 3fbb
00000250: 10e6 f03a bf5d fc3b a716 9b3c 138a 76bc
00000260: 99d1 49bc ff74 07bc 05b1 d2bb a361 aa3b
00000270: 8296 3f3b 8fb3 963a 1396 b9bc 4593 57bb
00000280: 6cbe 8e3a 38fb 5bbb 6ffa 48bb ff3c 39bc
00000290: 85fc cc3b b7cb b6bb a506 e63b 9208 ed3a
000002a0: 6b77 e03b a0a1 70b9 427e e43b b539 acbb
000002b0: eb10 17bc f25e 323c e22a fcb8 cf80 81bb
000002c0: 380f debb 63b9 4cbc 9fd9 aa3b 62cd cd3c
000002d0: 43e5 973b c63b 3e3c 63d8 733b 6b0a 863c
000002e0: 5363 52bb 0741 373a 19cd a0bb 7c40 483b
000002f0: 040f 3abb 9d47 20bc 734c 1a3c 5b9d 61bc
00000300: 70be 50bc b328 453c bf0d ed3a c2c3 7d3c
00000310: 6ab7 433c c741 86bb cbb5 f33b faab 4e38
00000320: 8a01 5a3b a18a 9ebb 1dc4 55bb ef0f 01bb
00000330: 7654 38bc de2b a7bb 8e91 8e3b 3608 12ba
00000340: 2e42 89ba e3fd 93bb 6fb9 58bc c211 163c
00000350: 7e4a bf3b 2df0 d83b 0f63 d0bb ffda bb3b
00000360: 5ae1 ccbb d383 b3bb 877d 833c 177a 25bb
00000370: 7820 8c3b 717a 4a3c 195f 4abc 5cb6 943b
00000380: a893 b4ba 7bb9 31bc df33 473b 78f4 26bc
00000390: eac8 a4b9 1840 04bc 3fd2 383c fb81 87bc
000003a0: 2344 ba3c 0147 0a3c d021 f1b8 6dad 08bb
000003b0: 5ffb 13bc 4aec 013c bb65 28ba 7b2a d2ba
000003c0: cbe0 243c 9e4d b6bb 8604 cabb b5c0 333c
000003d0: 78ab 233c 1a08 b63b 67c6 f8bb f41e 34bb
000003e0: 3817 363c 9553 19bc 7a60 0a3c 7178 203b
000003f0: 1510 c13c fd11 7abb 129d 6fbc 3720 c73b
-0.0011404029 0.008518885 0.0038834848 0.005916642 0.011117667 -0.008960322 -0.010718223 -0.005669244
-0.0121200215 0.0011273707 0.009818564 -0.0039683688 -0.015309806 -0.0037401647 0.00052135315 -0.001873975
-0.0006608294 -0.0027824373 -0.0030568212 -0.00013351701 0.0022891716 0.0057614353 -0.008084401 -0.001801236
-0.004112124 0.00052094687 0.0011867998 -0.004478046 0.00024163291 0.004620254 0.005911945 -0.018070174
0.00023595677 -0.01357071 -0.00012273982 -0.0020218275 -0.0050369315 -0.0026817496 -0.010462971 0.0054904944
-0.0040348587 -0.0055041173 -0.010694851 -0.00575602 0.0066252933 -0.012517566 -0.0052251797 0.0060201404
-0.0050193905 -0.011983398 -0.0004912351 0.0045187823 0.009289474 -0.0057464275 0.0038785113 0.009164412
-0.0007127273 -0.008431724 -0.008575085 0.0022338736 0.0063502253 -0.0007231375 -0.008445687 -0.0044954256
0.0038320401 0.0068216384 0.00049652567 -0.006118496 -0.0032555014 -0.008041606 -0.0027390681 -0.0012603204
-0.010571212 -0.009106059 -0.0035588003 0.009604715 -0.0034660723 0.003854756 0.008778113 0.024316845
-0.0052216263 0.0075244005 0.025646543 -0.009005619 -0.00045501217 0.005715963 0.008338021 0.002637223
0.0011484285 0.0086918585 -0.008794287 0.018450411 0.007210189 -0.006153001 -0.0050330213 0.007488215
-0.007917322 -0.0058540483 -0.0003043989 -0.0042994777 -0.0014749585 0.0075382614 0.008854612 0.009713214
0.004471217 -0.011921278 -0.006793362 0.007007643 -0.015203371 0.0033074524 -0.0009005996 -0.005515542
-0.0022227983 -0.022012461 0.013619157 -0.0003843414 -0.01149326 -0.019908093 0.0011137147 -0.003633758
0.011918062 0.008980018 -0.0031195392 -0.006386002 0.01822087 -0.019726854 -0.0044298433 -0.009274593
0.0010271405 -0.005544017 -0.0040454343 -0.002918233 0.018521257 0.022695022 0.02101886 -0.0038341545
0.006412989 -0.0005558832 0.003885232 -0.0031577405 -0.0034408744 0.0010031365 -0.009879085 -0.00350605
0.0014555365 -0.011323254 0.0064083785 -0.0029214628 0.0018379111 0.007701605 0.0189317 -0.015047568
-0.012318038 -0.00826764 -0.006429794 0.0051996275 0.0029233997 0.0011497604 -0.022654569 -0.0032894176
0.001089049 -0.0033566486 -0.0030666848 -0.0113060465 0.0062556886 -0.005578484 0.007019835 0.0018084219
0.006850173 -0.00022948394 0.006973059 -0.0052559027 -0.009220342 0.010886895 -0.00012024284 -0.0039521228
-0.0067767166 -0.0124953715 0.0052139307 0.025122348 0.0046354844 0.011610931 0.0037207834 0.01636239
-0.003210266 0.0006990586 -0.004907262 0.0030556014 -0.0028390298 -0.009782699 0.009417641 -0.013770427
-0.012740716 0.012033629 0.0018085762 0.015488567 0.011945585 -0.0040971967 0.007437443 4.9274393e-05
0.0033265078 -0.004838303 -0.0032618113 -0.0019693335 -0.011250606 -0.005101665 0.0043508476 -0.00055706815
-0.0010471994 -0.0045163496 -0.013227805 0.009159507 0.0058377376 0.006620428 -0.006359465 0.0057328935
-0.00625245 -0.005478361 0.016051067 -0.0025249773 0.0042763315 0.012358294 -0.012351775 0.0045383405
-0.0013776915 -0.010847445 0.0030395908 -0.010190122 -0.0003143021 -0.008071922 0.011280595 -0.016541472
0.022737568 0.00843978 -0.000114980736 -0.0020855323 -0.0090320995 0.007929871 -0.00064238504 -0.0016034389
0.01006336 -0.005563452 -0.00616509 0.010971238 0.009989612 0.005555165 -0.007592011 -0.002748427
0.011113934 -0.009358306 0.008445853 0.0024485851 0.023567239 -0.0038157695 -0.014624851 0.0060768384

action_model._discrete_distribution.branches.0.bias f4 [5]
00000000: 0000 0000 0000 0000 0000 0000 0000 0000
00000010: 0000 0000
0.0 0.0 0.0 0.0 0.0

network_body._body_endoder.seq_layers.0.weight f4 [128, 1]
00000000: 1c3d 1d3e e0be 37bf 6603 923e 8346 c1bd
00000010: 02ea 2a3e 2afc 103f 28a0 fcbe ea48 acbf
00000020: 3747 acbe 5b32 9f3f 32d3 813d 97db 3d3f
00000030: e4e1 6cbf ce15 ff3e de0d 9fbf 838f fe3f
00000040: 4953 49bf aef9 483f afcd 0340 80db 893f
00000050: a643 42bf ae77 c5bc 5b53 2cbf 943b 88bf
00000060: 404e aebf cabb ffbf eeaa b23f 5ad7 9a3f
00000070: 05ca 76bf 340f 5440 a6bc cd3f f0a5 a0bf
00000080: 22f5 acbf 33a4 9d3e 6c9b 5bbf 766f 2dbe
00000090: c22e 84bf 36c2 083f 1427 13be 4485 a83f
000000a0: 5f91 f8bf 6788 33bf 71f8 aebf eb90 053f
000000b0: f0d8 243e 3078 d6be 5f14 b33c 3a4d 7fbe
000000c0: bb99 04bf 1490 3cbe 6638 b2bf 94b3 49bf
000000d0: b551 be3d 6e2e 593f dbaa 3b3f 5681 543f
000000e0: d63c ee3f 55b1 393f 2e2a bc3d 4e3d 363f
000000f0: 6733 663f d8f4 8e3e f441 633e 0f97 41bf
00000100: d3d8 213f 062e 393f ad53 6a3f 299d 313f
00000110: 60f2 e3bf 7f43 7fbe c7e5 683e bbac 893e
00000120: adb3 2e3f 70c0 3abf f587 3e3f becf 773e
00000130: f568 073e 6526 a9bf e781 babd 6a65 9fbf
00000140: 121e 20be fe8f 09c0 31f0 253f f2fd b1be
00000150: 6cd3 53bf 2234 0f40 c48d 9abe 4c27 fd3f
00000160: 83f1 06bd 717f 00c0 f0bf cabe 6827 4fbf
00000170: d37b 113f 8b22 66bf ecf1 8c3f a50e cc3f
00000180: c07f 8d3f c210 c93f d891 bb3a e559 60bf
00000190: 7798 c0bf 6164 13c0 2ce9 3abf cad2 f6be
000001a0: 4a45 2e3d 1ae4 59bf d0a1 b03d 73ce 103f
000001b0: 4c1f f03f 545c b13f d19e febf 8755 d5be
000001c0: fa61 67bf c332 61bf d050 a53f 46f7 9d3f
000001d0: 1acd a13f 694a c53f 93e6 163f 8d6c bbbf
000001e0: 7def 1e40 22b5 293d 4be3 f2bf 34e0 acbf
000001f0: e2c3 8dbd 110b 273e 594b 573f 3195 43bf
0.15355343 -0.7177563 0.28518218 -0.09437277 0.1669083 0.5663477 -0.4934094 -1.3459752
-0.33648083 1.2437242 0.063391104 0.7416319 -0.9253218 0.49821323 -1.2426107 1.9887546
-0.7864271 0.7850598 2.059429 1.0770111 -0.75884473 -0.02410492 -0.6731469 -1.0643182
-1.361763 -1.9979184 1.3958414 1.209697 -0.9640201 3.313428 1.6073196 -1.255064
-1.3512309 0.30789337 -0.8578403 -0.1693705 -1.0326769 0.5342134 -0.14370376 1.316567
-1.9419364 -0.7013001 -1.3669568 0.5217425 0.1609838 -0.4188857 0.0218603 -0.24931803
-0.51797074 -0.18414336 -1.3923461 -0.7878964 0.09292928 0.8483647 0.7330758 0.8300985
1.8612316 0.7253621 0.09187733 0.71187294 0.89922184 0.27921176 0.22193128 -0.7562112
0.6322147 0.7233585 0.9153393 0.6938043 -1.7808342 -0.24928091 0.22743903 0.26889595
0.68242913 -0.72949886 0.74426204 0.24200341 0.13223632 -1.3214842 -0.09106808 -1.2452824
-0.15636471 -2.1494136 0.6481963 -0.34764057 -0.8274448 2.237557 -0.30186284 1.9777617
-0.032945167 -2.0077784 -0.39599562 -0.80919504 0.56829566 -0.8989646 1.1011329 1.5941969
1.1054611 1.5708239 0.0014310433 -0.8763717 -1.5046529 -2.3030016 -0.7301204 -0.48207694
0.042546548 -0.8511368 0.08624613 0.56565017 1.8759551 1.3856301 -1.9892217 -0.41666815
-0.90383875 -0.8796808 1.2915287 1.2341087 1.2640717 1.5413333 0.5894558 -1.4642502
2.4833672 0.041432507 -1.8975614 -1.3505921 -0.06922127 0.16312815 0.84099346 -0.76399523

network_body._body_endoder.seq_layers.0.bias f4 [128]
00000000: 0000 0000 0000 0000 0000 0000 0000 0000
00000010: 0000 0000 0000 0000 0000 0000 0000 0000
00000020: 0000 0000 0000 0000 0000 0000 0000 0000
00000030: 0000 0000 0000 0000 0000 0000 0000 0000
00000040: 0000 0000 0000 0000 0000 0000 0000 0000
00000050: 0000 0000 0000 0000 0000 0000 0000 0000
00000060: 0000 0000 0000 0000 0000 0000 0000 0000
00000070: 0000 0000 0000 0000 0000 0000 0000 0000
00000080: 0000 0000 0000 0000 0000 0000 0000 0000
00000090: 0000 0000 0000 0000 0000 0000 0000 0000
000000a0: 0000 0000 0000 0000 0000 0000 0000 0000
000000b0: 0000 0000 0000 0000 0000 0000 0000 0000
000000c0: 0000 0000 0000 0000 0000 0000 0000 0000
000000d0: 0000 0000 0000 0000 0000 0000 0000 0000
000000e0: 0000 0000 0000 0000 0000 0000 0000 0000
000000f0: 0000 0000 0000 0000 0000 0000 0000 0000
00000100: 0000 0000 0000 0000 0000 0000 0000 0000
00000110: 0000 0000 0000 0000 0000 0000 0000 0000
00000120: 0000 0000 0000 0000 0000 0000 0000 0000
00000130: 0000 0000 0000 0000 0000 0000 0000 0000
00000140: 0000 0000 0000 0000 0000 0000 0000 0000
00000150: 0000 0000 0000 0000 0000 0000 0000 0000
00000160: 0000 0000 0000 0000 0000 0000 0000 0000
00000170: 0000 0000 0000 0000 0000 0000 0000 0000
00000180: 0000 0000 0000 0000 0000 0000 0000 0000
00000190: 0000 0000 0000 0000 0000 0000 0000 0000
000001a0: 0000 0000 0000 0000 0000 0000 0000 0000
000001b0: 0000 0000 0000 0000 0000 0000 0000 0000
000001c0: 0000 0000 0000 0000 0000 0000 0000 0000
000001d0: 0000 0000 0000 0000 0000 0000 0000 0000
000001e0: 0000 0000 0000 0000 0000 0000 0000 0000
000001f0: 0000 0000 0000 0000 0000 0000 0000 0000
0.0 0.0 0.0 0.0 0.0 0.0 0.0 0.0
0.0 0.0 0.0 0.0 0.0 0.0 0.0 0.0
0.0 0.0 0.0 0.0 0.0 0.0 0.0 0.0
0.0 0.0 0.0 0.0 0.0 0.0 0.0 0.0
0.0 0.0 0.0 0.0 0.0 0.0 0.0 0.0
0.0 0.0 0.0 0.0 0.0 0.0 0.0 0.0
0.0 0.0 0.0 0.0 0.0 0.0 0.0 0.0
0.0 0.0 0.0 0.0 0.0 0.0 0.0 0.0
0.0 0.0 0.0 0.0 0.0 0.0 0.0 0.0
0.0 0.0 0.0 0.0 0.0 0.0 0.0 0.0
0.0 0.0 0.0 0.0 0.0 0.0 0.0 0.0
0.0 0.0 0.0 0.0 0.0 0.0 0.0 0.0
0.0 0.0 0.0 0.0 0.0 0.0 0.0 0.0
0.0 0.0 0.0 0.0 0.0 0.0 0.0 0.0
0.0 0.0 0.0 0.0 0.0 0.0 0.0 0.0
0.0 0.0 0.0 0.0 0.0 0.0 0.0 0.0

network_body._body_endoder.seq_layers.2.weight f4 [128, 128]
00000000: 459b 44bd fa09 9cbd 6d30 603d aff0 763d
00000010: ca19 c03d aa65 b3bd 119f 9b3d 42a7 493d
00000020: 3cf6 abbd b622 013d a079 c43d 185f 813d
00000030: f7bb 37bd 0ac4 af3d d533 82bc 03eb 7bbd
00000040: 5c0f d83c 335f 4f3d 5977 103e a107 98bd
00000050: 9f13 d5bd 39f1 8bba 3b1c adbd e58e 6cbc
00000060: 2ae9 cc3d beb9 f5bb d524 7cbd f3ad 3d3d
00000070: 2529 a8bc be67 16be 513d 69bd 1c1a 84bd
00000080: 940d 0ebe 72da a2bd b1b6 18be 297a 2b3e
00000090: 3e39 033c 7401 3dbe 6159 bd3c 43f3 5d3d
000000a0: 21d9 f03c 54fc 533d 09ed c6ba f4c8 d03c
000000b0: 5898 0a3d 70f4 edbd 2bc5 2ebc 6d4d 02bd
000000c0: 29ed ddbd 5a1e 3d3d 66aa 19bb 9349 3fbd
000000d0: 027b f0bd cd38 863d a7d5 40bd 86e0 ae3d
000000e0: 7a61 01be ef02 96bd f15e 7e3d 58d8 ecbb
000000f0: d919 843b 3780 8cbd 7db0 f2bd dcfe 683d
00000100: 50cb 95bd ace9 80bc b844 80bb 0668 343d
00000110: a336 8f3d 3b26 283e 195f afbd 13c5 4abd
00000120: 4911 77bd dd7c 8c3d 1017 c73d 00fe a3bd
00000130: 344b 643d a69f fcbc b81f f0bd 84d8 a8bd
00000140: 81e5 c03b 47f3 b0bd 05f1 6a3e 9a8b 7dbd
00000150: c694 6c3d 3154 d6bd a0c2 b7bd 7fc3 803d
00000160: 73f5 733d 65db f03c ea0d 5fbd b738 05bd
00000170: 9c89 ef39 241f f93d 33e2 32bd 5a21 a1bb
00000180: 71c5 6bbb 3b41 51bc 6f62 b0bd 05a4 e73c
00000190: 13ad c1bd dfa6 3b3b 6a55 46be e7de 29be
000001a0: 6b0e 913b 0090 c33d a191 5d3e 08e6 e6bc
000001b0: ec9e 2a3e 9598 c33d 5c3b af3d bb09 11be
000001c0: 34f5 a9bd d6c6 f5bd 4ce2 153e e9c7 b33c
000001d0: 42e8 0d3d a0ed 0bbe 2c95 383c fd8c 403e
000001e0: ba5a 0fbe cf47 1e3d 797e 09bc 2a62 833b
000001f0: 3a48 bd3d 6ec4 dcbb 5d1b 8dbd 5f6c 4abc
00000200: 19e0 c5bc 1618 9fbd 26cf df3d 9045 603b
00000210: adf1 cabc da5f f43c 89f6 713e edb8 033e
00000220: c8d0 ac3c 9940 45bd 1cb4 a0bc 45ab 853c
00000230: 34b5 1e3d ecde e3bc cc4a a0bd b2fe 31bd
00000240: d74b c53d 3a1f b0bd 5aee 9abd 85ae 7f3d
00000250: 5b5f 7abd 8c06 2b3c 3bcc 9b3d 64db 15bd
00000260: 7985 ba3d ba16 2cbd 7c61 42be 6890 d43b
00000270: b3a3 e93d 249d 31bb 2a7e b3bc 1242 f73b
00000280: 609a 34be 7818 623d 2808 68bd c777 523d
00000290: de82 00be 900a 333c 1709 00be 7f06 a63d
000002a0: 6e8c 41bd 5eb5 2e3d 1b1b 33be b8a5 cbbd
000002b0: 1434 0f3e 4df7 f23d c2b3 1f3d ba41 af3c
000002c0: 2941 903d d0c6 9cbd d097 f53d a709 97bd
000002d0: 7412 e13b c2f2 d63c 2e33 79bd 7b5d 09be
000002e0: 3b10 a63c 936c e53c 5af1 56bd 8ca2 e6bc
000002f0: 604b ad39 275f 8ebd fe7e 5cbc ce86 d4bd
00000300: 8f5d 1bbe 79b7 2bbc e8bb 1e3d 9521 12be
00000310: 9b16 e1bd ee76 8e3c a544 d03d 3d22 d8bd
00000320: 4a1c 0abe 617a 3dbc f929 f0bd a75a 5e3d
00000330: c339 743c 7aba 253d 9c4a 24bd b52c 8e3d
00000340: 16c3 31be 56b5 d6bd 5eb0 08be 088b bf3c
00000350: bea7 873d 2505 8a3d 9ef4 a83d 45da 1cbd
00000360: 8609 b73c 9c7c 0cbd 047e f83d d9ab 8ebd
00000370: 048d 723d d888 9b3d 714f 7f3d 3b2f 073e
00000380: 6625 85bd 3ed6 2ebe ac2e d8bd 3206 813d
00000390: fcbd b53c 4f19 8abd 6ead a7bd 00bd 49bd
000003a0: 0787 483d e7d2 263c 5fe9 7b3c 187e 533c
000003b0: 06a2 903c 117a a1bd 5998 b2bd 5c2a a1bd
000003c0: edbb b93d e297 a3bc e384 64bd 536f 023e
000003d0: cad1 80bc 8867 d1bb e335 3f3d e983 063e
000003e0: 1949 e53c 42ba 323d a311 5b3c c075 dd3d
000003f0: 66f3 cabd 7b32 c6b9 6ac6 463d 48e9 07bc
-0.04799964 -0.076190904 0.054733682 0.060288128 0.09379919 -0.08759625 0.07598699 0.049231775
-0.08396575 0.031527244 0.09593511 0.06316966 -0.04485699 0.08582313 -0.015893856 -0.06150342
0.026374511 0.0506279 0.14108028 -0.0742333 -0.10404133 -0.0010676748 -0.0845265 -0.014438366
0.1000541 -0.007498949 -0.061558563 0.04630847 -0.020527432 -0.14688012 -0.05694324 -0.064502925
-0.13872367 -0.079518214 -0.14913441 0.16745819 0.008009253 -0.18457586 0.023113908 0.05418707
0.02940041 0.05175431 -0.0015176843 0.025486447 0.033836693 -0.116188884 -0.010667126 -0.03181212
-0.1083625 0.046171524 -0.0023447513 -0.046701025 -0.11742212 0.06553803 -0.047078755 0.08538918
-0.1263484 -0.07324778 0.062102262 -0.0072279386 0.0040314016 -0.068603925 -0.11850069 0.056883678
-0.073141694 -0.015736423 -0.003914442 0.044044517 0.06992843 0.16420834 -0.0856306 -0.04950435
-0.06031922 0.06859753 0.09721196 -0.08007431 0.05573578 -0.030837845 -0.117248 -0.08244422
0.005886734 -0.086401515 0.22943504 -0.061900713 0.05775907 -0.10465277 -0.08972669 0.06287288
0.05956025 0.02940149 -0.05445663 -0.03252479 0.0004568816 0.12164143 -0.04367275 -0.004917306
-0.0035975839 -0.0127719 -0.08612525 0.028276453 -0.094568394 0.0028633398 -0.1936852 -0.16588937
0.0044267676 0.0954895 0.21637584 -0.02818586 0.16662186 0.09550587 0.08556244 -0.14163868
-0.08298722 -0.120008156 0.14637107 0.02194591 0.034645326 -0.13664865 0.011266034 0.18803783
-0.13999453 0.0386427 -0.00839197 0.004009505 0.09242292 -0.0067372834 -0.06889985 -0.012354939
-0.02415471 -0.07768266 0.10928182 0.003422115 -0.024773443 0.029830862 0.23629202 0.12863512
0.021095648 -0.04815731 -0.019617133 0.01631702 0.038747028 -0.027816258 -0.07826766 -0.043455787
0.09633606 -0.08599706 -0.07564993 0.062422294 -0.061126094 0.010438573 0.07607313 -0.03658618
0.09107489 -0.04201386 -0.189825 0.006486941 0.11408176 -0.002710172 -0.021910746 0.007545718
-0.17637014 0.055199116 -0.056648403 0.05138376 -0.12549922 0.010927811 -0.12503468 0.08106708
-0.047253065 0.042653434 -0.17490809 -0.09943718 0.1398471 0.11863575 0.03898979 0.021393646
0.07043678 -0.07655108 0.119918466 -0.07374888 0.006868655 0.026238803 -0.060839824 -0.13414566
0.020271411 0.028005874 -0.052476265 -0.02815368 0.0003305329 -0.069517426 -0.013458012 -0.103772745
-0.15172409 -0.010480755 0.03875342 -0.14270623 -0.1099064 0.017390694 0.10169343 -0.105534054
-0.13487354 -0.011564822 -0.11726756 0.05428567 0.01490635 0.04046104 -0.040110216 0.06942121
-0.17359576 -0.10483806 -0.13348529 0.023381725 0.06623791 0.067392625 0.08249782 -0.038294096
0.022343408 -0.034298524 0.121334106 -0.06966371 0.059216514 0.0759446 0.06233162 0.1320161
-0.06501274 -0.17073914 -0.10555777 0.0630001 0.022185318 -0.067431085 -0.08187376 -0.04925251
0.048956897 0.010182119 0.015375464 0.012908481 0.017655384 -0.078846104 -0.08720464 -0.078694075
0.09069047 -0.019969884 -0.055790793 0.1273778 -0.015725035 -0.0063905157 0.04668225 0.13136257
0.027988957 0.04363466 0.013370904 0.10813475 -0.09909706 -0.00037803114 0.048529066 -0.008295365

network_body._body_endoder.seq_layers.2.bias f4 [128]
00000000: 0000 0000 0000 0000 0000 0000 0000 0000
00000010: 0000 0000 0000 0000 0000 0000 0000 0000
00000020: 0000 0000 0000 0000 0000 0000 0000 0000
00000030: 0000 0000 0000 0000 0000 0000 0000 0000
00000040: 0000 0000 0000 0000 0000 0000 0000 0000
00000050: 0000 0000 0000 0000 0000 0000 0000 0000
00000060: 0000 0000 0000 0000 0000 0000 0000 0000
00000070: 0000 0000 0000 0000 0000 0000 0000 0000
00000080: 0000 0000 0000 0000 0000 0000 0000 0000
00000090: 0000 0000 0000 0000 0000 0000 0000 0000
000000a0: 0000 0000 0000 0000 0000 0000 0000 0000
000000b0: 0000 0000 0000 0000 0000 0000 0000 0000
000000c0: 0000 0000 0000 0000 0000 0000 0000 0000
000000d0: 0000 0000 0000 0000 0000 0000 0000 0000
000000e0: 0000 0000 0000 0000 0000 0000 0000 0000
000000f0: 0000 0000 0000 0000 0000 0000 0000 0000
00000100: 0000 0000 0000 0000 0000 0000 0000 0000
00000110: 0000 0000 0000 0000 0000 0000 0000 0000
00000120: 0000 0000 0000 0000 0000 0000 0000 0000
00000130: 0000 0000 0000 0000 0000 0000 0000 0000
00000140: 0000 0000 0000 0000 0000 0000 0000 0000
00000150: 0000 0000 0000 0000 0000 0000 0000 0000
00000160: 0000 0000 0000 0000 0000 0000 0000 0000
00000170: 0000 0000 0000 0000 0000 0000 0000 0000
00000180: 0000 0000 0000 0000 0000 0000 0000 0000
00000190: 0000 0000 0000 0000 0000 0000 0000 0000
000001a0: 0000 0000 0000 0000 0000 0000 0000 0000
000001b0: 0000 0000 0000 0000 0000 0000 0000 0000
000001c0: 0000 0000 0000 0000 0000 0000 0000 0000
000001d0: 0000 0000 0000 0000 0000 0000 0000 0000
000001e0: 0000 0000 0000 0000 0000 0000 0000 0000
000001f0: 0000 0000 0000 0000 0000 0000 0000 0000
0.0 0.0 0.0 0.0 0.0 0.0 0.0 0.0
0.0 0.0 0.0 0.0 0.0 0.0 0.0 0.0
0.0 0.0 0.0 0.0 0.0 0.0 0.0 0.0
0.0 0.0 0.0 0.0 0.0 0.0 0.0 0.0
0.0 0.0 0.0 0.0 0.0 0.0 0.0 0.0
0.0 0.0 0.0 0.0 0.0 0.0 0.0 0.0
0.0 0.0 0.0 0.0 0.0 0.0 0.0 0.0
0.0 0.0 0.0 0.0 0.0 0.0 0.0 0.0
0.0 0.0 0.0 0.0 0.0 0.0 0.0 0.0
0.0 0.0 0.0 0.0 0.0 0.0 0.0 0.0
0.0 0.0 0.0 0.0 0.0 0.0 0.0 0.0
0.0 0.0 0.0 0.0 0.0 0.0 0.0 0.0
0.0 0.0 0.0 0.0 0.0 0.0 0.0 0.0
0.0 0.0 0.0 0.0 0.0 0.0 0.0 0.0
0.0 0.0 0.0 0.0 0.0 0.0 0.0 0.0
0.0 0.0 0.0 0.0 0.0 0.0 0.0 0.0

value_heads.value_heads.extrinsic.weight f4 [1, 128]
00000000: b8f8 b9bc 046a bd3d 845d 0cbe 80d1 973d
00000010: b459 843d bdf4 54be 94c4 d93d c32b 37be
00000020: 14c0 b83d 78af bebc f071 6bbd e652 0a3e
00000030: 9090 b4bc 2a4e 12be 6044 493d c081 25bc
00000040: 9e1b bdbd 0cc2 a1bd 8030 ffbb 9351 5bbe
00000050: 80d6 043e 1407 253e 4092 c8bc d211 8cbd
00000060: a87b 1f3d 70c6 22be 864f 083e c400 26bd
00000070: b869 cd3c 60ed e4bc a4d9 3f3e c283 0d3e
00000080: a48f 2bbe 7e88 333e 3892 303e 27ca 22be
00000090: 2c66 a63d 2918 39be d2d2 433e 4a01 063e
000000a0: dc01 1ebd 9c6a e93d 74d8 9bbd b25a 2f3e
000000b0: c62a 5abe ec5a a3bd 2aba 553e ea5c 003e
000000c0: 9853 e53d 208a ca3b 38e3 403e c08e b93c
000000d0: 3863 fa3d 9628 113e 9015 52bd a47c a23d
000000e0: e4c4 1fbd 1046 913d 0873 343e 5cfd 463e
000000f0: a03d 79bc 19b0 29be d4ba 433e 4080 7bbc
00000100: 187d 7f3d 0085 833c 4288 4ebe 1404 973d
00000110: 122c bebd c6e8 0ebe 83e1 d1bd 7890 743d
00000120: 80c1 ef3b 4368 c2bd 34a0 ae3d e06a e2bc
00000130: 68f3 763d 1c77 78bd 4c76 cd3d feb0 11be
00000140: 58c9 2e3e 088a 53be ceb2 523e 202b c9bd
00000150: 286a 73bd 0c46 11bd f05e 1ebd 1833 8abd
00000160: 2270 0fbe 1eca 4bbe 5e17 503e 709f a23c
00000170: dc4f 57bd 5296 81bd 3854 353d c0b8 643c
00000180: 026f a9bd 90e1 eabc a2b1 02be 9445 df3d
00000190: 5e26 93bd 2c86 b63d 743f 29bd 58fe 0bbe
000001a0: d860 1e3e d20e 433e 2b5f ccbd 361a 86bd
000001b0: 90bf 6dbd 40dd 9fbd 1c9b 02bd 920d e1bd
000001c0: d8d7 163d 1ae7 333e a823 493e 65ed 26be
000001d0: b0f2 4abc 506f 523c d4a0 033d fe37 413e
000001e0: 1002 eb3d 861f 55be 1ec8 fabd 08f7 3bbd
000001f0: 7e8a 213e 802a bdbd c228 37be dc49 3c3e
-0.022701606 0.092487365 -0.13707548 0.07413006 0.06462422 -0.20796485 0.106331974 -0.17887788
0.09021011 -0.02327703 -0.057481706 0.13508186 -0.022041589 -0.1428763 0.049137473 -0.010101736
-0.09233783 -0.0789834 -0.007787764 -0.21417837 0.1297245 0.16115981 -0.0244838 -0.068393365
0.038936287 -0.1589601 0.13311586 -0.040528074 0.025074825 -0.02794522 0.18735367 0.13819793
-0.16754013 0.17532536 0.17243278 -0.15897427 0.081249565 -0.18075623 0.1912339 0.13086429
-0.038575992 0.11397287 -0.076096445 0.17124441 -0.2130538 -0.07976326 0.20871797 0.12535444
0.11197585 0.0061810166 0.18836677 0.022651076 0.12225956 0.14175639 -0.051290095 0.079339296
-0.03900613 0.070934415 0.17622006 0.19432586 -0.015212446 -0.16571082 0.19114238 -0.015350401
0.062375158 0.01605463 -0.20169166 0.07373825 -0.092857495 -0.13955984 -0.10248091 0.05970809
0.007316768 -0.094925426 0.0852665 -0.027638853 0.060290724 -0.060660467 0.10032329 -0.14227673
0.17068994 -0.20658123 0.20576021 -0.098226786 -0.05942741 -0.035467193 -0.03866476 -0.067480266
-0.14007619 -0.1990132 0.20321414 0.019851416 -0.052566394 -0.063274994 0.04426977 0.013960063
-0.08273126 -0.02867201 -0.12763074 0.10901943 -0.07185052 0.0891231 -0.04132028 -0.13671243
0.1546663 0.19048622 -0.09979089 -0.06547968 -0.058044016 -0.07805872 -0.031886205 -0.109889165
0.03682694 0.17568627 0.19642508 -0.16301496 -0.012386963 0.012843922 0.0321358 0.18869016
0.11475003 -0.20812806 -0.122452006 -0.045889884 0.15775487 -0.09236622 -0.17886642 0.1838755
