Project/Assets/ML-Agents/Examples/MyTest/Scripts/TFModels/MyTest1Models/Test13/MoveToGoal.onnx (onnx, 80286 bytes, 9 tensors)

network_body._body_endoder.seq_layers.0.weight f4 [128, 6]
00000000: 68c0 90be b26c 9a3e 4ef3 09be 8793 a4bd
00000010: 878d 733d 83c8 3a3f cf87 133d 9bf2 953e
00000020: dfd6 773e b85f 853d c4a8 c93d 5828 8abe
00000030: 5915 a8be 80fe 9abe a10d 54be cdd8 0b3f
00000040: faa0 aa3e a3e7 963e af3d 673f 3b03 4ebe
00000050: 66aa 26bf ad79 aebe f0f8 c63e c83a 33be
00000060: 66ac 5b3e da3d 653e 5d21 a23d 14a6 f83e
00000070: 9a96 2ebf 00ae 993d ee3a 0c3f 3cc4 8dbe
00000080: 76db 8a3c c863 ef3d 630a 36bd 1c41 2d3f
00000090: 7cab eabe c53b 88bd 1d00 ae3e 63b4 afbd
000000a0: a103 b33d 9f18 b6bd 8031 69be 7c07 5dbd
000000b0: 0b5d 983d 683d 72be 13b8 cdbe ecc1 c13d
000000c0: 1aa9 473f 35c8 2abf ee36 4e3e 521d 423f
000000d0: f784 ed3d d2dc 4d3d 3252 0ebf 2193 ddbd
000000e0: 9796 e43d 032f 37be 6420 c43e e941 c9be
000000f0: d2cd 1cbd fde9 09bd 2d95 453d a114 433f
00000100: 086a 9abd 0e7a e83d 2163 983b ff65 053e
00000110: 5f89 753e 679d aa3e e34d 43bf 1d30 c13f
00000120: f948 7f3c caf8 81bd 70aa cbbe 6f1b 1a3f
00000130: 8a8c 01bf bbc4 41be cf6e 0dbf 543b c8be
00000140: 866c 0f3f dddb 193f 4ef6 ba3e 446b 233f
00000150: 9532 abbd 849d 543f d95e 973d a11c 26bf
00000160: a76d 4cbf 8900 38bd 172c 383e 52f6 cebe
00000170: f681 a93d 45eb 413f 26f1 b6be 6c47 17be
00000180: 8747 f1bc 8f5f 83be f441 6ebe bb28 bf3e
00000190: 03a1 7d3e 98d1 993e 3d03 2a3e e5f6 64bc
000001a0: af55 d9bd 1a98 bcbe 4a52 8f3d afcd d13d
000001b0: 7a34 bfbe 247f 8e3f ff0c 06be fd14 edbe
000001c0: f282 dcbe c378 5cbf 53c4 14be 7733 edbe
000001d0: 021e a73d be1e 81bd 4f58 79bc bcde 15bf
000001e0: b2a7 053f c0d4 4e3e e0ad 8c3e d5ea 2ebf
000001f0: 2270 2c3f 4049 f2bd 454e 2b3d 4574 efbd
00000200: 4849 203e ffdc 22bc b145 83be 543f 913f
00000210: 77f6 bb3e bf02 43be 16c9 6bbf 82f1 bebe
00000220: cf95 12bf 8482 b4be 6c38 0fbe 47ae 81be
00000230: 7230 fbbe 2a29 403f 4d39 6a3e c376 b3be
00000240: e8e7 dc3e 3896 203e fb23 633e 0a7f f83e
00000250: 7eb3 c8be 1c20 f23e 9879 fb3d d905 ddbe
00000260: 360f cebd 529d febd 6330 913b eb16 b93c
00000270: 8f35 4e3f 35fe 09bf 8a79 af3e 6fd5 3b3f
00000280: 8992 443e b341 a4be b6c8 943e 49c5 a43e
00000290: ed0e 82be c687 be3e 3a2d 8ebc 2ebc 943e
000002a0: 4bcf 673f 31f5 a5be f973 c4bc 68eb 193f
000002b0: af5b c03e f582 bdba 5845 9c3e 7535 98be
000002c0: fd14 f5be 0f67 1e3e 41c3 0fbc 4348 8a3d
000002d0: ec07 dd3b a63f 9b3f 7e09 0bbf 0fcc 7e3f
000002e0: b201 e43d bfd0 a23e 349a 34bf 738c 58bd
000002f0: 626a 58bd 1fb7 9fbe 4a82 c5be 5d7b 30bd
00000300: ecef 533d 27f5 c4be 867c 133f d8ad afbd
00000310: d63e 85bc 509e d03c be02 12bd e185 173f
00000320: c6bb afbd 5378 01bc b005 8f3d d0a6 7d3f
00000330: 1fa7 803e ebd9 d83d 133e e53e 06db b63a
00000340: cdb1 5bbe 5ce3 fdbe 82eb a1be c676 223f
00000350: f11c 06be 92e6 b93c 7df7 033f 51bf d53e
00000360: 0a57 36bf 28ce 52bb b6f2 eb3e 3ead 5bbe
00000370: 0b34 55bf f700 f23e f0af 873e 8d81 82be
00000380: c7da 7c3e 8155 4cbf 3748 38be 0302 90bd
00000390: 22d1 94bd 7ded 93be 11f1 f4be f1aa a13e
000003a0: 1913 423e 180e 13bf 69d0 6a3c 7dcf 793d
000003b0: 881f 1bbf 4c37 c8be 1273 7c3e a0b3 f03e
000003c0: ab04 3b3f 605f 3b3d bd09 2cbe ddc8 e13e
000003d0: 02fe babe c701 3c3d 45f4 0c3f ec0d 503d
000003e0: 3d74 453d 1593 eabe 856b 163e 734e f03e
000003f0: c42d 5abe 0cb5 963e 3cb3 fd3e 8e4d f6be
-0.28271794 0.30161053 -0.1347172 -0.08035951 0.059461143 0.72962207 0.03601819 0.29286656
0.2420306 0.065123975 0.098466426 -0.26983905 -0.32828787 -0.30272293 -0.20708324 0.54627687
0.3332594 0.294736 0.90328497 -0.2011842 -0.6510376 -0.34077206 0.388618 -0.17502892
0.21452484 0.22386876 0.0791652 0.48564208 -0.6819855 0.07503891 0.5477742 -0.27688777
0.01695035 0.11688954 -0.0444435 0.67677474 -0.45833957 -0.06652025 0.3398446 -0.08579328
0.087409265 -0.08891415 -0.22772789 -0.053962216 0.074396215 -0.23656237 -0.401795 0.09460816
0.77992404 -0.6671174 0.20138142 0.7582599 0.11597627 0.05025942 -0.5559417 -0.10819078
0.11161535 -0.17889027 0.38305962 -0.39308098 -0.038282223 -0.033670414 0.04823797 0.7620335
-0.07539755 0.11351405 0.004650489 0.1302719 0.23978184 0.33323213 -0.7629072 1.5092808
0.015581363 -0.06346281 -0.3977847 0.6019811 -0.5060507 -0.18922703 -0.55247205 -0.39107764
0.5602497 0.6010111 0.3651604 0.6383555 -0.08359257 0.8305285 0.07391138 -0.64887434
-0.79854816 -0.044922385 0.17985569 -0.40422302 0.08276741 0.7574962 -0.35730857 -0.14773339
-0.029453052 -0.25658843 -0.23267347 0.37335762 0.24768452 0.3004272 0.16602798 -0.01397488
-0.10612046 -0.36834794 0.06998117 0.10244309 -0.37344724 1.113255 -0.13090895 -0.46305075
-0.43068653 -0.8612177 -0.14528017 -0.46328327 0.081600204 -0.06304692 -0.015218808 -0.5854299
0.5220901 0.20198345 0.27476406 -0.68327075 0.673586 -0.118303776 0.04182269 -0.116920985
0.15652955 -0.009940385 -0.25639108 1.1347451 0.36711475 -0.19044016 -0.9210371 -0.3729363
-0.5725984 -0.35255826 -0.13986367 -0.25328276 -0.49060398 0.7506281 0.22873421 -0.35051546
0.4314568 0.15682304 0.22181694 0.48534423 -0.39199442 0.47290123 0.122790515 -0.43168524
-0.10061495 -0.1243235 0.004430817 0.022593936 0.80550474 -0.53903514 0.34272414 0.7337255
0.19196524 -0.32081375 0.2905938 0.32181767 -0.25402012 0.37212962 -0.01735555 0.2904982
0.9055068 -0.3241363 -0.023981081 0.60124826 0.3756995 -0.0014458584 0.30521655 -0.29728284
-0.47867575 0.15469001 -0.0087745795 0.06752064 0.006745329 1.2128799 -0.5431136 0.9953012
0.11133136 0.31799886 -0.70547795 -0.052868318 -0.05283583 -0.31194398 -0.38575965 -0.0430864
0.05174248 -0.38468286 0.5761188 -0.0857808 -0.016265314 0.025466114 -0.035647146 0.5918866
-0.08580737 -0.007902223 0.06983507 0.9908266 0.25127503 0.105884396 0.4477392 0.0013950772
-0.21454544 -0.49587524 -0.3162499 0.63462484 -0.13096978 0.022692952 0.5154951 0.41747525
-0.7122656 -0.0032166336 0.4608361 -0.21452805 -0.83282536 0.4726636 0.26501417 -0.25489464
0.24692832 -0.7981797 -0.17996298 -0.07031634 -0.072664514 -0.28892127 -0.4784017 0.3157573
0.18952598 -0.5744338 0.014331915 0.060988892 -0.6059499 -0.39104688 0.24653271 0.47012043
0.73054 0.045745254 -0.1680059 0.4409856 -0.36521918 0.045900133 0.55060226 0.050794527
0.048206557 -0.4581534 0.14689453 0.46934852 -0.2130652 0.29435003 0.49550807 -0.48106045

network_body._body_endoder.seq_layers.0.bias f4 [128]
00000000: 015c fc3b bad1 543b e80f 41bb f9eb 263c
00000010: ffde 8c3b d115 42ba 3a59 a93b c46e a739
00000020: 88bc 81ba 28f6 5c3a 352a aab9 71f4 91b9
00000030: 4bdf db3a ee2c 8039 9e42 973b 6447 80ba
00000040: 8d81 47bb 2c4b 393b acf0 c53b 6f4f 5c3a
00000050: 0d24 12bc bdd9 19bb e14f 8fba 82e1 bf3b
00000060: 7c6b 633a 6e75 d9bb 1f72 ac3b 9e21 95bb
00000070: dd36 8e3b 4e2b da3a cd8a e6b9 931d e7b9
00000080: 7423 333b 6dc1 573b cdae c03b 71a9 59bb
00000090: c977 c83b 18d6 0cbb cb8c 19bc ce12 8cba
000000a0: 0ed2 83ba 3ed2 b1bb 421c b0ba 3d9f 533a
000000b0: 35a1 253b 47c3 13bb ca50 033b 97a5 80bb
000000c0: f90d 883b e25e 99ba 60d9 2237 a987 b3bb
000000d0: 39c3 1fbb ab94 05bc 78a4 ea3a 90e8 27bc
000000e0: 5683 19bb 48de 443b 33d7 adb9 7240 9dba
000000f0: 6312 443b 4d6c b2bb 3178 c6ba 1577 09bb
00000100: 5a19 ab3a 062b 1e3c 253c c0bb 287c e23b
00000110: 8c71 d1ba e3cd 8c3a bb75 5539 e938 9aba
00000120: 578f e63a 0501 85bb cec3 883a 7b01 2d3b
00000130: 8144 1fbc 89c8 6c3b 6ebd d43b 4653 c73a
00000140: 37c4 02bc 9a29 7eba f7b2 6fbb 73d9 33bb
00000150: 808f fb3a f969 623a 3052 99bb 22f8 253c
00000160: f859 ab3b 6fd5 463b 0937 cc3b 3462 aeba
00000170: 01c2 bbbb 4450 f8ba 1748 5739 5b53 c2bb
00000180: 3a56 923a d4ef f73b 387b 65bb 7c3f f43a
00000190: 0b26 643b bdc8 65bb bc1a 01bc 7d60 6dbb
000001a0: 5c7d 363c da9f d1ba f061 8b3b 5236 683b
000001b0: 08bc 62ba d23c cd3b 8a2f 8abb 4482 133b
000001c0: 198c d6bb 5cf1 64bb 1c82 26bb 8b74 15bb
000001d0: f5f4 e63b 5db8 973a 5676 6bba 2a88 6e3a
000001e0: a5d7 9b3b 4725 6239 1a1a d33b 3e35 ffb8
000001f0: 2e54 b7bb db85 b03b 76ff 3139 1ca1 b1bb
0.0077013974 0.003247364 -0.0029458944 0.010188096 0.004299044 -0.00074037636 0.0051681073 0.0003193525
-0.0009898106 0.0008429014 -0.00032456373 -0.00027838678 0.001677492 0.00024447538 0.0046160957 -0.0009786901
-0.0030442209 0.0028273566 0.006040653 0.00084041705 -0.008919728 -0.002347573 -0.001093384 0.00585574
0.0008675379 -0.006636313 0.0052626277 -0.0045511266 0.0043400363 0.0016644986 -0.00043972433 -0.00044081788
0.0027334364 0.0032921687 0.005880213 -0.0033212567 0.006117795 -0.0021489915 -0.009371947 -0.0010686757
-0.0010057108 -0.005426674 -0.0013436156 0.00080727396 0.0025273089 -0.0022546814 0.0020037168 -0.00392599
0.0041520563 -0.0011701251 9.706564e-06 -0.0054788184 -0.0024377836 -0.008153121 0.0017901799 -0.010248318
-0.002342423 0.0030039717 -0.00033157467 -0.0011997356 0.0029918186 -0.0054450394 -0.0015142021 -0.002097552
0.001305382 0.009653812 -0.005866545 0.0069117732 -0.0015979274 0.0010742511 0.00020357121 -0.0011766228
0.0017590326 -0.0040589594 0.0010434331 0.0026398588 -0.009720922 0.003613027 0.0064923083 0.0015207313
-0.007981352 -0.000969553 -0.0036575177 -0.0027442842 0.0019192547 0.0008637007 -0.004678987 0.01012996
0.005229231 0.0030339619 0.0062321466 -0.0013304413 -0.005729914 -0.001894482 0.00020530853 -0.005930347
0.0011164614 0.0075664315 -0.003501607 0.0018634642 0.0034812714 -0.0035062276 -0.007879909 -0.0036220842
0.011138286 -0.0015993074 0.0042536184 0.0035432768 -0.00086492347 0.006263354 -0.004217093 0.0022508064
-0.0065474627 -0.00349339 -0.002540714 -0.002280506 0.007048244 0.001157533 -0.0008982172 0.00090992695
0.0047559314 0.00021566926 0.0064423205 -0.00012169265 -0.005594752 0.0053870506 0.00016975202 -0.005420817

network_body._body_endoder.seq_layers.2.weight f4 [128, 128]
00000000: dfe6 2cbd 486c 6b3b a170 41bc d02d d6bd
00000010: 049a 803d 5c7f d83c 1871 fd3d e559 5abd
00000020: aafa 0bbe 6a51 1a3d 178c 99bd 8c31 c1bd
00000030: 18c5 eb3c 7e88 e9bc ddac 303e c1a5 47bc
00000040: 5b2d a8bd 5a96 7c3c 8bda 1abd 52de 0dbe
00000050: fe64 81bd 2b2f 453d bca1 1ebc 0bc3 053e
00000060: 1250 1abd 9d08 af3d 0867 b8bd c057 e7bd
00000070: e133 50be 2b75 433c 52d8 e0bd fec4 803d
00000080: 0452 f5bd 3a94 22be 0b2d 68bd a552 efbd
00000090: a1d6 1c3e 1b39 d33d 5cf5 8d3d 4a6e 193e
000000a0: 7ed6 7ebd fdf2 1c3d 8daa e0bd 8c2a 433d
000000b0: c81b b3bd 229a 583d 5023 9c3d f5af c33d
000000c0: b8c5 9bbd 0bf6 bcbc 1d9d d2bd fdf2 f7bb
000000d0: 0cea f83c 97b2 2f3d f062 02be 3074 f03d
000000e0: d206 14be bb2d 48bd 555c 66bd a95a 903d
000000f0: 3974 d13b ff68 cdbb 792c 213d 274a a13d
00000100: 6611 7e3c 79f5 d03d 4e08 9a3c 0ef5 64be
00000110: 8a27 a2bd ce70 3a3d e1fc 283e c371 b5bc
00000120: 4f25 ffbd 96b2 9a3d c382 d33d 44c0 01bd
00000130: 341d fb3c 5b58 243e 9d0f 673d e45e dd3d
00000140: 62c8 5f3d 57ce 0bbe c34f 9cbd e4b8 7fbd
00000150: 18f2 fbbd 2736 723c fec7 ccbd 862c fbbd
00000160: 1ea7 9dbd 8b42 d53b 0eea a5bc 4c0c acbd
00000170: 34eb 3ebd c609 513e a6ef 633c 5e29 1bbe
00000180: abbc 86bd b350 40bd 7ce4 853c 7824 ccbc
00000190: 5940 5a3e c574 9e3c 1c35 963d f3e2 54be
000001a0: b47c d0bd 19a6 a4bd 79c5 c0bd bc6c 94bc
000001b0: f16a 77bd 7275 23bd 858f d0bd 8653 ac3d
000001c0: 7ef1 82be 166a 1fbb 3168 ad3d eb38 e13b
000001d0: 1492 2bbe 9a8c 9c3d a3dd 853e 21b2 cfbd
000001e0: 75b6 cbbd f00c 8f3d e4d6 153e 3d92 e63d
000001f0: 92d5 713c 8afb aabd 8f7b 263d 9d63 043e
00000200: 4b9d be3d 7c4a 2b3d 8da8 353d d37c 1bbd
00000210: 35f2 d3bd ccc2 273d 9d7f 4abe eb45 2a3d
00000220: 9263 c93c e7d7 d43c f49a e0bd 030f a8bc
00000230: 6200 033b 3dd0 c0bd c34b 6ebb 93e0 883c
00000240: 40a9 62bd 29ac debc a32d 32bc 9be4 ef3c
00000250: c6f6 09bd 40d4 c43d e893 5c3e 87a8 613b
00000260: 29a1 7fbd 24ff 9fbc 5357 733d 5a6f 5a3b
00000270: 4cc5 c8bc 52b9 abbc ce8d 62bd 6b3f abbd
00000280: 50d0 77bd dc9d d63d 3d56 5b3e c720 1a3e
00000290: 3ac0 d7bd 96ef 1cbd 3242 293e 52a5 963d
000002a0: eb09 fdbc ed34 89bd 90ed ed3c ed34 e13c
000002b0: 5cd1 5f3c 6cd0 98bd 55e9 343e ea9b 1e3d
000002c0: fbdf cf3d 445b 05be 7322 d5bd db21 123e
000002d0: 7a63 27be 1474 573b a481 bbbd 27f4 763d
000002e0: 6a29 c43b 51e5 c23d 0d37 2dbd 0d33 95bd
000002f0: 31f7 b83d 29cd d33d 4970 61be 0be7 223e
00000300: 41b6 cfbd 85ac c03c 14b3 d8ba aa0b c43d
00000310: 4a43 013d 081e d73c e4c6 58be d11e d43c
00000320: d20e 85bd 0155 41bd e0d8 743d 9dea 5bbd
00000330: b613 ea3d 9a22 9cbd 34f7 00be 40e7 1a3d
00000340: 28af 59bd 61c6 063e 8e1b 61bd 61f7 c63d
00000350: 090f 05bd e87d f13d 3a77 153d 333a 3e3e
00000360: 8947 303e ee6d e1bc f810 05be 2372 693d
00000370: 756a b53b 8a6a 6d3d 2096 a13d d56b f43a
00000380: c9d6 f4bc 4ce9 103d 00a8 2abc a16d efbc
00000390: b973 c03d e4ae 05bd 5007 8fbd aaf6 923b
000003a0: 2142 cd3b c10d 6c3d e01a 113d c4a4 9bbd
000003b0: e62a f4bc 78f4 43be d4f1 68bd 416a 393d
000003c0: 5a8b 8d3d 5afa 073e d23f 23bd 7410 833d
000003d0: 84f0 49bd d536 323d e2cd a13d b6be dfbb
000003e0: 580d 69bd 9731 73bd 76ff cabd 8ba3 083e
000003f0: f53a 5f3d 3df4 40bd b86b 9fbd d143 663d
-0.042212363 0.0035922695 -0.011806638 -0.10457957 0.06279376 0.026427917 0.123750865 -0.053308386
-0.1366984 0.0376753 -0.07497423 -0.094332784 0.028780505 -0.028507467 0.17253442 -0.012185515
-0.08211776 0.015416706 -0.037806075 -0.1385434 -0.06318091 0.048140686 -0.009682115 0.13062684
-0.037674017 0.08546565 -0.09004027 -0.11296034 -0.2033229 0.0119297905 -0.1097876 0.06287573
-0.11978534 -0.15876856 -0.05668358 -0.11685685 0.1531625 0.103136264 0.06931564 0.14983478
-0.062216274 0.03831767 -0.1097003 0.047647998 -0.08745533 0.052881368 0.07623923 0.095550455
-0.07606071 -0.023066541 -0.10283873 -0.0075668083 0.03038504 0.042894926 -0.12733054 0.11740911
-0.14455727 -0.048871737 -0.0562404 0.07048542 0.0063920286 -0.00626862 0.039349053 0.078754716
0.015507078 0.1020307 0.018802788 -0.22359106 -0.07917698 0.045517735 0.16502716 -0.022148972
-0.12458288 0.07553594 0.10327675 -0.0316775 0.030653574 0.1604933 0.056411374 0.108091146
0.05463446 -0.13652931 -0.07632401 -0.062432185 -0.12302035 0.014783419 -0.09999083 -0.122643515
-0.07697891 0.0065081767 -0.020253208 -0.08400783 -0.046611026 0.20413885 0.013912117 -0.15152499
-0.06578954 -0.04695196 0.016344301 -0.024919733 0.21313609 0.01934279 0.073343486 -0.207897
-0.10180035 -0.08039493 -0.09412665 -0.018118255 -0.06040472 -0.039906926 -0.10183624 0.08414368
-0.2557487 -0.0024324707 0.084671386 0.00687324 -0.16754943 0.07644005 0.26145658 -0.10141397
-0.0994691 0.069848895 0.14632756 0.112583615 0.014760392 -0.083487585 0.04064518 0.12928624
0.09307345 0.04181908 0.044350196 -0.03796084 -0.10348932 0.040957257 -0.19775243 0.041570585
0.024583612 0.025981857 -0.10967055 -0.02051497 0.0019989242 -0.09414718 -0.0036361075 0.016708648
-0.05533719 -0.027181702 -0.010875138 0.029283812 -0.033682607 0.09610796 0.21540797 0.0034432726
-0.062409554 -0.01953084 0.05940945 0.003333053 -0.024508141 -0.020962391 -0.055311017 -0.083617054
-0.060501397 0.10479328 0.21419616 0.15051566 -0.10534711 -0.038314424 0.16529158 0.07355751
-0.030888518 -0.06699548 0.029043943 0.027491057 0.013660755 -0.07461628 0.17667134 0.03872291
0.10150143 -0.13023096 -0.10406961 0.14270727 -0.16346541 0.0032875584 -0.09155586 0.060291436
0.0059863823 0.09516395 -0.04228883 -0.07285128 0.09031523 0.103418656 -0.2201549 0.15908448
-0.10142184 0.023519764 -0.0016532862 0.09572537 0.031558312 0.026259437 -0.21169621 0.0258936
-0.064969674 -0.047200207 0.05977714 -0.05369054 0.11429541 -0.07623787 -0.125943 0.037818193
-0.053145558 0.13161613 -0.05495792 0.097151525 -0.03248504 0.11791593 0.036490656 0.18576889
0.17214788 -0.027518239 -0.12994754 0.056993615 0.0055363723 0.05796293 0.07889962 0.0018647859
-0.029887574 0.03537874 -0.010416031 -0.02922708 0.09397072 -0.03263749 -0.069838166 0.004484971
0.0062639867 0.057630304 0.03542602 -0.07599786 -0.029805612 -0.19136226 -0.05687125 0.045267347
0.06911345 0.13279095 -0.039855786 0.063996226 -0.04930164 0.043509323 0.07900597 -0.0068281544
-0.05689749 -0.059373464 -0.099120066 0.13343637 0.054499585 -0.047107924 -0.077842176 0.05621702

network_body._body_endoder.seq_layers.2.bias f4 [128]
00000000: 9c8f 45bb 873e 873b 35c9 713a 6c20 0fbb
00000010: 8829 fcbb 1b2e 823b 3a29 e1bb a6f8 b93b
00000020: 2539 04bb 59ac 10bc fa57 4c3b 62c8 54bb
00000030: 45b2 01bb ee14 2abb 83f2 0338 01a9 493b
00000040: 053d 983b 38ac 3eba b2c3 e8ba ee76 05bc
00000050: a9cf 09ba 3e49 583b 062e c0b8 0f74 b5bb
00000060: a43b 7cba 140c 0bba 10fa b0bb f1a9 61bb
00000070: 70ff 893b ffb2 0eba a4c0 dd38 12db f539
00000080: 3762 533b 41bd 9b3b c68d 303b 9295 303b
00000090: fa3c 233c d310 1abc ee02 263c 4860 a8b8
000000a0: cf0a 67bb a4ab 363c 658c 8d3a f2a5 93bb
000000b0: 3597 87ba ccaa ac3b 0880 88ba 80d1 b23b
000000c0: 0d7f fd3a fa15 05bb 477e 20bb 6d77 3cba
000000d0: 95a1 3c3b 5e6f 8ab9 e9d0 da3b 2a1a c43a
000000e0: 5593 9fbb 271c 3c3c 041d 023b ad0c 10bc
000000f0: fe12 a9bb 4da2 0439 34b0 1dba 0be2 0dbc
00000100: 8fe2 a1bb 91c6 f4ba a954 713a d1ea 293c
00000110: 3212 653a 68f5 9fba f965 dcbb 58f1 a338
00000120: 3e0e a7bb 05dc 9fbb 53c2 b83a 687b 7a39
00000130: 9db9 0e3c 2c7c f0ba 3f25 eabb a97b c23b
00000140: 247f b6b9 fd7e dd3b 812a f03a 0e4e 87bb
00000150: 6d43 81bb d454 c53b 19f0 a0ba eafb a0bb
00000160: be82 a53a 4d6d faba efdd d9ba a633 893b
00000170: 4ec2 85bb 1c94 543a 3ef1 1d3b f23d beba
00000180: 6d68 ee39 7304 98bb 0e59 5a3b d0f7 a3bb
00000190: 6bc5 a8bb 96b6 e03b 542d 6ebb 1d33 0a3c
000001a0: e735 ba3b b501 92bb dafe 85bb ccea bb3b
000001b0: f318 8b3b f2cd 823b 59c3 943a 2cca 2abb
000001c0: 89f6 983b d67f 0b3c d213 7f3b 5907 ffbb
000001d0: 1853 29b9 205c 12ba dd3a 19bc 9865 1bbb
000001e0: 0af6 81bb 2c11 963a 8547 853a 51dc 1cba
000001f0: 1b2b c3ba 5250 21bc 4f57 76bb 91d0 8c3a
-0.0030145412 0.004127327 0.00092234026 -0.0021839393 -0.0076953806 0.0039727814 -0.0068713697 0.005675393
-0.0020175662 -0.008830153 0.0031180368 -0.003246807 -0.0019790095 -0.0025952416 3.145869e-05 0.00307709
0.004645946 -0.00072735874 -0.0017758517 -0.008146031 -0.0005257079 0.003300264 -9.163846e-05 -0.005537517
-0.0009621924 -0.0005304229 -0.0054009035 -0.0034433568 0.0042113587 -0.00054435426 0.00010573983 0.00046893262
0.0032254586 0.0047527854 0.0026939972 0.002694462 0.009963268 -0.009403425 0.010132534 -8.028798e-05
-0.0035254245 0.011149321 0.0010799287 -0.004505866 -0.0010344746 0.005269384 -0.0010414133 0.0054571033
0.0019340232 -0.0020307289 -0.002448933 -0.00071894267 0.0028782834 -0.00026404386 0.006677736 0.0014961411
-0.0048698583 0.011481321 0.001985372 -0.008792085 -0.0051597347 0.00012648963 -0.0006015331 -0.00865985
-0.004940338 -0.00186749 0.0009206036 0.010370926 0.0008738368 -0.0012203874 -0.0067260233 7.8173995e-05
-0.0050981333 -0.0048785233 0.0014095999 0.0002388783 0.008711246 -0.0018347553 -0.0071455534 0.0059351516
-0.00034808472 0.006759523 0.0018323214 -0.004129178 -0.0039448054 0.006022075 -0.0012278586 -0.004912843
0.0012627465 -0.001910606 -0.0016621927 0.004187065 -0.004082001 0.0008109228 0.002410009 -0.0014514311
0.000454727 -0.0046392023 0.003331724 -0.005003907 -0.005150487 0.0068577034 -0.0036342936 0.008435038
0.005682695 -0.00445577 -0.0040892186 0.005734777 0.0042449175 0.0039918358 0.0011349722 -0.0026060445
0.004668061 0.008514365 0.0038921726 -0.0077828583 -0.00016148051 -0.00055831857 -0.009352413 -0.0023711678
-0.0039660977 0.0011449209 0.0010168409 -0.00059837574 -0.0014890166 -0.00984581 -0.003758866 0.001074331

action_model._continuous_distribution.log_sigma f4 [1, 2]
00000000: e912 d4bb 6e7a 923b
-0.006471981 0.004470161

action_model._continuous_distribution.mu.weight f4 [2, 128]
00000000: 2167 5a3d 07fe 13bc 85aa da3c de03 563d
00000010: c526 71bb aa00 eeba fa4f 56bc b8cd 533c
00000020: 4208 e7bc b5e6 9c3c 723a bcbb 76f6 33bc
00000030: c2ba 8e3c 373d 993c 45cf c0bc 9547 10bd
00000040: 0778 5f3b 1ae6 1ebc cc35 e73b 623a bc3b
00000050: d4a5 2dbc 8aaf a9bc fed8 a63c 60f9 01bb
00000060: 3416 8a3c 112b 75bc a6e6 643a 0a78 c6bc
00000070: 7200 36bd 23d1 dd3c 1497 ddbb b284 973c
00000080: 6dbe dbbc b4c8 9bbc 0581 ccbc 3c1f a13c
00000090: e8a0 55bb fcf6 a43c ed71 00bc 890f 713c
000000a0: d6b8 bebb 2102 dcbb 7d50 a1bc 8223 51bc
000000b0: 7b7a 09ba 91e4 d6bc d702 08bd 4224 84bb
000000c0: 12b7 94bb ecc0 193c 3662 f43c 06b9 babb
000000d0: dff3 9d3c 4d9d 90bc 1db7 79bc 776f f2bb
000000e0: 1762 933a b6e6 75bc 224d 973b 2a70 d83b
000000f0: b6d0 9bbb 33dd cbba c44a 073b 7c02 813b
00000100: 43c0 a7bc 25bd fabb 3ab9 4f3c 6b32 4fbb
00000110: ff66 723c 5737 5bbc 8f04 433b 1841 733c
00000120: bf12 4d3c 367a 49bc dfc8 883c f39d 8c3c
00000130: c4c1 55bd 7308 d73c fd73 6739 4aac d83b
00000140: 7dfe 17bc 9fd3 94bc 4bd9 32bc 7a89 203c
00000150: e51b 503c dfd3 a3bc 1f14 353c c628 34bb
00000160: 4bc7 803c ed59 173c 4deb 18bd 0dee 89bc
00000170: 0861 f1bb 22f8 883c 35f3 223b acd7 723c
00000180: 4879 413c f57d 9c3c 435d 1fbc 04dd 0a39
00000190: e04f a73c 6260 c4bc 4664 073d e0d3 45bc
000001a0: 4e4a b6bc 4949 5a3d 6da9 c03b db4a a4ba
000001b0: 0747 a1bb 8f4a 303b f972 2bbd 77ef 0fbd
000001c0: 4784 af3b 1b71 32bc 079b babb 3308 223c
000001d0: 44ed f13b d457 843c 1307 af3a 9449 643c
000001e0: 4536 283c 3b53 2fba 1507 6c3c 5832 8abc
000001f0: 4392 88bc d7c0 14bb 8ac7 75bc 0362 e33c
00000200: 9ddb 0c3c 10ff b4bb a475 19bc 065d 77bc
00000210: 605f 493c faad 5abc 2fe9 bc3c ec31 aabc
00000220: b2e4 e63c 0ed0 eebb 6773 afbb bc3d d63c
00000230: 5060 d23b 3615 ad3c 78f5 a6ba 665b d53c
00000240: 11d8 b9bc f3de 563c 1749 663d 9690 bc3c
00000250: 32f0 ef3b 49bc 463b a1af 923c b00b 643c
00000260: 68cd 80bb 8e07 893c 676e 333d f258 8c3c
00000270: 6965 02bc 9d23 c7bb 38b6 5e3c d9c3 33bc
00000280: 2641 053c 66c8 dbbb a0e6 02ba a28a c1bc
00000290: 541b c1bc 1272 9c3c 10b3 81bc 433f 413c
000002a0: 1b33 823c 9d9e 21bd e6e0 b13c 2559 933c
000002b0: 4fa4 c73a f9f0 03bd b7a6 ba3c 5724 0e3d
000002c0: 4abe 9d3a a432 fd3b e14a a8ba c9ce 4e3c
000002d0: 6a43 b8bc b351 603b ec7e 2bbc 8487 883b
000002e0: 5e48 a73c 7156 debc 0bb5 9abc a6e4 d63b
000002f0: 68f3 d63c 2a2f 853a 0fae f4bb a1bc 583c
00000300: d7d1 f43c b389 b23b 0360 1abd 8982 ccbc
00000310: 9ede 7dbb d868 573b 3b5d b03c b947 c5bc
00000320: 1cd6 303c 16f0 633c 6901 3dbc 6384 29bb
00000330: 8896 b8bb 39ae d93b b8d5 513c 16b1 a0bc
00000340: 22ca 9f3c f244 d43b ba03 8cba fd7e 3a3c
00000350: 75dc 8c3b a091 cebc dcaa b83c 9605 8f3c
00000360: dd4a 8dbc 48db 133d 8b52 8f3c b236 bcbb
00000370: aba4 103b cd98 15bc 4429 7fbc ea39 193c
00000380: ad91 8bbc 8578 203d f6fd 7f3b b830 d33c
00000390: f0f1 6bbc da5d adbc a958 5d3d 7666 8abc
000003a0: ee48 2fbc e66b 0cbc fe98 b83c 81c9 efbc
000003b0: 9c58 bbbb 430b adbb 06d4 4a3c 92d9 de3c
000003c0: 28ec c7bc 12ea 933c a541 1bbc 6648 253c
000003d0: c5cb 06bc 42db bf3c cacd ea3c 12c9 1ebc
000003e0: 762e b23c 984e d3ba 51d0 68bb a1b6 12bc
000003f0: dce8 b13c ab52 923c fe4c 033d a990 d4bc
0.053321008 -0.009032733 0.026692638 0.05224978 -0.003679679 -0.0018158157 -0.013080591 0.012927465
-0.02820218 0.019152978 -0.005744272 -0.010984054 0.017423037 0.018705947 -0.023536334 -0.035224516
0.0034098641 -0.009698415 0.0070559736 0.0057442645 -0.010598619 -0.020713586 0.020367142 -0.0019832477
0.01685629 -0.014963881 0.0008731879 -0.024227161 -0.04443402 0.027077263 -0.0067623947 0.018495891
-0.0268242 -0.019016601 -0.024963865 0.019668214 -0.0032597128 0.020137303 -0.007839662 0.0147131765
-0.005820374 -0.006714121 -0.0196917 -0.012764813 -0.0005244386 -0.026232036 -0.033205833 -0.0040326426
-0.0045384252 0.009384375 0.029831987 -0.005698326 0.019281326 -0.017653132 -0.0152414115 -0.0073985416
0.0011244443 -0.015008619 0.0046173492 0.006605168 -0.004755105 -0.0015553593 0.002064393 0.0039370637
-0.02047742 -0.0076519423 0.012678439 -0.0031615745 0.014795064 -0.013379893 0.0029757356 0.0148470625
0.012516676 -0.012297204 0.016697345 0.01716516 -0.052186742 0.026249146 0.00022073086 0.0066123353
-0.009276983 -0.018167315 -0.0109160645 0.009798402 0.012701963 -0.019998489 0.0110521605 -0.0027490123
0.01572003 0.009237749 -0.037333775 -0.016837144 -0.0073663034 0.016719881 0.00248642 0.014821928
0.011808701 0.01910303 -0.009726825 0.0001324304 0.02042383 -0.02397174 0.033054613 -0.012074441
-0.022252228 0.053292546 0.005879572 -0.0012534516 -0.004921797 0.002689991 -0.041857693 -0.03514048
0.005356345 -0.010891224 -0.00569475 0.00988965 0.0073830206 0.016155161 0.0013353549 0.013933558
0.010266845 -0.00066881225 0.014405985 -0.016869709 -0.016671306 -0.002269795 -0.015001187 0.027756697
0.008597282 -0.00552357 -0.009366427 -0.015097862 0.012290806 -0.013347143 0.02306041 -0.020775758
0.028185222 -0.0072879856 -0.005354333 0.026152484 0.0064201728 0.021128278 -0.001273795 0.026044559
-0.022686036 0.013114679 0.056222048 0.023018163 0.0073223347 0.003032463 0.017906012 0.013918802
-0.0039307363 0.016727235 0.04380646 0.017132256 -0.007958748 -0.0060772435 0.013593249 -0.010971987
0.008133208 -0.006707239 -0.0004993472 -0.023625676 -0.023572601 0.019097362 -0.015832454 0.011794868
0.01589351 -0.039457906 0.021713685 0.017986843 0.0015231463 -0.03221223 0.022784574 0.034702625
0.001203486 0.007726984 -0.0012839698 0.012622544 -0.022493083 0.0034228384 -0.010467272 0.0041665453
0.02042025 -0.027140828 -0.018885156 0.0065580187 0.026239112 0.0010161151 -0.0074670385 0.013228566
0.029885216 0.005448544 -0.03768922 -0.024964588 -0.0038737427 0.0032868888 0.02152883 -0.024082052
0.010793235 0.013912221 -0.011535981 -0.0025866262 -0.005633179 0.0066430834 0.012807302 -0.019615691
0.019505564 0.0064779455 -0.0010682263 0.011382815 0.0042987415 -0.025215924 0.02254241 0.017458718
-0.017247612 0.036097795 0.017495414 -0.005743825 0.0022070806 -0.009130669 -0.015573803 0.009352187
-0.017037237 0.039177436 0.0039061285 0.025780067 -0.014400944 -0.021162916 0.05403963 -0.01689456
-0.01069854 -0.008570647 0.02253389 -0.02927089 -0.00571735 -0.0052808835 0.012379652 0.027203355
-0.0244046 0.01805595 -0.0094761 0.010088062 -0.008227293 0.02341998 0.028662581 -0.009691494
0.02175067 -0.0016121445 -0.0035524557 -0.008954675 0.021717481 0.017861685 0.032055847 -0.025947886

action_model._continuous_distribution.mu.bias f4 [2]
00000000: 7ff8 5cbb acf8 cfbb
-0.003371745 -0.0063467827

action_model._discrete_distribution.branches.0.weight f4 [5, 128]
00000000: 38e9 98bb 2e73 c23b 4185 bd3c fa28 e03a
00000010: 5459 1abc 461e c8bb 81e4 1d3c c7ac acbb
00000020: d59e 6fbb f4fc 9bbb a2fb 9b39 e3dd a9bc
00000030: 42c3 13bc a3cc bf3b 38ef bbbc 90c8 283c
00000040: 931a 78bc 95b8 a93b a1c4 6bbb 4619 1a3c
00000050: de14 71bb 5b50 c8bb 0d3d 48bb fcb0 113c
00000060: 038c aa3c d691 bfbb aeaf 093c 8413 093c
00000070: 4d10 0abc dd4f cb3b 8ad3 a43a 0bf8 81bc
00000080: def0 5cbc e70c 813a 4700 633b 5a08 acba
00000090: c419 373b ee96 03ba 18d7 29ba 88f0 0b3c
000000a0: bf8f 843b d7ce d4bb 2fd2 03bd c5e8 5dba
000000b0: 11e5 18bd 6baf 9f3c fd39 66bc 3fa6 b13b
000000c0: 0e94 f4bb 60f9 603c 6aca e0ba 0a6c c3bb
000000d0: 969b 21bc 6717 9fba 9d07 2b3c 214d 69bc
000000e0: 6801 15bb 5603 a039 1222 983b 2b86 de3a
000000f0: 531c 05bc 631f afbb fc9b 8fbb 53db 0abc
00000100: e58e edbb d8d9 033b 72f9 a7bb 3203 cc3c
00000110: b394 eaba 6d89 b93a 589b 2d3a bdc5 5cbc
00000120: 8d4e 03ba 2fab e7ba 8563 f2bb d0bd 6e3c
00000130: 96af acbc 5aed 23bc 9295 2f3c 9285 803c
00000140: f89e 9cbc 087a 1c3c 82c2 92bc 8bed 08bc
00000150: 1da4 1a3c 1a89 673c c4d5 53bb 6e50 143c
00000160: 68bc 6b3c c814 08bc 2fc9 103b 144d 6abb
00000170: 2265 57bc 8558 413b 42a7 32bc 941f 213c
00000180: be4d f33b a369 0abb 59c3 03bc f45d 3a3c
00000190: 2d76 083c 87b4 20bc 488a e43a bfac 87bb
000001a0: 6a9a 9b3b 95cb 0dbc c5bc 253b c75a bcba
000001b0: b5ca da3b e6b1 bfbc 0576 22bc 83a8 4a3c
000001c0: 48d9 023d f678 c2ba d723 b5b9 8c58 acba
000001d0: cd20 c4bb 0552 46bc 1c1c 543b cda3 f8bb
000001e0: 3220 eebb 206e 0bbc dd69 99ba 6c0f b7bc
000001f0: f036 eab8 2b43 8dbb 3317 4e3c 6ba4 debb
00000200: 2b56 cc3c a0e0 61bc ac81 b13b 991b 7f3b
00000210: 8918 9ebc 1d3a 92bb c8aa 193c 4e6d 0fbb
00000220: 6c7c 433b 7181 d0bb 502f 21bb 403d 07bc
00000230: fdcc d6bb 3ec1 c9ba 1a4e 693c 3f93 d63a
00000240: aea1 d13a 9e86 9d3c adb4 c23b 2e65 0bba
00000250: c118 64bb 12c9 003b 74b4 b4bc 0d3d 823c
00000260: 8252 a1bc 070c 12bc cf2b 5dbc 676d feba
00000270: e041 d8bb c4f0 c2bb f333 d53b eeb8 043c
00000280: 39d3 a33b 9ba9 583c 53c9 75bc 7222 b63b
00000290: f878 473c 79d5 1dbb c325 363c 26ec 5dbb
000002a0: 0f47 813b 748c 583c 7483 48ba 846b 0ebc
000002b0: 208d 9c3c 5c0d 63bc 92b1 f5bb 251e edbb
000002c0: 9bbc 643b df62 68ba d096 b1bb c62b 773b
000002d0: 8387 4fbb ea60 2f3c 020d 683c cb04 37bb
000002e0: 3582 40bb 0379 85bb 7be6 a1bb 1a0b 3abc
000002f0: 19b6 093a ff57 8b3b 0a14 e63b 99d4 a5bc
00000300: 13d5 903b 6660 b63b c51c 683b 879b 0dbc
00000310: 9909 b73b 2f7e e33b 6091 e0bb 86f5 a23c
00000320: 6b90 56bc eee8 373c bb2f c13c 58d0 33bc
00000330: 024b 29bc 847e 1fbc 905b 163c c3d4 2fbb
00000340: e79a b13b 459b af3a 938d 0c3c e45d 2739
00000350: 9d0d 01bc 7b38 1d3b 0c4f 293c 0db7 c939
00000360: fa72 6f3c 6638 183c 4d1d b03c fee6 18bb
00000370: 3bac 8b3b 2d96 c93b d4ec b93b 8cf0 49bc
00000380: d78e 1b3c 9158 ecbb dd3d 0ebc 04da 0ebb
00000390: 3922 833c 83cd 24bc 54b8 c43b 7fd7 9a3c
000003a0: ff0e dbba 3b07 853c 3f86 7cbb 83b4 243c
000003b0: b12c 81ba 1644 bebb 7421 863c a748 193a
000003c0: d7b0 c3bb 30fe 8e3c 86a1 d13b 58ab fdbb
000003d0: 986a d43b 0699 7bbc f372 cfbb e948 d03b
000003e0: e8e2 36bb 7fdc 0cbc 4cf3 cfbb fb7f 893b
000003f0: d4c9 90bb 729f 043c ff9d e73b 8775 0e3c
-0.0046664737 0.0059341406 0.02313483 0.0017102056 -0.009420712 -0.0061071245 0.009636999 -0.00526962
-0.0036563177 -0.004760379 0.00029751385 -0.020735687 -0.009018721 0.005853252 -0.022941217 0.010301724
-0.015143055 0.0051794746 -0.0035975354 0.00940544 -0.003678612 -0.0061130947 -0.0030553967 0.008892294
0.020818716 -0.0058462424 0.008403702 0.008366469 -0.008426738 0.006204589 0.0012575251 -0.015865346
-0.013485162 0.0009845764 0.0034637616 -0.0013125048 0.0027938941 -0.00050197437 -0.000647889 0.008541234
0.004045456 -0.006494384 -0.03218287 -0.00084651663 -0.03732783 0.019492825 -0.014051911 0.0054214294
-0.0074639386 0.013731331 -0.0017150168 -0.005963807 -0.009863755 -0.0012137712 0.010438827 -0.01423958
-0.0022736434 0.00030520064 0.0046427334 0.0016977241 -0.008124429 -0.0053443178 -0.0043826085 -0.0084751425
-0.0072497004 0.0020118859 -0.0051261717 0.024903867 -0.0017897099 0.0014155336 0.00066225743 -0.013474879
-0.00050089584 -0.0017674918 -0.0073971176 0.014571622 -0.02107982 -0.0100053195 0.010716813 0.015688691
-0.019118771 0.009550579 -0.017915014 -0.008357416 0.009438542 0.014131809 -0.003232346 0.009052379
0.014388181 -0.008305736 0.002209257 -0.0035751509 -0.013146671 0.0029502225 -0.010904135 0.009834189
0.007425039 -0.0021120093 -0.00804218 0.011374939 0.008328957 -0.009808666 0.001743623 -0.004140466
0.004748632 -0.008654495 0.0025289517 -0.0014370315 0.0066769966 -0.023400258 -0.009915833 0.012369278
0.031945497 -0.0014837075 -0.00034549713 -0.0013148948 -0.0059853555 -0.012104516 0.0032365387 -0.007587886
-0.0072670216 -0.008510143 -0.0011704523 -0.02234622 -0.000111682224 -0.0043109856 0.012578773 -0.0067945025
0.024943432 -0.013786465 0.0054170694 0.0038926362 -0.019298809 -0.004462494 0.009379096 -0.002188522
0.00298288 -0.006363087 -0.002459485 -0.008254349 -0.006555198 -0.0015392674 0.014239812 0.0016370787
0.0015993619 0.01922923 0.0059419484 -0.0005317506 -0.0034804794 0.0019651097 -0.022058703 0.015898252
-0.019692663 -0.008914 -0.013499214 -0.0019411267 -0.00659965 -0.0059491117 0.006506437 0.008100731
0.004999545 0.013224031 -0.015001613 0.0055583054 0.012174837 -0.0024083538 0.0111174015 -0.003386268
0.0039452384 0.01321708 -0.00076489826 -0.008692626 0.019110262 -0.013858166 -0.0074979747 -0.0072362595
0.0034902457 -0.00088648306 -0.0054195896 0.00377153 -0.0031666465 0.010704258 0.014163258 -0.002792644
-0.0029374484 -0.0040732636 -0.0049408055 -0.011355186 0.000525327 0.0042524333 0.007021432 -0.020242976
0.0044199317 0.005565691 0.0035417539 -0.008643038 0.005585861 0.0069425325 -0.0068532676 0.019892465
-0.013095955 0.011224968 0.02358233 -0.010974966 -0.010332825 -0.0097347535 0.009177104 -0.0026829697
0.005420077 0.0013397714 0.008578676 0.00015961338 -0.007876781 0.0023989964 0.010333788 0.0003847409
0.014614815 0.00929079 0.021498347 -0.0023331041 0.004262475 0.0061519356 0.005673984 -0.012325417
0.009494505 -0.0072127064 -0.008681742 -0.0021797428 0.01600753 -0.010058763 0.006003419 0.018901585
-0.0016712843 0.0162388 -0.0038532165 0.010052803 -0.0009855238 -0.0058064563 0.016373374 0.0005847313
-0.0059720087 0.01745519 0.006397429 -0.007741373 0.0064824335 -0.015356308 -0.0063308417 0.006356348
-0.0027906243 -0.008597492 -0.006346142 0.0041961647 -0.004418591 0.008094655 0.007068395 0.008695013

action_model._discrete_distribution.branches.0.bias f4 [5]
00000000: f2d9 19bb 2ac7 0abb 0a2b ac3b 7e8d af39
00000010: 12e4 c2ba
-0.0023475853 -0.002117584 0.005254154 0.0003348402 -0.0014868996
