Project/Assets/ML-Agents/Examples/MyTest/Scripts/TFModels/MyTest1Models/Test10/MoveToGoal.onnx (onnx, 79833 bytes, 8 tensors)

network_body._body_endoder.seq_layers.0.weight f4 [128, 6]
0	0xbf04c6f4	-0.5186608
1	0x3e8d1230	0.27552938
2	0xbe0770de	-0.13226649
3	0x3dc10432	0.09424628
4	0x3cb0c635	0.021578887
5	0x3d88429a	0.06653328
6	0xbc4460b0	-0.011985943
7	0x3dc3372e	0.09532009
8	0x3e84f181	0.25965503
9	0x3f518637	0.8184542
10	0xbe3ce01c	-0.18444866
11	0x3caa3e7f	0.020781754
12	0xbe090999	-0.13382567
13	0xbea83db8	-0.32859588
14	0x3e1ca008	0.15295422
15	0xbebde770	-0.37090635
16	0xbc9c0eb1	-0.019049974
17	0xbe0d879a	-0.13821259
18	0xbf038e9f	-0.513895
19	0x3e8d790e	0.2763142
20	0xbe812921	-0.2522669
21	0x3dd4900e	0.10379039
22	0x3e9a9442	0.30191237
23	0xbf163eeb	-0.58689755
24	0x3f2c8f4c	0.67406154
25	0xbe66e7fa	-0.2254943
26	0xbe819dcb	-0.253157
27	0xbe7c21f5	-0.24622329
28	0xbefdc460	-0.49563885
29	0xbed1dc38	-0.40988326
30	0xbee0f22e	-0.43934768
31	0xbf4e5175	-0.80593044
32	0xbedd4323	-0.43215284
33	0xbe4c3bc4	-0.19944674
34	0x3ea4eb1a	0.32210618
35	0xbbc2818a	-0.0059358524
36	0x3d3b414e	0.045716576
37	0xbe2f4b0b	-0.1711847
38	0x3e1aca5e	0.1511626
39	0x3ea16ac6	0.31526774
40	0x3d03b81d	0.032158006
41	0x3d0e5bb3	0.03475542
42	0x3e510df1	0.20415474
43	0x3f0cbf98	0.5497985
44	0x3dc1ae11	0.09457029
45	0x3e4c029b	0.19922869
46	0x3d4f6345	0.05063178
47	0x3eb178bf	0.34662434
48	0xbdbb331e	-0.09140609
49	0x3d370eef	0.044691976
50	0xbd306e15	-0.043073732
51	0x3e4adeaa	0.19811502
52	0x3f984e87	1.1898965
53	0xbdd1397d	-0.10216043
54	0xbd92225d	-0.071354605
55	0xbe77159a	-0.24129334
56	0xbe8404ac	-0.25784814
57	0xbeab2eee	-0.33434242
58	0x3e581cc7	0.21104728
59	0xbe297866	-0.16549835
60	0xbe482902	-0.19546893
61	0xbe8b507e	-0.27209848
62	0x3bcadc65	0.006190824
63	0x3b3ba883	0.0028634376
64	0x3f406c37	0.7516512
65	0xbe536c8d	-0.20646878
66	0x3f1e1cca	0.6176268
67	0xbdb7da0b	-0.08977135
68	0x3ea50d6a	0.32236797
69	0x3e2c6346	0.16834745
70	0xbe93deea	-0.28881007
71	0x3db20587	0.086924605
72	0x3dce3998	0.10069579
73	0x3f3c743b	0.73614854
74	0x3eb6c768	0.3569901
75	0xbf21d7a6	-0.6321968
76	0x3e94058f	0.2891049
77	0x3c03a961	0.008035989
78	0x3f0efc65	0.55853873
79	0xbda90f0c	-0.08254823
80	0x3efaf331	0.49013665
81	0x3ea29174	0.31751597
82	0x3ec8082c	0.39068735
83	0xbdbf385a	-0.0933692
84	0xbf3769f2	-0.71646035
85	0x3f02648f	0.5093469
86	0xbe239fcf	-0.15978931
87	0xbd33eab4	-0.043925002
88	0x3e9c6475	0.30545393
89	0xbf34cfab	-0.70629376
90	0xbe8b521f	-0.2721109
91	0xbeee00f6	-0.46485108
92	0x3dbf6f9a	0.09347458
93	0xbddbbf54	-0.10729852
94	0x3efb96e4	0.49138558
95	0xbcdba909	-0.026814
96	0xbd35cccc	-0.044384763
97	0xbe263af6	-0.1623343
98	0x3d4ed1d5	0.05049308
99	0xbf560501	-0.83601385
100	0x3ea39428	0.31948972
101	0x3df985e6	0.12183742
102	0x3e54a107	0.20764552
103	0xbe126d7f	-0.14299582
104	0x3d8d6f5b	0.06906005
105	0x3d3d9979	0.04628894
106	0x3e0e25ff	0.13881682
107	0x3e0a727f	0.1352024
108	0xbe5b6426	-0.21424922
109	0xbcca07d4	-0.024661936
110	0x3f128f8e	0.572503
111	0x3dfb244a	0.12262781
112	0xbe5f82c5	-0.21827228
113	0x3f058708	0.52159166
114	0xbf524b6e	-0.82146347
115	0x3e8d27e3	0.27569494
116	0xbec00ffe	-0.375122
117	0xbf7f51c7	-0.9973416
118	0x3e5b12c9	0.21393885
119	0x3f17477f	0.5909347
120	0x3ec41865	0.38299862
121	0x3d4e127c	0.050310597
122	0x3c9cf11b	0.019157937
123	0x3ed5e174	0.4177357
124	0x3e21cb20	0.15800142
125	0x3e0564b2	0.13026693
126	0x3e158e5d	0.14605089
127	0xbf1a4d56	-0.60274255
128	0xbefd35fa	-0.49455243
129	0xbe04036a	-0.12891927
130	0xbeb7d635	-0.35905614
131	0x3cfee5b5	0.031115392
132	0x3e1ff132	0.15619352
133	0xbea8e4ee	-0.3298716
134	0x3f328bc6	0.6974453
135	0x3d376459	0.044773433
136	0x3f27fad3	0.656171
137	0xbf1c7b7b	-0.61125916
138	0xbe03bff7	-0.12866198
139	0x3f2513a0	0.6448307
140	0x3f3e29b6	0.74282396
141	0x3f20cedf	0.6281566
142	0x3e011fe7	0.12609826
143	0x3e1c6dab	0.1527621
144	0x3edb51ca	0.42835838
145	0xbf4393e0	-0.76397514
146	0x3f84bcca	1.0370114
147	0x3e260ef2	0.16216639
148	0x3f007ef9	0.50193745
149	0xbf155f8e	-0.5834893
150	0x3d0600cf	0.032715615
151	0x3bf058b1	0.0073347916
152	0xbcab80a5	-0.020935366
153	0xbda4bf53	-0.08044305
154	0xbef65582	-0.48112112
155	0xbeaf843d	-0.34280577
156	0x3f1c2a93	0.61002463
157	0x3f157289	0.5837789
158	0x3f07ce00	0.53048706
159	0x3e1cc6bf	0.1531019
160	0xbf28ca5e	-0.6593379
161	0xbe2ded73	-0.16985111
162	0x3f0625a1	0.5240117
163	0x3efa3e60	0.48875713
164	0x3ee857e4	0.45379555
165	0xbf1e5c9b	-0.61860055
166	0x3e70c1c3	0.23511414
167	0xbe578158	-0.21045434
168	0x3f572661	0.84042937
169	0x3e66c39f	0.22535561
170	0xbe845540	-0.2584629
171	0x3debc03f	0.115112774
172	0xbf09d5f2	-0.5384208
173	0x3e21439c	0.15748447
174	0xbe6ee913	-0.23331098
175	0x3dea91e6	0.11453609
176	0x3ecf9396	0.40542287
177	0x3cb9cbd2	0.022680197
178	0xbec14f0d	-0.37755623
179	0x3d68846f	0.056766924
180	0xbdfc769b	-0.1232731
181	0xbe94a79e	-0.29034132
182	0xbd64831e	-0.055789106
183	0x3e0dea61	0.1385894
184	0x3e8b6bd8	0.27230716
185	0xbe305b7f	-0.17222403
186	0x3ed4d237	0.4156663
187	0xbed489a3	-0.41511258
188	0xbea95271	-0.3307071
189	0x3d45e04b	0.048309606
190	0xbf262f39	-0.64915806
191	0x3ea08770	0.3135333
192	0x3dc51f13	0.096250676
193	0xbf2a1404	-0.6643679
194	0xbf44e105	-0.7690585
195	0x3ec692cc	0.38783872
196	0x3e9d2bd6	0.30697507
197	0xbecf4659	-0.40483359
198	0x3e5103df	0.20411633
199	0xbe879acb	-0.26485285
200	0x3cdcbf96	0.026946824
201	0x3e30d156	0.17267355
202	0x3f581d40	0.8441963
203	0xbf1f3086	-0.62183416
204	0xbb616217	-0.0034390741
205	0xbe824831	-0.25445703
206	0xbd25ace2	-0.040448077
207	0x3f10f53a	0.56624186
208	0xbea5a098	-0.32349086
209	0x3f047bb0	0.5175123
210	0x3f168350	0.58794117
211	0x3f137948	0.57606936
212	0xbe4c6ec8	-0.19964135
213	0xbcc941b0	-0.024567455
214	0xbd48b831	-0.049003784
215	0xbec941d1	-0.39308026
216	0x3ea384d9	0.31937292
217	0xbd034ab5	-0.032053668
218	0xbe8ec3f9	-0.2788389
219	0xbd8677b3	-0.065657996
220	0xbde96dea	-0.113979176
221	0x3e2f1b96	0.17100367
222	0x3e800dbc	0.25010478
223	0x3f6a1dcc	0.91451716
224	0x3e507572	0.20357302
225	0x3e0ff04c	0.1405651
226	0x3e4081ab	0.18799464
227	0xbe3ca1b8	-0.18421066
228	0x3e7014b1	0.23445393
229	0x3ebba652	0.3665033
230	0xbf2ecaad	-0.6827801
231	0xbec0feb5	-0.37694326
232	0x3ea187a9	0.31548813
233	0xbe99fd52	-0.3007608
234	0xbf1f837c	-0.62310004
235	0x3e5191c6	0.20465764
236	0xbe85cc92	-0.26132637
237	0xbdd1bdf1	-0.102413066
238	0x3e422c6b	0.18962257
239	0x3eec6834	0.4617325
240	0xbf107b37	-0.5643801
241	0x3f362449	0.71149117
242	0xbf6e89bb	-0.9317891
243	0x3de7dc7a	0.113213494
244	0x3de87c6f	0.11351859
245	0x3dc95387	0.09830385
246	0x3ebdbc98	0.37057948
247	0x3e884b40	0.2661991
248	0x3ecfac64	0.4056121
249	0xbf0c8733	-0.548938
250	0x3f2874e3	0.65803355
251	0xbe6e8a20	-0.23294878
252	0x3ec916fc	0.39275348
253	0x3ed5ff67	0.4179642
254	0x3eefbb08	0.4682238
255	0x3dec5305	0.11539272

network_body._body_endoder.seq_layers.0.bias f4 [128]
0	0x00000000	0.0
1	0x00000000	0.0
2	0x00000000	0.0
3	0x00000000	0.0
4	0x00000000	0.0
5	0x00000000	0.0
6	0x00000000	0.0
7	0x00000000	0.0
8	0x00000000	0.0
9	0x00000000	0.0
10	0x00000000	0.0
11	0x00000000	0.0
12	0x00000000	0.0
13	0x00000000	0.0
14	0x00000000	0.0
15	0x00000000	0.0
16	0x00000000	0.0
17	0x00000000	0.0
18	0x00000000	0.0
19	0x00000000	0.0
20	0x00000000	0.0
21	0x00000000	0.0
22	0x00000000	0.0
23	0x00000000	0.0
24	0x00000000	0.0
25	0x00000000	0.0
26	0x00000000	0.0
27	0x00000000	0.0
28	0x00000000	0.0
29	0x00000000	0.0
30	0x00000000	0.0
31	0x00000000	0.0
32	0x00000000	0.0
33	0x00000000	0.0
34	0x00000000	0.0
35	0x00000000	0.0
36	0x00000000	0.0
37	0x00000000	0.0
38	0x00000000	0.0
39	0x00000000	0.0
40	0x00000000	0.0
41	0x00000000	0.0
42	0x00000000	0.0
43	0x00000000	0.0
44	0x00000000	0.0
45	0x00000000	0.0
46	0x00000000	0.0
47	0x00000000	0.0
48	0x00000000	0.0
49	0x00000000	0.0
50	0x00000000	0.0
51	0x00000000	0.0
52	0x00000000	0.0
53	0x00000000	0.0
54	0x00000000	0.0
55	0x00000000	0.0
56	0x00000000	0.0
57	0x00000000	0.0
58	0x00000000	0.0
59	0x00000000	0.0
60	0x00000000	0.0
61	0x00000000	0.0
62	0x00000000	0.0
63	0x00000000	0.0
64	0x00000000	0.0
65	0x00000000	0.0
66	0x00000000	0.0
67	0x00000000	0.0
68	0x00000000	0.0
69	0x00000000	0.0
70	0x00000000	0.0
71	0x00000000	0.0
72	0x00000000	0.0
73	0x00000000	0.0
74	0x00000000	0.0
75	0x00000000	0.0
76	0x00000000	0.0
77	0x00000000	0.0
78	0x00000000	0.0
79	0x00000000	0.0
80	0x00000000	0.0
81	0x00000000	0.0
82	0x00000000	0.0
83	0x00000000	0.0
84	0x00000000	0.0
85	0x00000000	0.0
86	0x00000000	0.0
87	0x00000000	0.0
88	0x00000000	0.0
89	0x00000000	0.0
90	0x00000000	0.0
91	0x00000000	0.0
92	0x00000000	0.0
93	0x00000000	0.0
94	0x00000000	0.0
95	0x00000000	0.0
96	0x00000000	0.0
97	0x00000000	0.0
98	0x00000000	0.0
99	0x00000000	0.0
100	0x00000000	0.0
101	0x00000000	0.0
102	0x00000000	0.0
103	0x00000000	0.0
104	0x00000000	0.0
105	0x00000000	0.0
106	0x00000000	0.0
107	0x00000000	0.0
108	0x00000000	0.0
109	0x00000000	0.0
110	0x00000000	0.0
111	0x00000000	0.0
112	0x00000000	0.0
113	0x00000000	0.0
114	0x00000000	0.0
115	0x00000000	0.0
116	0x00000000	0.0
117	0x00000000	0.0
118	0x00000000	0.0
119	0x00000000	0.0
120	0x00000000	0.0
121	0x00000000	0.0
122	0x00000000	0.0
123	0x00000000	0.0
124	0x00000000	0.0
125	0x00000000	0.0
126	0x00000000	0.0
127	0x00000000	0.0

network_body._body_endoder.seq_layers.2.weight f4 [128, 128]
0	0xbc92aaea	-0.017903764
1	0xbe50db4a	-0.20396152
2	0x3dadbf92	0.08483805
3	0xbb1f0424	-0.0024263943
4	0xbd9bb6b0	-0.07603204
5	0x3aa0200e	0.0012216584
6	0x3d194a56	0.037424408
7	0x3b0370db	0.002005628
8	0x3d6b8b3a	0.057505824
9	0xbe212292	-0.15735844
10	0x3e0f4196	0.13989863
11	0x3d58a9cb	0.052896302
12	0x3ca72415	0.020402947
13	0x3df0948f	0.11747085
14	0x3d9ecb80	0.07753658
15	0xbd7ba61a	-0.061437704
16	0x3de34514	0.1109716
17	0xbcbf3be4	-0.023343988
18	0x3dbfd1da	0.09366198
19	0x3d6c153c	0.05763744
20	0xbd996483	-0.07489874
21	0xbcefc3a7	-0.029268099
22	0xbddccb78	-0.10780996
23	0xbc848a9b	-0.016179373
24	0x3e0662e8	0.13123667
25	0x3c5f3eb9	0.013625794
26	0x3d2ea67f	0.04263925
27	0x3d6c37e2	0.05767048
28	0x3c343ed7	0.01100131
29	0xbd86884f	-0.065689676
30	0xbd55f0cb	-0.05223159
31	0x3bcaba99	0.006186795
32	0x3dc4ed17	0.09615534
33	0xbdbbf1bb	-0.09176966
34	0xbdbbea56	-0.091755554
35	0x3dc428c9	0.09578092
36	0xbda6eb16	-0.08150308
37	0x3e20669e	0.15664145
38	0xbc25646a	-0.010094741
39	0xbcb4ce7b	-0.022071114
40	0x3ced5e48	0.02897562
41	0xbdab66b1	-0.08369196
42	0xbda0c46a	-0.07849963
43	0x3d9b1091	0.07571519
44	0xbde5698a	-0.112017706
45	0x3cc3e592	0.023913179
46	0xbcd58e04	-0.026068695
47	0x3e71be82	0.23607829
48	0xbde31bcb	-0.110892855
49	0xbd1ca7d5	-0.038245995
50	0xbd2b2b11	-0.04178912
51	0xbc95c864	-0.01828403
52	0x3cbcfef8	0.023070797
53	0xbdda4fa3	-0.10659721
54	0x3df0d096	0.117585346
55	0x3d168e71	0.036756936
56	0x3bd8fad2	0.006621697
57	0xbe09fb44	-0.13474756
58	0xbd973280	-0.07382679
59	0xbe67a463	-0.22621302
60	0x3d55c7db	0.05219255
61	0x3d24eae2	0.040263064
62	0x3e0f83dc	0.14015144
63	0xbe5061b6	-0.20349774
64	0x3dd7b081	0.10531712
65	0xbe0b2510	-0.13588357
66	0x3debd046	0.115143344
67	0x3d5bda08	0.053674728
68	0xbd818e4e	-0.063259706
69	0xbd0107cd	-0.03150158
70	0x3debb786	0.11509614
71	0xbd4de8d5	-0.050270874
72	0xbcfad2c8	-0.030618086
73	0x3d798772	0.060920186
74	0xbd73733a	-0.05943606
75	0xbe15de32	-0.14635542
76	0x3d812433	0.063057326
77	0xbdc78b09	-0.09743316
78	0x3d009712	0.031394072
79	0x3dfc5c59	0.123223014
80	0x3b4e3ece	0.003147054
81	0x3d4b086e	0.049568586
82	0xbdd911e6	-0.10599117
83	0x3da91353	0.08255639
84	0xbd21da7f	-0.039515015
85	0x3d61080b	0.05493931
86	0x3d5dcdb3	0.05415125
87	0x3e3eb4b2	0.18623617
88	0xbd3c1bd9	-0.045924995
89	0x3d847a06	0.064685866
90	0x3dc03900	0.09385872
91	0xbd033983	-0.03203727
92	0x3d6d036a	0.057864584
93	0x3d69c3f0	0.057071626
94	0xbc90810e	-0.017639663
95	0xbc35d1b8	-0.011097364
96	0x3cce0600	0.025149345
97	0x3e12de19	0.14342536
98	0x3d463ab4	0.048395827
99	0xbd9897e5	-0.074508466
100	0x3e187c06	0.14891061
101	0xbe3d6ef5	-0.18499358
102	0xba1dcaef	-0.0006019314
103	0xbe0ac5fe	-0.1355209
104	0x3ba6e3ed	0.005093089
105	0xbc889ca4	-0.016676255
106	0x3c444848	0.011980124
107	0xbdb56a74	-0.08858195
108	0x3d129bd0	0.035793126
109	0x3e0923c3	0.13392548
110	0xbd2193d3	-0.039447617
111	0x3bfc9761	0.0077084755
112	0xbdd39ce4	-0.10332659
113	0xbe3314e5	-0.1748844
114	0xbdae75b2	-0.08518542
115	0x3d96b685	0.073590316
116	0x3e2bd952	0.1678212
117	0x3d81dd89	0.063410826
118	0x3e3f740a	0.18696609
119	0xbdbaf7d2	-0.09129299
120	0xbd5626f9	-0.05228326
121	0x3d9ec9b0	0.077533126
122	0x3d8ec9d8	0.069720924
123	0xbc66fcaf	-0.01409833
124	0xbdbe02b0	-0.09277856
125	0xbc86a8a0	-0.016437829
126	0xbe1112a4	-0.14167267
127	0xbd46e2ae	-0.048556022
128	0x3d30dc9b	0.043179136
129	0x3d883c52	0.0665213
130	0x3da1945f	0.07889628
131	0x3e12304f	0.14276241
132	0xbdd57ea6	-0.10424547
133	0xbc713445	-0.014721935
134	0xba030768	-0.0004998357
135	0xbb48f9c2	-0.0030666445
136	0xbcbd1090	-0.023079187
137	0x3d257810	0.040397704
138	0x3da4cbb8	0.08046669
139	0xbdf76ab7	-0.12080901
140	0xbda432e0	-0.08017516
141	0x3a34cdd0	0.00068971235
142	0xbcce26b0	-0.025164932
143	0x3dc8e533	0.09809341
144	0xbbed458b	-0.007240956
145	0xbd6cb3ec	-0.057788774
146	0x3d2edfcb	0.042693894
147	0x3ca2c007	0.019866956
148	0xbdc7a95a	-0.09749098
149	0x3df2195a	0.11821242
150	0xbd717ddc	-0.05895792
151	0xbdd1b438	-0.10239452
152	0x3d0f0c76	0.034923993
153	0xbdaba98c	-0.08381948
154	0x3d0d22bd	0.034456957
155	0x3d8e24ea	0.069406345
156	0xbcc9bfd4	-0.024627604
157	0xbe509d0d	-0.2037241
158	0x3afa62a9	0.0019102889
159	0xbe060671	-0.13088395
160	0xbcfa37eb	-0.030544242
161	0xbd3976fd	-0.04527949
162	0xbd0d3b17	-0.03448018
163	0x3cddead3	0.027089512
164	0xbd8559da	-0.065112785
165	0xbda5cd01	-0.08095742
166	0x3da38a55	0.07985369
167	0xbac29589	-0.001484559
168	0x3da41ecc	0.080136865
169	0x3c7a5d01	0.015280963
170	0xbde2b9b3	-0.110705756
171	0xbd8ac291	-0.06775392
172	0xbd1cce00	-0.038282394
173	0x3e047f3e	0.12939164
174	0x3dbd9afb	0.09258076
175	0xbcbb0933	-0.022831535
176	0xbb978e63	-0.004625128
177	0xbd657e68	-0.056028754
178	0x3d41e1e5	0.04733457
179	0xbcee3bdb	-0.029081276
180	0xb9d1e531	-0.00040034347
181	0xbbb50f6a	-0.005525519
182	0xbe0799b7	-0.13242231
183	0xbd982d1c	-0.07430479
184	0x3e4b0de0	0.19829512
185	0x3da78c1b	0.0818102
186	0xbda2dfe2	-0.079528585
187	0xbdbdc31d	-0.092657305
188	0xbcc110cd	-0.023567582
189	0xbe3ca6cd	-0.18423004
190	0xbd3f8d16	-0.04676541
191	0xbd2e3fe6	-0.042541407
192	0xbbbd5bed	-0.0057787807
193	0x3c66aaaf	0.01407878
194	0xbac75205	-0.0015206939
195	0x3d987191	0.07443536
196	0xbdeb4a04	-0.11488727
197	0xbdb60aa9	-0.08888752
198	0x3dc12c8e	0.09432326
199	0xbb112da4	-0.0022152448
200	0x3cd55d27	0.026045395
201	0x3e0f46ba	0.13991824
202	0xbd9eb61b	-0.077495776
203	0x3e111dd6	0.14171538
204	0xbdb5e9e0	-0.08882499
205	0xbc6406f9	-0.013917678
206	0xbd61c8d6	-0.055123173
207	0xbd6ce5a4	-0.05783619
208	0xbb91527d	-0.004434882
209	0xbb10ffa0	-0.002212502
210	0xbc6bd1c5	-0.014393275
211	0xbb54772b	-0.0032419662
212	0x3cf726cf	0.030169873
213	0xbd0bf2ad	-0.03416698
214	0x3d00b1f9	0.031419728
215	0xbd2d5d28	-0.04232517
216	0x3d81f489	0.063454695
217	0x3e74cdcc	0.2390663
218	0xbcf0752d	-0.029352749
219	0x3d908000	0.07055664
220	0x3d02b01c	0.031906232
221	0xbd124c64	-0.035717383
222	0x3cfc0be5	0.03076739
223	0x3dc68e4b	0.09695109
224	0x3e2dd9ce	0.16977617
225	0xbdd3e637	-0.10346644
226	0x3dc77dd3	0.09740796
227	0xbc1c5b5a	-0.009543264
228	0x3c05d2b9	0.008167916
229	0xbceedfd5	-0.029159466
230	0x3d1487df	0.03626239
231	0xbce6950c	-0.028147243
232	0xbdb12cc7	-0.08651119
233	0x3b1323f5	0.0022451852
234	0x3cacb877	0.021084053
235	0xbc7f1532	-0.015569018
236	0x3dfa078c	0.12208471
237	0xbde1ea6b	-0.1103104
238	0x3dd8b244	0.105808765
239	0x3dcab0ea	0.09897025
240	0x3e1a9452	0.15095642
241	0x3c854f3a	0.01627313
242	0xbcbdfb4e	-0.02319112
243	0x3d102b24	0.035197392
244	0x3d3f459e	0.04669725
245	0xbe50321f	-0.2033162
246	0x3db607f7	0.08888238
247	0x3dfc90b2	0.12332286
248	0xbc3e9e57	-0.011634431
249	0x3d8ad3a2	0.06778647
250	0xbcf46f1f	-0.029838143
251	0x3d5c4c66	0.053783797
252	0x3e02798d	0.1274168
253	0xbd87e1e3	-0.06634881
254	0x3dd46af0	0.10371959
255	0x3dcb5768	0.09928781

action_model._continuous_distribution.log_sigma f4 [1, 2]
0	0x00000000	0.0
1	0x00000000	0.0

action_model._continuous_distribution.mu.weight f4 [2, 128]
0	0x3c892b2b	0.016744217
1	0xbc299745	-0.010351007
2	0xbc474bf1	-0.012164102
3	0xbbf3fe33	-0.0074460744
4	0x3cd779e7	0.026303245
5	0xbbfb9713	-0.0076779216
6	0xbbb4aaab	-0.0055135093
7	0xbc39b3a2	-0.011334332
8	0xbc4bfa18	-0.012449764
9	0x3c16f003	0.009212497
10	0xbd161923	-0.036645066
11	0xbc802453	-0.01564232
12	0xbcd62415	-0.026140252
13	0xbac81cd6	-0.0015267383
14	0xbc94bb63	-0.01815576
15	0xbcf831ca	-0.030297179
16	0xbc0e41d3	-0.008682686
17	0xbc82cae3	-0.015965885
18	0xbaeaa87d	-0.0017902997
19	0x3c148419	0.009064698
20	0x3caf2260	0.021378696
21	0x3c241059	0.010013663
22	0xbc9b0d43	-0.018927222
23	0xbc8a2c28	-0.016866758
24	0x3bec9362	0.007219718
25	0xb9040297	-0.00012589466
26	0xbc2a92eb	-0.010411005
27	0xbc93c520	-0.018038332
28	0xbba91b53	-0.005160728
29	0x3c32e6f3	0.01091932
30	0xbbc26c07	-0.005933288
31	0x3c6c37eb	0.014417629
32	0xbc5a1943	-0.013311687
33	0x3c4bb8a1	0.012434156
34	0xbc1c9998	-0.009558104
35	0xbc44ab85	-0.012003784
36	0xba2928f3	-0.000645294
37	0x3bc0e129	0.005886216
38	0x3b86b468	0.0041108616
39	0x3b7b8ed8	0.0038384702
40	0x3b7a22d2	0.0038167727
41	0x3baa49d9	0.0051967916
42	0xbc0f2234	-0.008736182
43	0xbc015fc3	-0.0078963665
44	0x3c6c4a42	0.014422001
45	0x3caa9633	0.020823574
46	0x3b4007ff	0.002930164
47	0x3ce59be0	0.028028429
48	0x3a3de239	0.00072434876
49	0xbcb0cfe5	-0.021583507
50	0xbbda7095	-0.006666253
51	0x3cf823ed	0.030290568
52	0x3a854cbb	0.0010169962
53	0xbbd2c01a	-0.0064315917
54	0xbb7b288d	-0.003832373
55	0xbbe7e60a	-0.0070769833
56	0x3b76d8f3	0.0037665933
57	0x3bfbcf05	0.0076845908
58	0x3a6bcf00	0.0008995384
59	0x3c620c17	0.013796828
60	0xbc258c9d	-0.010104326
61	0xbb6008d2	-0.0034184945
62	0x3cac99de	0.021069463
63	0x3cad361b	0.021143964
64	0xbcc3bc76	-0.023893576
65	0xbc5afc33	-0.013365793
66	0x3b89d4b9	0.0042062667
67	0x3c18f529	0.0093357945
68	0x3bf9df97	0.007625531
69	0xbcb4beb2	-0.022063587
70	0x3d0c5412	0.034259863
71	0x39d70f7f	0.0004101954
72	0x3c1aba31	0.009443806
73	0xbcbb506f	-0.022865502
74	0xbcb8c2de	-0.022553857
75	0xbc95cdf1	-0.018286677
76	0xbc9827b3	-0.018573618
77	0xbc228b1d	-0.0099208625
78	0x3c2540f6	0.010086289
79	0xba9c7447	-0.0011936509
80	0xbc5501e3	-0.013000938
81	0x3bbe58e7	0.005808938
82	0xbc6086da	-0.013704026
83	0xbb5a76b7	-0.003333492
84	0xbca6625d	-0.020310575
85	0xbcbb471b	-0.022861054
86	0x3bb5d62f	0.0055492143
87	0xbc8ab354	-0.016931213
88	0xbc996b03	-0.018727785
89	0x3c9be054	0.019027866
90	0x39535fe7	0.00020158254
91	0xbc2ae98c	-0.0104316585
92	0x3d2d8055	0.042358715
93	0xbd2d3b2f	-0.04229277
94	0xbc58b6c5	-0.013227169
95	0xbc9fbdd7	-0.019499702
96	0xbb08741c	-0.002082116
97	0xbb9d7626	-0.004805344
98	0xbc801372	-0.015634272
99	0xbc9444dd	-0.018099243
100	0xbb9e22cb	-0.004825925
101	0xbc990ff7	-0.01868437
102	0xbcd1242b	-0.025529942
103	0xbcabd1cf	-0.020974068
104	0xbc3f1209	-0.011662015
105	0xbc3987a7	-0.011323846
106	0xbc19ae25	-0.009379898
107	0x3ad0a828	0.0015919255
108	0xbc8dbe4f	-0.01730266
109	0x3c040c93	0.008059639
110	0x3c1ee487	0.00969804
111	0x3d3ea5ba	0.046544768
112	0x3c14d647	0.009084291
113	0xbbbca887	-0.0057573947
114	0xbcb77525	-0.022394726
115	0xbbc33c1f	-0.0059580947
116	0xbccd9bfd	-0.025098795
117	0xbcae9d73	-0.021315312
118	0xbcc5ba53	-0.024136698
119	0x3bf2508b	0.0073948554
120	0xbae050b3	-0.0017113894
121	0x3d09aecb	0.03361396
122	0xbbfe5ffb	-0.0077629066
123	0x3c7c1ab7	0.015387229
124	0x3c861cb1	0.016371103
125	0x3cab34a3	0.020899123
126	0xbc5440aa	-0.01295487
127	0x3bfbf46b	0.007689049
128	0x3c467743	0.012113395
129	0xbc3c30a7	-0.011486209
130	0xbb5c3d2b	-0.0033605795
131	0xbb6dd4e3	-0.003629022
132	0x3c64754b	0.01394398
133	0xbc374807	-0.011186606
134	0xbcbaa316	-0.022782844
135	0xbd127a31	-0.035761062
136	0x3c3afd3f	0.011412918
137	0x3c6217bb	0.013799603
138	0xbcfe8918	-0.03107123
139	0xbb14f5e8	-0.002272958
140	0x3d0bc3e1	0.03412235
141	0x3b550cc5	0.0032508832
142	0xbb2de5e6	-0.0026534735
143	0x3d246697	0.0401369
144	0xbb516c05	-0.0031955254
145	0xbc941d65	-0.018080423
146	0x3cefabc2	0.029256705
147	0xbc72f37f	-0.014828562
148	0x3d0f4b17	0.03498372
149	0xbc379405	-0.011204724
150	0xbcfc3ce5	-0.030790756
151	0x3c3411eb	0.0109906
152	0x3ca5c53f	0.020235656
153	0xbc3e1a9c	-0.011603024
154	0xbc70e78d	-0.0147036435
155	0xbc5ea035	-0.013588001
156	0x3b727335	0.0036994938
157	0xbc524d77	-0.012835852
158	0x3b412b3b	0.002947523
159	0x3ce05ffd	0.02738952
160	0x3c5114cf	0.012761309
161	0x3beee1e2	0.007290111
162	0xbc8b867c	-0.0170319
163	0xbb96dfe9	-0.004604329
164	0x3c8749a1	0.016514601
165	0xbbf7f67a	-0.007567224
166	0xbc825ddf	-0.015913902
167	0x3c8398e7	0.01606412
168	0x3c768018	0.015045188
169	0xbc5af3bf	-0.013363778
170	0xbc611d1b	-0.013739849
171	0x3b2658b8	0.002538247
172	0x3c9d9fe8	0.019241288
173	0x3d4b3f7a	0.049621083
174	0x3c83b1c8	0.016075984
175	0xbd0dcad2	-0.034617253
176	0xbcf9a3cd	-0.030473614
177	0xbcde3de3	-0.02712912
178	0xbc97776f	-0.018489568
179	0x3d2ea9bb	0.042642336
180	0xbb5a5ee0	-0.003332071
181	0x3d002289	0.031282935
182	0x3ca4e44d	0.020128394
183	0xbcaa5cd0	-0.02079621
184	0x3cc1ba53	0.023648417
185	0x3ca8089c	0.020511918
186	0xbb372c43	-0.0027949966
187	0xbc9aa4da	-0.018877435
188	0xbc3b8203	-0.011444571
189	0xbb31636b	-0.0027067314
190	0xbc46f6b6	-0.012143781
191	0x3be7fc38	0.0070796274
192	0x3d371ce7	0.044705298
193	0x3bde2c0f	0.0067801545
194	0xbd44c779	-0.048041794
195	0x3ba09363	0.0049003824
196	0x39df3bc8	0.00042578415
197	0x3cfc9223	0.030831402
198	0x3c0eadeb	0.008708457
199	0x3b31ea54	0.0027147727
200	0xbb0abdbd	-0.0021170222
201	0xbc4c47a9	-0.012468257
202	0x3c71088a	0.0147115085
203	0x3d3a6436	0.045505725
204	0x3bb0a168	0.005390335
205	0xbcdfba88	-0.027310625
206	0xbc4ab727	-0.0123727685
207	0x3ce12292	0.027482305
208	0xbc24d8be	-0.010061441
209	0xbd0f795d	-0.03502785
210	0x3c831206	0.015999805
211	0x3cbdb501	0.023157598
212	0x3c92e90a	0.017933387
213	0xbc3c8966	-0.011507368
214	0xbcd3b88d	-0.025844837
215	0xbc972140	-0.018448472
216	0xbca6fd2e	-0.020384397
217	0x3c1c40f3	0.0095369695
218	0x3d158349	0.036502156
219	0x3d08dc0f	0.03341299
220	0xbca17fd9	-0.019714283
221	0xbc02cd93	-0.007983583
222	0xbc94e8cf	-0.018177418
223	0xbb387b6b	-0.0028149735
224	0x3cef6d4f	0.029226927
225	0x3c005e3f	0.00783497
226	0x3c437b84	0.011931304
227	0xbd023a63	-0.031793963
228	0x3d05f353	0.032702755
229	0x3c688dc7	0.014193959
230	0xbcbbd86a	-0.022930343
231	0x3ce14efd	0.027503485
232	0xbc94c263	-0.018159097
233	0x3c972642	0.01845086
234	0x3ba15658	0.004923623
235	0xbc3dad11	-0.011576907
236	0xbd16d0db	-0.036820274
237	0x3c007681	0.0078407535
238	0x3d108d3e	0.03529095
239	0xbc98a66b	-0.018634042
240	0xbb685b03	-0.0035454638
241	0xbc996ebb	-0.018729558
242	0x3c6dfa3b	0.014524992
243	0x3caeee83	0.021353966
244	0xbba24cbb	-0.0049529946
245	0x3c52e7fd	0.012872693
246	0xbc8a3763	-0.016872114
247	0xbb62f357	-0.0034629905
248	0x39ee2373	0.0004542131
249	0x3b198ded	0.0023430542
250	0x3c04f3c2	0.008114757
251	0x3b8e98de	0.0043517193
252	0x39ae6687	0.00033264255
253	0x3c8d35db	0.017237594
254	0x3b69676a	0.0035614618
255	0x3aff72ad	0.0019489132

action_model._continuous_distribution.mu.bias f4 [2]
0	0x00000000	0.0
1	0x00000000	0.0

action_model._discrete_distribution.branches.0.weight f4 [5, 128]
0	0x3bc76a83	0.0060856952
1	0x3c3baa75	0.011454214
2	0x3afbc3db	0.001920815
3	0xbc163608	-0.0091681555
4	0xbc0907fb	-0.008363719
5	0xbbfc8528	-0.007706303
6	0x3a748ad0	0.0009328546
7	0xbbc630f7	-0.0060483175
8	0xba2049d3	-0.0006114516
9	0x3b8d508e	0.0043125814
10	0xbb4de68a	-0.003141793
11	0xbbeaae1d	-0.007161869
12	0x3b93e1d4	0.004513005
13	0x3c96606b	0.018356523
14	0xbc646c1a	-0.013941789
15	0x3c04d2f3	0.008106935
16	0x3c43a60e	0.011941446
17	0x3b015b1a	0.0019738139
18	0xbacda665	-0.0015689848
19	0x3c24a327	0.010048664
20	0x3b23fa25	0.0025020924
21	0x3b7734a3	0.0037720583
22	0xbc17c98a	-0.009264359
23	0xbb1cbb0b	-0.0023915197
24	0xbbe1b0eb	-0.0068875453
25	0x3bf50bda	0.0074782195
26	0xbbb88f41	-0.0056323116
27	0x3b37fe97	0.0028075331
28	0x3b2a8d16	0.0026024035
29	0x3a07e300	0.0005183667
30	0xbbd6ec3b	-0.0065589226
31	0xb8571f53	-5.1289167e-05
32	0x3b806acd	0.0039189816
33	0xbb6c4a03	-0.0036054857
34	0x3b3f04bb	0.0029147107
35	0x39e2e5bf	0.00043277253
36	0x3ba3c5d8	0.00499795
37	0x3bf777e2	0.007552133
38	0xbc125719	-0.0089318985
39	0x3c2fd357	0.01073154
40	0x3c393a9c	0.0113054775
41	0x3baf7653	0.0053546815
42	0xbbd6ae07	-0.0065515074
43	0x3c098976	0.00839459
44	0x3c13ba83	0.009016636
45	0x3b45c1af	0.003017526
46	0xbb2fb722	-0.0026812037
47	0xbc2b8583	-0.010468843
48	0xbc2597c6	-0.010106986
49	0xbb5fad38	-0.0034130346
50	0x3c44ea08	0.012018688
51	0xbae6817d	-0.0017586198
52	0x3c1c64e4	0.009545539
53	0xbaa83919	-0.0012834399
54	0xbc014d2f	-0.007891937
55	0xbb6541b8	-0.0034981798
56	0x3b68b42b	0.003550778
57	0x3c141d3c	0.009040173
58	0x3c96879c	0.01837521
59	0xbbbb3df5	-0.005714173
60	0x3bf3dd5d	0.00744216
61	0x3c164f5f	0.009174197
62	0xbbba2caa	-0.005681594
63	0x3940dc07	0.00018392513
64	0x377f4352	1.5214859e-05
65	0x3bb9cb92	0.0056700194
66	0x3c794765	0.015214776
67	0x3c801df3	0.01563928
68	0xbb9e82bb	-0.0048373616
69	0x3bbb80d4	0.0057221446
70	0xbb2bfd2e	-0.0026243436
71	0xbb80c93f	-0.0039302404
72	0xbc0348d2	-0.008012967
73	0x3cbc99e7	0.023022605
74	0xbc6747a5	-0.0141162025
75	0x3b9fdf10	0.004878886
76	0x3c733c58	0.01484593
77	0x3b9c18fc	0.0047637206
78	0x3b56c52b	0.003277133
79	0x3c27280c	0.010202419
80	0x3c6e3935	0.014540006
81	0xbb0e2a75	-0.0021692787
82	0xbc4b233f	-0.01239854
83	0x3a6e8b12	0.00090997026
84	0xb9da005d	-0.0004158047
85	0xb9e33237	-0.00043334227
86	0x3b8bd406	0.0042672185
87	0xba4aaa04	-0.0007731023
88	0xba9e820f	-0.0012093204
89	0x3a4913cb	0.0007670491
90	0x3c7e0eab	0.015506427
91	0xba8ca660	-0.0010730736
92	0xbb2e7e43	-0.002662555
93	0xbc313efb	-0.010818238
94	0xbb3e8b2c	-0.0029074652
95	0xbbfabe10	-0.0076520517
96	0x3bc0f5c8	0.0058886744
97	0x3c6bc7ef	0.01439093
98	0xbc09d46d	-0.008412463
99	0x3c78a070	0.01517497
100	0x3b7fce0d	0.0039032728
101	0x3c661983	0.014044168
102	0x39b0b8ed	0.00033707116
103	0xbbe65775	-0.0070294687
104	0x3c0e442e	0.0086832475
105	0xbc93c12d	-0.01803645
106	0x3ba18b9e	0.0049299737
107	0x3c42083a	0.011842782
108	0x3bab6fb0	0.00523182
109	0x3b1c7c6e	0.0023877877
110	0xbc0f2b48	-0.008738346
111	0xbb326393	-0.0027219995
112	0x3aa7e867	0.001281035
113	0x3ade2b08	0.001695008
114	0x3c26dd4d	0.010184598
115	0x3bb3412e	0.0054704165
116	0x3b139204	0.0022517452
117	0xbbf4b3d7	-0.0074677276
118	0xbbc4faf3	-0.006011361
119	0xbb8ec948	-0.0043574907
120	0xbb117957	-0.0022197568
121	0xbb4ece30	-0.0031556003
122	0xbc701a12	-0.014654653
123	0xb8c3e6d7	-9.341322e-05
124	0xbbc0fb80	-0.005889356
125	0xbb693530	-0.003558468
126	0x3bb5fb28	0.005553622
127	0xbb5b800a	-0.0033493065
128	0x3bd707dd	0.0065622167
129	0x3c3846e8	0.011247374
130	0xbc3b4243	-0.011429372
131	0xbc2b5a85	-0.010458593
132	0x3bb6149c	0.005556656
133	0x3be0f270	0.0068648383
134	0x3c5492f0	0.012974486
135	0x3b94ca1b	0.0045406944
136	0xbc5876b3	-0.013211894
137	0x3a447743	0.0007494578
138	0x3c86166f	0.016368119
139	0x3b71d15d	0.0036898472
140	0x3c0f9cb6	0.00876539
141	0xbb843bec	-0.0040354636
142	0x3c0768c4	0.008264724
143	0x3b937297	0.004499744
144	0x3c80c2d4	0.015717901
145	0xbb7c01fb	-0.003845333
146	0xbc341dc4	-0.010993425
147	0xbc612687	-0.013742096
148	0x3bf1b6f3	0.0073765456
149	0x3ab0583a	0.0013454028
150	0xbb56b87b	-0.0032763768
151	0x3c31630d	0.010826838
152	0xbc1bd1dd	-0.0095104845
153	0xb8571b52	-5.128544e-05
154	0x3ba875a9	0.0051409793
155	0xbb8740a3	-0.0041275783
156	0x3b2378fa	0.0024943934
157	0xbc079442	-0.0082750935
158	0x3c0bb317	0.008526585
159	0x3ac923e2	0.0015345777
160	0x3c050b59	0.008120381
161	0xbc2ce785	-0.010553245
162	0xbc19e0ec	-0.009392004
163	0x3bb15fae	0.0054130172
164	0x3bc65fdb	0.0060539073
165	0xba897b40	-0.0010489002
166	0x3c079c57	0.00827702
167	0xbaf3bb63	-0.0018595274
168	0xbc87cd5b	-0.016577413
169	0xbc437b25	-0.011931215
170	0x3cb6c372	0.022309992
171	0xbbd35778	-0.006449636
172	0xbca73617	-0.020411534
173	0xb8cb2dd7	-9.688333e-05
174	0x3ba7a764	0.00511639
175	0x3c8cb977	0.01717828
176	0xbc497883	-0.012296799
177	0xbc17b0f5	-0.009258498
178	0x3b0f7285	0.0021888327
179	0xbc2339ce	-0.009962512
180	0xbc493ff1	-0.012283311
181	0xbcf008e5	-0.029301116
182	0xbbf89792	-0.007586428
183	0xb8e715d2	-0.00011019003
184	0x3995716d	0.00028504003
185	0x3bfa4897	0.007638048
186	0xba6f6400	-0.00091320276
187	0xbc546eed	-0.0129659
188	0x3c1ca365	0.009560441
189	0x3c811240	0.015755773
190	0xba770b1b	-0.0009423957
191	0xbc459c07	-0.012061126
192	0x3bcafcff	0.0061947103
193	0x3b85b15d	0.0040799812
194	0xbb871c5d	-0.004123254
195	0xbc0bb5f5	-0.008527269
196	0xbb8a1355	-0.0042137303
197	0xbc42bc0b	-0.011885653
198	0xbb41e2db	-0.002958468
199	0xbb3cfa99	-0.0028835891
200	0x3b770de5	0.003769749
201	0xbac18046	-0.001476296
202	0xbb4a9dd1	-0.003091682
203	0x3b86f59f	0.004118636
204	0xbc04c3db	-0.008103336
205	0xbbf24d13	-0.007394442
206	0x3c4b52b6	0.012409857
207	0x3c3a9575	0.011388172
208	0x3bc5b565	0.006033587
209	0xbc0a9a33	-0.0084596155
210	0x3994d0bc	0.0002838428
211	0x3bfbecab	0.007688125
212	0xbb89fab2	-0.0042107934
213	0x3bce389a	0.0062933685
214	0x3d0b767f	0.034048554
215	0xbc534b4f	-0.012896373
216	0x3bfde0d2	0.007747748
217	0xba3a7d1b	-0.0007113979
218	0x3c806857	0.015674753
219	0x3b1fdde5	0.0024393734
220	0xbb5b565f	-0.003346823
221	0x3a9cae34	0.0011953772
222	0x3c77fd12	0.01513602
223	0xbc6796b8	-0.014135055
224	0x3c9b1f5f	0.018935857
225	0xbb567c2b	-0.0032727818
226	0x3c2f11c2	0.010685386
227	0x3a75243d	0.0009351408
228	0x3b5a2e77	0.0033291855
229	0xbbf18d6f	-0.0073715965
230	0x3c16ae6e	0.009196861
231	0x3a85d476	0.0010210413
232	0x3b099cbd	0.0020997964
233	0x3bb0855b	0.005386991
234	0xbafa711a	-0.0019107193
235	0x3c4339a4	0.011915598
236	0x3c235550	0.009969071
237	0xbba10ba2	-0.004914717
238	0xbba80b0c	-0.00512827
239	0xba7219b0	-0.0009235395
240	0x3bd7af87	0.006582204
241	0xbcb73510	-0.02236417
242	0xbbbcee7d	-0.0057657347
243	0x3c60475a	0.013688887
244	0x3b02752b	0.0019906263
245	0x3c15ba03	0.009138587
246	0xbb25910d	-0.002526346
247	0x3a956028	0.0011396455
248	0x3b8391e7	0.0040151956
249	0x3b6db4c7	0.0036271082
250	0x3c0e8499	0.008698606
251	0x3b3069e3	0.0026918582
252	0x3bb1605f	0.0054130997
253	0x3b26da2d	0.0025459633
254	0xbb690317	-0.003555482
255	0x3b1e5817	0.0024161392

action_model._discrete_distribution.branches.0.bias f4 [5]
0	0x00000000	0.0
1	0x00000000	0.0
2	0x00000000	0.0
3	0x00000000	0.0
4	0x00000000	0.0
