Project/Assets/ML-Agents/Examples/MyTest/Scripts/TFModels/MyTest1Models/Test15/MoveToGoal/MoveToGoal-500009.pt (torch, 452051 bytes, 42 tensors)

network_body._body_endoder.seq_layers.0.weight f4 [128, 6]
00000000: be8f 923e 0a60 033e bd60 f63d 2fad 333f
00000010: 745e 723e d0ac aa3d 55a5 0ebe d329 c7be
00000020: 5271 1cbf a47f 54bd f52b 9cbd f4b8 1a3f
00000030: 868b 4e3f ed20 e13b 9afb 9dbd ab74 bb3e
00000040: 46b1 643c e3db 1b3e 4fc6 a2bc 892c 4a3e
00000050: a992 b5be d14b 1cbe 7e78 3cbf 6a76 633e
00000060: 7071 aa3e ce6d d5be ab10 1cbf 166b 853e
00000070: 50a4 a6bd 8b43 bf3e 6342 afbe 724e 80bf
00000080: 51e9 013e aa4b b93e 3045 8a3c 4cf7 dabd
00000090: b958 033f 089b f33e aaaf eabe 53df df3d
000000a0: a17e c4bc 330a c3be 8848 05bf 0d97 f53d
000000b0: 9864 c23e 5819 e9be ee2d b43e 3fd8 883e
000000c0: dfd3 9dbe f21f e3bd 8ba2 03bf 40b8 45bf
000000d0: 8522 54be dbac 8bbd 2905 a4be 1f95 843d
000000e0: 71fe ca3d 9a75 893f 41e3 25be 7f29 0cbe
000000f0: 8eb8 5f3e 055d 0cbf 708e cebd 0389 fcbe
00000100: a152 173e 3b1a ebbe c52b 053b 56da 12bf
00000110: 76e9 093f 2f3d 15bd fe48 71be 8a07 29bf
00000120: 36e0 acbe 830d 42be c147 e9be abf4 8e3e
00000130: 5127 05bf 3e31 6b3e dca7 5a3e b978 303f
00000140: 72d5 53bf a675 7c3e f712 753e 5f66 34bf
00000150: 3f05 7a3f 33ba 6e3e 5bb7 33bd ef58 343f
00000160: ddd0 b13d 29fa a4be 30cd 8ebe c20e a9be
00000170: 60d3 47be 88cb b8be 6350 e0be 306f 98bc
00000180: 9390 1ebf f781 fd3e 7dc8 823f 92d2 08bf
00000190: 03a0 90bd d2a9 04be c876 123f faf2 e8be
000001a0: bde7 0abf 0082 393f 02ed 43be 5131 833e
000001b0: 5c39 26bf 650b f23c 78df e7be 6af6 cc3e
000001c0: 9b90 fd3e 3c46 b4be e2c5 e13e 19f9 813d
000001d0: ecce bd3d b678 de3e 9bc0 65be f1c7 f4be
000001e0: 7b71 413e d4c4 29be f150 ddbe 1553 973e
000001f0: 6d9a 213f 1c11 773f 8b7e 08bf cb59 3dbd
00000200: 9685 3a3e 7c25 833e b268 cfbd f894 2fbf
00000210: d287 9abd b121 6e3e 9ded 423b 1449 28bf
00000220: 18c4 2e3f 3d5d 28bf 21ed c2be 3e73 72bd
00000230: 7b0e b5be 17f4 a7be 6234 ac3f facc 4abf
00000240: f1b6 39be aca4 4ebf f7c2 f63e dce5 03bf
00000250: 656f a5be e5a3 9dbe 077a d0bd 2788 62be
00000260: e824 393d 3f61 98be f6d3 28bf fae2 a4be
00000270: 274d d6be 5e80 a83e e830 a03e 5201 0abe
00000280: 2c9a af3c f805 4abe 0a15 1b3e 60ed 8a3e
00000290: 5e35 c0be acdf 3a3d 44ef 80be dfa2 a0be
000002a0: 3aa4 353d 5c2b 6d3e 7b9a 893d e25b 913d
000002b0: 8c3e fc3d 1527 05bf 7175 e03d 5a62 0d3f
000002c0: f26d 90be 3d58 c63d ac6a 6bbe c309 00bf
000002d0: 6c45 053f 1619 e6be 53fc 123f 2072 eb3e
000002e0: bbff 2d3e bf3b 15be 54f7 c8be adf1 243f
000002f0: 2391 06bf 9931 933e 37e2 ff3e 3a69 303e
00000300: 6601 f6be 4566 adbe 6bf4 23bf f860 923d
00000310: 619e 073d 5ed4 9e3e 287e bbbd 1934 33be
00000320: 4a5d d73d 9a93 04bf cc4d 2abe 27bb b4be
00000330: ae22 6e3d cb13 ee3e 0d10 923e a7df c9be
00000340: 61b0 3bbf fbe1 bb3e 30c0 763e 1b76 403e
00000350: f1b2 1dbf 97b0 05bf 2716 06bf 83b8 893e
00000360: 5ff5 1ebf 3a63 703e 1479 84be dee3 263f
00000370: ce52 90be a9d4 45be a90d 973e b8d6 20bf
00000380: 612b 3d3e fb58 8bbd 37ab 083e edbf 1f3c
00000390: 3ed6 203f 4b71 0e3f d579 c6bd 8b5d 3dbf
000003a0: 1acd 4cbe a790 dbbe 8cf5 bdbe 59da 193d
000003b0: c06f 33bf c69e be3e b89e 9a3f 9fae 5d3e
000003c0: 6975 02bf e8c2 113f 00b3 8fbe 4b88 183e
000003d0: b17d 05be 6073 163e bdb6 0e3e 093b 8d3d
000003e0: b21d 31bf 8b88 253e 15a6 4fbf 80d1 ba3e
000003f0: a27e 603e d544 833e 4b57 7e3e 1a2c 29bf
0.28625292 0.12829605 0.1203017 0.7018613 0.23668844 0.083337426 -0.13930257 -0.38899097
-0.61110413 -0.05187954 -0.07625572 0.60438466 0.80681646 0.00687038 -0.07714005 0.36612448
0.013958281 0.15220599 -0.019869952 0.19743551 -0.35463455 -0.15263297 -0.73621356 0.2221314
0.3328967 -0.41685337 -0.60962933 0.26058263 -0.08136809 0.3735622 -0.34230337 -1.002394
0.1268666 0.3619054 0.016878694 -0.106916994 0.51307255 0.47579217 -0.45837146 0.109312676
-0.023986163 -0.3809372 -0.520638 0.11991701 0.37967372 -0.45527148 0.35191292 0.26727483
-0.30825707 -0.110900775 -0.51419896 -0.7723427 -0.20716293 -0.06820079 -0.32035187 0.06473755
0.09911812 1.0739014 -0.16199972 -0.13687705 0.21847746 -0.54829437 -0.100857615 -0.49323282
0.14777614 -0.4591845 0.0020320278 -0.57364404 0.5387186 -0.036435302 -0.23563 -0.6602713
-0.3376481 -0.18950467 -0.45562556 0.27921042 -0.5201312 0.22968003 0.21353096 0.6893421
-0.82747567 0.24654254 0.23933016 -0.70468706 0.97664255 0.23313217 -0.043876033 0.704482
0.08682416 -0.32222107 -0.2789092 -0.33019072 -0.19514227 -0.36092782 -0.4381133 -0.018607706
-0.6193935 0.49513218 1.0217434 -0.53446305 -0.0706177 -0.12955406 0.57212496 -0.45497876
-0.54259855 0.7246399 -0.1913338 0.25623563 -0.64931273 0.029546449 -0.4528768 0.4003175
0.49524388 -0.35209835 0.44096285 0.0634634 0.09267983 0.4345147 -0.22436754 -0.47808793
0.18890946 -0.1657899 -0.43225816 0.29555574 0.6312626 0.9651048 -0.5331809 -0.04622821
0.18215021 0.25614536 -0.10127391 -0.68586683 -0.07545437 0.2325504 0.002974368 -0.6573651
0.68267965 -0.6576727 -0.3807154 -0.059191935 -0.3536261 -0.32803413 1.3453486 -0.7921902
-0.18136193 -0.8072002 0.4819562 -0.5152261 -0.3231155 -0.30789104 -0.10179525 -0.2212225
0.045201212 -0.29761693 -0.65948427 -0.3220442 -0.41855738 0.32910436 0.31287313 -0.13477066
0.02143582 -0.1972884 0.15144745 0.27134228 -0.37540716 0.045623466 -0.25182545 -0.3137426
0.04434607 0.23161072 0.06718918 0.070976034 0.12316617 -0.5201276 0.109599 0.552282
-0.28208882 0.09684799 -0.22989911 -0.50014895 0.52059054 -0.44941014 0.57416266 0.45985508
0.16992085 -0.14573573 -0.39251196 0.6443127 -0.5256521 0.28748778 0.49977276 0.17227641
-0.48047942 -0.33867088 -0.6404483 0.071474016 0.033110026 0.31021398 -0.09154922 -0.17500342
0.1051584 -0.5178772 -0.1663124 -0.35299036 0.058138542 0.46499476 0.2852787 -0.39428446
-0.7331601 0.36695847 0.24096751 0.18795054 -0.6160117 -0.5222258 -0.5237755 0.26898584
-0.62093157 0.23475352 -0.25873625 0.6519145 -0.28188175 -0.19319405 0.2950261 -0.62827635
0.18473579 -0.06804081 0.13346563 0.0097503485 0.6282691 0.5564162 -0.09691206 -0.7397086
-0.20000115 -0.42883798 -0.371014 0.03756175 -0.7009239 0.3723051 1.2079687 0.21648644
-0.50960404 0.5693803 -0.28066254 0.14895742 -0.13036229 0.1469245 0.13936897 0.06896026
-0.69185936 0.16165368 -0.81112796 0.3648796 0.21923307 0.25638452 0.24837987 -0.6608292

network_body._body_endoder.seq_layers.0.bias f4 [128]
00000000: 6113 4a3a 6e3f 513d 8e1b c63b d14a d33c
00000010: 35be 9b3a 4ac1 d938 4ccf 4cbc 82e5 b23b
00000020: 9119 f0ba e0d4 8e3c 707c 713c c112 f33c
00000030: 827e aa3c c835 73bb 4db0 73bb d9c3 713a
00000040: 05d8 d439 ea64 ecba f041 a03b ba92 7c3c
00000050: b9bc 1d3d 689b 3e3d 27e6 7cbc 6e04 503c
00000060: 0611 963c 537f bfbb 718f 7b3c 4780 3cba
00000070: b5f1 1f3d 13ec 36bc cfcb d5bb 268e 223c
00000080: f8dd bd3a f5a5 ecbb ac74 073c a7be 01bd
00000090: b9dc 793b 8c6a 123c 9a12 47bd 8168 2d3b
000000a0: 0269 a23b 24ee 793c 119f 90bc c825 afbb
000000b0: 1d9c b83b b326 963c e7a1 6f3b 93aa 823c
000000c0: 359c 853c 1e45 9bbb a636 b43c 6817 0f3c
000000d0: 9426 843c e89f c2bb 2579 843c 2f48 343c
000000e0: a800 b13b 9d6f 99ba feb2 cabc ee20 c13c
000000f0: 94d4 9c3c 3c1e 3b3d 7bce ed3b bf56 d2bc
00000100: b161 70bc 89c7 7c3c 0db6 58bc b0eb ab3c
00000110: 354f 023d 68b7 9abc 40e5 b6bc afe0 c13c
00000120: f4f0 f93b f027 743c 331d e43c b57c cdbb
00000130: 5966 443c e436 24bc 35d8 8bbc 93e5 923c
00000140: 99d1 85bc 5ae0 9cbc 0615 703b 0221 c9ba
00000150: 8718 5b3c 572b 82bc 4068 8bbb 9be4 a9bc
00000160: f26d 81bb 7083 b3bc b4ea 403c 2f1b 473c
00000170: 8f77 af3b 7d0a aabb 1bb0 8b3c 0f2a 0f3d
00000180: 6469 d93c fa56 183c 506d 48bc 717b d7bc
00000190: 501d 23bb cd87 543c 89f5 053d 10c2 c43c
000001a0: b679 fc3b 9d43 9e3c ffd5 aa3c 344f 213c
000001b0: a33a a9bc 6718 093c 5314 323d 3fad de3c
000001c0: c956 033b a61e fb3b 236b e63c 139d a83a
000001d0: 81ef 903c 3715 e93c 4e46 ec3b 02a5 dbbc
000001e0: 30b1 9bbb 0c92 02bb 17f1 283c 1d2c 4d3c
000001f0: bbef 803c 1c33 5c3c 36e2 babb 272a 1abc
0.0007708576 0.051085882 0.0060457652 0.025792511 0.0011882248 0.00010383369 -0.012500595 0.0054594884
-0.0018318166 0.017435491 0.014739141 0.029672028 0.020812277 -0.0037110914 -0.003718394 0.0009222604
0.00040596738 -0.0018035446 0.004890673 0.015415842 0.038510058 0.046534926 -0.015435732 0.012696369
0.018318664 -0.0058440357 0.015354023 -0.00071907457 0.03904887 -0.011164683 -0.00652454 0.009921586
0.0014485708 -0.007221932 0.008267563 -0.03167596 0.0038125946 0.008936536 -0.048601724 0.0026459994
0.0049563656 0.015254531 -0.017653974 -0.00534508 0.0056338445 0.018329 0.0036565007 0.015950477
0.016309837 -0.004738464 0.021998715 0.008733608 0.016131677 -0.0059394725 0.016171047 0.011003538
0.0054016896 -0.0011706237 -0.024743553 0.023575272 0.019144334 0.04568313 0.0072572804 -0.02567613
-0.014671729 0.015428432 -0.013226998 0.020986408 0.03181382 -0.018886283 -0.022326112 0.023666708
0.007627601 0.0149021 0.027845955 -0.0062709698 0.011987292 -0.010022853 -0.017070869 0.017931735
-0.016335296 -0.019149948 0.0036633625 -0.001534492 0.013372547 -0.015889807 -0.004254371 -0.02073889
-0.003949874 -0.02191326 0.011774708 0.012152477 0.0053548287 -0.0051892386 0.017051747 0.03495222
0.026539512 0.009298081 -0.012233093 -0.026303979 -0.0024889298 0.012971831 0.032704864 0.024018317
0.0077049388 0.01931935 0.020853994 0.009845544 -0.020657843 0.008367634 0.043476414 0.02718222
0.0020040742 0.0076635657 0.028127259 0.0012864195 0.01769233 0.028452499 0.0072105294 -0.02681208
-0.004751347 -0.0019923477 0.010311387 0.012522724 0.015739312 0.01343992 -0.005703236 -0.009409464

network_body._body_endoder.seq_layers.2.weight f4 [128, 128]
00000000: f1d1 a93d 0643 ea3d 0e69 dabd 8e3c 01be
00000010: 9078 833d b5f6 c13c 64ae 85bb 6295 b0bd
00000020: c197 2ebd 72c8 d23d 1b40 5f3b afbb 213d
00000030: c375 0dbd 050a 7bbc ec10 503e ad25 523d
00000040: d295 4f3d b2aa dfbd 3af0 403d f3b1 f13d
00000050: eb4f be3d 92e3 20be 3af6 f7bd 301d 0e3e
00000060: bac6 babb 21a1 263d 54f2 d53c 848a b6bd
00000070: 99b3 513c b2fb 33bc 111e 4e3c a2aa babd
00000080: 647d 213d ad58 c9bd 2fa8 0c3d d70d d3bd
00000090: 7f27 423d afa1 b8bd 716f 2abd 1b5a 1f3e
000000a0: f5f3 503d a0cf 07bd 5d7e a2bd e5b0 8a3d
000000b0: a5ed 8a3b d624 95bc d91f eb3d 77c7 05be
000000c0: 9f0f 7a3d fbd4 91bd 392d dcbc 160d b73c
000000d0: f59c afbe 29b3 9b3c 4e22 a4bd 663b fa3d
000000e0: 2974 c9bd 4543 6d3d 5d9d d5bd c8f2 9dbd
000000f0: de80 ccbd 126f ad3d b552 643d aaa5 513c
00000100: b857 0abd f10d a83d 4482 01bd 5bc4 5f3e
00000110: 9652 84bd 6e0d 10bd 19d7 493d eacd a83c
00000120: 78ae bc3d e889 563c 5dc2 d63c 9e34 d3bd
00000130: 83ae c83d e210 8a3c 3eb6 33bb 2ebd 48bd
00000140: d89d 01bc 4cb8 95bd f3cc 62bc a7c6 053e
00000150: f759 843c 0254 57bd 2da8 f43c 339e 0ebd
00000160: 5ddb dcbc dd3b 6f3d 24f4 b83b 5c53 40be
00000170: 2ba9 083d 7fdd b9bd 62e0 793d a5d8 903d
00000180: 9972 b9bd e6ef d5bd ad59 8bbd 0270 1a3e
00000190: a349 373a 5c43 56bd 6c59 49bd 19d2 5a3d
000001a0: bf91 103e f3b1 ca3d 7b66 7fbe a990 803d
000001b0: 0a16 943d 0c15 3ebc c9f5 12be dc03 35bd
000001c0: 2a43 e13c 059a 853d 683e cebd 5bd0 b2bb
000001d0: 381e 9b3d c9bc f63b 943c a1bd 6022 d83d
000001e0: 0a5a 4c3e dd2d b3bc 5736 86bb bf3d 1bbe
000001f0: d988 ea3b 5ef8 f2bd aab6 053e f48f 7a3d
00000200: f67d b7bd 49bd 8bbb bc06 633d b588 9a3d
00000210: 0920 abbd b5d4 a03d b232 203d f3f0 e03c
00000220: 7816 4b3e fc99 f3bd 9694 493e 8e11 8c3c
00000230: 3b72 453e e480 c73a 64c3 ff3d 6c30 68bd
00000240: 8d21 163b 738f 1d3d 7229 ddbd 409a 38be
00000250: 205d 1dbe 7ceb a63d b12b c03d 9341 c4bc
00000260: b353 b63d a7a5 7fbd f10b 67bc ba7c 86bd
00000270: b754 1b3d 795e a33c 05af a5bd ca31 39be
00000280: f9a9 d3bd 8c73 913d 797c 68bd 00d4 58bc
00000290: 5922 1d3e 49fa 683c f6cb 383c fc3e 24be
000002a0: ad70 973c 32d3 383e b0fb 213d fe78 61bd
000002b0: a050 20bd bdac aa3d 61b7 7fbd 120f 063b
000002c0: d88b 15bd 9a05 e8bc f9d1 033d a55c 79bd
000002d0: 0216 813d 9f81 ab3d 120b 2dbe b922 9c3e
000002e0: ea05 ae3d 6450 f1bd b46d b83d cda6 babc
000002f0: 5c78 45bd bea7 4ebe 7634 0c3a 9334 7a3d
00000300: b185 3fbe ffe7 da3c c99a 563d 675d d53d
00000310: 6ebb f3ba 4ad3 9ebd a900 7f3d 0d53 c8bd
00000320: 6996 1e3c 4d07 fc3c b273 553c 987d 46bd
00000330: c478 313d 5078 e53c a9e1 fd3d be89 dabd
00000340: dcc5 3b3d 2a34 903d 3de8 84bd bb52 373e
00000350: ba6a 2ebe 6a4f 203d 4e3f 86bd 9ace 3dbd
00000360: 122e 953c 70f0 0b3e f7e9 eb3c b83c c0bd
00000370: f285 94bd 4b4a 0f3e 500b 0abd 8639 cf3d
00000380: f142 83bd f2d8 0d3e 4888 ba3d d557 9c3c
00000390: fbb9 253d 6df9 a0bd 23b1 043e ab26 743d
000003a0: 2c7d e0bd 01ae 29bd 5c55 fdbc a4cc 863d
000003b0: 0756 b93d 64af c93c e343 18bd d7d2 ac3d
000003c0: 3097 5d3d d1e0 303e c70c a5bc 6ac0 c9bd
000003d0: 0b44 ee3c c8c6 5b3e 9bc7 f43d 832f ef3c
000003e0: 3538 d5bd 1a12 00bc 3b7c d33d 02f8 2abd
000003f0: 78a1 cf3d 4415 c6bd ed60 13bd 5bc6 d23d
0.08291996 0.11438565 -0.10664569 -0.12620756 0.0641948 0.02367721 -0.004079627 -0.086222425
-0.042625193 0.10292138 0.003406531 0.03948563 -0.034536134 -0.015322213 0.20318955 0.05130546
0.05067999 -0.109212294 0.047104098 0.11801519 0.09292587 -0.15711811 -0.12107511 0.13878322
-0.0056999596 0.04068101 0.026116528 -0.089131385 0.012799167 -0.010985302 0.012580411 -0.09114577
0.039426222 -0.09831367 0.03434008 -0.10305374 0.047400948 -0.09015214 -0.041610185 0.15561716
0.051013906 -0.03315699 -0.07934258 0.06772021 0.004239755 -0.018206041 0.11480684 -0.13064371
0.061050054 -0.07120701 -0.026877033 0.022345107 -0.34299436 0.019006329 -0.080143556 0.122183606
-0.09836609 0.05792548 -0.10430405 -0.077123225 -0.09985517 0.084684506 0.055742938 0.012795845
-0.03377506 0.08205784 -0.03161837 0.21852247 -0.064610645 -0.035169058 0.0492774 0.020606
0.09212965 0.013094403 0.026215727 -0.1031277 0.097989105 0.016853753 -0.0027421857 -0.04900854
-0.007911168 -0.073105425 -0.013842809 0.13064061 0.01615618 -0.05257035 0.029865349 -0.03481884
-0.02696007 0.0584067 0.005644338 -0.18781799 0.033364456 -0.0907545 0.061005004 0.07072572
-0.09055061 -0.104461476 -0.06804214 0.1508179 0.0006991869 -0.052310333 -0.049157545 0.05342302
0.14118098 0.09897222 -0.24941437 0.06277592 0.07230766 -0.011601698 -0.14351572 -0.044193134
0.027497847 0.065235175 -0.10070497 -0.005456967 0.07574123 0.007529829 -0.078728825 0.105534315
0.19956222 -0.021872455 -0.0040958333 -0.15160273 0.007157427 -0.118637785 0.13057962 0.06117244
-0.08959572 -0.004264508 0.055426344 0.07545606 -0.083557196 0.07853071 0.039110847 0.027458644
0.1983279 -0.118946046 0.19685587 0.017098214 0.19281857 0.0015220908 0.1248844 -0.056686804
0.0022908181 0.038466882 -0.10798921 -0.18027592 -0.15367556 0.08150384 0.093833335 -0.02395705
0.08902683 -0.062413838 -0.014101968 -0.065667585 0.037922587 0.019942509 -0.08090023 -0.180854
-0.10335154 0.07102117 -0.05675933 -0.0132341385 0.15345134 0.014219829 0.011279097 -0.16039652
0.018486345 0.18049315 0.03954667 -0.055047028 -0.03913939 0.083337285 -0.062430743 0.002045576
-0.03651032 -0.028322984 0.032182667 -0.06087937 0.06303026 0.08374333 -0.16898754 0.3049524
0.08497222 -0.117829114 0.09005299 -0.022784615 -0.048210487 -0.20181176 0.00053483935 0.061085295
-0.18703343 0.026721952 0.05239371 0.10418206 -0.0018595287 -0.07755144 0.06225649 -0.09781466
0.009679415 0.0307652 0.013028072 -0.04845962 0.04332806 0.028011471 0.12396557 -0.106708035
0.04584299 0.070411995 -0.064896084 0.17902653 -0.170329 0.039138235 -0.06555043 -0.04633961
0.018210445 0.13665938 0.028798087 -0.09386581 -0.072521105 0.13993184 -0.033702195 0.101183936
-0.064092524 0.1385229 0.09108025 0.01908485 0.040460568 -0.07860074 0.12958197 0.05960719
-0.10961375 -0.04142571 -0.030924492 0.06582001 0.090496115 0.024619766 -0.037174117 0.08438652
0.05409926 0.1727326 -0.020147694 -0.09851153 0.02908518 0.21462548 0.11952134 0.02919746
-0.10411111 -0.007816816 0.103264295 -0.041740425 0.101382196 -0.09672025 -0.035981108 0.102917396

network_body._body_endoder.seq_layers.2.bias f4 [128]
00000000: 2d98 d13b 99e5 6ebb 7a33 053a 8f78 6abc
00000010: 3fbd 093c 205a b5bb 7dd2 9c3b ba21 9a3b
00000020: 221b 9d3c 22c1 e7bb d73a c2bc 500d 31bc
00000030: d660 d13b a04a 463c 0798 48bb 3c92 06bb
00000040: 6099 57bc f9ce 4a3c 8353 51bc ce8b 303a
00000050: 6d08 a5bb 1f3f ab3c 2beb 1b3a 5c26 293b
00000060: e50e 07bb b3bf 343c 2504 2c3c da7c 653b
00000070: 49c7 c93b c87e f8ba 19c8 603c 91ab f1bb
00000080: 1d8c 353b 10ae 873c 712a eb38 9389 fdba
00000090: 505b f13b 5b98 cb3c 8002 f73c fc95 10bb
000000a0: a973 36bb fc93 6abc 5528 95bb 47f0 803c
000000b0: f52f a13c 15a8 963c c776 c0bc 96d7 64bb
000000c0: 841b f03c f997 ca3b 42c4 923c d782 ca3b
000000d0: a1b4 9f3c 646b abbb 061e 7e3c 3de8 193d
000000e0: 5c73 1abb efa9 123c e920 abba 2a7d 0f3c
000000f0: 675f b03c ddee 0e3b 32d1 393b c697 3cba
00000100: ffde aabc 0b44 343b 9133 5e3c 1e6c 39bb
00000110: 4fbe c83b 300f 5d3c f01d 943a 5911 4f3b
00000120: f372 3a3d 9c2f 943b 0ad4 263c e47b 613c
00000130: d2ec 043c d95f cd3c ec3b f039 6536 cebb
00000140: 6f57 553c df7b 61bb 5b2a 9d3c 01d9 25bb
00000150: 033b 0f3b 4887 04bb 7387 c73c adb8 2bbc
00000160: c35e b6bb d9d8 6b3c bd20 4e3a 4db5 cebb
00000170: 2c64 58bc 5f0d 09bc 2b0b e13b 654e 523c
00000180: eeae 073c 1d7e 203c 707e b9bb bd01 9a3b
00000190: 6c60 d83c 05c5 6dbc e921 af3b 863b 363c
000001a0: 43d0 253d e603 d83b 8643 3bbb 9865 903b
000001b0: 6eeb 1d3d 0eb9 d4bb fc78 6b3c ac69 993c
000001c0: 996c 963c c228 fd3c c9c5 253c ef6b 443a
000001d0: da00 e83c 1169 163d 0824 a43c f18a 853a
000001e0: 1dd7 3b3c 2ec2 36bb 06ae 0cbc f146 d5bc
000001f0: 5f3f 803b 5e07 803b 0bbe d83b f7e7 983c
0.0063963146 -0.003645277 0.0005081218 -0.01431097 0.008406936 -0.0055344254 0.0047858343 0.0047037276
0.019177977 -0.007072584 -0.023709698 -0.010806397 0.0063897176 0.012102753 -0.0030608193 -0.002053394
-0.013159126 0.012378448 -0.012776258 0.00067347 -0.005036405 0.020904122 0.00059478235 0.0025810217
-0.0020608243 0.011032033 0.010499035 0.0035017044 0.00615779 -0.0018958682 0.013719582 -0.0073751886
0.0027701922 0.016562492 0.000112135785 -0.0019343368 0.0073656216 0.024852922 0.03015256 -0.0022062054
-0.0027839935 -0.014317509 -0.004551927 0.015739573 0.019676188 0.018390695 -0.023494137 -0.0034918538
0.029309995 0.0061826673 0.017915849 0.006180148 0.01949531 -0.005231308 0.015510088 0.037574995
-0.0023567295 0.008951648 -0.0013056073 0.008757869 0.021529866 0.0021809854 0.002835345 -0.0007194247
-0.020858286 0.0027506377 0.013562099 -0.0028293203 0.006126202 0.0134923905 0.0011300426 0.0031596033
0.04551978 0.004522277 0.01018239 0.013762448 0.008113103 0.025070118 0.00045821012 -0.0062931054
0.013021334 -0.0034406108 0.019185236 -0.0025306346 0.0021855242 -0.0020222235 0.02435658 -0.010481042
-0.0055654957 0.014394962 0.0007863155 -0.006308234 -0.013207477 -0.008365004 0.0068677864 0.0128360735
0.008281453 0.009795693 -0.0056608245 0.0046999143 0.026413165 -0.014512305 0.0053446186 0.01112259
0.040481817 0.0065922616 -0.0028574183 0.004406642 0.0385546 -0.006491787 0.014372107 0.018727146
0.01836233 0.030903224 0.010117956 0.000749289 0.028320719 0.036721293 0.020036712 0.0010188502
0.011464861 -0.0027886736 -0.008586412 -0.026034804 0.0039138044 0.0039071282 0.0066144518 0.018665297

action_model._continuous_distribution.log_sigma f4 [1, 2]
00000000: 32a4 373b 1c7e 8a3c
0.0028021452 0.016905837

action_model._continuous_distribution.mu.weight f4 [2, 128]
00000000: 0a9b ad3c e718 afbc 0911 3c3d 58e0 093b
00000010: 48d1 abbc c2a5 92ba 0236 0e3d 741c 00bc
00000020: eead ea3c 73d9 a3bb 491d 95ba 8f03 10bd
00000030: ec16 023c 7339 b6bc 889c 1fbc a638 7d3c
00000040: 07ae 7a3a a64a 333d afa6 83b9 3323 31bb
00000050: e1ae 3ebc b401 07bd a9bd 46bc 3725 84bc
00000060: 3d29 6ebc 37f9 ecbc be1b 85bc afdb 0dbc
00000070: ebae abbc 8182 cbbc e771 683c b703 943c
00000080: 40fb dd3c d6bf d83c 0113 fb3c b10e 783d
00000090: acb3 71bc d2ce f6bc 50a0 1ebd fa32 843c
000000a0: 50d5 d63c 0663 31bc 0160 27bc 2664 403d
000000b0: 8064 2ebd 6395 f23b 03f8 563c 1817 343c
000000c0: dad3 11bd 6793 043d ee3d 353d 989e 83bc
000000d0: 02e0 a3bb 0dc6 13bc f9f7 acbb 81e2 39bd
000000e0: 4ed1 793c a3a6 d5bc 1b67 393d 12f1 5ebc
000000f0: 295e ac3c 6c81 ffbc 572e 5439 b89d 973a
00000100: b476 be3c 6c2f 0a3d 4b72 ca3c 663c eebb
00000110: f886 76bc 29ce 2d3d e91a 07b9 aec3 923b
00000120: 321b 6e3d 9c8e fc3b 97e9 e8bc e9f1 e63c
00000130: ae9d 15bd c232 fabc 67c8 a83c a8d6 773d
00000140: aa31 cfbc cfae 03bc 016b dc3c e745 673d
00000150: 193f a53b 71fb 15bd c942 00bd 0c70 473c
00000160: 66d1 083c 2bd6 2cbd 4258 43bc 49ae b0b8
00000170: 9815 073d d786 233a 7250 7f3c cbaf 613c
00000180: e160 933b 99f1 54bd a916 58bc f711 4fba
00000190: a212 013d 4f96 653c b98d a4bc 3127 783a
000001a0: c77d 9abc e938 733c 08f0 c13c 35bb 8dbb
000001b0: 2bca 89bd fb71 1a3d 35bd c13c 20c1 063d
000001c0: 5d29 d03c 9b81 be3c 003c d0bc f9d2 ebbb
000001d0: 20fa ce3d 2d87 163d 2a3f 9ab9 bb9b b9ba
000001e0: f50b 2ebd 20a4 bbbb 801c 9bba f62e aa3b
000001f0: a600 473c ff29 6cbc 15ef 2639 a699 b63c
00000200: 3205 4c3a d8ad b3bb 1cbb b1bc 97ce 3bbc
00000210: 65d9 42bd f50b f63c 5850 9bbc 7cda 143c
00000220: afa4 a43c 3c79 f6bb 45a2 78ba c0f6 84bc
00000230: 5492 b9bc fb66 8d3c 6e10 c43b 9e4b 21bd
00000240: 86cb a93c 37c6 03bd 9140 aebc 4cb7 77bd
00000250: 06a1 9fbc 03b2 c43a 8b14 3f3b 3657 f7bc
00000260: bbf4 c6b9 e55a 063d 2413 7ebc fa9a 81bc
00000270: 9506 863c abe8 b7bb ef5a 083d b237 ad3c
00000280: 6504 0c3c 3529 c83c 6675 9839 7414 5cbc
00000290: 485c 103d 8f70 773d e2e0 82bd 4a2e 49bc
000002a0: 2af6 4ebb 6a63 13bd 3a59 ae3c ce9f 963b
000002b0: 558e acbc d1dd 763d 1b6f a63c 239f fbbb
000002c0: 5fca 513d a30d 44bc b9f6 113d d53b 793c
000002d0: c8c3 2d3d 2382 84bb 0ed1 c1bc 0e04 1ebd
000002e0: 74f1 403b d38d 7dbc 4317 723b 380d 143d
000002f0: fdd0 0fbd a77c bc3c f387 f3bc e5ce 39bd
00000300: 7a36 43bc 5d2f 5fbc 70f1 c33c a5f4 713b
00000310: 12aa 23bc 3063 3b3b b1f3 963c baf0 8ebc
00000320: b0f3 e13c 363c 43bc e04c 9b3b add3 f13a
00000330: c156 55bd f35c 233d 4755 efba b874 4b3c
00000340: 883b 323c 0457 7ebc eb51 91bc 7048 12bc
00000350: ec3b d23c b512 793b 7018 713d 4183 04bc
00000360: d3d6 16bb 3c14 0dbd 8174 c4bc 3b7d 1ebd
00000370: cccc 33bc d1fc 2cbc 7531 b43b f7f3 92ba
00000380: 9e9a 24bc 7772 353c 9afe bf3a c2bb 11bd
00000390: face 153c 55f4 81bc 1e16 623c 8871 31bd
000003a0: 77cd 99bd 33c9 803c d76a e83c c55e b53b
000003b0: 9682 573b 73d1 963c a544 4c3d cdf5 033d
000003c0: cd4d 9a3c 673d 3c3d 668f c23c 5e8c 80bc
000003d0: fe3c 2bbc 791b e3bc fc34 14bd 87a5 b73c
000003e0: 60fa 9a3c 2399 6c3c ed82 54bc b246 023d
000003f0: 70f3 e0bc 6983 963a f4d1 93bc fec1 1cbd
0.021192092 -0.021374179 0.045914683 0.002103826 -0.020973817 -0.0011188316 0.034719475 -0.007819284
0.02864739 -0.005000287 -0.0011376526 -0.035159644 0.007940035 -0.02224419 -0.00974191 0.015455401
0.0009562675 0.043772362 -0.00025110456 -0.0027029037 -0.011638374 -0.03296061 -0.012130179 -0.016131027
-0.014536199 -0.028927429 -0.01624858 -0.008658334 -0.02095743 -0.024842503 0.014187313 0.018068178
0.027097344 0.026458662 0.03064871 0.060560886 -0.01475231 -0.030127916 -0.038727105 0.016137589
0.026224762 -0.010826832 -0.01021576 0.04697051 -0.042576313 0.007403062 0.013120654 0.010991834
-0.035602428 0.032367136 0.044248514 -0.016066834 -0.005001069 -0.009019387 -0.005278584 -0.045382027
0.015247656 -0.026080435 0.045264345 -0.01360728 0.021040993 -0.031189643 0.00020235158 0.001156739
0.023249961 0.03373663 0.024712702 -0.0072703836 -0.0150468275 0.042432938 -0.00012884628 0.0044788932
0.058131404 0.00770743 -0.028431697 0.028191524 -0.03652733 -0.030541781 0.020603372 0.060507447
-0.025292236 -0.008037283 0.026906492 0.05646315 0.005042922 -0.036616746 -0.03131369 0.01217271
0.008350706 -0.042196434 -0.011922898 -8.424797e-05 0.032979578 0.0006238049 0.0155831445 0.0137748225
0.004497633 -0.051988218 -0.013188996 -0.00078991003 0.03151191 0.014012887 -0.02008711 0.0009466289
-0.018858803 0.014845111 0.023674026 -0.0043252953 -0.067280136 0.037706356 0.023649791 0.032899022
0.025410349 0.02325516 -0.025419235 -0.0071967808 0.10106301 0.036750007 -0.0002942023 -0.0014160791
-0.042491872 -0.0057263523 -0.0011834055 0.0051935865 0.012146151 -0.0144143095 0.00015920059 0.022290062
0.00077827566 -0.0054833703 -0.021695666 -0.011462829 -0.047570605 0.030034998 -0.01895921 0.009085294
0.020098059 -0.0075217765 -0.0009484629 -0.01623094 -0.022652782 0.017261019 0.005983404 -0.039378755
0.02072693 -0.032171454 -0.021271022 -0.06047754 -0.019485962 0.0015006665 0.0029156532 -0.030192953
-0.0003794784 0.032801528 -0.015507493 -0.015820969 0.01636056 -0.005612453 0.033289846 0.021144722
0.00854597 0.024433712 0.00029079168 -0.013432611 0.035244256 0.06041008 -0.06390549 -0.012279103
-0.003157983 -0.03598348 0.02128278 0.004596687 -0.021063963 0.060270134 0.020316651 -0.0076788827
0.051218387 -0.011966142 0.035635684 0.015212019 0.04242304 -0.004043834 -0.023659255 -0.038578086
0.0029440792 -0.015475708 0.0036940135 0.03614542 -0.035111416 0.023008658 -0.029727912 -0.045363326
-0.011914844 -0.013622132 0.023918837 0.00369195 -0.009989278 0.0028593056 0.018426748 -0.017448772
0.02758202 -0.011916211 0.004739389 0.0018449925 -0.052084688 0.039883565 -0.0018259668 0.012417965
0.010878451 -0.015523676 -0.017739257 -0.008928403 0.025663339 0.0038005535 0.058861196 -0.008087934
-0.0023016229 -0.034443125 -0.023981335 -0.038693648 -0.01097412 -0.010558323 0.00549906 -0.0011211623
-0.010046629 0.011074654 0.0014648021 -0.03557945 0.009143585 -0.015863577 0.013799218 -0.043321162
-0.075098924 0.01572094 0.028371258 0.005534979 0.0032884232 0.01841042 0.049870152 0.032216836
0.018835926 0.045956995 0.023750018 -0.015691932 -0.010451553 -0.02772306 -0.036183342 0.022417797
0.018918216 0.0144408075 -0.012970668 0.0318057 -0.02745983 0.0011483255 -0.01804445 -0.038270943

action_model._continuous_distribution.mu.bias f4 [2]
00000000: 9fb0 c0bb 3ace 983b
-0.00588043 0.004663256

action_model._discrete_distribution.branches.0.weight f4 [5, 128]
00000000: e962 693c 5fed 84bb 7820 933c a159 97bb
00000010: 6741 8db9 e97c a0bb 0082 eb3b c44b 3bbc
00000020: bd58 5aba 89c5 443c 2d6f 643c c927 d83b
00000030: 6791 50bc 80ec 50ba 6c5a 0c3b e555 0fbc
00000040: 24d8 9fbc 288a 0e3c 47e2 df3b 25ba 073b
00000050: 3b7f 0abc 97a6 89bc 0710 623c 31e0 84bb
00000060: 7521 26bb 542a bf39 c39a 813c 886a 0b3c
00000070: 9d6d 0f3c 0a24 5aba 4751 3dbc ccce 793c
00000080: cb7b d03c 6c5f bebc 19c2 6e3c 2494 82bc
00000090: 5f5e c539 33f4 183c 75f3 32bc 8222 8fbb
000000a0: 8eb9 dfb9 5554 273c 9ba4 2f3c 13b1 833c
000000b0: 8a76 da3c b895 a3ba eae7 2cbc e3d5 573c
000000c0: a16c 25bc 9d43 b7ba 7328 e4bb 75f3 573c
000000d0: 2ba1 313c 4ce8 383b 9102 c8bb c2e0 d43b
000000e0: 2124 f23c 47ee edb9 fc09 bab9 d9e0 03bc
000000f0: 58b1 09bc af42 aeba 747e 233a 6dc6 abbb
00000100: f180 21bc cd1b 573c 3aec ba3c 059a c43b
00000110: 078e 8f3c 0f3a 5fba 526b d73b 5f6b a63c
00000120: 9dec 8dbc df45 70bc 9e55 69bb 5264 523a
00000130: 161d e13c b463 893c b236 f13b 27a6 cd3c
00000140: 59f3 4f3c 489f dfbb 5210 d73b 52d3 61bc
00000150: 165f 833c e208 1abb 0e58 9d3c 084f c43b
00000160: 0763 f83a 9759 6cbc a3ec 903c c4ee 603b
00000170: 2bdb b43c 9b20 4a3c a01b 8abc 2055 4cbc
00000180: 8500 973b 7624 89bc a601 15bc 29f1 543b
00000190: 2d8b d53b 65bf ea36 a2c7 9e3c 7496 b23c
000001a0: 6225 873c c7c0 8b3c 608c 393b 01b2 fc3c
000001b0: 4dad 333c fd6a 6dbc 3551 be3b 4b67 a33b
000001c0: ab8c d739 8c1d 48bc 6668 453b 2372 cb3c
000001d0: 0b96 923b c343 acbb b765 b63c 4c98 ae3b
000001e0: 5a01 ce3b fe42 a1bb 3863 0cbb 4959 6ebb
000001f0: 46b9 c7bb 8a65 353c 912e 003c 2ac5 f3bb
00000200: ab78 4b3b 95cb f73a dee7 04bc 007e e8bb
00000210: 016d a0bb e9d6 46bb 5b77 913b 5ae3 423b
00000220: 1eef febb 1a60 743c 68d5 5dbc c964 15bb
00000230: 35b6 8f3c 0748 0fbb 2c67 853c b0ab 74bc
00000240: 4744 b0bc 7a11 cd3b b6b7 bfbc 35ef fd3b
00000250: 95ba 8c3b 5a24 6cba e059 6d3b 2990 5bbc
00000260: 5bd3 143c 2b71 9e3c b893 56bb 6d20 edbb
00000270: 1869 443c ab2c b6ba 953d afba 93ec 5c3c
00000280: f917 06bc cd57 ce3b d3f5 8dbc f5d9 e83c
00000290: bdad cfba 0c78 abbb 22ba a43c 0db1 a43b
000002a0: 82f9 033b 1b7e 80bb 42b1 73bc f70e a73c
000002b0: eb14 c83c 2071 5cbc 9ba2 3a3b 18bd 7d3c
000002c0: af31 193a f3fc e33b b97f c8bb 5514 523c
000002d0: 11e6 bf3b 569e 8dbc 1649 39bb fbf6 533b
000002e0: 20e4 2a3b 38be 8bbc 330d e73a f91b 693c
000002f0: d6b7 61ba 32aa e73b 7e36 503a 78dc 1dbc
00000300: 7109 e53b ee22 dd3b 152b 843c 3b9c fdbb
00000310: cff9 bc3b d3c0 693c e259 98bc 97bb 343a
00000320: be02 153d cfac 4bbc f002 af3b a803 45bb
00000330: 3083 7cbc 878d 75bc b5f2 da3b 2c75 c43b
00000340: d000 0bbb 2170 913c 2f2a 4abc 0df5 cabb
00000350: 8aeb 94ba ff18 353c b5fc 3ebb 6198 58bb
00000360: 7b3f 8f3b 1fb3 2fbb 4a82 80bc d1cf 6a3c
00000370: 1d53 9fbb cd58 c53b 203d 08bc 2ea1 93bb
00000380: d831 f63b df11 173c 862f c53b 1dd0 e0bb
00000390: f100 583b 2b34 cc3b 9dec a43c d42f 81bc
000003a0: 1286 d63c df31 f03b 3d3f ac3c a487 a539
000003b0: 8f4a 84bc 34fb 00bc 573a a3bb 7df8 a23a
000003c0: 6561 883a e2bb 8bbc de02 213c 899f 12bc
000003d0: f378 6e3b 0b33 98b9 d1d7 8fba b20e 373c
000003e0: f83c f2bb 4c17 06bb d367 373c bbc2 a23b
000003f0: 06ce 0b3c b899 6b3a 09a8 703b 6284 cbbb
0.014244773 -0.004056617 0.017959818 -0.004618839 -0.00026942344 -0.004897703 0.007187128 -0.011431638
-0.0008329263 0.012009987 0.013942522 0.0065965396 -0.012729979 -0.00079698116 0.00214162 -0.008748506
-0.019512244 0.008699931 0.0068323943 0.0020710316 -0.008453186 -0.016803069 0.0137977665 -0.004055046
-0.0025349532 0.00036461896 0.015820866 0.008509286 0.008754161 -0.000832141 -0.011555023 0.015247058
0.025449654 -0.02323886 0.014572644 -0.01593978 0.0003764508 0.009335565 -0.0109223025 -0.0043681273
-0.00042672124 0.010212977 0.010720397 0.016075647 0.026667852 -0.0012480533 -0.0105533395 0.013173553
-0.0100967 -0.0013981942 -0.0069628297 0.013180603 0.010841648 0.0028214632 -0.0061038216 0.00649652
0.029558243 -0.00045381693 -0.00035484124 -0.008049213 -0.008404098 -0.001329502 0.00062367995 -0.00524216
-0.009857402 0.013129187 0.02281772 0.005999806 0.017523779 -0.00085154263 0.006574073 0.02031487
-0.01732474 -0.014665096 -0.003560401 0.0008025813 0.02747969 0.016771175 0.0073612565 0.025103642
0.012692296 -0.0068244077 0.006563225 -0.013783293 0.016036551 -0.002350383 0.019207027 0.0059908666
0.0018950411 -0.014425657 0.017690962 0.0034322003 0.022077164 0.012336875 -0.016858876 -0.012471467
0.004608216 -0.016741019 -0.009094631 0.0032492375 0.006516835 6.9960247e-06 0.019382302 0.021800257
0.016497318 0.017059697 0.002831243 0.030846598 0.010966611 -0.01449084 0.0058080205 0.0049866787
0.000411128 -0.012214076 0.003012204 0.024834698 0.004473453 -0.0052571013 0.022265298 0.005328214
0.006286782 -0.004921316 -0.0021421444 -0.0036369136 -0.0060950844 0.011071572 0.007823602 -0.0074392753
0.0031047266 0.0018905277 -0.008111922 -0.0070950985 -0.004895807 -0.0030340499 0.004439277 0.0029737563
-0.00777997 0.0149154905 -0.01353965 -0.0022795668 0.017542938 -0.0021863 0.016284548 -0.014933512
-0.021516932 0.006258187 -0.02340303 0.007749463 0.0042947032 -0.00090081024 0.00362169 -0.01340107
0.009083594 0.019341072 -0.0032741856 -0.0072365315 0.011987947 -0.001389881 -0.0013369793 0.013484138
-0.008184426 0.0062970878 -0.017329132 0.028424243 -0.0015844625 -0.0052328166 0.020108286 0.005025989
0.0020137732 -0.003921283 -0.0148738045 0.020392878 0.024424037 -0.0134547055 0.0028478268 0.015486978
0.000584389 0.006957644 -0.0061187414 0.01282223 0.0058562835 -0.017287415 -0.0028272322 0.0032343257
0.0026075915 -0.017058477 0.0017627835 0.014227861 -0.00086104625 0.0070698494 0.000794269 -0.009635083
0.006989651 0.0067485487 0.016133824 -0.0077395714 0.005767084 0.014267164 -0.018597547 0.0006894408
0.03637957 -0.0124313375 0.0053409263 -0.0030061994 -0.015412137 -0.014987356 0.006681765 0.0059954133
-0.00212102 0.017753663 -0.012339159 -0.006193763 -0.00113617 0.011053323 -0.0029142324 -0.003304981
0.004371581 -0.0026809645 -0.015687127 0.014331774 -0.004862203 0.006022549 -0.008315355 -0.004505298
0.007513266 0.009220569 0.006017628 -0.0068607465 0.0032959545 0.006231805 0.020132357 -0.015769877
0.026186977 0.007330164 0.021026248 0.00031572313 -0.016148834 -0.0078723915 -0.00498132 0.0012433674
0.0010405002 -0.017057363 0.009827344 -0.008949169 0.003638801 -0.0002902973 -0.0010974352 0.011172937
-0.007392522 -0.0020460663 0.011194187 0.0049670613 0.0085330065 0.00089874445 0.003672125 -0.0062108496

action_model._discrete_distribution.branches.0.bias f4 [5]
00000000: 9c01 1d3c 0099 65bb 6bfe e2bb 2a3f 2dbb
00000010: 95ad 393b
0.009582903 -0.0035033822 -0.0069273016 -0.0026435354 0.0028332223

exp_avg f4 [128, 6]
00000000: eaab 3a39 908e 5cb7 6f0f 83b8 2aec 08b9
00000010: 44bd 81b7 000d 22b6 c247 0f39 e7a8 8fb9
00000020: 0070 94b8 445b 0ab8 f102 a9b9 6448 7eb9
00000030: 18e1 8039 e96d 12b9 3490 cbb9 3601 1bba
00000040: 1245 2cb9 f42d fab9 bf6c e6b8 0718 14b7
00000050: 6b8f 80b7 f889 9737 633a 2eb7 0ea4 39b7
00000060: a00b 47b9 d32f 68b8 5541 88b9 659a c1b9
00000070: 9594 88b8 0ac5 0aba 3e54 ad38 2e7a 8939
00000080: f616 0e3a 8d9b be39 e9bc a139 15a4 223a
00000090: 846c f1b9 3895 1cb9 7a30 dfb8 10cc 3738
000000a0: 1337 38b9 9593 3aba 9635 553a a2f4 79b9
000000b0: df32 abb9 e24c 85b9 5e08 93b9 3aad 36ba
000000c0: 9a8b c8b8 a2a8 5fb8 09ae 6b38 aefa b837
000000d0: 5d90 83b8 3e36 0e38 132e 133a c600 b8b9
000000e0: 3866 94b9 a613 e1b9 6279 d8b9 9c23 2db9
000000f0: e054 e6b9 c070 12b9 a348 a039 46a3 8bb9
00000100: 6948 2cb9 95e8 9d39 9cf6 3a39 ba24 0fb8
00000110: b4fc d6b8 5a71 9639 7067 28b8 5c16 bcb8
00000120: 87fc f838 716e 39b8 96f8 c638 b48d 80b8
00000130: 9727 5ab8 4726 0039 932c 1739 e4df 9339
00000140: 7725 8738 b8ac 243a 56f8 ad39 72a0 46b9
00000150: 6502 a3b9 add1 4ab9 80dd 09ba e2ea 25ba
00000160: 579c 6eb9 c8c9 46ba e0b6 223a 07d3 e2b8
00000170: d4e9 c3b9 e0be ac39 156d 05b9 446c 33b9
00000180: 4468 bdb9 c04e 7837 965b 3639 a4b0 ccb8
00000190: 3c10 9237 4a48 0b39 f172 24ba 305d 6ab9
000001a0: a5fe beb9 581b 48ba 75dc 89b9 4754 14ba
000001b0: 94ec c43a 5dc6 a0b9 e370 50ba 9eda 6539
000001c0: 9a25 bdb9 67d7 50ba bdef 49ba dc32 3ab9
000001d0: 5a38 f8b8 9c5e cbb9 a20e 5bb9 365f 2db8
000001e0: 51d8 8639 39c3 2db8 7a43 8f39 c07f 91b9
000001f0: 336d 4cb8 84ad 98b9 ce49 b93a a34b 0aba
00000200: 7001 b2b9 82cb b839 57b3 22ba 822c 02b9
00000210: 9ba4 30ba d427 feb8 e774 dd37 71bd 2239
00000220: d480 15b9 7409 54b7 19ae 65ba 45d3 9b38
00000230: 6eb7 f439 a9fe 11ba e852 b738 439f 0539
00000240: 4a81 7eb9 18a9 6938 58e2 8139 12bc b9b9
00000250: 8872 8938 e866 6439 31c2 2737 de63 55b8
00000260: efe2 f8b8 c8dd 1e39 140c 7bb8 3cbb 5f37
00000270: cb14 743a 9856 75b9 f170 beb9 7a59 c2b8
00000280: 1051 90b9 32ed c9b9 31aa 22b8 8098 4eb5
00000290: 29bf fab7 5044 1739 800d 73b5 888b 4337
000002a0: 40d2 c736 dc14 76b9 34d9 0eb8 12f1 a0b9
000002b0: fac0 90b9 6ab4 df38 85ac 8e39 c45a 73b8
000002c0: a049 3536 223e 7839 5626 8fb8 0761 d038
000002d0: d66e 6ab9 d978 a4b8 9429 40b9 ee5e 14b9
000002e0: 207f c1b8 306d 92b9 725a 0b3b ac2f 11ba
000002f0: 3a51 9aba 2e2c c7b9 acce 2aba 3e2d 68ba
00000300: f8ee 5738 5e54 57b7 4000 3837 f255 3eb9
00000310: 1a54 7db7 51f0 d238 a00d fbb9 38a1 1037
00000320: 7141 8b39 9eac dbb9 1027 2a37 8e38 dd39
00000330: cd7f 8fb9 4a6d 9d38 5a65 ca38 5150 3ab9
00000340: 4235 b938 cbb1 1cb9 ecf3 3db8 8a10 b7b8
00000350: aa45 3fb9 f1f1 8639 c15e d7b8 2c28 bfb9
00000360: 1785 4eb9 e097 84b8 b899 43b8 7137 bab9
00000370: f8fd 9bb8 5831 0d39 2a3a 56ba 5a83 38b9
00000380: c5e8 aeb9 b840 2db8 fc12 59b9 982c 15ba
00000390: 371f 98b9 cc76 6ab8 1689 8db9 a80f 3839
000003a0: 85eb 89b8 f0b5 fdb9 505a 0b3b ca5e b9b9
000003b0: 72ef 80ba c614 e9b9 2915 dab9 37c7 44ba
000003c0: 3f0f a8b8 6e28 4237 f3ab 0038 4bf1 4cb9
000003d0: b06b 6437 7cdb a337 0e9a b1b9 5c71 feb8
000003e0: 132a 2cb9 f197 d3b9 19ac 15b9 6383 c2b9
000003f0: 2275 8e38 32b5 9137 d221 a6b9 be4b f2b8
0.00017802385 -1.3146215e-05 -6.2494415e-05 -0.00013057949 -1.5466132e-05 -2.4147448e-06 0.00013664275 -0.00027400928
-7.0780516e-05 -3.298676e-05 -0.00032236383 -0.00024250295 0.0002458177 -0.0001396459 -0.00038826617 -0.0005912961
-0.00016428929 -0.00047717954 -0.0001098751 -8.827082e-06 -1.5325573e-05 1.806485e-05 -1.0384802e-05 -1.1065056e-05
-0.0001898245 -5.535765e-05 -0.00025988618 -0.00036926862 -6.512661e-05 -0.00052936433 8.264974e-05 0.00026221707
0.00054202916 0.00036355518 0.00030849062 0.00062042597 -0.00046047952 -0.00014932908 -0.00010642498 4.3820648e-05
-0.00017568124 -0.00071173284 0.000813329 -0.00023837623 -0.00032653564 -0.0002542502 -0.0002804426 -0.0006968562
-9.562746e-05 -5.3324395e-05 5.619045e-05 2.2051241e-05 -6.2734565e-05 3.3905955e-05 0.00056144706 -0.0003509579
-0.0002830492 -0.00042929983 -0.00041289168 -0.00016511831 -0.00043932255 -0.00013965648 0.00030571697 -0.00026633794
-0.00016430173 0.0003011866 0.00017830211 -3.412806e-05 -0.00010251385 0.00028694683 -4.0150655e-05 -8.968703e-05
0.000118725984 -4.4210294e-05 9.4876785e-05 -6.12991e-05 -5.201212e-05 0.0001222129 0.00014417087 0.00028204836
6.44428e-05 0.00062818406 0.00033182156 -0.00018942522 -0.00031091567 -0.00019342332 -0.00052591413 -0.0006329251
-0.0002275569 -0.00075831683 0.000620706 -0.00010815827 -0.00037367514 0.0003294861 -0.00012724505 -0.00017111102
-0.00036126573 1.4800287e-05 0.00017390991 -9.76038e-05 1.7412116e-05 0.00013283003 -0.0006273231 -0.00022350694
-0.0003642935 -0.0007633469 -0.0002629493 -0.000565831 0.0015024119 -0.0003066537 -0.0007951392 0.00021920583
-0.00036076905 -0.0007966668 -0.00077032653 -0.00017757289 -0.00011836058 -0.00038789667 -0.00020890919 -4.1335086e-05
0.0002571964 -4.142823e-05 0.0002732536 -0.00027751736 -4.873909e-05 -0.00029120978 0.0014136375 -0.0005275553
-0.00033951877 0.0003524684 -0.0006206533 -0.00012414347 -0.00067383953 -0.000121190824 2.639969e-05 0.00015520096
-0.0001425774 -1.2638386e-05 -0.00087615993 7.430328e-05 0.00046675972 -0.00055692584 8.7415625e-05 0.00012743198
-0.00024271492 5.570901e-05 0.00024773437 -0.00035426073 6.554002e-05 0.0002178211 9.999189e-06 -5.0876166e-05
-0.00011867831 0.00015150674 -5.9854312e-05 1.333543e-05 0.000931096 -0.0002339728 -0.00036323772 -9.267307e-05
-0.00027526217 -0.00038514432 -3.8782313e-05 -7.6962897e-07 -2.9891338e-05 0.0001442593 -9.05442e-07 1.1655393e-05
5.9551385e-06 -0.00023468159 -3.4057724e-05 -0.0003069719 -0.000276096 0.000106670734 0.00027212888 -5.8020247e-05
2.7013957e-06 0.0002367427 -6.825912e-05 9.936286e-05 -0.00022357269 -7.842639e-05 -0.00018326036 -0.00014149744
-9.226636e-05 -0.0002792864 0.0021263626 -0.00055384147 -0.0011773475 -0.00037989154 -0.0006515782 -0.0008856839
5.148255e-05 -1.2834642e-05 1.0967313e-05 -0.00018151829 -1.5099557e-05 0.00010058343 -0.00047884602 8.6206055e-06
0.00026560904 -0.00041899545 1.0141885e-05 0.0004219454 -0.00027370304 7.5067e-05 9.650989e-05 -0.00017768262
8.8314075e-05 -0.00014943552 -4.528828e-05 -8.7292006e-05 -0.00018241131 0.00025738732 -0.00010269648 -0.0003646029
-0.00019695271 -6.3225394e-05 -4.6634785e-05 -0.00035517992 -7.438281e-05 0.0001346519 -0.0008172119 -0.0001759654
-0.00033361293 -4.130669e-05 -0.00020701805 -0.0005690544 -0.00029014956 -5.5900586e-05 -0.00026995753 0.0001755344
-6.576538e-05 -0.00048391474 0.0021263547 -0.00035356573 -0.0009836985 -0.000444567 -0.00041595966 -0.0007506492
-8.013704e-05 1.1572714e-05 3.067772e-05 -0.00019544845 1.3614932e-05 1.953332e-05 -0.0003387485 -0.00012132779
-0.00016418872 -0.0004035826 -0.00014273859 -0.00037100454 6.792905e-05 1.7369723e-05 -0.00031687185 -0.00011553567

exp_avg_sq f4 [128, 6]
00000000: cce9 0435 dda7 9133 c820 bb34 d72a 1535
00000010: 8099 c933 f217 ee34 9004 b335 7969 3d34
00000020: aae2 c434 18e9 d035 bc14 8334 53b2 8135
00000030: 3105 9035 4baa 4434 ff0c 3735 9148 db35
00000040: b019 8834 f5f7 9835 2f82 3534 7e13 8132
00000050: 7107 3933 ac57 5d34 e3a6 b232 5df6 9233
00000060: 065d 0935 4fdb 3033 5d6c 3e34 f870 0935
00000070: acc8 7433 bfce 8d34 e395 3e34 4533 3333
00000080: 0da5 4234 7f70 ba34 2d07 7833 b5c7 5934
00000090: dcc9 ef35 c978 5734 d5b1 1135 c952 1936
000000a0: 9b1d 9534 9033 6e35 22aa 0036 3f80 e634
000000b0: fb4e 0d36 804d 1236 2b84 1f35 1a30 4036
000000c0: 8623 8934 4f8f 2633 e7cb 3934 534e e634
000000d0: 6588 6633 db52 6534 4a43 6e35 9c7c 2834
000000e0: b992 cb34 a00f b735 2633 6934 d32d 3335
000000f0: d193 4235 5625 a833 9158 3534 3a68 5b35
00000100: 44ba e833 d4fa 8034 69c9 3634 b8f5 d432
00000110: 2826 9b33 4bb5 6734 7c60 1333 d2df cd33
00000120: 358e c233 9551 7232 eaea 4833 ee1f 1534
00000130: c7b1 a732 6f31 9933 c2e6 f535 6222 8c34
00000140: 438a f934 884c 2236 24f5 c134 4c38 5135
00000150: 7ef6 cf35 ea56 3434 982d 2b35 f895 e335
00000160: ce9a 7934 5e94 7f35 2b81 0f35 ad36 4e33
00000170: 1883 4a34 c457 0b35 4ab5 8e33 4a37 5c34
00000180: 802c fc34 d6e2 b033 8fec b834 f57c 1335
00000190: 45d3 f433 0c7f c534 0f9a cb34 b457 4433
000001a0: 0a93 5034 7364 fb34 8ae0 8733 6136 8b34
000001b0: eb46 ac35 d49e 2c34 4e88 bb34 786d b235
000001c0: dfeb 6e34 540d fc34 96dc 6436 ab99 af34
000001d0: bfc4 a335 304f 7c36 980b f334 075d d935
000001e0: d362 8b35 26d8 4a34 4c61 9835 1e4f b535
000001f0: 6960 8c34 b0cb b535 75a5 9a35 a15d 0934
00000200: f249 cd34 cef8 9935 2420 3e34 554d c134
00000210: 688d 4d35 9bf9 bc33 0f3f 9834 1c78 6c35
00000220: 4ec7 0234 f4b5 a234 0b7d 2e35 390b 9133
00000230: 11ab 3b34 2fbb 3135 b6c0 c833 dfd4 5e34
00000240: 1912 dc35 b8fc 6234 fbc9 c935 9a7d 3536
00000250: ae15 9d34 aa2f c735 9bb9 bb33 01bf 8332
00000260: 9494 0733 79a4 3334 f658 b632 f8f5 7a33
00000270: be15 4835 d85f 1334 f623 1235 bce2 5435
00000280: 77fa 4b34 58fc 2035 77e8 8c34 4405 e632
00000290: a9a8 6033 a218 9734 252f 1f33 6a01 a733
000002a0: ab60 1335 ae79 f533 a8e9 9534 f8f4 5635
000002b0: 0ce1 2934 9935 ba34 4f7f 7e34 04ea e232
000002c0: c878 8b33 9bf7 9134 ae08 1d33 91d4 bb33
000002d0: e626 2735 a0e3 be33 d49d d234 698d 5035
000002e0: 651a 0434 d08d ea34 96c5 2636 9095 df34
000002f0: 7d26 8f35 9e44 4136 cbba 1a35 8275 cc35
00000300: dbc7 bc34 d2d2 3033 e5ae eb33 c54d e434
00000310: 15bd 7433 0133 2034 1195 9735 561e 0234
00000320: 8355 b834 5463 bb35 4918 3434 ea37 e234
00000330: 67af 5135 471a 1e34 c12d a835 0b62 8335
00000340: c7d3 5a34 d913 ab35 3e17 1234 72cb e232
00000350: aed3 a633 8951 8534 86f3 1c33 cc83 1434
00000360: 2b4b 5a34 db6a df32 e94b 8a33 2758 8634
00000370: 369d 1a33 758d ea33 e903 eb35 e39d 0b34
00000380: 3f4d 5435 8556 cd35 bb3d 4134 f910 9f35
00000390: 9645 b334 0317 5f33 25d5 4834 6842 d634
000003a0: 4263 9a33 a0c0 a634 d2fc 5236 36e3 f634
000003b0: 1c76 8f35 c199 6336 41db 2a35 cbb6 da35
000003c0: 9540 4d34 92ff 0633 9111 fd33 5716 8534
000003d0: 57d9 3a33 d2d7 2134 f490 ea34 49e9 4733
000003e0: c29b 0934 b644 2835 db58 8a33 c476 9234
000003f0: ea77 b534 aa1c b933 ba5e 1635 f6c2 0e35
4.951405e-07 6.782623e-08 3.4855316e-07 5.5569166e-07 9.3877134e-08 4.4348377e-07 1.3337867e-06 1.7640367e-07
3.6672765e-07 1.5565047e-06 2.4415738e-07 9.663148e-07 1.0730347e-06 1.8315875e-07 6.8191724e-07 1.6337891e-06
2.5350664e-07 1.1397048e-06 1.6904299e-07 1.502644e-08 4.3080437e-08 2.0614124e-07 2.0797819e-08 6.843468e-08
5.1171844e-07 4.1177653e-08 1.7734551e-07 5.120087e-07 5.6993187e-08 2.6413724e-07 1.7749657e-07 4.1723315e-08
1.8127703e-07 3.4727051e-07 5.7748526e-08 2.0282353e-07 1.7865636e-06 2.0067377e-07 5.427549e-07 2.2846964e-06
2.7774954e-07 8.873694e-07 1.9172517e-06 4.293415e-07 2.105661e-06 2.1800806e-06 5.9424445e-07 2.8638228e-06
2.5544085e-07 3.8780225e-08 1.7303647e-07 4.2897827e-07 5.3675098e-08 2.135743e-07 8.875983e-07 1.5691552e-07
3.791845e-07 1.363911e-06 2.1718424e-07 6.674938e-07 7.2485733e-07 7.829901e-08 1.6889159e-07 8.1735527e-07
1.08372234e-07 2.402436e-07 1.7023343e-07 2.4791788e-08 7.2246905e-08 2.1579505e-07 3.4313857e-08 9.586769e-08
9.059696e-08 1.41048035e-08 4.6779782e-08 1.3888322e-07 1.9522203e-08 7.1336096e-08 1.8321082e-06 2.610205e-07
4.6480463e-07 2.4184428e-06 3.6127415e-07 7.794049e-07 1.549444e-06 1.6795425e-07 6.376881e-07 1.6956465e-06
2.324625e-07 9.5210805e-07 5.3459615e-07 4.801284e-08 1.8860408e-07 5.190925e-07 6.6453666e-08 2.050921e-07
4.6971036e-07 8.2369e-08 3.444479e-07 5.4943604e-07 1.1400565e-07 3.6786548e-07 3.792379e-07 4.571457e-08
1.9425002e-07 4.682548e-07 6.327271e-08 2.5930333e-07 1.2835638e-06 1.607653e-07 3.493064e-07 1.3293893e-06
2.2251287e-07 4.6948355e-07 3.4103045e-06 3.2708098e-07 1.2201707e-06 3.759702e-06 4.5270713e-07 1.6194834e-06
1.0385069e-06 1.889135e-07 1.13532e-06 1.3508577e-06 2.614718e-07 1.3544832e-06 1.1522048e-06 1.2793181e-07
3.8238028e-07 1.14718e-06 1.7706822e-07 3.6005318e-07 7.6574224e-07 8.799835e-08 2.8358087e-07 8.8091633e-07
1.21797e-07 3.030724e-07 6.500201e-07 6.75413e-08 1.7477966e-07 6.6210026e-07 9.34828e-08 2.0752803e-07
1.6396544e-06 2.1139829e-07 1.5034451e-06 2.7044211e-06 2.9259303e-07 1.4840527e-06 8.7416275e-08 1.5337266e-08
3.1567268e-08 1.6730509e-07 2.1228043e-08 5.8431368e-08 7.4537445e-07 1.372531e-07 5.444157e-07 7.9306096e-07
1.8996967e-07 5.9971853e-07 2.6246173e-07 2.6777919e-08 5.230746e-08 2.8143864e-07 3.706295e-08 7.776801e-08
5.490244e-07 1.1430835e-07 2.792342e-07 8.007769e-07 1.5821223e-07 3.4684197e-07 2.3701908e-07 2.641628e-08
6.494662e-08 2.718851e-07 3.6562305e-08 8.746532e-08 6.226895e-07 8.888969e-08 3.9230383e-07 7.7691817e-07
1.230306e-07 4.368908e-07 2.4850938e-06 4.1645808e-07 1.0665532e-06 2.8799182e-06 5.764129e-07 1.5233384e-06
3.5163143e-07 4.1169933e-08 1.09748534e-07 4.2524894e-07 5.6982646e-08 1.4919716e-07 1.1293761e-06 1.211823e-07
3.433489e-07 1.3961494e-06 1.6772641e-07 4.2136463e-07 7.811381e-07 1.4724456e-07 1.2530292e-06 9.788795e-07
2.0379876e-07 1.2746269e-06 1.3605765e-07 2.6402379e-08 7.768482e-08 2.4832505e-07 3.6543064e-08 1.3831522e-07
2.0330178e-07 2.6009209e-08 6.439934e-08 2.5023584e-07 3.59989e-08 1.0922205e-07 1.7510002e-06 1.3002823e-07
7.908856e-07 1.5298871e-06 1.7996983e-07 1.1851363e-06 3.339198e-07 5.1942163e-08 1.8703993e-07 3.9908923e-07
7.189239e-08 3.1060063e-07 3.14396e-06 4.5986388e-07 1.0688705e-06 3.3915132e-06 6.364899e-07 1.6295465e-06
1.9115608e-07 3.1431746e-08 1.1784426e-07 2.4789435e-07 4.350417e-08 1.5072808e-07 4.3691364e-07 4.654547e-08
1.2815784e-07 6.2684865e-07 6.4422885e-08 2.7281033e-07 3.3801126e-07 8.619948e-08 5.60172e-07 5.318283e-07

exp_avg f4 [128]
00000000: 3cbd 01b7 f102 29b9 1045 acb8 643a aeb6
00000010: 9994 08b8 e9bc 2139 1437 b8b8 5f08 13b9
00000020: 5f90 03b8 6279 58b9 6b48 acb8 7267 a8b7
00000030: 9627 dab7 58f8 2d39 539c eeb8 146d 85b8
00000040: 4010 1237 76dc 09b9 9925 3db9 a20e dbb8
00000050: 2d6d ccb7 58b3 a2b9 d780 95b8 e552 3738
00000060: 8a72 0938 130c fbb7 0e51 10b9 000e f3b4
00000070: fac0 10b9 5626 0fb8 207f 41b8 acce aab9
00000080: 2854 fdb6 0027 aa36 4635 3938 c25e 57b8
00000090: f8fd 1bb8 fe12 d9b8 86eb 09b8 2915 5ab9
000000a0: bd6b e436 17ac 95b8 bc6b 2b37 2eb1 bcb8
000000b0: 72ae 95b8 d4a8 1bb9 0085 fe34 ca22 84b8
000000c0: dc4c 35b9 4d21 acb8 c2d9 69b9 7623 ea37
000000d0: ae4f 78b8 d829 8338 015e e4b8 d5aa d9b8
000000e0: ac79 adb8 a94d 0339 76e7 14b6 c853 ddb7
000000f0: f891 47b7 d5b9 f5b8 9754 aab8 9a19 0c38
00000100: eec5 8c38 7c5d 3fb9 52ca db38 f233 0fb9
00000110: f4fb c5b8 c256 7039 4a54 54b8 5f90 d1b8
00000120: 846b 23b7 9a65 b138 64da 51b7 236f 85b8
00000130: 9aa0 46b9 4970 4137 212c 80b7 48d8 e7b8
00000140: d698 16b7 9c6e 12b9 ac23 7eb8 5418 9538
00000150: 9949 13b9 1583 f5b7 9bc6 efb8 2a3b 5c37
00000160: 5072 21b7 48ba 28b9 6fd5 6338 474f b9b8
00000170: f58e eeb7 fc71 5cb8 74e5 beb7 c24f a4b9
00000180: 1ed6 9eb8 ae96 8cb8 2463 6d39 7a62 a9b7
00000190: 7a7f 6c38 560c 7db9 da20 90b8 6d01 9fb9
000001a0: 7a9e 41b8 8164 5cb8 4499 19b8 b9b5 a7b8
000001b0: a69e 05b8 798b 43b8 1018 a3b9 ebf7 39b9
000001c0: 28d0 0d37 a198 97b8 7425 2bb9 28e0 9f35
000001d0: 1971 88b8 ad1b 68b9 01bb 2cb8 b815 4b38
000001e0: d8bc bb38 3237 11b9 eeb2 bdb8 1cad 5d37
000001f0: 4c69 d3b8 a146 dfb8 c70a bb38 0906 1f36
-7.733059e-06 -0.00016118192 -8.214463e-05 -5.1924017e-06 -3.256332e-05 0.00015424531 -8.784063e-05 -0.00014022131
-3.136729e-05 -0.00020644584 -8.215088e-05 -2.0075331e-05 -2.6006059e-05 0.00016591081 -0.00011377842 -6.3622516e-05
8.706062e-06 -0.00013147466 -0.00018038451 -0.00010445459 -2.4369534e-05 -0.0003103267 -7.128872e-05 4.37078e-05
3.2770018e-05 -2.9927154e-05 -0.00013763105 -4.5272463e-07 -0.000138048 -3.412956e-05 -4.613318e-05 -0.0003257891
-7.5497846e-06 5.070935e-06 4.4157052e-05 -5.1348245e-05 -3.7191407e-05 -0.00010350904 -3.2882694e-05 -0.00020797983
6.807472e-06 -7.136928e-05 1.0217478e-05 -8.997541e-05 -7.1373666e-05 -0.00014844845 4.7407957e-07 -6.3007305e-05
-0.00017290137 -8.207802e-05 -0.00022301733 2.7911487e-05 -5.9202015e-05 6.254361e-05 -0.00010889397 -0.00010379186
-8.271946e-05 0.00012522064 -2.2188447e-06 -2.6384267e-05 -1.189531e-05 -0.00011717124 -8.121988e-05 3.3402444e-05
6.7125875e-05 -0.00018250005 0.00010480419 -0.00013656894 -9.440622e-05 0.00022920503 -5.062324e-05 -9.992788e-05
-9.74059e-06 8.4589425e-05 -1.2508219e-05 -6.362635e-05 -0.0001894258 1.152984e-05 -1.5279338e-05 -0.00011055224
-8.976282e-06 -0.0001396485 -6.059154e-05 7.109405e-05 -0.0001404643 -2.9267316e-05 -0.00011433401 1.3126797e-05
-9.622963e-06 -0.00016091124 5.4319793e-05 -8.836254e-05 -2.843838e-05 -5.2558244e-05 -2.2756612e-05 -0.00031339942
-7.5739095e-05 -6.7037865e-05 0.00022639014 -2.0192227e-05 5.6385506e-05 -0.00024132556 -6.872574e-05 -0.00030327906
-4.616238e-05 -5.254569e-05 -3.6620782e-05 -7.997029e-05 -3.1857424e-05 -4.6621517e-05 -0.0003110771 -0.00017735331
8.45272e-06 -7.2286704e-05 -0.00016321783 1.1911661e-06 -6.5060514e-05 -0.00022135554 -4.1182157e-05 4.84192e-05
8.95203e-05 -0.0001384884 -9.0455505e-05 1.3212932e-05 -0.00010080877 -0.00010646624 8.918862e-05 2.369636e-06
