Project/Assets/ML-Agents/Examples/MyTest/Scripts/TFModels/ppo/MoveToGoal.onnx (onnx, 74134 bytes, 5 tensors)

network_body._body_endoder.seq_layers.0.weight f4 [128, 1]
-1.4363408 -0.8574159 0.6628002 -0.49451807 -0.43185174 1.1625936 -2.6093278 0.065355636
-0.102533884 -0.7157417 -1.2270085 -2.5974472 0.7853063 -1.4014717 -0.49267235 -0.50072646
-0.65619767 -1.1736728 -1.2396997 -1.0726203 -1.2104969 -1.4142766 -0.16947992 -0.53189343
0.05200387 -0.8556915 -1.1667666 -1.965748 -1.3666466 0.3084739 0.41205335 -1.1006856
-1.2288909 0.9373612 -1.0601605 -0.021604726 -0.42555082 1.3579412 2.0626497 -0.05342139
-0.603301 -0.9211953 0.9921079 1.2298235 1.0669293 -0.3683737 2.217666 1.1184665
-0.6062203 0.49021232 0.61054075 0.43889362 1.2882557 0.46187887 -0.15001456 -0.39421216
-1.7285317 0.36355942 0.36271274 2.3062868 -1.6473695 1.5521189 -0.19151846 -0.7033952
1.3518469 -2.318183 0.4073161 2.0313191 -0.71638143 -1.0111977 -0.9193046 1.2459831
-0.4185553 -1.454009 -2.05944 -2.5208752 0.932335 0.73082983 -1.1768596 -0.62346774
0.43472752 0.9270507 -1.6188328 0.4952374 1.6211798 -0.2745698 -0.98217064 -2.0308473
-0.28653875 -0.8688326 0.98642266 -0.045019697 0.09952625 0.22348413 -1.8013101 -0.76987153
-0.53093714 0.2465954 -0.5262147 -0.24494496 0.9878741 2.4765725 1.0700473 -0.5111923
-1.3090279 0.056472294 0.24194106 -0.08787429 0.8893272 0.9783093 0.7833931 -1.6451726
1.6989051 0.009885208 -0.13772273 -0.13517454 -0.72783345 -0.67146975 -0.9764394 0.087029114
-1.2896981 1.1983942 -0.1398082 -0.2875312 -0.572752 0.8964771 -1.9384413 -0.46256575
00000000: 04da b7bf 9c7f 5bbf 46ad 293f 7931 fdbe
00000010: ac1b ddbe decf 943f 3aff 26c0 2dd9 853d
00000020: 49fd d1bd d93a 37bf 9d0e 9dbf 933c 26c0
00000030: d509 493f 6d63 b3bf 8d3f fcbe 9c2f 00bf
00000040: 92fc 27bf e93a 96bf 7bae 9ebf 9f4b 89bf
00000050: 90f1 9abf 0407 b5bf 258c 2dbe 2b2a 08bf
00000060: 0302 553d 990e 5bbf 9c58 95bf a19d fbbf
00000070: 47ee aebf 4bf0 9d3e a8f8 d23e 44e3 8cbf
00000080: 4c4c 9dbf e7f6 6f3f 57b3 87bf 65fc b0bc
00000090: cce1 d9be 04d1 ad3f 7402 0440 63d0 5abd
000000a0: ef71 1abf 75d3 6bbf c9fa 7d3f db6a 9d3f
000000b0: 2491 883f 7a9b bcbe 3dee 0d40 e929 8f3f
000000c0: 4131 1bbf 1cfd fa3e 664c 1c3f aab6 e03e
000000d0: 90e5 a43f 637b ec3e 6b9d 19be 2dd6 c9be
000000e0: 8740 ddbf 7624 ba3e 7cb5 b93e 349a 1340
000000f0: 01dd d2bf d5ab c63f 6a1d 44be b511 34bf
00000100: 5209 ad3f 1c5d 14c0 bc8b d03e 2201 0240
00000110: c664 37bf ed6e 81bf 8c57 6bbf 607c 9f3f
00000120: e14c d6be f81c babf ddcd 03c0 0556 21c0
00000130: 82ad 6e3f aa17 3b3f 56a3 96bf 959b 1fbf
00000140: 9b94 de3e 3253 6d3f ea35 cfbf c28f fd3e
00000150: d282 cf3f 6a94 8cbe 896f 7bbf 67f9 01c0
00000160: 35b5 92be d06b 5ebf 3286 7c3f 9366 38bd
00000170: 6bd4 cb3d 06d9 643e 5491 e6bf 4d16 45bf
00000180: 7feb 07bf 8183 7c3e 02b6 06bf dad2 7abe
00000190: 51e5 7c3f 2a80 1e40 4ff7 883f 80dd 02bf
000001a0: 3a8e a7bf 7e4f 673d 66bf 773e 70f7 b3bd
000001b0: f3aa 633f 7a72 7a3f 738c 483f 0495 d2bf
000001c0: b975 d93f 91f5 213c 3007 0dbe 326b 0abe
000001d0: 4b53 3abf 71e5 2bbf eff7 79bf 523c b23d
000001e0: d414 a5bf fb64 993f e129 0fbe 4a37 93be
000001f0: e09f 12bf 867f 653f d81e f8bf 6bd5 ecbe

network_body._body_endoder.seq_layers.0.bias f4 [128]
0.0 0.0 0.0 0.0 0.0 0.0 0.0 0.0
0.0 0.0 0.0 0.0 0.0 0.0 0.0 0.0
0.0 0.0 0.0 0.0 0.0 0.0 0.0 0.0
0.0 0.0 0.0 0.0 0.0 0.0 0.0 0.0
0.0 0.0 0.0 0.0 0.0 0.0 0.0 0.0
0.0 0.0 0.0 0.0 0.0 0.0 0.0 0.0
0.0 0.0 0.0 0.0 0.0 0.0 0.0 0.0
0.0 0.0 0.0 0.0 0.0 0.0 0.0 0.0
0.0 0.0 0.0 0.0 0.0 0.0 0.0 0.0
0.0 0.0 0.0 0.0 0.0 0.0 0.0 0.0
0.0 0.0 0.0 0.0 0.0 0.0 0.0 0.0
0.0 0.0 0.0 0.0 0.0 0.0 0.0 0.0
0.0 0.0 0.0 0.0 0.0 0.0 0.0 0.0
0.0 0.0 0.0 0.0 0.0 0.0 0.0 0.0
0.0 0.0 0.0 0.0 0.0 0.0 0.0 0.0
0.0 0.0 0.0 0.0 0.0 0.0 0.0 0.0
00000000: 0000 0000 0000 0000 0000 0000 0000 0000
00000010: 0000 0000 0000 0000 0000 0000 0000 0000
00000020: 0000 0000 0000 0000 0000 0000 0000 0000
00000030: 0000 0000 0000 0000 0000 0000 0000 0000
00000040: 0000 0000 0000 0000 0000 0000 0000 0000
00000050: 0000 0000 0000 0000 0000 0000 0000 0000
00000060: 0000 0000 0000 0000 0000 0000 0000 0000
00000070: 0000 0000 0000 0000 0000 0000 0000 0000
00000080: 0000 0000 0000 0000 0000 0000 0000 0000
00000090: 0000 0000 0000 0000 0000 0000 0000 0000
000000a0: 0000 0000 0000 0000 0000 0000 0000 0000
000000b0: 0000 0000 0000 0000 0000 0000 0000 0000
000000c0: 0000 0000 0000 0000 0000 0000 0000 0000
000000d0: 0000 0000 0000 0000 0000 0000 0000 0000
000000e0: 0000 0000 0000 0000 0000 0000 0000 0000
000000f0: 0000 0000 0000 0000 0000 0000 0000 0000
00000100: 0000 0000 0000 0000 0000 0000 0000 0000
00000110: 0000 0000 0000 0000 0000 0000 0000 0000
00000120: 0000 0000 0000 0000 0000 0000 0000 0000
00000130: 0000 0000 0000 0000 0000 0000 0000 0000
00000140: 0000 0000 0000 0000 0000 0000 0000 0000
00000150: 0000 0000 0000 0000 0000 0000 0000 0000
00000160: 0000 0000 0000 0000 0000 0000 0000 0000
00000170: 0000 0000 0000 0000 0000 0000 0000 0000
00000180: 0000 0000 0000 0000 0000 0000 0000 0000
00000190: 0000 0000 0000 0000 0000 0000 0000 0000
000001a0: 0000 0000 0000 0000 0000 0000 0000 0000
000001b0: 0000 0000 0000 0000 0000 0000 0000 0000
000001c0: 0000 0000 0000 0000 0000 0000 0000 0000
000001d0: 0000 0000 0000 0000 0000 0000 0000 0000
000001e0: 0000 0000 0000 0000 0000 0000 0000 0000
000001f0: 0000 0000 0000 0000 0000 0000 0000 0000

network_body._body_endoder.seq_layers.2.weight f4 [128, 128]
-0.062153336 0.046419635 -0.012874044 0.013967212 0.1426821 -0.09286142 0.06615307 0.051460717
0.050564658 0.094625175 -0.19304767 0.06744203 0.1222622 -0.11371244 -0.0876173 0.17268205
0.05954461 0.00082587876 -0.078992695 -0.08682453 0.029228073 0.08630787 -0.008005035 -0.0063304156
0.053717718 -0.010044146 0.040229775 0.040409125 -0.05500568 0.06659478 0.011642382 0.023330335
0.16188568 0.124557905 -0.16252318 -0.12792741 -0.021598788 0.21277982 0.057796773 -0.08875865
0.10512251 0.20233075 -0.024101783 0.030398732 -0.12600948 -0.04956619 0.16382267 -0.072260246
-0.040392164 0.026213108 0.052733213 0.11375135 -0.0071279784 -0.07747816 -0.02006409 0.07683384
-0.12819871 0.0582102 0.084323265 0.09478667 0.069020495 -0.08287911 0.08753337 0.17528377
0.080400914 -0.034779433 0.05203455 -0.027226347 -0.071511485 -0.008405844 0.049954273 -0.15532093
-0.178345 0.030616026 0.057250317 0.0999119 0.10826485 -0.029926414 -0.0043196864 -0.096112385
0.011612831 -0.053463187 -0.059407424 -0.115206055 -0.028979056 0.05978721 -0.028274126 0.0044674585
-0.08046626 0.026502842 -0.01841116 -0.0047831857 0.09929842 -0.04690649 -0.16660194 0.18102248
0.011802704 -0.046434868 0.04096699 0.050036754 -0.04785182 -0.061219197 0.03527417 0.112054415
-0.03441876 -0.15326813 -0.0067399186 0.016394757 -0.10081726 0.02361983 0.1504958 -0.06992052
-0.12174309 -0.1351316 0.15538582 -0.09717063 -0.06285306 -0.116685055 -0.086195216 -0.08247606
-0.15125278 -0.14060488 -0.09498214 -0.032882873 0.12026238 0.013636332 -0.0752617 -0.037488047
0.04026667 -0.052648894 0.08984828 0.050974965 -0.03411247 0.0038829378 0.06288701 0.13859491
0.052117232 0.01600121 -0.21537577 0.12430138 -0.02490859 0.01568914 -0.035558008 -0.063348874
0.10889188 -0.11130454 -0.06676955 -0.17677198 0.11745275 0.06588003 0.09557503 -0.067112304
-0.057521403 0.0068369294 0.06847721 -0.059266504 -0.05048526 0.06536218 0.023392696 0.050196987
0.0010659242 0.08034126 -0.13084699 -0.046477858 0.20251311 0.0063510197 0.05194559 0.10420455
0.12385302 0.11843127 -0.0023410486 -0.20578966 0.057299014 -0.027590046 0.056774694 0.10132726
0.0054349396 -0.0799136 0.017049229 0.12152896 -0.043149002 -0.14329398 -0.14422016 0.121147335
0.13584466 -0.12917377 0.006823074 0.014486698 0.05965377 -0.08418516 -0.050097834 -0.04509293
0.15110414 0.10737981 0.013276201 0.019927314 -0.0071839606 0.13737983 -0.0060497257 -0.053732436
-0.030644517 -0.07558482 0.046063516 0.13116083 0.059285793 0.043856893 0.18976405 -0.010508302
0.11427858 0.11139248 -0.10818901 0.07572159 0.0053627174 0.08147459 -0.032825895 0.045309562
0.04137136 -0.16388325 -0.1234412 0.022080803 0.17353457 -0.05649078 -0.13973576 -0.033998042
-0.0062854155 -0.07832421 0.04959911 0.036733974 -0.03719047 -0.15012906 -0.18514672 0.070106864
0.1031293 -0.027235905 0.115590826 0.1068586 0.07073939 0.07432215 -0.0932705 -0.1668793
0.07032559 -0.033617884 -0.06371173 -0.13475956 -0.09111469 0.00032828865 -0.009982871 0.15960497
0.06525753 -0.11593258 -0.018070146 -0.1310144 0.040627997 0.060279734 -0.05245132 0.032347783
00000000: 7f94 7ebd 8422 3e3d a7ed 52bc bcd6 643c
00000010: 421b 123e 212e bebd 437b 873d 79c8 523d
00000020: e31c 4f3d d8ca c13d 4aae 45be 0c1f 8a3d
00000030: 9b64 fa3d 11e2 e8bd b370 b3bd 90d3 303e
00000040: 0de5 733d c97f 583a ecc6 a1bd 0fd1 b1bd
00000050: b66f ef3c 2ec2 b03d 8d27 03bc 606f cfbb
00000060: 1c07 5c3d 3490 24bc fac7 243d 0a84 253d
00000070: a34d 61bd d862 883d b0bf 3e3c 421f bf3c
00000080: 5cc5 253e 3718 ff3d 7a6c 26be 67ff 02be
00000090: f1ef b0bc f4e2 593e 4fbc 6c3d 18c7 b5bd
000000a0: 784a d73d cb2f 4f3e 1a71 c5bc c306 f93c
000000b0: a108 01be eb05 4bbd 21c1 273e 2efd 93bd
000000c0: 4172 25bd dfbc d63c c8fe 573d 78f6 e83d
000000d0: d191 e9bb dfac 9ebd 725d a4bc 0f5b 9d3d
000000e0: 8646 03be d26d 6e3d adb1 ac3d 831f c23d
000000f0: 9e5a 8d3d 86bc a9bd b244 b33d 977d 333e
00000100: 3ca9 a43d e174 0ebd 2e22 553d ca09 dfbc
00000110: 9d74 92bd aab8 09bc da9c 4c3d 730c 1fbe
00000120: 12a0 36be 76ce fa3c 4f7f 6a3d 9c9e cc3d
00000130: f6b9 dd3d 3d28 f5bc 288c 8dbb 92d6 c4bd
00000140: be43 3e3c 37fc 5abd 3355 73bd 27f1 ebbd
00000150: 7c65 edbc 6fe3 743d 249f e7bc c263 923b
00000160: 7fcb a4bd 7d1c d93c 00d3 96bc 45bc 9cbb
00000170: f85c cb3d 0521 40bd b399 2abe f55d 393e
00000180: 2160 413c 7d32 3ebd 01cd 273d 57f3 4c3d
00000190: 4500 44bd fbc0 7abd a67b 103d c97c e53d
000001a0: b0fa 0cbd 52f2 1cbe 89da dcbb 4c4e 863c
000001b0: 4879 cebd 607e c13c 921b 1a3e 7d32 8fbd
000001c0: 7154 f9bd f05f 0abe 761d 1f3e 6501 c7bd
000001d0: 1bb9 80bd 93f8 eebd 1e87 b0bd 35e9 a8bd
000001e0: 02e2 1abe bafa 0fbe ff85 c2bd 31b0 06bd
000001f0: 1f4c f63d ec6a 5f3c ce22 9abd 118d 19bd
00000200: aaee 243d 5ea6 57bd 6002 b83d 20cb 503d
00000210: 84b9 0bbd e378 7e3b e8ca 803d d3eb 0d3e
00000220: e178 553d f814 833c 778b 5cbe b991 fe3d
00000230: 190d ccbc 8386 803c 46a5 11bd 0ebd 81bd
00000240: b502 df3d a2f3 e3bd 79be 88bd b703 35be
00000250: 118b f03d 1cec 863d d7bc c33d 2d72 89bd
00000260: 909b 6bbd 5208 e03b c83d 8c3d 6fc1 72bd
00000270: a2c9 4ebd 9bdc 853d 0aa2 bf3c 5b9b 4d3d
00000280: 7bb6 8b3a f589 a43d c1fc 05be 915f 3ebd
00000290: 995f 4f3e 371c d03b e6c4 543d 3269 d53d
000002a0: a7a6 fd3d 188c f23d 476c 19bb 86ba 52be
000002b0: 5fb2 6a3d 8504 e2bc 958c 683d ab84 cf3d
000002c0: 9417 b23b bea9 a3bd d3aa 8b3c 2de4 f83d
000002d0: 02bd 30bd a8bb 12be 73ae 13be 181c f83d
000002e0: dd1a 0b3e 2146 04be 1894 df3b 9e59 6d3c
000002f0: 8357 743d 4569 acbd 6333 4dbd 5db3 38bd
00000300: 0bbb 1a3e f2e9 db3d 6c84 593c 9b3e a33c
00000310: 6e67 ebbb 4cad 0c3e c73c c6bb 8b16 5cbd
00000320: 360a fbbc 37cc 9abd 19ad 3c3d 064f 063e
00000330: a9d5 723d 49a3 333d 8251 423e 032b 2cbc
00000340: e30a ea3d be21 e43d 3392 ddbd ec13 9b3d
00000350: bcb9 af3b 26dc a63d 7274 06bd 8596 393d
00000360: 0475 293d 03d1 27be bdce fcbd cde2 b43c
00000370: 0cb3 313e e062 67bd e416 0fbe 8841 0bbd
00000380: e3f5 cdbb 7268 a0bd 7028 4b3d 5d76 163d
00000390: 0955 18bd 6fbb 19be 1a97 3dbe 3094 8f3d
000003a0: 7435 d33d d51d dfbc e2ba ec3d afd8 da3d
000003b0: d0df 903d 3636 983d 9b04 bfbd 68e2 2abe
000003c0: dd06 903d e8b2 09bd 4c7b 82bd 69fe 09be
000003d0: 579a babd 281e ac39 328f 23bc 7c6f 233e
000003e0: bda5 853d 0f6e edbd d807 94bc a428 06be
000003f0: 8b69 263d e2e7 763d 32d7 56bd 1c7f 043d

action_model._discrete_distribution.branches.0.weight f4 [5, 128]
-0.0011404029 0.008518885 0.0038834848 0.005916642 0.011117667 -0.008960322 -0.010718223 -0.005669244
-0.0121200215 0.0011273707 0.009818564 -0.0039683688 -0.015309806 -0.0037401647 0.00052135315 -0.001873975
-0.0006608294 -0.0027824373 -0.0030568212 -0.00013351701 0.0022891716 0.0057614353 -0.008084401 -0.001801236
-0.004112124 0.00052094687 0.0011867998 -0.004478046 0.00024163291 0.004620254 0.005911945 -0.018070174
0.00023595677 -0.01357071 -0.00012273982 -0.0020218275 -0.0050369315 -0.0026817496 -0.010462971 0.0054904944
-0.0040348587 -0.0055041173 -0.010694851 -0.00575602 0.0066252933 -0.012517566 -0.0052251797 0.0060201404
-0.0050193905 -0.011983398 -0.0004912351 0.0045187823 0.009289474 -0.0057464275 0.0038785113 0.009164412
-0.0007127273 -0.008431724 -0.008575085 0.0022338736 0.0063502253 -0.0007231375 -0.008445687 -0.0044954256
0.0038320401 0.0068216384 0.00049652567 -0.006118496 -0.0032555014 -0.008041606 -0.0027390681 -0.0012603204
-0.010571212 -0.009106059 -0.0035588003 0.009604715 -0.0034660723 0.003854756 0.008778113 0.024316845
-0.0052216263 0.0075244005 0.025646543 -0.009005619 -0.00045501217 0.005715963 0.008338021 0.002637223
0.0011484285 0.0086918585 -0.008794287 0.018450411 0.007210189 -0.006153001 -0.0050330213 0.007488215
-0.007917322 -0.0058540483 -0.0003043989 -0.0042994777 -0.0014749585 0.0075382614 0.008854612 0.009713214
0.004471217 -0.011921278 -0.006793362 0.007007643 -0.015203371 0.0033074524 -0.0009005996 -0.005515542
-0.0022227983 -0.022012461 0.013619157 -0.0003843414 -0.01149326 -0.019908093 0.0011137147 -0.003633758
0.011918062 0.008980018 -0.0031195392 -0.006386002 0.01822087 -0.019726854 -0.0044298433 -0.009274593
0.0010271405 -0.005544017 -0.0040454343 -0.002918233 0.018521257 0.022695022 0.02101886 -0.0038341545
0.006412989 -0.0005558832 0.003885232 -0.0031577405 -0.0034408744 0.0010031365 -0.009879085 -0.00350605
0.0014555365 -0.011323254 0.0064083785 -0.0029214628 0.0018379111 0.007701605 0.0189317 -0.015047568
-0.012318038 -0.00826764 -0.006429794 0.0051996275 0.0029233997 0.0011497604 -0.022654569 -0.0032894176
0.001089049 -0.0033566486 -0.0030666848 -0.0113060465 0.0062556886 -0.005578484 0.007019835 0.0018084219
0.006850173 -0.00022948394 0.006973059 -0.0052559027 -0.009220342 0.010886895 -0.00012024284 -0.0039521228
-0.0067767166 -0.0124953715 0.0052139307 0.025122348 0.0046354844 0.011610931 0.0037207834 0.01636239
-0.003210266 0.0006990586 -0.004907262 0.0030556014 -0.0028390298 -0.009782699 0.009417641 -0.013770427
-0.012740716 0.012033629 0.0018085762 0.015488567 0.011945585 -0.0040971967 0.007437443 4.9274393e-05
0.0033265078 -0.004838303 -0.0032618113 -0.0019693335 -0.011250606 -0.005101665 0.0043508476 -0.00055706815
-0.0010471994 -0.0045163496 -0.013227805 0.009159507 0.0058377376 0.006620428 -0.006359465 0.0057328935
-0.00625245 -0.005478361 0.016051067 -0.0025249773 0.0042763315 0.012358294 -0.012351775 0.0045383405
-0.0013776915 -0.010847445 0.0030395908 -0.010190122 -0.0003143021 -0.008071922 0.011280595 -0.016541472
0.022737568 0.00843978 -0.000114980736 -0.0020855323 -0.0090320995 0.007929871 -0.00064238504 -0.0016034389
0.01006336 -0.005563452 -0.00616509 0.010971238 0.009989612 0.005555165 -0.007592011 -0.002748427
0.011113934 -0.009358306 0.008445853 0.0024485851 0.023567239 -0.0038157695 -0.014624851 0.0060768384
00000000: 9279 95ba cb92 0b3c 1082 7e3b 64e0 c13b
00000010: e026 363c 50ce 12bc 7c9b 2fbc 11c5 b9bb
00000020: 0e93 46bc 49c4 933a 0bde 203c 1709 82bb
00000030: fbd5 7abc 8d1d 75bb 6bab 083a 2ba0 f5ba
00000040: 833b 2dba 8d59 36bb f354 48bb b300 0cb9
00000050: ed05 163b 6cca bc3b 6f74 04bc 7317 ecba
00000060: ffbe 86bb 2790 083a 658e 9b3a 93bc 92bb
00000070: d75e 7d39 8065 973b fdb8 c13b e707 94bc
00000080: 2a6b 7739 af57 5ebc b8b3 00b9 a380 04bb
00000090: d80c a5bb 4bc0 2fbb e26c 2bbc 9be9 b33b
000000a0: d936 84bb e25b b4bb 7539 2fbc ff9c bcbb
000000b0: fd18 d93b 7a16 4dbc fc37 abbb 9944 c53b
000000c0: b379 a4bb 0456 44bc 3bc6 00ba 4b12 943b
000000d0: e132 183c 874c bcbb 9f2e 7e3b 5426 163c
000000e0: 52d6 3aba 3725 0abc 837e 0cbc 2e66 123b
000000f0: 8d15 d03b f090 3dba c75f 0abc 5d4e 93bb
00000100: f722 7b3b 0d88 df3b 4629 023a aa7d c8bb
00000110: 405a 55bb f1c0 03bc f081 33bb 5631 a5ba
00000120: e032 2dbc 9431 15bc c33a 69bb 185d 1d3c
00000130: 0b27 63bb 13a0 7c3b 13d2 0f3c 1f34 c73c
00000140: 2d1a abbb 3f8f f63b b318 d23c 4e8c 13bc
00000150: b38e eeb9 f94c bb3b 329c 083c 43d5 2c3b
00000160: de86 963a 4c68 0e3c ea15 10bc 5125 973c
00000170: 7343 ec3b 1d9f c9bb 0bec a4bb b35f f53b
00000180: a8b7 01bc 51d3 bfbb bb97 9fb9 a2e2 8cbb
00000190: 6553 c1ba 8503 f73b ef12 113c 2c24 1f3c
000001a0: 4983 923b 7751 43bc da9a debb 5fa0 e53b
000001b0: 8f17 79bc d8c1 583b 3716 6cba b8bb b4bb
000001c0: 5eac 11bb 7a53 b4bc e222 5f3c 6e81 c9b9
000001d0: 3a4e 3cbc 4c16 a3bc 10fa 913a 5824 6ebb
000001e0: fa43 433c ed20 133c 2f71 4cbb ab41 d1bb
000001f0: ef43 953c 369a a1bc 3828 91bb 76f4 17bc
00000200: 1ea1 863a 96aa b5bb 908f 84bb d33f 3fbb
00000210: e4b9 973c e9ea b93c bf2f ac3c 7046 7bbb
00000220: 0d24 d23b b1b8 11ba 609f 7e3b 18f2 4ebb
00000230: 4b80 61bb ad7b 833a e3db 21bc c2c5 65bb
00000240: b3c7 be3a 2b85 39bc 60fd d13b 0376 3fbb
00000250: 10e6 f03a bf5d fc3b a716 9b3c 138a 76bc
00000260: 99d1 49bc ff74 07bc 05b1 d2bb a361 aa3b
00000270: 8296 3f3b 8fb3 963a 1396 b9bc 4593 57bb
00000280: 6cbe 8e3a 38fb 5bbb 6ffa 48bb ff3c 39bc
00000290: 85fc cc3b b7cb b6bb a506 e63b 9208 ed3a
000002a0: 6b77 e03b a0a1 70b9 427e e43b b539 acbb
000002b0: eb10 17bc f25e 323c e22a fcb8 cf80 81bb
000002c0: 380f debb 63b9 4cbc 9fd9 aa3b 62cd cd3c
000002d0: 43e5 973b c63b 3e3c 63d8 733b 6b0a 863c
000002e0: 5363 52bb 0741 373a 19cd a0bb 7c40 483b
000002f0: 040f 3abb 9d47 20bc 734c 1a3c 5b9d 61bc
00000300: 70be 50bc b328 453c bf0d ed3a c2c3 7d3c
00000310: 6ab7 433c c741 86bb cbb5 f33b faab 4e38
00000320: 8a01 5a3b a18a 9ebb 1dc4 55bb ef0f 01bb
00000330: 7654 38bc de2b a7bb 8e91 8e3b 3608 12ba
00000340: 2e42 89ba e3fd 93bb 6fb9 58bc c211 163c
00000350: 7e4a bf3b 2df0 d83b 0f63 d0bb ffda bb3b
00000360: 5ae1 ccbb d383 b3bb 877d 833c 177a 25bb
00000370: 7820 8c3b 717a 4a3c 195f 4abc 5cb6 943b
00000380: a893 b4ba 7bb9 31bc df33 473b 78f4 26bc
00000390: eac8 a4b9 1840 04bc 3fd2 383c fb81 87bc
000003a0: 2344 ba3c 0147 0a3c d021 f1b8 6dad 08bb
000003b0: 5ffb 13bc 4aec 013c bb65 28ba 7b2a d2ba
000003c0: cbe0 243c 9e4d b6bb 8604 cabb b5c0 333c
000003d0: 78ab 233c 1a08 b63b 67c6 f8bb f41e 34bb
000003e0: 3817 363c 9553 19bc 7a60 0a3c 7178 203b
000003f0: 1510 c13c fd11 7abb 129d 6fbc 3720 c73b

action_model._discrete_distribution.branches.0.bias f4 [5]
0.0 0.0 0.0 0.0 0.0
00000000: 0000 0000 0000 0000 0000 0000 0000 0000
00000010: 0000 0000
