Project/Assets/ML-Agents/Examples/MyTest/Scripts/TFModels/MyTest1Models/BetterModel/MoveToGoal/MoveToGoal-500008.onnx (onnx, 80286 bytes, 9 tensors)

network_body._body_endoder.seq_layers.0.weight f4 [128, 6]
00000000: f907 b73d eea0 d53e 0a6f 05bf a852 093f
00000010: 558c c1be acb8 243e 9e50 debd bbae b13d
00000020: b116 53bf dfc4 f6bb dd28 fa3e 809b 243f
00000030: c3e5 00bf 6ea2 fd3e 1ec2 3abe aba3 4d3f
00000040: d605 41bf bab8 4b3e aa75 66bf 2a3f 923e
00000050: 4619 d33d 6def a73e 7e05 bcbe fc8d e23e
00000060: 321c c9be f4f2 a1be cf9e b1be 886b 7b3e
00000070: 0156 ba3d 6d9c f13e 5690 013f 4287 ec3e
00000080: c8ac 6fbe 273c 8bbe 6fad 6e3e f54f 1fbf
00000090: 6149 f33d 50be 9cbe 04cc ce3e 6dbd c33e
000000a0: 0e0f c73e 6c1d bd3e ebb1 4a3d 4992 bbbe
000000b0: 6e25 dd3e 73d4 0abf 5e44 933d 1904 c1bd
000000c0: f4fb 0bbf cb2a c53e 58d9 3ebe 1c70 df3e
000000d0: a22a d13e 1a57 04bf 492e 96be cd8e 523f
000000e0: c284 2fbf f5c7 18bd 07fb b4bd 70e2 8c3e
000000f0: ea31 1a3f b769 28bf 4e25 873e 800c 893e
00000100: d473 d33d 3d67 eabe 90b3 41bf aab3 cd3e
00000110: e842 c03e 04d2 943e 6546 62bf b3c9 343f
00000120: 1bf8 8d3d d5dd f23d e99f 1abe 6fff 7c3d
00000130: 448d 283f 63d6 0a3f a96f 03bf 08bb 553f
00000140: 5032 11bf 366f 9e3e 0362 0bbe 2007 1bbf
00000150: 1850 913f 6ec7 54bf 0df2 933e 99d7 393f
00000160: c3fa cfbe 162e 79bf d1e5 1e3e b87c 233e
00000170: a200 ca3c 0c03 09bf e2ec 1e3e 2ca8 b03e
00000180: bfe8 ebbe d502 92be 880c 3c3f f64d cb3e
00000190: 773c 2f3e 6b0b 0e3a 4d0b f53d bfb6 ccbd
000001a0: 8eac 053f c11f a63e d089 c33d 088e e93e
000001b0: ff0a c23d 1db5 d73e 08fb f03c 4177 a43d
000001c0: f9ce 40bf a187 08bf 7b8a d7be c834 053f
000001d0: f08f 95bf 4216 1b3e 3a32 4f3e edb3 c9be
000001e0: e188 fb3d 05bf 703e c904 63bc 43d4 323e
000001f0: 3fd1 e4be fd35 d2be 6603 4abf fafa 043f
00000200: 6d71 58bc 4dd8 973e 7bdc 8e3e 3806 9a3e
00000210: 780e 273f d1ea fcbe addf 02bf 0994 933d
00000220: e1d5 96be 0245 f73e 45c8 c8be 422e 333d
00000230: 8acb 26bf a4fe 88bf d814 3cbf 8373 1abe
00000240: 04f4 adbe 6db4 04bd 8ad7 8abe bc65 e6be
00000250: ad7b c8be e767 2abe 1415 99bc 2216 093d
00000260: 52bc 59bd bfc6 0b3e fd2e fbbd 2e3c 19bf
00000270: b217 e93e 8f7d 39bc b61c 1c3f d065 2a3e
00000280: 7a56 00bf 3d07 02be 0f14 5e3e 6c8a a93e
00000290: a964 65bf b6a6 e33e 0f4d c73d 7dc8 41be
000002a0: c604 2ebf 5b84 35be 3503 243f 55eb dbbd
000002b0: a40c 953f 8417 efbe 513e a73e 26cf 6b3f
000002c0: 22de d63e 9435 97bf 699d 943d 0751 a93e
000002d0: 4ab0 283e 71bd 6cbe 38a7 08bf 0999 053e
000002e0: 5ad3 e0bc c259 b0bd 28dd babd 039e 023f
000002f0: c09d 86bf af86 363f 3703 3b3e 040d a3be
00000300: 1f09 49bd 2ad6 abbe f310 86be f8ff ddbe
00000310: fc5a 12be 480c c6bd 1d48 523f a764 53bf
00000320: db93 bf3c 15a4 1dbe 5640 013f d0ea 313e
00000330: 2d3f 943e 912c 63be ea04 863e 33e2 23be
00000340: 8c1c 763e 4083 313e 454d 93be 502d 32be
00000350: 1ef8 8dbe d518 15bf 7ce9 9d3e 7a26 d1be
00000360: 8fe5 2dbf a405 83be 891f 34be 944d f8bc
00000370: 7c3f 8fbf 510a 093f 68c1 05be 507d e3bd
00000380: 8150 fabe 4679 0d3d 6009 02bf 3711 bd3e
00000390: 0d9d b5bc 540f 8d3d 0217 1bbe 7509 c5bd
000003a0: b9c2 923e 8bec c13e 3641 0bbf ad96 8bbe
000003b0: 690b 023e fa93 673d 2ce4 9ebe 71b9 c73e
000003c0: 30fa 323f a596 953e 2b9e 1a3f 02c5 053e
000003d0: 6ab5 593f 58fc 893d 19b7 c73c 49b9 373e
000003e0: b1da ad3e d94a ce3e 46f7 bfbd 794c 9c3d
000003f0: a8c0 643e c0ff a2be b320 073d ce65 c43e
0.089370675 0.41724342 -0.5212256 0.5364175 -0.37802377 0.16086072 -0.1085522 0.08675905
-0.824565 -0.007530793 0.488593 0.64299774 -0.5035059 0.49537987 -0.18238112 0.8032786
-0.7539953 0.19894686 -0.9002329 0.28563815 0.10307555 0.32799855 -0.3672294 0.4424895
-0.39279324 -0.3163067 -0.34691474 0.24552739 0.09098435 0.47189656 0.50610864 0.46196944
-0.23405755 -0.2719433 0.23308347 -0.6223138 0.1187923 -0.30613947 0.40390027 0.38230458
0.38878673 0.3693651 0.049486082 -0.36635044 0.4319262 -0.5423042 0.071907744 -0.0942461
-0.54681325 0.3850921 -0.18637598 0.4364022 0.4085284 -0.51695406 -0.29332188 0.82249147
-0.6856195 -0.03730007 -0.08836942 0.27516508 0.6023241 -0.6578631 0.2639565 0.2676735
0.10324827 -0.4578189 -0.75664616 0.40176135 0.37551045 0.2906648 -0.88388664 0.7062027
0.06932088 0.11858717 -0.15100063 0.061767038 0.65840554 0.5423338 -0.51342255 0.8348851
-0.56717396 0.30944222 -0.13611607 -0.60557747 1.1352568 -0.83116806 0.28895608 0.725946
-0.40621004 -0.97335947 0.15517356 0.15965545 0.024658505 -0.53520274 0.15520051 0.34503305
-0.4607601 -0.28517786 0.7345662 0.39707917 0.1711291 0.00054185715 0.11965046 -0.099957936
0.5221642 0.324461 0.0954777 0.45616174 0.094747536 0.42130366 0.029416576 0.080305584
-0.75315815 -0.53331953 -0.4209784 0.5203366 -1.1684551 0.1514521 0.20234004 -0.39395085
0.12281967 0.23510368 -0.013856121 0.17463784 -0.44690892 -0.41056815 -0.78911436 0.5194546
-0.013210637 0.29657212 0.27902588 0.3008287 0.6525645 -0.493979 -0.5112255 0.0720597
-0.29460052 0.48294836 -0.39215294 0.043745287 -0.65154326 -1.070271 -0.73469305 -0.15083127
-0.33975232 -0.03239863 -0.27117568 -0.44999492 -0.39156857 -0.16641198 -0.018686809 0.033468373
-0.053158112 0.13650034 -0.12264822 -0.5985745 0.4552589 -0.011321439 0.6098131 0.16640401
-0.5013195 -0.12698074 0.21687339 0.3311342 -0.8960672 0.44463128 0.09731495 -0.18924136
-0.67976034 -0.17726271 0.64067394 -0.107382454 1.1644483 -0.46697628 0.3266473 0.9211296
0.4196635 -1.1813226 0.07256586 0.3306963 0.16473499 -0.23119141 -0.53380156 0.1304666
-0.02744453 -0.0861087 -0.091242135 0.51022357 -1.0516891 0.7129926 0.18262945 -0.31845868
-0.049080964 -0.33561832 -0.26184806 -0.4335935 -0.1429252 -0.09670311 0.82141286 -0.8257546
0.023385933 -0.15394624 0.50488794 0.1737473 0.2895445 -0.2218497 0.26175624 -0.16004257
0.24034327 0.17335224 -0.2876989 -0.17400098 -0.2772836 -0.58241016 0.30842197 -0.40849668
-0.67928404 -0.2559024 -0.17590155 -0.03031043 -1.1191249 0.53531367 -0.1306206 -0.11107886
-0.48889545 0.034539483 -0.50795555 0.36927196 -0.022169614 0.06887689 -0.15145496 -0.096209444
0.28664187 0.3787578 -0.5439638 -0.27263394 0.12699665 0.056537606 -0.31033456 0.39008668
0.69913006 0.29216495 0.60397595 0.13063434 0.8504244 0.06737584 0.0243793 0.17941774
0.3395591 0.4029148 -0.093733355 0.076317735 0.22339118 -0.31835747 0.03299017 0.3835892

network_body._body_endoder.seq_layers.0.bias f4 [128]
00000000: 9900 933c 0921 343c b0c7 893c e5e0 783b
00000010: c819 8639 56c2 ba3c f6b1 2d3c a33e a03a
00000020: 4b55 bf3c 4c68 c33c 1973 613a d87c 033b
00000030: 2117 033c dd0c eebb 5bc0 143c 52b2 3db9
00000040: 2c8d 183b 6eee 7a3b 2e44 8a3c fb78 6d3c
00000050: 15ae 6e3a f1af fdbb f333 a6ba 82a3 943b
00000060: 0944 3cbc 1e70 043d 2e87 e83c 5d22 8f3c
00000070: 0fcc 9f3c 31f9 9fbc 298b 043c 9e9d 613c
00000080: 409e dd3b 2411 cdb9 7e43 6abb e54d 56bb
00000090: 8d78 813b b8d1 a13c 1b05 a73b 98e0 ccb9
000000a0: f870 4b3c 19b7 68bc ad7c cc3c 0ab5 043c
000000b0: 619e 383c d0d7 ec3a 3a29 6c3c b451 c2bb
000000c0: e972 b43c e61b 37bc 0415 d2bc d00c dd3c
000000d0: d4eb daba 27fe 1bba 2c9d 6f3b 6c0d 7a3c
000000e0: dbb4 123d 148b f43b ec83 4c3c b857 98ba
000000f0: 0237 59bc a263 86bc 5d69 533c 6378 253c
00000100: ffef b23b a292 183c 87a1 0b3c 52c6 163b
00000110: 1dd5 de3a 3b89 17bc 77ee a93c dae6 e73b
00000120: 86fe 90bb 3ef0 823a ecd9 21bb 63de 77bc
00000130: f2d4 c6bc 23e3 0abc 2e0f 093c 811b 1e3b
00000140: fa5f 15bc 8a6f ed3b 37d8 323c 4e37 14bc
00000150: 0f3e be3b f83b 123b e150 933c c449 b93c
00000160: 3a2f 95bb 463c 233d 6f97 d0bb 3be2 b7bb
00000170: 06c1 ff3c bfd3 bd3c c65f 5e3c 4f02 af3b
00000180: 5d12 bb3b 1736 a6bb 246d 01bc d800 cf3c
00000190: 55c2 5bbc 3497 f03b e979 793c f56b a23b
000001a0: 5cde 2e3b 0359 9aba 435c 7ebc ea6a 133c
000001b0: 6c8b 8ebc b1fc a93c 939e 88bc af0e 65ba
000001c0: 7fe1 a03c cb19 c5bc d615 c3bc 52df 803c
000001d0: cce5 dcbb ebc5 6b3c 7d7d be3c 2a56 1d3a
000001e0: 7916 9dbb c4b0 763a a93f b73b 919d 74bc
000001f0: 552b 3d3c 9b1f b1b9 50e9 1e3d 3dc5 b7bb
0.01794462 0.010994204 0.016818851 0.0037975844 0.0002557768 0.022797745 0.010601511 0.0012225698
0.0233561 0.023853444 0.000860022 0.0020063426 0.00800112 -0.007264717 0.009079064 -0.00018090874
0.0023277504 0.0038289088 0.016878214 0.014494176 0.000910492 -0.007741921 -0.0012680277 0.004536093
-0.01149083 0.032333486 0.028384771 0.01747244 0.019506482 -0.019528003 0.008089819 0.013770489
0.0067632496 -0.00039113418 -0.0035745795 -0.0032700237 0.0039511384 0.019753322 0.005097044 -0.00039077247
0.012417071 -0.01420381 0.024961794 0.008099804 0.011268229 0.0018069688 0.014414126 -0.00593015
0.02202745 -0.011176085 -0.025644787 0.026983649 -0.0016702362 -0.00059506524 0.0036562188 0.015261989
0.03581701 0.0074628685 0.0124826245 -0.0011622822 -0.013257744 -0.01640493 0.0129035385 0.010099503
0.0054607387 0.009312304 0.008522398 0.0023006392 0.0017000769 -0.009249027 0.020743592 0.00707708
-0.004424873 0.0009989811 -0.0024696542 -0.015128705 -0.024271462 -0.008477005 0.0083654355 0.002412528
-0.009117121 0.0072459625 0.010915807 -0.009046389 0.005805738 0.0022313576 0.017982902 0.022618182
-0.004552749 0.039852403 -0.0063657085 -0.0056116856 0.03121997 0.023172257 0.013572639 0.0053408514
0.005708976 -0.005072366 -0.007899556 0.025268957 -0.013413032 0.0073422436 0.01522682 0.004956717
0.002668283 -0.0011775795 -0.015524927 0.008997658 -0.017400466 0.020750375 -0.016677177 -0.0008737845
0.019638775 -0.02406015 -0.023814123 0.015731487 -0.006741261 0.014390449 0.023253197 0.0006001914
-0.0047939387 0.00094104954 0.0055923057 -0.014930145 0.011545976 -0.0003378362 0.038796723 -0.0056082294

network_body._body_endoder.seq_layers.2.weight f4 [128, 128]
00000000: 4d63 283e 3e1d 07bd 6ef8 fc3d 178a 3d3d
00000010: e7ee f4bc 6d93 f53b 9ce2 41bd f313 3ebd
00000020: 9fba c33c 2d72 88bd 3d63 efbd c63f 203d
00000030: 9fef 123e 93f1 123e 4fef c3bd 5dde 913d
00000040: 9df6 96bd ce68 013e c4ef 793d c17f a03b
00000050: abdd 423e ff68 abbd 1427 99ba f3a6 663c
00000060: b1d7 173d 9a46 56bd 9184 3c3e ce30 90bd
00000070: 55f9 a43c 2ed9 123e 4e83 5e3d 5f41 993c
00000080: 27c4 e43d a7db aebc 5fd9 843c 1a69 923d
00000090: f9ef fd3d ccb6 b9bd ee26 16bd daf2 08bd
000000a0: 2b65 233e 0450 81bd 297c efbc d2a3 1d3d
000000b0: d69e 17bd a835 08bd 8f01 a63d 1a47 9f3d
000000c0: 3003 adbd 77a1 363e b98c 19bd 7776 e2bd
000000d0: 5fd7 243c d6cb 393e 8460 583e 1a87 26be
000000e0: be6e 763d 644c 613b fbaf 88bd 6f97 15be
000000f0: dc55 45bd 8c44 0fbb 940f 56be 5cd4 0dbe
00000100: 3263 d0bd 4f74 95bd 7fa5 9539 0ba4 283c
00000110: 8de5 623b 24ce 2fbd 96f8 00be b16a 57bd
00000120: 2b87 5bbc 5c89 95bd a11d a6bd aacc 75bc
00000130: 6bf8 663d 0614 75bd 4c78 c43c 3e78 fabc
00000140: dd6b 163e e799 613c bfae ca3c 7db0 88bd
00000150: 1420 70bd 11b8 cbbc e703 d9ba c391 ac3d
00000160: 1026 11bd dd0f 25be e8fd 36bd 8794 9d3c
00000170: 7809 833d 5ef3 ef3d 17ed 753d 8242 c3bd
00000180: d324 d63c d73e a43c 1bd9 53bd e6f8 483c
00000190: 2862 063d 72fd c6bc 18bc c2bc 2653 163d
000001a0: 038f 9dbd 1e00 a73d 5a83 88bd f130 7cbd
000001b0: 74a8 07bd 3b60 e63d b6db 57bd e97c 973b
000001c0: f0c0 87bb b372 64bd ecac b7bb d12e 6f3d
000001d0: 4489 55bd 87bf 17bd 638a 6c3d a4b8 603d
000001e0: 1912 383d 4d7e ad3c b0ca 973d 0f94 ba3d
000001f0: 6eeb c138 4b26 73bc 8b59 d63c ba5d 49bd
00000200: 2214 e43d 2607 0d3e 901b 043e bdf6 38bd
00000210: c342 79bd 06d0 273d 684c 6fbd 5385 883d
00000220: 104d b1bc 27d5 c73d b729 e53c 8762 b4bb
00000230: b494 e6bc c9f1 963d efd8 2ebe acea bf3d
00000240: 6f4f be3d 11a3 4c3e 5f43 e63d ae6f 853e
00000250: 93ac 373e 26bf b2bc 68ef be3d ae01 2bbd
00000260: 907d 8bbd 30bf 6cbd 6b27 773d 9c19 523d
00000270: c385 fcbd c69d c63d 7af2 df3c ff01 b4bd
00000280: d0be 22bb 3556 003d dc09 8dbd c2bb 91bd
00000290: 92ef 94bd 9993 17be 8698 52be b802 03bd
000002a0: fb7f b83d 5726 ae3d e7e0 4a3d 0e6f ae3d
000002b0: 76f6 03be 911c 85bd 7487 193e e07f a1bd
000002c0: 2b16 ce3d 2e4b c4bd e566 2bbb adc5 093e
000002d0: b388 de3d f1d9 963c 5471 a43b 0395 583a
000002e0: d08f babc b987 893d 77bc 72bd 90ee 43bd
000002f0: 52dc 343e dc6f a4bd 9898 4e3d 23f4 8fbd
00000300: c7fd 2bbb 2329 a1bd 12a2 d8bd 560e 923d
00000310: 7cae 863d 100c 9e3c 8714 b63d 5f63 22be
00000320: ee84 5a3c b212 623d 34a5 54b9 17e0 033e
00000330: d738 8dbc 372e 9bbd 4b7d b4bd a216 b03c
00000340: 5a20 4c3e 2bde f63d d2be dfbd e153 50b8
00000350: 7c9c 7abc e2ae 7d3d 0124 733c b452 963d
00000360: 775f 9f3c aa8d 83bd f859 c93d 75a5 d8bd
00000370: ed3b 703d 58e7 143c 8383 ecba 5d84 053d
00000380: 0574 243e 5fcf 0d3c 1815 86bd 1dd4 ee3d
00000390: 50e6 b5bb ffac cdbd aa91 883c 6a13 9c3c
000003a0: 3c19 4f39 f827 29bd 5f49 ff3d 5494 853d
000003b0: a6b3 32bd 21d7 8d3c 5df1 203c 601b 1b3c
000003c0: 57a3 b3bc 5d6b cabd c349 2bbd e7ad 0dbd
000003d0: 677b c5bd 7695 8b3d faf8 fd3d 1c9e fabc
000003e0: 92db 86bd 7042 f6bd 1eb4 82bc c603 b6bd
000003f0: e951 003d db7e 9a3d 70e2 8c3d 52cd a33c
0.1644413 -0.032986872 0.12352072 0.04627427 -0.029899074 0.007494381 -0.047335252 -0.046405744
0.023892699 -0.06662402 -0.1168885 0.03912332 0.1434922 0.14349966 -0.09567129 0.071224906
-0.073712565 0.12637636 0.061019674 0.004898042 0.19029872 -0.08369636 -0.001168462 0.01407789
0.037070934 -0.052313425 0.18409945 -0.07040559 0.020138422 0.1434066 0.05432444 0.01870793
0.111702256 -0.021344973 0.016216932 0.07148953 0.12399287 -0.09068069 -0.03665822 -0.033434726
0.15956561 -0.0631409 -0.029234009 0.03848631 -0.037016712 -0.033254296 0.08105766 0.077772334
-0.084478736 0.17835031 -0.03748772 -0.110577516 0.010061114 0.18144163 0.21130568 -0.16262475
0.060164206 0.0034377808 -0.066741906 -0.14608549 -0.048177585 -0.0021860925 -0.2090438 -0.1385054
-0.1017517 -0.07297575 0.000285428 0.010293017 0.0034621686 -0.0429212 -0.12594828 -0.052591983
-0.013398926 -0.0730159 -0.0811112 -0.015002409 0.056389254 -0.05983355 0.023983143 -0.030574914
0.14689584 0.013769603 0.024741529 -0.066742875 -0.058624342 -0.024868043 -0.0016556949 0.08426239
-0.03543669 -0.16119333 -0.044675738 0.019235862 0.063982904 0.117163405 0.06004056 -0.0953417
0.026140606 0.020049496 -0.05172072 0.012266373 0.032808453 -0.024290774 -0.02377133 0.03670039
-0.07693293 0.08154319 -0.06665678 -0.06157011 -0.033119634 0.11248823 -0.052699767 0.0046230447
-0.004142873 -0.05577345 -0.0056053307 0.058394257 -0.05213286 -0.03704789 0.057749163 0.054863587
0.044939134 0.021178389 0.074117064 0.09110271 9.246809e-05 -0.014840673 0.026165744 -0.04916165
0.111366525 0.13772258 0.1290114 -0.045157183 -0.060854685 0.04096987 -0.058422476 0.066660546
-0.021643192 0.097574525 0.027973993 -0.0055049094 -0.028147079 0.073703356 -0.17074941 0.09370932
0.092924945 0.1998408 0.11243319 0.26061767 0.17936926 -0.021819662 0.09323007 -0.04174965
-0.068110585 -0.057799518 0.060340326 0.051293954 -0.123302005 0.09698062 0.027337302 -0.08789443
-0.0024832971 0.031332213 -0.06886646 -0.0711589 -0.07272257 -0.14802398 -0.20565996 -0.031985015
0.09008785 0.085034065 0.04953089 0.08517276 -0.12886986 -0.06499589 0.14993078 -0.07885718
0.10062822 -0.09584652 -0.002615386 0.13454314 0.10865917 0.01841447 0.0050183926 0.00082619506
-0.022773653 0.0671534 -0.059261765 -0.047834933 0.1766217 -0.08029148 0.050438493 -0.07028987
-0.0026243792 -0.07869174 -0.105777875 0.071316406 0.06576249 0.019292861 0.08890634 -0.1585822
0.013337357 0.05519361 -0.00020279438 0.12878452 -0.017239017 -0.07577174 -0.0881296 0.021495167
0.19934216 0.12054094 -0.10925068 -4.9669183e-05 -0.015296098 0.06193436 0.014840127 0.07339993
0.0194547 -0.06423505 0.09831613 -0.105784334 0.0586509 0.00908836 -0.0018044565 0.032596935
0.16059883 0.008655398 -0.06546992 0.11661551 -0.005551137 -0.10042762 0.01667102 0.019052226
0.00019750459 -0.041297883 0.12465166 0.06522432 -0.043628357 0.017314496 0.0098231705 0.009466976
-0.021928472 -0.09883759 -0.04181839 -0.034589674 -0.09642678 0.06815617 0.12401004 -0.03059297
-0.065848485 -0.12024391 -0.015955027 -0.088874385 0.031328116 0.07543727 0.06879127 0.019995365

network_body._body_endoder.seq_layers.2.bias f4 [128]
00000000: 9942 04bb 3772 39bb c1f8 1ebc 1b47 703c
00000010: 681e 57bb 7fb0 1dbc a718 2ebb 5ac6 0bbc
00000020: 5663 b93b 293b 0ebc 88a1 e2bb ec21 a5bb
00000030: 09a5 a6bb 2887 d73b 4c29 993b c88c 1ab9
00000040: 102e 6c3b b221 4c3b b8e4 a437 3cf2 9bbb
00000050: 0936 85bb d855 cbbb 31ec 5cbc aee5 48bc
00000060: f8e5 8a3b 85ac ac3b 42c7 b73c 42f3 05ba
00000070: 8260 47bc 41d7 18bb c8ca d8ba 2c8b 0d3d
00000080: 3745 e8bb a4f9 3ab9 c974 a03b cc15 c0bc
00000090: 4a20 90bb a114 9ebb 152c 343b 9930 e23b
000000a0: 70a2 5c3a d6b1 54bb 2d9d 1c3b a0f9 a7b8
000000b0: bcab 35bc 05ec fa3c 4436 1f3c 8b80 743c
000000c0: a445 903b f9dc f2ba 892b 7a3c 8f7d f03b
000000d0: 7eec d83b 47ae 0e3c f0eb 94bb b4bb 163d
000000e0: 890a 8e3c 6e09 54bb 17c6 a739 db4b d23c
000000f0: 427e c33c 372e 943b 23eb e63a 462b ee3b
00000100: 1ac5 ccba f59b 7a3c 0ee1 36bc 6146 15bc
00000110: 9030 523c a80e 5fbc cb52 493c 267f 663a
00000120: ac9d 073c eed3 dc3b ecd9 823c dbfb 2bbb
00000130: 33a4 8bbb 5a7c 233b a2a1 953c 1910 1fbb
00000140: b4e3 5b3b 2bf3 85ba 959d 103c d115 733a
00000150: 1db0 24bc 083a 20bc 4c77 2bbc 3986 d6bb
00000160: 0c95 0ebc 7512 29bb 2649 7f3c ad26 553c
00000170: 364c 213a 7306 a73c 58c4 a6bb 0b94 24bc
00000180: 11de 2f3c cc70 923c 7633 b2bb faff 3b3c
00000190: fa4b 2d3b 530b 7a3b 8586 f2bb 6d54 f5bb
000001a0: dc91 58bc 9b0f 213c be19 3a3d edb1 b73c
000001b0: eac4 a93c 0584 eb3b 079e 443c d9c8 053b
000001c0: 29d8 953a 8b36 a4bb 533f 043c d6be 653b
000001d0: 9615 6d3c a962 383b 4566 82bc e99a 69bc
000001e0: f0f7 a1bc 1756 123b cee0 b339 4d16 b23a
000001f0: 52af d3bb b596 dd3c f14a 3ebc edad 833c
-0.0020181297 -0.0028296837 -0.009702862 0.01466539 -0.003282452 -0.0096245995 -0.0026564987 -0.008531177
0.0056575937 -0.008681097 -0.0069162287 -0.005039444 -0.0050855917 0.006577391 0.0046741124 -0.0001473903
0.0036038198 0.0031148014 1.9656829e-05 -0.004759101 -0.0040652794 -0.0062053017 -0.013484047 -0.012261791
0.00423884 0.0052695894 0.02243388 -0.00051097956 -0.012169005 -0.002332166 -0.0016539926 0.034556553
-0.007088329 -0.0001783134 0.0048967344 -0.023447894 -0.0043983804 -0.0048242365 0.0027492095 0.006902766
0.0008416539 -0.0032454631 0.0023897395 -8.009677e-05 -0.011088308 0.030630121 0.009717528 0.014923225
0.004402833 -0.001852899 0.015269169 0.0073391865 0.006619989 0.008708543 -0.0045447275 0.0368001
0.017339008 -0.0032354253 0.0003200031 0.025670936 0.023863915 0.004522111 0.0017617684 0.007268342
-0.0015622706 0.015295972 -0.011162056 -0.009111018 0.012828961 -0.013614334 0.012287806 0.00087927503
0.008277338 0.006739131 0.015973054 -0.0026242647 -0.0042615174 0.0024945945 0.01826555 -0.002427107
0.003355247 -0.0010219564 0.008826633 0.0009272965 -0.010051754 -0.009779461 -0.010465454 -0.0065467623
-0.008702528 -0.0025798355 0.015581405 0.013009709 0.0006153019 0.020388817 -0.005089324 -0.010045062
0.010734097 0.017876051 -0.0054382635 0.011474604 0.002644299 0.0038153722 -0.00740129 -0.007486871
-0.013218369 0.009830381 0.045434706 0.022423709 0.020723779 0.007187369 0.012000567 0.0020413904
0.0011432219 -0.005011385 0.008071738 0.0035056374 0.0144704785 0.0028134978 -0.015917907 -0.014258125
-0.019771546 0.0022329146 0.00034309033 0.0013586968 -0.006460109 0.027049402 -0.011614547 0.016074145

action_model._continuous_distribution.log_sigma f4 [1, 2]
00000000: 19a6 bfbc 8d8f 1dbc
-0.023394631 -0.009616745

action_model._continuous_distribution.mu.weight f4 [2, 128]
00000000: 7ec2 c9bc dbfc 5c3a 6d86 413c 0f1a 383d
00000010: a024 543d c440 8f3b a9e6 133c a14d 063d
00000020: 4039 a13c 2bff a1bc fc95 f73b 3e49 67bc
00000030: f38e 773c 134e 22bd bc02 033c b231 d93c
00000040: 2814 843c f4de 353d a38c 223d 23e2 f43c
00000050: 5faf 013d 21af 9bbc a0fe 31bb 8616 68ba
00000060: d828 febc f7bc 10bc 421e 89bb 8eee 92bb
00000070: 68ca d039 0539 093d 5521 913b e463 bd3b
00000080: cdd6 673c 4364 5cbc 17f7 acbc 9fc1 1f3c
00000090: 2d4c b43c 8a48 cdbb b490 a73d cfb3 acbc
000000a0: def4 f63c f139 97ba 2d6e e7bb e01e 95bc
000000b0: 5cdd 213d 5d58 56bc d16e 83bc 831a a5bb
000000c0: 9172 013d 3fdc d8bc 322a 933c e55f 52bb
000000d0: 1632 883c 7064 ec3c ed75 683d 690f 7dbd
000000e0: c41b bc3c 492d 32bc e674 1dbd 694d 103d
000000f0: b3e3 093d 305f de3c cfb3 10bd a7b4 2a3b
00000100: f193 893b 1899 113d f82d 043c 9dee 14bd
00000110: f28d 92bb efc6 2d3d 56e9 29bd ddc8 c2bb
00000120: b626 8f3c 140a 63bc b008 4d3d 2ada 013d
00000130: 35c0 d1bc db8a 4cbd 904e f5bc 17c7 acbc
00000140: 48ca c93b 9f61 82bb 1020 2e3d e891 81bb
00000150: 14b6 4fbc b100 1fbd ee13 b93c e9d7 8abc
00000160: b6e6 86bc d681 5a3a 2a85 23bd bf7c 72bc
00000170: bf93 283c 365a 46bc 6d2d 3dbc f922 a43c
00000180: 98e9 b2bc 4013 723c 2a67 913c 1b7a e739
00000190: a019 d23c fc6d 48bc 1f8b 663c e6c6 b1bc
000001a0: 2639 803c b0da 4ebd 3ed8 7fbc 5960 103d
000001b0: e8a7 e23c bc15 973b 40b4 cf3b 5325 edbb
000001c0: 388d 8e3c c578 c9bc ddc8 b73c 5429 8c3b
000001d0: c5cd 43bd 29ad 0ebd 63b2 523c a50a ab3b
000001e0: c6fc d73c 0319 a13b f7a7 34bd 74cc 0dbb
000001f0: e597 a13b 7c7e a0bb 7e16 873b c970 643c
00000200: 2db0 9db9 42f6 b43b 033a bfbb f228 9ebc
00000210: 5971 803c a307 e0bc b8ef e93c ce67 5dbb
00000220: 106f bf3c 995c 07bc f53b 7abc 855c d93c
00000230: 0526 80bc 71e3 763c 8849 cf3c b290 983a
00000240: 3b99 94bc 68e4 2d3c 9292 babc d372 56bc
00000250: a968 04bc 5d5a 08bc 7fde f8ba f477 bc3b
00000260: 19e4 fc3b 51ee 28bd 123d 023d 766e 98bc
00000270: 4600 2abd 3ff3 0bbd e919 28bd 9f35 cabd
00000280: e7f6 96bb a77b 173d f5f5 00bd 52c6 9a3b
00000290: 6ce6 39bb 8b67 8c3b ba1f 91bc 9f3d 083c
000002a0: 0a27 35bb f68f 03bc 7e51 cc3b 2c83 9c3c
000002b0: 16a7 0dbc 64bc 873d d7c5 d43c b189 20bd
000002c0: f9de 823c a4fa 22bd 84d1 c13c ec4e 153d
000002d0: 8f85 f13c 1ba0 8abb 93d8 073d 09b4 a0bd
000002e0: 586a 293d c153 91bc 230c ed3b 50fc 283c
000002f0: 79da 233c 185b 5bbd c66a 0bbd 9292 123d
00000300: d862 8d3c c951 283c 944e 253c c3d9 62bc
00000310: 5109 383d e073 d0bc ac8b d73c c4a7 463c
00000320: f769 033b d0d4 dbbc c5b1 4b3c 2352 32bc
00000330: 71a3 1bbc bd39 803c 8f33 223d 4062 52bc
00000340: bc9f 673c f7a8 f7bc 9fff 803b dddd df3a
00000350: a793 0e3d e0af 053c e252 34bb 2860 f6ba
00000360: 0844 08bb f811 1abc 6266 b53b 4d1f 3a3d
00000370: 8095 1a3d d84e ba3c 6f91 8b3b 24a5 3dbc
00000380: bb25 303d 3eb4 003d 944c 59bd 2153 e83c
00000390: cd2f 1bbc 9f30 1dbd 09d4 b5bc b870 b3bc
000003a0: 0ce9 14bc ddf2 debc de34 903d 0f4b 30bd
000003b0: 43a2 d93c e80f c53c 6f89 4b3c f8ef ea3b
000003c0: 03c5 2d3c fa24 05bd 3df6 a3bc ae31 f9bc
000003d0: c5cc a83c d213 293c a515 003b 6486 37bd
000003e0: 241c e1bc 43d5 a13c 4a45 70bc a788 f6bc
000003f0: 7ca0 0e3c 3697 c0bd ab02 88bc 8c78 61bd
-0.024628874 0.00084300124 0.011811835 0.044946726 0.05179274 0.0043717343 0.009027162 0.032788876
0.01968062 -0.019774994 0.0075557213 -0.014116583 0.015109765 -0.03962524 0.007996257 0.026512954
0.016122892 0.044402078 0.039684903 0.029892987 0.031661388 -0.019004406 -0.0027159825 -0.0008853454
-0.031025335 -0.008834115 -0.004184515 -0.0044840043 0.00039823656 0.033501644 0.0044290223 0.00577973
0.014150334 -0.013451639 -0.021113915 0.009750753 0.02200898 -0.006264751 0.08181897 -0.021081833
0.030146059 -0.0011537654 -0.0070626945 -0.018203199 0.039517745 -0.013082591 -0.016044052 -0.005038561
0.0316034 -0.026472209 0.017964456 -0.0032100615 0.016625445 0.028856486 0.056753088 -0.061782274
0.022962458 -0.010875055 -0.03844156 0.035230074 0.033664417 0.027144998 -0.03532773 0.0026047619
0.004198544 0.035546392 0.0080676 -0.03636037 -0.0044724876 0.042426046 -0.041482292 -0.005944355
0.017474514 -0.013857383 0.050057113 0.031702198 -0.025604347 -0.04993711 -0.029944688 -0.021091027
0.006158147 -0.0039789225 0.042511046 -0.003954161 -0.012677688 -0.03881902 0.022592511 -0.016948657
-0.016467433 0.0008335387 -0.039921917 -0.01480025 0.010289132 -0.012106469 -0.011546475 0.020036208
-0.021839902 0.014775097 0.017749388 0.0004415073 0.025646985 -0.012233254 0.014071255 -0.021701287
0.01565225 -0.050501525 -0.015615521 0.035248134 0.027667955 0.0046107452 0.006338626 -0.0072371154
0.017401323 -0.02459372 0.022434646 0.0042773876 -0.04780366 -0.034833107 0.0128599135 0.005219775
0.026365649 0.0049163117 -0.044105496 -0.0021636756 0.0049314373 -0.0048978906 0.0041225543 0.013942906
-0.00030076635 0.0055225203 -0.005835773 -0.019306634 0.015679048 -0.027347391 0.02855669 -0.0033783796
0.023368388 -0.008261823 -0.015273084 0.026533375 -0.01564313 0.015068875 0.025303617 0.0011639802
-0.018139472 0.010613538 -0.022774968 -0.0130889 -0.008081594 -0.008322326 -0.0018987207 0.005751604
0.007717621 -0.0412429 0.031796522 -0.01860736 -0.041504167 -0.034167524 -0.041040335 -0.09873509
-0.00460707 0.03698316 -0.031484563 0.0047233487 -0.0028366102 0.004284804 -0.017715324 0.008315473
-0.0027641677 -0.008029928 0.0062353006 0.019105516 -0.008645793 0.066277295 0.025973244 -0.039193813
0.015975462 -0.03978981 0.023659475 0.03645222 0.029482631 -0.004230512 0.033165526 -0.07846839
0.041361183 -0.017740132 0.007234113 0.010314062 0.010000818 -0.05355367 -0.034037374 0.03578431
0.017259046 0.010273405 0.010089535 -0.013845864 0.04493076 -0.025445879 0.026311718 0.012124959
0.0020052174 -0.026834875 0.01243252 -0.010883841 -0.009499417 0.015652532 0.03959995 -0.012840807
0.014137205 -0.030231936 0.0039367224 0.001707967 0.03480878 0.008159608 -0.0027515222 -0.0018796967
-0.0020792503 -0.009403698 0.0055358866 0.045440007 0.03774023 0.022742674 0.0042592804 -0.011575017
0.043004733 0.031421892 -0.053051546 0.028359951 -0.009471846 -0.038376447 -0.022195833 -0.021904334
-0.009088766 -0.027215416 0.070413336 -0.04304033 0.02656663 0.024055436 0.012422903 0.00716972
0.010606053 -0.032505967 -0.020014876 -0.030419197 0.020605454 0.010319667 0.001954415 -0.0448059
-0.027479239 0.019755011 -0.014664957 -0.030094458 0.008705255 -0.09403841 -0.016602835 -0.055046603

action_model._continuous_distribution.mu.bias f4 [2]
00000000: 558f 37ba 5adb 2a3c
-0.0007002254 0.010428274

action_model._discrete_distribution.branches.0.weight f4 [5, 128]
00000000: 5284 8d39 39ab 5d3b 9cc3 e23b 610b 6f3c
00000010: 50df 403c 7c8e ac3c 1df9 8e3c f2ac 5c3c
00000020: d08e ee3c 8413 de3b f55e 663c 7e96 39bb
00000030: b5c0 ec3b ab37 d13b 2e20 9b3c 92b6 75ba
00000040: 2c36 e3bb 4da0 89bb cea8 e7bb 8c5f b03b
00000050: 4a31 32bb 9589 56bc 7a99 e6bb 9cae 3a3c
00000060: 4a21 31bb 457c 703c 92f2 c43c 783e c53b
00000070: a405 813c 8b7e fabb 5e3e 85b9 9403 a4bb
00000080: c1f2 123c b552 043c 3cf1 fa3b ea19 acbb
00000090: b3b2 7c3b c6a3 653c fc1f 8b3c fdc4 933c
000000a0: efed 24bb 7557 47bb 03af 31bc 5462 8c3a
000000b0: 41cc cd3c b245 a3bc 6ecd ab3c 2707 9d3c
000000c0: 83a7 f53a bcd3 173c 4843 0fbb b48e 1cbb
000000d0: c9b9 663c ff46 11bc 8425 503c 7ac6 3dba
000000e0: a760 dcbc 8ceb ed3b eb49 90bc ef5f aebc
000000f0: 76c4 e73c 5234 69ba 51da 6c3a b3a0 0abb
00000100: 0da8 aeba d30c 883c 876c 96bc eb24 193c
00000110: fc42 323c 0a90 b0ba 3aa0 183b c089 373c
00000120: f18e 0c3c 6030 b73c e70b c6b9 01ec b1ba
00000130: 2c8f da3c eaab f73b e560 053c ae40 56bc
00000140: f282 223b 71da 693a 8eba 953c 1e8b 853c
00000150: bab6 d8bb 5cd7 5f3c 749b 3a3c 8401 5c3b
00000160: dd30 d63b 230b b53c eff4 d23b 29c0 453c
00000170: 0591 65bc e24d 87bc 612f 38bc 38a7 ba3b
00000180: e989 1c3c 2e0c 04bc 0e69 233c f3db d23b
00000190: eba6 b13b 1497 063c 92bc 103d 306c fe3a
000001a0: afa1 13bc b58b a139 00bd e63b 9c31 1c3c
000001b0: d83b 81bc 09ba 123b 9c6a 833b aed2 073c
000001c0: 1bd0 dfba 8516 6f3b c1d3 fb3a 8f2e 88bb
000001d0: 2f28 063c 9f40 f33b 29b6 673a 810c 7e3b
000001e0: 2cfa 423c ef95 873c c794 3d3c c8e8 babc
000001f0: ac66 a23b e386 7e3b 47fb 0c3c a7b8 96bb
00000200: 17ef 253c 85fb 23ba cc0e 25bc 2277 4c3c
00000210: 2c31 e2bb 9db7 013a a82e 693b 1484 68ba
00000220: a360 37bb f56b e2bb 7610 7fbb 448d 71bc
00000230: 119f 6e3c 3f95 64bb 17db 663b 87e1 453b
00000240: 5a38 aebb 6ba0 2bba 841c 6f3c 7cce 70bb
00000250: 0f5a 743a 6f0c 36bb 64ed 8abc 9fad 3bbb
00000260: 526e e13a 6309 543c 9f1c 073c 3cbb a5bb
00000270: c826 6f3a d87e edbb 62e6 37ba f318 d13c
00000280: 3625 7dbc 0239 6fba fd35 103b 4e72 313c
00000290: 81ce 3e3b 91ae 0fbc d3ce 2e3c 6ed3 573a
000002a0: ac61 cd3a cc9c 95bc 32c2 553c 5949 0abc
000002b0: 4ba6 51bc 5b72 8b3c 8660 543b 6924 12bb
000002c0: aef6 05bc 1fcb bcbb 5b47 df3b 8871 953c
000002d0: bd87 af3b 0b99 2bbc 08c3 a63b 3d41 9e3c
000002e0: 5c33 c43c 462b a3b9 d8bd 413c f138 9fbc
000002f0: 7281 93bc 433a 02bc 1bfa 463c cfbc 533b
00000300: 5b55 a23c 6aab 8a3c 619e ed39 7d66 72bb
00000310: e2a6 51bc 3180 76bc 47ee c33b ecc0 04bb
00000320: 4149 023b 6e7c 2c3a 23e6 06bc 6dd0 37bc
00000330: 94f6 95bc 7cea 83bb dc36 a43c fff4 ca3b
00000340: 6907 4a3b da84 94bc f3ba 89bc 611c 6ebb
00000350: 40e3 74bc 28f6 023c 0b44 a3bc 1e2b 9bba
00000360: fd70 f239 5b74 293c 18c0 3b3c a462 b0bc
00000370: fee3 fbba 2f2b f03b 21cc 783c 09e5 c738
00000380: 6614 433b ade9 eabb a520 42bc caab a83b
00000390: d48b 2a3a 7cfb e3bb 362c a5bc ef8a 01bb
000003a0: ff2b 86ba 1095 ad3c 046a 2ebb daeb 42ba
000003b0: f111 a83b 1d96 373c 6466 393b e7e8 44bc
000003c0: 53df d53b 609e 723b 51f2 4abc 1a29 0a3b
000003d0: ec7e 823c 25fd e7bb 8fd0 9abc f134 ab3b
000003e0: 78d1 0e3a 7553 113c 3043 383c 5369 aebb
000003f0: 15e1 21bc 49f6 613c 3a2a 393c 2b39 bcbb
0.00026992202 0.003382398 0.006920291 0.014590115 0.011771992 0.021064036 0.01745277 0.013468968
0.029120833 0.006777229 0.014060725 -0.002831846 0.007225121 0.00638481 0.018936243 -0.00093732134
-0.006933948 -0.0042000175 -0.0070696836 0.005382484 -0.0027190023 -0.013094326 -0.007037339 0.011394169
-0.0027027898 0.014678066 0.024041448 0.0060194097 0.01574976 -0.0076444796 -0.00025414204 -0.0050053094
0.00896901 0.0080763595 0.007658152 -0.0052521126 0.0038558661 0.014016097 0.016983025 0.018038267
-0.0025166234 -0.0030417119 -0.010844949 0.0010710456 0.02512181 -0.019930694 0.02097198 0.01916845
0.0018741939 0.00926679 -0.002186017 -0.0023888769 0.014082381 -0.008867024 0.012704257 -0.0007239353
-0.026901556 0.0072607454 -0.017613372 -0.02128598 0.028291922 -0.0008896041 0.0009035217 -0.0021152913
-0.001332523 0.016607678 -0.018362297 0.009347181 0.010880228 -0.0013470661 0.0023288862 0.011202276
0.008579002 0.022361934 -0.0003777437 -0.0013574363 0.026679598 0.0075583356 0.008140777 -0.013076944
0.0024797288 0.0008920795 0.018277433 0.016301688 -0.0066135796 0.0136621855 0.011389602 0.003357024
0.0065365867 0.022100037 0.0064378898 0.01206974 -0.014011626 -0.01651663 -0.011241765 0.0056962036
0.009554365 -0.0080595445 0.009973777 0.0064349114 0.0054215095 0.008214731 0.035336085 0.0019410904
-0.009010716 0.00030812403 0.0070415735 0.009533312 -0.015775606 0.0022388718 0.0040105116 0.008289976
-0.001707557 0.0036481929 0.0019212888 -0.004155941 0.008188291 0.007423475 0.00088390947 0.0038764777
0.011900466 0.016550986 0.011571116 -0.022816077 0.004956087 0.0038837723 0.008604831 -0.004599649
0.010127804 -0.0006255436 -0.010074329 0.012479575 -0.0069028344 0.000494832 0.0035580788 -0.0008869779
-0.0027981184 -0.006909842 -0.0038919724 -0.014743153 0.014564292 -0.0034878997 0.0035225803 0.003019424
-0.005316776 -0.00065470365 0.014594201 -0.0036744168 0.0009321281 -0.0027778407 -0.0169589 -0.0028637422
0.0017199016 0.012941691 0.00824657 -0.0050577205 0.00091229053 -0.007247787 -0.0007015226 0.025524592
-0.015450766 -0.0009125621 0.0022004836 0.010830475 0.0029114785 -0.008769647 0.010669428 0.00082331046
0.0015669367 -0.018263243 0.013046788 -0.008440339 -0.012795995 0.017022302 0.0032406165 -0.0022299534
-0.008176489 -0.0057615186 0.006813926 0.018242612 0.0053567574 -0.0104735 0.0050891675 0.019318217
0.023950271 -0.00031122024 0.011825047 -0.019436331 -0.01800606 -0.007948461 0.012144591 0.0032308584
0.019816091 0.01692744 0.00045322164 -0.0036987357 -0.012796136 -0.015045212 0.0059793326 -0.0020256592
0.0019880089 0.0006579821 -0.00823358 -0.011219126 -0.018306054 -0.0040257555 0.02004569 0.0061937566
0.003082717 -0.018129755 -0.016812777 -0.0036332833 -0.014946759 0.007993259 -0.019929906 -0.0011838411
0.0004624202 0.010342683 0.011459373 -0.02153141 -0.0019217727 0.0073293666 0.015185387 9.5317206e-05
0.0029766797 -0.0071689696 -0.011848603 0.005147432 0.00065058214 -0.0069574695 -0.020162683 -0.0019766649
-0.00102365 0.021189243 -0.0026613483 -0.00074356573 0.005129092 0.011205223 0.002828979 -0.012018419
0.0065268665 0.0037020668 -0.012386874 0.0021081627 0.015929662 -0.0070797377 -0.018898277 0.005224817
0.00054480834 0.008869995 0.0112464875 -0.005322614 -0.009880324 0.013791629 0.0113015715 -0.0057441196

action_model._discrete_distribution.branches.0.bias f4 [5]
00000000: 80b9 943b 4bec f03b 62a4 16bc 7c13 6f3b
00000010: 39dd debb
0.004538715 0.007352387 -0.009194465 0.003648012 -0.006801274
