Project/Assets/ML-Agents/Examples/MyTest/Scripts/TFModels/first3DBallRun/3DBall/3DBall-499301.pt (torch, 450801 bytes, 44 tensors)

network_body.observation_encoder.processors.0.normalizer.running_mean f4 [8]
-0.0010862703 0.0013980821 -0.14688945 3.0499308 -0.08394345 -0.0008582457 -0.22774433 0.012093485
00000000: 2f61 8eba da3f b73a 306a 16be 1132 4340
00000010: 8bea abbd e5fb 60ba cf35 69be c123 463c

network_body.observation_encoder.processors.0.normalizer.running_variance f4 [8]
1077.1405 1053.0719 145653.72 13992.087 151306.2 95334.91 153740.16 99628.06
00000000: 7fa4 8644 4da2 8344 6e3d 0e48 59a0 5a46
00000010: 8dc2 1348 7433 ba47 0a23 1648 0896 c247

network_body.processors.0.normalizer.running_mean f4 [8]
-0.0010862703 0.0013980821 -0.14688945 3.0499308 -0.08394345 -0.0008582457 -0.22774433 0.012093485
00000000: 2f61 8eba da3f b73a 306a 16be 1132 4340
00000010: 8bea abbd e5fb 60ba cf35 69be c123 463c

network_body.processors.0.normalizer.running_variance f4 [8]
1077.1405 1053.0719 145653.72 13992.087 151306.2 95334.91 153740.16 99628.06
00000000: 7fa4 8644 4da2 8344 6e3d 0e48 59a0 5a46
00000010: 8dc2 1348 7433 ba47 0a23 1648 0896 c247

network_body._body_endoder.seq_layers.0.weight f4 [128, 8]
0.011951436 0.15753895 -0.2709827 -0.7497576 -0.48277926 0.4246372 -0.26026016 -0.41699377
-0.15185866 0.037763856 0.09303397 -0.08458692 0.48798615 -0.70753723 -0.072903164 0.20008034
0.22529756 -0.05797056 0.022139397 -0.55389285 -0.18706383 -0.23893929 -0.24573807 -0.13709329
0.06647558 -0.5175313 0.16191126 0.2189861 0.3753306 -0.019160544 -0.94870174 0.06799257
0.32802752 -0.41507292 -0.8398032 0.52381754 -0.032922335 -0.31140542 -0.1078413 -0.1128451
-0.04855821 0.038092397 -0.1337609 0.169273 0.4879304 -0.010200252 -0.22971596 0.07311293
-0.042424474 0.47579634 -0.114272624 0.5036471 0.30354008 -0.33512208 -0.021129344 0.2310998
0.49675047 -0.23675548 0.278805 0.09610975 -0.4198046 0.14057837 -0.21918088 0.0694596
0.7204552 0.5221111 -0.120880336 -0.5677794 0.09443828 -0.079471596 -0.41426596 0.13827759
0.28297028 0.15202743 -0.16302161 -0.24538414 -0.53462696 0.26785284 0.05062285 0.520579
0.06999108 -0.16182628 0.27522153 -0.17512767 0.04344997 0.12799805 0.2257084 1.0287061
0.3743081 -0.019610178 0.52402043 -0.27345604 -0.2873705 0.5700354 -0.08145968 0.46295828
0.19835442 0.056556728 -0.42002186 0.083655 0.6433332 -0.15399823 -0.109887905 0.030714158
-0.39217776 0.14587277 0.80311877 -0.041495554 0.15244497 -0.22360146 -0.56074935 -0.18191975
0.10309136 0.11838432 0.48213482 -0.36281163 -0.8366762 0.28182632 -0.12873393 -0.60091347
-0.10721722 -0.44340098 0.8388132 0.26775825 0.22843513 0.056519948 -0.119326495 -0.22928779
0.13997313 -0.25357467 0.16405497 -0.6182522 0.15360883 -0.15019682 -0.12988247 0.42276588
0.032141075 -0.5424754 -0.034280732 0.08110354 0.56526506 0.18535371 0.31581187 0.29052335
0.06775134 -0.21084432 0.2345529 -0.02763105 -0.0866623 -0.05103867 -0.12318752 0.12204522
-0.16965783 0.26925638 -0.7767986 -0.18706405 -0.083843894 0.054943804 0.29018632 0.20597468
-0.42739278 -0.29651305 -0.08076478 -0.36228365 0.34166816 0.2839653 -0.29850796 -0.033342276
-0.19738303 0.26959443 -0.1802969 0.18670514 0.075830735 0.5492847 -0.15813828 0.24777316
-0.15884551 -0.17571683 -0.23473181 0.4768025 0.12048217 -0.29873982 0.37582844 0.43738458
-0.5026952 0.20337096 0.07281543 0.51910925 -0.20471737 0.8537588 0.045938678 -0.028423954
0.038621876 -0.6467169 0.3436144 0.408419 -0.15099248 -0.49180555 -0.13154332 -0.39620724
-0.062311314 -0.39654487 -0.56461376 -0.21594223 -0.31360894 0.3728053 0.6002505 -0.48883155
-0.51426977 0.46398553 0.06483572 -0.09737824 0.1342012 -0.35605067 -0.42407614 0.6728774
0.2346439 0.4371191 0.039907683 0.098811574 -0.057799924 0.0994477 -0.0027134472 0.36556858
0.46060655 -1.0083551 -0.34009555 0.26162037 0.4280996 0.9181593 0.18893747 -0.42839634
0.33401495 -0.24793535 0.30218908 0.37787244 -0.28078654 -0.3078268 0.22440791 -0.31114504
-0.19335245 -0.016713388 -0.024106232 -0.55195487 0.21657431 0.10882185 -0.156768 -0.017580474
0.011790967 0.1231719 -0.6995473 0.69507533 -0.06520749 -0.11860591 0.114247054 -0.08691184
00000000: f5cf 433c e451 213e 3fbe 8abe 1df0 3fbf
00000010: d82e f7be 0c6a d93e d240 85be 3580 d5be
00000020: d680 1bbe 46ae 1a3d 9888 be3d e83b adbd
00000030: 52d9 f93e 2921 35bf 414e 95bd dce1 4c3e
00000040: 67b4 663e 8a72 6dbd ae5d b53c eccb 0dbf
00000050: a98d 3fbe 80ac 74be c3a2 7bbe 2f62 0cbe
00000060: 5924 883d ee7c 04bf 11cc 253e e43d 603e
00000070: 552b c03e 93f6 9cbc 1ede 72bf b03f 8b3d
00000080: 39f3 a73e 7084 d4be 58fd 56bf e818 063f
00000090: 92d9 06bd 8870 9fbe e6db dcbd 551b e7bd
000000a0: f9e4 46bd c606 1c3d 9ef8 08be e755 2d3e
000000b0: 03d2 f93e f51e 27bc a93a 6bbe 3bbc 953d
000000c0: 49c5 2dbd 949b f33e c407 eabd 04ef 003f
000000d0: 9b69 9b3e 1f95 abbe 7217 adbc 6da5 6c3e
000000e0: 1456 fe3e 0770 72be 87bf 8e3e 30d5 c43d
000000f0: a1f0 d6be c7f3 0f3e f470 60be d640 8e3d
00000100: c16f 383f 13a9 053f 1c90 f7bd fe59 11bf
00000110: db68 c13d 01c2 a2bd ab1a d4be a498 0d3e
00000120: 7be1 903e 14ad 1b3e 23ef 26be fb45 7bbe
00000130: 50dd 08bf 0224 893e e859 4f3d aa44 053f
00000140: 7c57 8f3d cab5 25be d6e9 8c3e ab54 33be
00000150: 99f8 313d ec11 033e 1a20 673e a4ac 833f
00000160: 50a5 bf3e 86a5 a0bc 3426 063f 6e02 8cbe
00000170: 3a22 93be d7ed 113f 55d4 a6bd de08 ed3e
00000180: 6c1d 4b3e 07a8 673d 1b0d d7be 5053 ab3d
00000190: 7cb1 243f b6b1 1dbe e90c e1bd 429c fb3c
000001a0: 86cb c8be ac5f 153e 3199 4d3f 3ef7 29bd
000001b0: 891a 1c3e c8f7 64be 458d 0fbf 2c49 3abe
000001c0: 9021 d33d 7a73 f23d 60da f63e 72c2 b9be
000001d0: 6930 56bf 8a4b 903e d4d2 03be 77d5 19bf
000001e0: b494 dbbd 7405 e3be 76bc 563f 9c17 893e
000001f0: e6ea 693e 7681 673d 7361 f4bd 6bca 6abe
00000200: 1e55 0f3e 8ad4 81be 07fe 273e c745 1ebf
00000210: a24b 1d3e 32cd 19be e9ff 04be c574 d83e
00000220: 5ca6 033d abdf 0abf f469 0cbd 9d19 a63d
00000230: 36b5 103f 5dcd 3d3e 18b2 a13e 7abf 943e
00000240: 37c1 8a3d 93e7 57be a32e 703e 835a e2bc
00000250: 017c b1bd ed0d 51bd bd49 fcbd d8f2 f93d
00000260: c8ba 2dbe f9db 893e 46dc 46bf b88d 3fbe
00000270: 59b6 abbd c10c 613d 4d93 943e 07eb 523e
00000280: 3ad3 dabe 8fd0 97be 0168 a5bd 3e7d b9be
00000290: 21ef ae3e e663 913e 09d6 98be e991 08bd
000002a0: c71e 4abe 4808 8a3e c09f 38be a22f 3f3e
000002b0: 254d 9b3d ec9d 0c3f 00ef 21be 3fb8 7d3e
000002c0: 66a8 22be 1def 33be 895d 70be 751f f43e
000002d0: 5bbf f63d 6df4 98be 966c c03e dff0 df3e
000002e0: a2b0 00bf 7a40 503e 4220 953d 58e4 043f
000002f0: 6ea1 51be f08f 5a3f 322a 3c3d 5ad9 e8bc
00000300: f931 1e3d 3d8f 25bf 3aee af3e 4c1c d13e
00000310: c69d 1abe f0cd fbbe 4bb3 06be addb cabe
00000320: 263a 7fbd ee07 cbbe 878a 10bf f61f 5dbe
00000330: 5a91 a0be 56e0 be3e 04aa 193f 2148 fabe
00000340: 2fa7 03bf 838f ed3e 97c8 843d 3e6e c7bd
00000350: 0a6c 093e 464c b6be 8220 d9be b141 2c3f
00000360: 7e46 703e 13ce df3e 3d76 233d b95d ca3d
00000370: 9dbf 6cbd 3cab cb3d 17d4 31bb ce2b bb3e
00000380: 9fd4 eb3e c811 81bf 0121 aebe 1bf3 853e
00000390: df2f db3e 7d0c 6b3f d378 413e c456 dbbe
000003a0: 0204 ab3e c4e2 7dbe 87b8 9a3e 7f78 c13e
000003b0: 41c3 8fbe 799b 9dbe 30cb 653e 674e 9fbe
000003c0: 2ffe 45be 84ea 88bc 6f7a c5bc ea4c 0dbf
000003d0: a8c5 5d3e fddd de3d ca87 20be ed04 90bc
000003e0: e62e 413c 8d41 fc3d 8815 33bf 75f0 313f
000003f0: 818b 85bd a8e7 f2bd 5cfa e93d d6fe b1bd

network_body._body_endoder.seq_layers.0.bias f4 [128]
-0.049623467 -0.01808835 -0.054438137 0.031796213 -0.011029546 0.0041974834 0.0039532823 -0.00741681
-0.07641251 0.006465886 -0.029629132 -0.07065498 -0.06824682 -0.024577498 -0.060676347 -0.0042466377
-0.022929931 -0.09036392 0.06304759 -0.041500214 -0.054341733 -0.0029879361 -0.0039623817 0.0186537
-0.018279094 -0.024626574 0.022363503 0.019602433 -0.020654967 -0.06755023 -0.10304939 -0.0051376573
0.001056742 0.024277942 0.023578862 0.035030775 -0.011377396 -0.018325256 0.08989917 -0.0646059
-0.036581717 -0.00082292454 -0.05768123 -0.054752246 -0.06951298 -0.071371384 -0.07486219 -0.031069202
-0.038036633 0.012118506 -0.05959209 -0.042858344 -0.004724277 -5.642521e-05 -0.014849979 -0.00630024
-0.0033721325 0.013009112 0.0020915817 -0.038931448 -0.0017289427 0.014743303 0.08230831 0.018445503
-0.099353306 0.009434989 -0.04071764 -0.10199301 -0.035283346 0.022042416 0.018871887 0.012979743
-0.13299453 -0.0322655 -0.07774141 -0.097237706 -0.11212234 -0.08815984 -0.0014648291 -0.07380127
0.036036596 -0.02252984 0.026177397 -0.015769241 -0.031451125 -0.032395065 -0.012635827 0.014973552
-0.021619273 -0.050604936 0.0020817337 -0.01890573 -0.021624789 0.0071722614 0.035523206 -0.03446895
-0.010436995 -0.05038765 -0.0323241 -0.03175572 0.041060913 0.037283022 -0.068474144 -0.062928244
-0.017612072 -0.06725299 -0.032712933 -0.024875723 -0.0259012 -0.038220532 -0.05908959 -0.016260063
-0.021145867 0.048545737 0.007929125 -0.077398755 -0.013882798 0.015617177 -0.004437144 -0.083867915
-0.044466037 0.002477333 -0.04992287 -0.06472951 0.014034375 -0.094149835 -0.11429502 -0.07858114
00000000: fa41 4bbd 052e 94bc 86fa 5ebd bf3c 023d
00000010: 45b5 34bc 0b8b 893b 898a 813b b608 f3bb
00000020: 297e 9cbd c8df d33b cbb8 f2bc 8fb3 90bd
00000030: fdc4 8bbd c056 c9bc c387 78bd 6127 8bbb
00000040: 8dd7 bbbc b810 b9bd 181f 813d 21fc 29bd
00000050: 7095 5ebd 40d1 43bb ded6 81bb a5cf 983c
00000060: 0abe 95bc abbd c9bc aa33 b73c 4895 a03c
00000070: 9b34 a9bc c657 8abd 8f0b d3bd cb59 a8bb
00000080: 6182 8a3a 89e2 c63c 7528 c13c 6e7c 0f3d
00000090: 4268 3abc d91e 96bc 0e1d b83d 1950 84bd
000000a0: b6d6 15bd 88b9 57ba 2743 6cbd e443 60bd
000000b0: d25c 8ebd 292b 92bd 5951 99bd d784 febc
000000c0: 4dcc 1bbd b38c 463c d616 74bd 3b8c 2fbd
000000d0: 1cce 9abb 1caa 6cb8 544d 73bc 3e72 cebb
000000e0: fffe 5cbb 2c24 553c eb12 093b 9576 1fbd
000000f0: b19d e2ba e58d 713c 4291 a83d 061b 973c
00000100: bf79 cbbd 3695 1a3c 8ac7 26bd b6e1 d0bd
00000110: 4585 10bd 4c92 b43c 3799 9a3c fda8 543c
00000120: b82f 08be d428 04bd e336 9fbd 9024 c7bd
00000130: 66a0 e5bd 258d b4bd 82ff bfba 1f25 97bd
00000140: 1c9b 133d 8090 b8bc fb71 d63c 7f2e 81bc
00000150: e5d2 00bd b0b0 04bd 8006 4fbc a153 753c
00000160: e71a b1bc 1f47 4fbd b26d 083b 31e0 9abc
00000170: 7826 b1bc 4a05 eb3b c880 113d 502f 0dbd
00000180: eeff 2abc 4863 4ebd 4766 04bd 4912 02bd
00000190: 7d2f 283d 15b6 183d 2c3c 8cbd 86e0 80bd
000001a0: 3147 90bc f0bb 89bd fffd 05bd 2cc8 cbbc
000001b0: c12e d4bc 228d 1cbd ed07 72bd d333 85bc
000001c0: 193a adbc e5d7 463d 29e9 013c 3d83 9ebd
000001d0: ad74 63bc 30df 7f3c 7665 91bb f1c2 abbd
000001e0: 0522 36bd c05a 223b ec7b 4cbd e890 84bd
000001f0: 6ff0 653c a1d1 c0bd 8213 eabd 26ef a0bd

network_body._body_endoder.seq_layers.2.weight f4 [128, 128]
-0.054646533 0.05963059 -0.035768338 0.025297197 0.07426376 -0.058549114 -0.052134886 0.14961316
0.031248402 -0.02455196 -0.05578377 -0.03955433 0.1745107 -0.05752729 -0.002277351 -0.1356477
-0.011603597 0.049026586 0.15793417 0.062515534 -0.054963827 -0.24929655 -0.077380136 0.027747158
0.11094401 0.016806828 -0.15787503 -0.14474866 0.091154605 -0.14383462 -0.11802678 -0.14914665
0.06509138 0.01756029 0.013687522 -0.052786626 0.17110866 0.18318997 0.080911435 -0.077760614
-0.041154753 0.093764454 -0.028724179 -0.07210558 -0.018907415 -0.03942387 0.010294294 0.043160584
-0.103545085 0.03205338 -0.07237984 -0.04913066 0.082878366 -0.17239518 0.06075341 -0.01854531
-0.009803697 0.039928667 -0.023616016 -0.15271007 -0.053159848 -0.07026675 -0.20694873 0.07517652
0.009811117 0.049969207 0.02327244 0.05551928 0.014577573 0.04311067 0.037352066 -0.06708728
-0.02842692 -0.17238285 -0.025417572 -0.008940644 -0.06633118 -0.13085474 -0.060772274 -0.045353178
0.020590408 0.10910132 -0.10842396 0.038507145 -0.058979142 -0.02411577 0.033823814 0.034722257
-0.06341473 -0.09198496 0.027592476 0.1318744 0.16423295 -0.08256546 -0.02981299 0.023438217
-0.04053205 -0.0877787 0.040841 0.009489585 -0.13261123 -0.0067414553 -0.048531707 0.09370048
-0.059340578 -0.13900974 0.08887341 0.027351893 -0.08294941 -0.06902352 -0.112142675 0.0074451757
-0.072665066 0.045067295 0.06076675 -0.15886371 -0.009758955 0.099632345 0.040791847 -0.012219357
0.012154021 0.046546597 -0.16604191 -0.0027513648 0.053005297 0.06743238 -0.038699128 -0.14637601
0.018619735 -0.09198154 -0.038920477 -0.14923473 0.036940135 -0.055900436 0.056388278 -0.050079044
-0.0874545 0.06530006 0.037440337 -0.12360264 -0.06457646 -0.047666207 0.02468616 -0.017951202
-0.15393685 -0.06465648 0.016103283 -0.0023230072 -0.07868529 0.05862486 0.15497306 -0.026741888
0.1451382 -0.10254219 -0.10933139 0.09801436 -0.055452637 0.007950588 0.063493036 0.09817485
0.02109029 0.1465116 -0.038620804 -0.088819265 0.0025447416 -0.03655912 -0.059711106 0.08644332
-0.07577616 -0.14987068 -0.08028689 -0.02107342 0.22161302 -0.10890752 -0.10966361 -0.015736515
0.008115716 -0.056545332 0.04460342 -0.037643015 -0.09931643 0.06375 0.07008863 -0.07753665
0.020140694 0.0035948684 0.053796284 -0.15304476 -0.12545857 0.09998242 -0.09362068 -0.17426866
0.16857484 -0.026543705 0.030173866 -0.12347088 0.06013832 0.0791967 -0.0548429 -0.10151065
-0.061722927 -0.013059971 0.005988138 -0.07153692 -0.047397915 0.04773343 -0.02309867 0.026708053
-0.08885296 -0.18684675 -0.2475055 -0.18987851 0.032989923 0.004705611 0.044533893 -0.01828264
0.034950487 -0.07244354 0.17616017 0.075549245 0.1259323 -0.039592694 0.16512446 0.0859027
0.07397672 -0.1858317 0.01610255 -0.11791625 0.013039998 -0.016938087 -0.03753656 0.05715679
0.08471339 0.0042095706 0.03286216 -0.054731235 -0.041396797 0.008996232 0.007791881 -0.036728483
-0.07005316 -0.006128809 0.030144311 -0.098691925 -0.03958784 0.012730872 -0.11806878 -0.14363275
-0.07765846 -0.017647723 0.035747826 -0.12666588 -0.13875075 -0.08257841 -0.03843952 0.036087494
00000000: 0bd5 5fbd 353f 743d d281 12bd 113c cf3c
00000010: 9917 983d 32d1 6fbd 648b 55bd 3134 193e
00000020: a6fc ff3c 3121 c9bc 867d 64bd b903 22bd
00000030: efb2 323e bca1 6bbd 9c3f 15bb 3be7 0abe
00000040: 031d 3ebc 1ad0 483d 7fb9 213e 2508 803d
00000050: c021 61bd 9847 7fbe 7a79 9ebd 024e e33c
00000060: 9d36 e33d 79ae 893c fea9 21be fe38 14be
00000070: 44af ba3d 6249 13be 06b8 f1bd e6b9 18be
00000080: a14e 853d 99da 8f3c a141 603c ca36 58bd
00000090: 1c37 2f3e 2796 3b3e e5b4 a53d f540 9fbd
000000a0: e391 28bd 9407 c03d f84e ebbc 17ac 93bd
000000b0: b9e3 9abc ed7a 21bd 66a9 283c 27c9 303d
000000c0: 720f d4bd 684a 033d e23b 94bd 3b3d 49bd
000000d0: 22bc a93d 5d88 30be 91d8 783d 55ec 97bc
000000e0: af9f 20bc 3e8c 233d 6076 c1bc 0760 1cbe
000000f0: 24be 59bd 04e8 8fbd 5eea 53be 26f6 993d
00000100: cfbe 203c 83ac 4c3d d8a5 be3c 2f68 633d
00000110: c6d6 6e3c d094 303d 7bfe 183d 0e65 89bd
00000120: 92df e8bc 2185 30be 8338 d0bc c77b 12bc
00000130: a4d8 87bd c9fe 05be 59ec 78bd 41c4 39bd
00000140: 37ad a83c 8370 df3d 620d debd abb9 1d3d
00000150: 1d94 71bd 6f8e c5bc d78a 0a3d ed38 0e3d
00000160: 95df 81bd 9c62 bcbd 9e09 e23c 150a 073e
00000170: af2c 283e 1418 a9bd 5f3a f4bc 8101 c03c
00000180: ef04 26bd 52c5 b3bd e448 273d 347a 1b3c
00000190: 3dcb 07be 6de7 dcbb 2fc9 46bd 0ae6 bf3d
000001a0: 1b0f 73bd 9258 0ebe 4303 b63d 1411 e03c
000001b0: 61e1 a9bd 345c 8dbd 0fab e5bd a9f6 f33b
000001c0: 6cd1 94bd 7c98 383d 8ee6 783d 2bad 22be
000001d0: 06e4 1fbc 0b0c cc3d 5a15 273d b333 48bc
000001e0: a921 473c a5a7 3e3d e406 2abe 3e50 34bb
000001f0: 151c 593d fd19 8a3d fa82 1ebd 98e3 15be
00000200: 6a88 983c d160 bcbd 146b 1fbd fdd0 18be
00000210: 8a4e 173d dbf7 64bd 65f7 663d af1f 4dbd
00000220: 581b b3bd 0abc 853d 0a5b 193d 6223 fdbd
00000230: aa40 84bd a43d 43bd a13a ca3c 660e 93bc
00000240: 9fa1 1dbe 9e6a 84bd 08eb 833c 983d 18bb
00000250: c125 a1bd 9f20 703d 42b1 1e3e ce11 dbbc
00000260: 1c9f 143e a401 d2bd 23e9 dfbd c1bb c83d
00000270: 4e22 63bd 2f43 023c a308 823d e50f c93d
00000280: 8bc5 ac3c 2307 163e d930 1ebd e0e6 b5bd
00000290: aec5 263b 04bf 15bd a293 74bd 3209 b13d
000002a0: 8830 9bbd b377 19be 746d a4bd 2aa2 acbc
000002b0: 86ee 623e e80a dfbd 5197 e0bd dde9 80bc
000002c0: c8f7 043c 149c 67bd 13b2 363d 902f 1abd
000002d0: 6a66 cbbd 5c8f 823d a18a 8f3d 89cb 9ebd
000002e0: 19fe a43c e297 6b3b 7e59 5c3d c4b7 1cbe
000002f0: 3678 00be 95c3 cc3d 33bc bfbd 7c73 32be
00000300: e29e 2c3e 2f72 d9bc 2f2f f73c 4dde fcbd
00000310: 9953 763d e131 a23d f3a2 60bd d1e4 cfbd
00000320: 2ed1 7cbd 7df9 55bc 2438 c43b f381 92bd
00000330: 5124 42bd 2184 433d 6c39 bdbc d9ca da3c
00000340: 8af8 b5bd c154 3fbe 1572 7dbe 836f 42be
00000350: 7120 073d 8731 9a3b 2c69 363d 7ac5 95bc
00000360: 3e28 0f3d 475d 94bd 5563 343e 90b9 9a3d
00000370: 66f4 003e f32b 22bd 6316 293e c1ed af3d
00000380: 1b81 973d aa4a 3ebe 7fe9 833c 137e f1bd
00000390: b7a5 553c bec1 8abc f0bf 19bd 3d1d 6a3d
000003a0: 377e ad3d 70f0 893b 799a 063d dc2d 60bd
000003b0: b08f 29bd ef64 133c 0953 ff3b 9b70 16bd
000003c0: 0878 8fbd 2dd4 c8bb 34f1 f63c fe1e cabd
000003d0: dc26 22bd 2695 503c 0bce f1bd 7714 13be
000003e0: 660b 9fbd f591 90bc 506c 123d b3b4 01be
000003f0: ad14 0ebe df1e a9bd c272 1dbd 7bd0 133d

network_body._body_endoder.seq_layers.2.bias f4 [128]
-0.037602104 -0.0019417786 0.00036103785 0.078072086 -0.016775537 0.058321115 -0.0015294449 -0.02116147
0.056443576 -0.0072462545 -0.022303522 0.0107847685 0.03464064 -0.008860106 0.01873314 0.012090272
0.0687975 -0.08340789 0.018255776 -0.06857462 -0.014053419 0.07681695 0.0081324475 0.06902408
-0.013265779 0.0060610212 0.016212808 0.011203482 -0.0115654785 -0.048788253 -0.002080029 -0.067614086
0.0012330413 0.059783716 -0.01702945 -0.024956966 -0.041676864 0.06667186 -0.031337157 -0.048977483
0.053136263 -0.00026454276 0.019791674 0.02542492 -0.012753592 0.008768752 -0.012018725 -0.01802145
-0.0186787 0.037343003 0.030971365 -0.018293174 0.01641369 -0.035611857 0.0031598404 0.043033697
-0.016435778 -0.04413428 -0.0037391293 -0.005166335 -0.0055497526 0.02002517 0.008949644 0.00653466
0.0010066916 0.059291806 -0.045790005 -0.027068738 0.010966662 -0.030959684 -0.03502302 0.079746224
0.05955234 0.03046718 -0.017926715 0.012584588 0.046367384 -0.012641821 -0.004582339 0.01350802
-0.020472769 0.063594095 0.0063863774 0.020751178 -0.042918067 -0.010029288 0.0760587 0.06652031
0.067256175 -0.04153826 -0.030919103 -0.017206503 -0.012724769 0.07085044 -0.006683916 0.025953433
0.05659211 -0.039897285 0.0012534471 0.045984365 -0.015093654 -0.04537238 -0.030736731 -0.048472617
-0.020611756 -0.017977484 -0.04787337 -0.01296643 0.042825487 0.01676321 -0.022569047 -0.0028463015
0.012614684 -0.0030922901 -0.02025645 -0.05675865 0.059853368 -0.048648402 0.04592757 0.04647937
-0.016797928 0.013650722 -0.07591266 -0.004050595 0.059025727 0.013128178 0.06914347 0.018589891
00000000: aa04 1abd 4783 feba ae49 bd39 42e4 9f3d
00000010: da6c 89bc 1fe2 6e3d a877 c8ba d25a adbc
00000020: 6131 673d fd71 edbb e0b5 b6bc 99b2 303c
00000030: 58e3 0d3d fa29 11bc 3e76 993c 4716 463c
00000040: b4e5 8c3d c1d1 aabd 238d 953c da70 8cbd
00000050: 5040 66bc 3552 9d3d f53d 053c 7f5c 8d3d
00000060: b658 59bc 889b c63b b9d0 843c cf8e 373c
00000070: 227d 3dbc 31d6 47bd 1951 08bb 4179 8abd
00000080: 009e a13a c5df 743d 5881 8bbc 8d72 ccbc
00000090: 5cb5 2abd 428b 883d 645b 00bd 9d9c 48bd
000000a0: 69a5 593d 54b2 8ab9 2622 a23c ec47 d03c
000000b0: 71f4 50bc d0aa 0f3c 30ea 44bc b8a1 93bc
000000c0: 1304 99bc faf4 183d a9b7 fd3c 91db 95bc
000000d0: 0176 863c bddd 11bd 5315 4f3b 1a44 303d
000000e0: 53a4 86bc 26c6 34bd 2e0c 75bb 5c4a a9bb
000000f0: b3da b5bb d30b a43c 87a1 123c b320 d63b
00000100: f7f2 833a f7db 723d 4d8e 3bbd 42bf ddbc
00000110: 84ad 333c 2a9f fdbc 4c74 0fbd fd51 a33d
00000120: 28ed 733d 4f96 f93c 0cdb 92bc 962f 4e3c
00000130: baeb 3d3d a41f 4fbc 7227 96bb be50 5d3c
00000140: 82b6 a7bc 9f3d 823d d144 d13b 60fe a93c
00000150: dbca 2fbd e251 24bc aac4 9b3d cd3b 883d
00000160: 9bbd 893d 0624 2abd 0f4a fdbc a7f4 8cbc
00000170: 8d7b 50bc 091a 913d c004 dbbb 4b9c d43c
00000180: 21cd 673d 566b 23bd b54a a43a 1a5a 3c3d
00000190: 604b 77bc 64d8 39bd 99cb fbbc 398b 46bd
000001a0: fcd9 a8bc 8445 93bc de16 44bd 2671 54bc
000001b0: c769 2f3d 0053 893c b9e2 b8bc 0489 3abb
000001c0: d2ad 4e3c 05a8 4abb dbf0 a5bc c27b 68bd
000001d0: ce28 753d 8c43 47bd 8c1e 3c3d 2761 3e3d
000001e0: cf9b 89bc 47a7 5f3c 1978 9bbd dbba 84bb
000001f0: f6c4 713d 9217 573c 179b 8d3d d449 983c

action_model._continuous_distribution.log_sigma f4 [1, 2]
-0.17016117 -0.18251985
00000000: bb3e 2ebe 7ce6 3abe

action_model._continuous_distribution.mu.weight f4 [2, 128]
-0.013570299 -0.030292865 0.03581456 0.07164287 -0.04011565 -0.07958543 0.011355827 -0.028686216
-0.0025978151 -0.051034447 4.397564e-05 -0.003385429 -0.06988214 -0.005834018 0.0056202947 0.01596658
0.030865569 0.0014345739 0.056740012 -0.008330802 -0.0033157861 0.06288033 -0.037197977 0.06651876
-0.011254764 -0.05458625 0.008044053 0.046207372 -0.06183301 0.0007081416 0.016670994 -0.011407432
-0.0023220375 0.011172416 -0.017800502 -0.035476796 0.0027729052 -0.059493337 -0.031679694 0.000743091
-0.026214719 0.0028629156 0.02965206 0.032827593 0.018598355 0.049613036 -0.04351349 -0.036073085
0.015605005 0.05851063 0.037213817 0.019978644 0.008659254 -0.015252513 -0.084653646 0.08992502
-0.03536236 -0.00904589 0.024464292 -0.011580828 0.012993524 -0.026037011 0.0040362733 0.011144872
0.00138595 0.04323607 -0.019197958 0.023187015 -0.06165187 0.029713135 -0.008446125 0.01214064
0.054087695 0.065872006 -0.021380581 -0.09204627 0.06411569 0.014913301 -0.0068002054 0.03527815
-0.01019217 0.04249905 -0.015315555 0.013954338 0.024539921 0.020769544 -0.029105954 0.034506995
0.09073983 -0.01538144 0.00021040966 0.019815734 0.010817074 0.13286577 0.008130465 0.053600438
0.053219493 0.003469406 -0.017785829 0.10532349 0.013788082 -0.019654926 -0.005117385 0.0039963406
-0.0047976403 0.005535583 -0.011144449 0.021470902 -0.030801736 -0.08465504 0.024615822 0.008885749
0.008562658 0.02095866 0.0052762055 0.01722269 -0.061023 -0.010373111 0.030151125 -0.07691158
0.00056212366 0.056222193 0.003470619 -0.060043596 0.05279172 -0.049169563 0.006502094 -0.08708318
0.007630245 -0.031684056 0.00090507907 -0.10576811 0.0029776972 -0.07028257 -0.0029505051 -0.010254673
-0.059541333 0.058411114 0.04956276 -0.025457812 -0.054837465 0.0020727813 0.009549734 -0.018706132
-0.069722034 0.007242126 0.04527574 -0.0009212662 -0.00017624423 -0.061817452 -0.0039029229 -0.01708073
-0.002599458 -0.013985529 -0.016515154 -0.020152485 0.0041458956 0.0046389643 0.037548818 -0.0033180374
0.011678103 -0.059169255 0.061197013 0.033961922 -0.002578868 -0.09217842 0.015430826 0.002122088
-0.088833734 0.07477515 -0.0039803023 -0.035233762 -0.008734655 -0.004631202 0.009065365 -0.013466795
0.0028835693 -0.025391456 0.07967064 0.040488668 -0.010402955 0.0058108335 0.013340949 0.099188715
-0.0027399627 0.0050153295 -0.0068704626 0.058149282 0.0041574305 -0.014639601 0.014790599 0.068471305
-0.0135162305 -0.06443197 -0.0025126047 0.005809946 0.09290744 0.026306298 6.1408784e-05 -0.11748982
-0.006239753 -0.017524313 -0.008656201 0.022716196 -0.010375636 0.015201898 -0.010646071 -0.014248367
0.009498907 -0.04953199 0.10408117 -0.010325917 0.01069188 -0.0188499 -0.07851142 -0.0789143
-0.085746534 -0.0017775245 0.027118105 0.033007625 0.009184811 -0.0052608643 -0.004092819 -0.0074660215
-0.037223853 0.015524794 -0.029297493 -0.0175118 0.005419808 0.0065860567 0.0075402777 0.0027411403
-0.0031602783 0.042553894 -0.0029717817 -0.011267387 -0.052443508 -0.03415496 0.027385727 -0.0033150283
0.009662468 0.012403937 0.020888252 -0.0014437352 -0.1009126 -0.005687569 -0.022455238 -0.019679226
0.012804545 0.048558757 0.0034080069 0.006147183 -0.026912367 -0.033896215 -0.092243195 -0.075218804
00000000: f655 5ebc be28 f8bc 4ab2 123d 7fb9 923d
00000010: 4f50 24bd b0fd a2bd ca0d 3a3c 5bff eabc
00000020: 1b40 2abb 7f09 51bd 7c72 3838 13de 5dbb
00000030: 5e1e 8fbd 4a2b bfbb 732a b83b 58cc 823c
00000040: cad9 fc3c 5008 bc3a 3768 683d eb7d 08bc
00000050: a94d 59bb 67c7 803d e85c 18bd fd3a 883d
00000060: e765 38bc d595 5fbd 34cb 033c f143 3d3d
00000070: 9c44 7dbd 94a2 393a 9c91 883c 3de6 3abc
00000080: 532d 18bb 820c 373c 5cd2 91bc 1e50 11bd
00000090: a1b9 353b 49af 73bd 91c2 01bd fecb 423a
000000a0: 40c0 d6bc c19f 3b3b e0e8 f23c 3a76 063d
000000b0: 945b 983c 0a37 4b3d 343b 32bd 5fc1 13bd
000000c0: 23ac 7f3c d8a8 6f3d 846d 183d 41aa a33c
000000d0: 8bdf 0d3c ade5 79bc e45e adbd 9c2a b83d
000000e0: 1fd8 10bd 3635 14bc 5769 c83c 83bd 3dbc
000000f0: cae2 543c 924b d5bc b742 843b fb98 363c
00000100: c4a8 b53a 4e18 313d 0945 9dbc b2f2 bd3c
00000110: ac86 7cbd f668 f33c 9e61 0abc 89e9 463c
00000120: 0f8b 5d3d e7e7 863d 5426 afbc c182 bcbd
00000130: 164f 833d eb56 743c 42d4 debb d27f 103d
00000140: 0ffd 26bc 7c13 2e3d 18ee 7abc bca0 643c
00000150: f207 c93c e424 aa3c 9c6f eebc 3557 0d3d
00000160: ced5 b93d 6f02 7cbc 6aa1 5c39 9b54 a23c
00000170: 193a 313c f70d 083e a435 053c 228c 5b3d
00000180: affc 593d f95e 633b 96b3 91bc d8b3 d73d
00000190: 68e7 613c 5e03 a1bc bdaf a7bb bcf3 823b
000001a0: 8635 9dbb d663 b53b 3597 36bc bfe3 af3c
000001b0: ec53 fcbc 9f5f adbd 1fa7 c93c 8895 113c
000001c0: 644a 0c3c 7fb1 ab3c 05e4 ac3b 9916 8d3c
000001d0: 41f3 79bd fbf3 29bc 7eff f63c d283 9dbd
000001e0: 7b5b 133a 3e49 663d 5373 633b 46f0 75bd
000001f0: 213c 583d 0666 49bd 850f d53b ab58 b2bd
00000200: 2207 fa3b 24c7 01bd d442 6d3a f39c d8bd
00000210: 7825 433b 4ff0 8fbd 435d 41bb 3703 28bc
00000220: 9de1 73bd 7e40 6f3d 5202 4b3d e78c d0bc
00000230: 409d 60bd 80d7 073b 7d76 1c3c 9a3d 99bc
00000240: 6dca 8ebd 5b4f ed3b 0e73 393d 2181 71ba
00000250: 33ce 38b9 4c34 7dbd 2ec8 7fbb e3ec 8bbc
00000260: ab5b 2abb 8f23 65bc ca4a 87bc d316 a5bc
00000270: 4bda 873b 7402 983b cacc 193d 6e73 59bb
00000280: 8455 3f3c 765b 72bd b8a9 7a3d a81b 0b3d
00000290: 3a02 29bb 0ac8 bcbd 93d1 7c3c bb12 0b3b
000002a0: 76ee b5bd b723 993d 326d 82bb 4751 10bd
000002b0: cc1b 0fbc 57c1 97bb e686 143c d5a3 5cbc
000002c0: 44fa 3c3b be01 d0bc 5c2a a33d 72d7 253d
000002d0: 2871 2abc ce68 be3b ff93 5a3c 7423 cb3d
000002e0: f290 33bb a257 a43b 9e21 e1bb f12d 6e3d
000002f0: 0e3b 883b f0da 6fbc 4554 723c af3a 8c3d
00000300: 2e73 5dbc e9f4 83bd 83aa 24bb 5c61 be3b
00000310: 4246 be3d 4e80 d73c 97c8 8038 819e f0bd
00000320: d876 ccbb 268f 8fbc bdd2 0dbc 5117 ba3c
00000330: 92fe 29bc 6211 793c dc6c 2ebc fc71 69bc
00000340: 4ea1 1b3c 0ee2 4abd 8228 d53d 092e 29bc
00000350: ff2c 2f3c 1b6b 9abc 98ca a0bd d29d a1bd
00000360: e19b afbd d3fb e8ba ca26 de3c 0133 073d
00000370: e47b 163c 5463 acbb 0e1d 86bb 87a5 f4bb
00000380: 0a78 18bd b55b 7e3c 4c01 f0bc e874 8fbc
00000390: a598 b13b d9cf d73b 6f14 f73b b4a4 333b
000003a0: ac1c 4fbb fe4c 2e3d 39c2 42bb d99a 38bc
000003b0: 01cf 56bd 12e6 0bbd 0858 e03c f240 59bb
000003c0: 544f 1e3c e239 4b3c d71d ab3c b73b bdba
000003d0: 44ab cebd c95e babb 0cf4 b7bc 5436 a1bc
000003e0: 28ca 513c 8ce5 463d de58 5f3b 4f6e c93b
000003f0: 5377 dcbc c2d6 0abd 00ea bcbd 510c 9abd

action_model._continuous_distribution.mu.bias f4 [2]
0.015714597 -0.024308462
00000000: e6bb 803c 8a22 c7bc

exp_avg f4 [128, 8]
7.94745e-05 -0.0004558712 -0.00010048807 -0.0001312547 0.000111844405 0.00045753794 -0.00018177654 -0.0005152251
-0.00060679653 -0.00062640634 -0.001101654 0.0010367263 0.00083284406 2.8320184e-05 -0.00036267334 0.00043003564
-0.00012416519 -0.00037728323 -0.00041700137 -0.00013467882 1.5077266e-05 0.00048606642 4.671584e-05 -0.00015810384
7.1528506e-05 9.611775e-06 0.00024791647 6.9410904e-05 -0.00016033663 -0.00021885353 3.3492106e-05 -4.6524598e-05
0.00016041027 -0.00022047607 -9.158006e-05 -0.0009527492 0.0007702997 0.00020402424 0.00020014869 0.00023244592
-0.00030914895 0.0002586646 -0.0003432335 0.0008412792 -0.00028019858 -0.00042871825 -4.6714995e-05 0.0003401816
-0.0003289055 6.70077e-05 -0.00024220286 0.0013889979 -1.4377118e-05 -0.00043430546 -0.00026565295 0.00017045336
0.00033204674 -0.00018495275 0.00033996944 -0.00016833923 0.00019253929 -0.00012440258 -9.6006464e-05 1.0548851e-05
-0.00017434313 -0.00015216868 1.7919625e-05 -3.9110593e-05 -0.00020630134 5.350727e-05 0.00010312546 0.00010657453
-7.1065064e-05 -0.00020020113 0.00017659349 -0.000110117755 9.591718e-05 -5.0449147e-05 -9.6251635e-05 3.01861e-05
-0.00026625223 0.00022410524 -0.00015654645 -1.1788525e-05 -9.26142e-05 -0.00021956975 -4.549061e-05 0.00013388312
-0.0001324298 -0.00020520657 -0.00025321307 -0.00010730327 -4.8256883e-05 0.00026374825 2.238483e-06 7.3252377e-06
-0.00076138886 -0.0010018556 -0.0011807055 0.0021877992 0.0010841688 -9.4977426e-05 -0.00018538919 0.00074594026
3.471595e-05 0.00031659415 -1.7182e-05 0.00021887827 -5.9654485e-05 -6.61977e-05 -1.5015954e-05 -0.00041457015
-2.892068e-05 -0.000631636 -0.00059794885 -0.0006392722 0.00041086317 0.00081624126 0.0003060149 -0.00052253983
-0.00015408531 0.0004193487 0.0004247398 -0.0010868687 -0.00048334117 0.00032489872 0.00041079964 -0.0005984661
3.948006e-05 0.00017107198 -0.00043392956 -0.00012726121 -0.00031134777 1.988158e-05 -0.00013923088 0.00029627973
7.498141e-06 -1.8501614e-05 -8.4728934e-05 0.00019280998 -0.000118919124 -4.470683e-05 -7.039749e-05 0.00012723861
-7.0449576e-05 0.00022774872 0.00032737167 4.396074e-05 -0.0001349508 -0.00012351117 -9.074931e-06 -0.00020486854
-0.0001107439 9.4567185e-06 -8.0877515e-05 0.00015605299 9.284807e-06 -1.1299848e-05 8.2982915e-06 -7.124268e-05
-0.00016349586 -1.8219129e-05 -7.942113e-05 -0.00013605527 7.307922e-05 0.00031499207 1.3342462e-05 -0.00044560645
-0.00016911607 -0.0001800939 -0.00030398127 0.001005358 0.00028433395 -0.000117993586 -0.00013272114 -6.327561e-05
-2.559066e-05 0.00013352314 -4.9841652e-05 0.00032890015 -0.0002052341 -0.00017519308 -0.00012971103 5.9312224e-05
-3.2725813e-05 -0.00019605536 -0.0004070443 0.0012236829 3.0966166e-05 0.00013905337 -0.0003021339 -0.00015038933
0.00020224079 -0.0001530706 0.00046558178 -0.0015137932 -5.177819e-05 0.00080775935 0.00036460772 -0.0006392154
0.0004446175 -0.0002678587 0.0003586782 -0.00051791273 -4.6750793e-05 0.00039065012 -0.00018402131 8.108778e-05
6.3776242e-06 0.0005696232 0.00016998462 0.00088791066 -0.00038577602 -0.0008135294 -0.00015655572 3.6994992e-05
-0.00012352776 0.0006595497 0.0003994741 0.00071076275 -0.0005752282 -0.0006277709 -0.00023761619 0.0001751984
-0.00016788303 0.00039309848 -0.00024255346 -8.5202424e-05 -0.00018186116 3.652514e-05 0.00018230894 -0.00039614586
8.615979e-05 -0.00057599304 -1.738967e-05 -0.0002579091 0.00047229702 0.0003447581 0.00014289543 -0.00018628722
-0.00025045613 -9.3278046e-05 -8.3479834e-05 5.349597e-06 1.7025668e-06 0.00021061493 9.202034e-05 -2.3326647e-05
5.3309013e-05 -0.000120899094 0.000114885246 -0.00062287424 -0.00019377655 0.00019966338 0.00011108366 0.00014169044
00000000: 8cab a638 ff01 efb9 1fbd d2b8 6aa1 09b9
00000010: 028e ea38 b4e1 ef39 459b 3eb9 2c10 07ba
00000020: 6d11 1fba 6b35 24ba 6065 90ba c3e2 873a
00000030: 3853 5a3a 2291 ed37 3125 beb9 6876 e139
00000040: 5732 02b9 19ce c5b9 faa0 dab9 9238 0db9
00000050: 5df4 7c37 bbd6 fe39 c0f0 4338 adc8 25b9
00000060: 9301 9638 4242 2137 c9fa 8139 b290 9138
00000070: 0920 28b9 0c7c 65b9 e079 0c38 6823 43b8
00000080: ce33 2839 982f 67b9 ac0e c0b8 ebc1 79ba
00000090: f0ed 493a 57ef 5539 01df 5139 babc 7339
000000a0: 4515 a2b9 609d 8739 05f4 b3b9 4b89 5c3a
000000b0: 9ee7 92b9 97c5 e0b9 d8ef 43b8 675a b239
000000c0: f370 acb9 7c86 8c38 d6f7 7db9 090f b63a
000000d0: 4035 71b7 7eb3 e3b9 5647 8bb9 babb 3239
000000e0: 8f16 ae39 e0ef 41b9 ed3d b239 3884 30b9
000000f0: 5fe4 4939 1072 02b9 1457 c9b8 f8fa 3037
00000100: e1cf 36b9 788f 1fb9 1a52 9637 ae0a 24b8
00000110: 9852 58b9 fe6c 6038 0f45 d838 c480 df38
00000120: c408 95b8 15ed 51b9 f42b 3939 05ef e6b8
00000130: 2527 c938 5c99 53b8 b4da c9b8 2838 fd37
00000140: c597 8bb9 cbfd 6a39 9e26 24b9 54c7 45b7
00000150: df39 c2b8 4e3c 66b9 2ccd 3eb8 fa62 0c39
00000160: dbdc 0ab9 b82c 57b9 afc1 84b9 0108 e1b8
00000170: 6f67 4ab8 b147 8a39 d838 1636 50cb f536
00000180: f197 47ba b250 83ba e7c1 9aba 2e61 0f3b
00000190: ab1a 8e3a 9e2e c7b8 0865 42b9 348b 433a
000001a0: f89b 1138 8cfc a539 1022 90b7 b082 6539
000001b0: 8435 7ab8 9fd3 8ab8 08ed 7bb7 aa5a d9b9
000001c0: b09a f2b7 6094 25ba abbf 1cba d594 27ba
000001d0: 1f69 d739 06f9 553a a070 a039 0efb 08ba
000001e0: f691 21b9 08dc db39 9caf de39 4375 8eba
000001f0: f468 fdb9 2b57 aa39 9860 d739 61e2 1cba
00000200: 6497 2538 c961 3339 0a81 e3b9 6c71 05b9
00000210: 643c a3b9 5ec7 a637 81fe 11b9 fe55 9b39
00000220: 8a98 fb36 ea33 9bb7 80b0 b1b8 092d 4a39
00000230: 3864 f9b8 9883 3bb8 5da2 93b8 5b6b 0539
00000240: 54be 93b8 d5cf 6e39 15a3 ab39 7c62 3838
00000250: 9481 0db9 c782 01b9 8840 18b7 fbd1 56b9
00000260: 2e3f e8b8 4ca8 1e37 c99c a9b8 28a2 2339
00000270: f1c5 1b37 7a94 3db7 e438 0b37 1f68 95b8
00000280: 1670 2bb9 48d5 98b7 e58e a6b8 0faa 0eb9
00000290: 1c42 9938 8525 a539 70d9 5f37 49a0 e9b9
000002a0: c054 31b9 97d7 3cb9 ad5f 9fb9 37c6 833a
000002b0: a812 9539 5373 f7b8 0f2b 0bb9 d6b2 84b8
000002c0: 86ab d6b7 5802 0c39 110d 51b8 3b70 ac39
000002d0: 1c34 57b9 09b4 37b9 0a03 08b9 04c6 7838
000002e0: 1343 09b8 3694 4db9 9068 d5b9 fc63 a03a
000002f0: abe1 0138 dbce 1139 ba67 9eb9 d4b1 1db9
00000300: 9910 5439 9481 20b9 5419 f439 796a c6ba
00000310: 682c 59b8 d0bf 533a d228 bf39 0591 27ba
00000320: 8d1b e939 636f 8cb9 f90c bc39 89c4 07ba
00000330: 4816 44b8 2cd0 cc39 d8f5 40b9 ac0d aa38
00000340: 60ff d536 c452 153a e63d 3239 adc2 683a
00000350: fb41 cab9 0943 55ba 1b29 24b9 122b 1b38
00000360: 3b87 01b9 a2e5 2c3a 8270 d139 7b52 3a3a
00000370: e9ca 16ba fe90 24ba 9c28 79b9 76b5 3739
00000380: c209 30b9 c918 ce39 f355 7eb9 b4ae b2b8
00000390: fcb1 3eb9 9232 1938 2f2a 3f39 ccb1 cfb9
000003a0: afb0 b438 3dfe 16ba 08e0 91b7 f937 87b9
000003b0: a29e f739 a6c0 b439 33d6 1539 1856 43b9
000003c0: a74f 83b9 459e c3b8 e511 afb8 b080 b336
000003d0: c083 e435 84d8 5c39 0bfb c038 98ad c3b7
000003e0: 1e98 5f38 358b fdb8 8cee f038 6248 23ba
000003f0: 7f30 4bb9 bb5c 5139 96f5 e838 bd92 1439

exp_avg_sq f4 [128, 8]
4.595174e-06 6.6880434e-06 2.8274596e-06 2.1785456e-06 5.7650745e-06 3.2159396e-06 5.1684306e-06 4.939935e-06
9.54528e-06 9.019299e-06 6.7871883e-06 1.1574585e-05 1.8299826e-05 6.0921e-06 1.1213163e-05 4.491228e-06
7.417705e-06 5.402436e-06 3.4013162e-06 4.6139207e-06 1.0734059e-05 4.949312e-06 3.2351827e-06 4.2073966e-06
2.0449324e-06 1.6234483e-06 2.2223394e-06 4.07126e-06 5.92779e-06 1.587816e-06 3.8202984e-06 1.537998e-06
1.5782709e-05 1.515212e-05 1.9640198e-05 6.214285e-05 4.0678817e-05 1.0264924e-05 2.6178976e-05 1.1452836e-05
3.741078e-06 4.9229498e-06 3.5235287e-06 1.1176768e-05 8.443277e-06 2.4085887e-06 6.806546e-06 3.354203e-06
4.9064133e-06 5.64586e-06 5.5636933e-06 2.0125259e-05 1.08038475e-05 3.756459e-06 8.119816e-06 2.8980685e-06
2.8696188e-06 1.854556e-06 2.2479514e-06 6.939135e-06 2.7434805e-06 1.6370907e-06 3.686181e-06 1.1146356e-06
1.5566649e-06 1.2779466e-06 9.2294624e-07 1.0009754e-06 1.967573e-06 1.0842339e-06 3.3715341e-06 1.2138073e-06
8.227059e-06 8.741617e-06 4.6536734e-06 3.978429e-06 8.758434e-06 5.121086e-06 2.2036172e-06 6.629049e-06
3.4355498e-06 3.028105e-06 2.2124404e-06 1.6371488e-06 4.3281907e-06 2.9969387e-06 1.0558784e-06 1.5780911e-06
1.5859707e-06 1.9013249e-06 1.1775711e-06 1.758267e-06 1.4453924e-06 9.1974596e-07 1.2644264e-06 1.026459e-06
1.1977275e-05 1.5041527e-05 1.291682e-05 2.8601868e-05 3.1233834e-05 8.296018e-06 2.2223845e-05 1.1243439e-05
3.4810944e-06 3.0277317e-06 5.600464e-06 1.3098237e-05 5.866335e-06 3.3504145e-06 1.1940137e-05 1.5395067e-06
7.0248584e-06 1.6304102e-05 6.3195084e-06 1.4855318e-05 7.0412266e-06 4.824658e-06 8.128279e-06 5.3424633e-06
6.0604943e-06 6.167702e-06 5.2920473e-06 1.9599807e-05 1.1146821e-05 3.1039149e-06 9.894765e-06 2.7836293e-06
1.3894273e-05 1.2384776e-05 7.649346e-06 8.601923e-06 2.5586021e-05 1.0156947e-05 5.6315444e-06 7.789455e-06
7.340687e-07 9.1589254e-07 5.156649e-07 1.4578571e-06 1.114657e-06 4.363189e-07 7.439212e-07 5.5210074e-07
2.4086503e-06 2.181713e-06 3.3807858e-06 6.8672084e-06 4.2555193e-06 2.2438858e-06 4.94564e-06 1.1505216e-06
5.5435913e-07 4.4544174e-07 4.96751e-07 3.7145242e-07 1.1345529e-06 5.71247e-07 2.4470245e-07 5.6528773e-07
2.2054242e-06 2.5352294e-06 2.0382843e-06 3.6287888e-06 7.093694e-06 1.6901372e-06 8.223316e-06 2.0942712e-06
1.4518026e-06 1.5856293e-06 1.8664268e-06 7.4960494e-06 3.5445512e-06 6.798542e-07 2.408979e-06 9.733438e-07
1.3432908e-06 1.2672772e-06 1.5044856e-06 5.82446e-06 2.916188e-06 9.0288245e-07 1.0948997e-06 6.847679e-07
1.0250503e-05 1.5211995e-05 1.282664e-05 5.3380594e-05 1.4421435e-05 3.150638e-06 1.9047924e-05 5.90492e-06
7.86362e-06 8.326952e-06 8.518692e-06 3.0385558e-05 1.2403736e-05 3.7223742e-06 2.1564403e-05 3.8848952e-06
8.776922e-06 8.574811e-06 5.8954306e-06 4.3380137e-06 7.1591703e-06 4.74646e-06 2.3262373e-06 7.1488794e-06
8.899723e-06 6.333149e-06 6.0887614e-06 1.541355e-05 1.2927909e-05 7.1677932e-06 1.2491314e-05 3.5683024e-06
7.2597136e-06 8.631153e-06 6.346986e-06 1.8543786e-05 9.792574e-06 4.6706764e-06 8.764182e-06 4.2450556e-06
5.474412e-06 4.5732863e-06 3.8838975e-06 1.27798285e-05 6.5399004e-06 1.8314072e-06 5.3552712e-06 2.9090056e-06
2.8156628e-06 3.0682597e-06 2.9468847e-06 8.392935e-06 3.530802e-06 1.991702e-06 2.850495e-06 2.0593152e-06
2.088109e-06 1.3351015e-06 1.5855549e-06 8.650278e-07 4.952563e-06 2.1719286e-06 1.1632833e-06 2.6694577e-06
3.4449936e-06 5.096933e-06 4.667897e-06 7.1728714e-06 1.2304224e-05 3.7869436e-06 3.777797e-06 4.5978168e-06
00000000: 3e30 9a36 db69 e036 63bf 3d36 2133 1236
00000010: 9d71 c136 6cd1 5736 7b6c ad36 b8c1 a536
00000020: aa24 2037 9851 1737 81bd e336 7730 4237
00000030: 9482 9937 be6a cc36 2b20 3c37 5bb3 9636
00000040: 9ae5 f836 9246 b536 2b42 6436 47d1 9a36
00000050: 6f16 3437 4412 a636 041c 5936 432d 8d36
00000060: ac3b 0936 42e5 d935 8023 1536 db9b 8836
00000070: 54e7 c636 f11c d535 1d30 8036 356d ce35
00000080: 1c65 8437 dc35 7e37 01c1 a437 b052 8238
00000090: 8c9e 2a38 8337 2c37 ec9a db37 8e25 4037
000000a0: 3b0f 7b36 d12f a536 c375 6c36 da83 3b37
000000b0: 99a7 0d37 3da3 2136 c963 e436 c518 6136
000000c0: c5a1 a436 9171 bd36 c3af ba36 aad2 a837
000000d0: 2c42 3537 7917 7c36 583a 0837 707c 4236
000000e0: ad93 4036 0fea f835 83db 1636 b7d6 e836
000000f0: a31c 3836 02ba db35 1b60 7736 969a 9535
00000100: 99ee d035 e985 ab35 62c0 7735 4159 8635
00000110: a60a 0436 fe85 9135 8442 6236 1aea a235
00000120: f306 0a37 f6a8 1237 c026 9c36 727e 8536
00000130: 30f1 1237 cbd5 ab36 dbe1 1336 196f de36
00000140: 4c8e 6636 7336 4b36 7079 1436 01bc db35
00000150: e03a 9136 041f 4936 b5b7 8d35 ccce d335
00000160: 8add d435 0731 ff35 090d 9e35 98fd eb35
00000170: 4eff c135 76e4 7635 5cb5 a935 ddc4 8935
00000180: 01f2 4837 de5a 7c37 52b5 5837 0bee ef37
00000190: 1301 0338 202f 0b37 586d ba37 34a2 3c37
000001a0: bf9c 6936 0930 4b36 9feb bb36 80c0 5b37
000001b0: 6fd7 c436 afd7 6036 7f52 4837 0ca1 ce35
000001c0: 13b7 eb36 cbc4 8837 2a0c d436 1b3b 7937
000001d0: ad43 ec36 7fe3 a136 b15e 0837 6943 b336
000001e0: 405b cb36 28f4 ce36 5792 b136 446a a437
000001f0: 3b03 3b37 da4c 5036 b101 2637 63ce 3a36
00000200: 731b 6937 35c8 4f37 b155 0037 fa50 1037
00000210: 90a1 d637 c167 2a37 99f6 bc36 74af 0237
00000220: d10c 4535 a8db 7535 396c 0a35 97ab c335
00000230: 539b 9535 373f ea34 e0b1 4735 1334 1435
00000240: 4ca4 2136 8b69 1236 75e1 6236 df6c e636
00000250: a2ca 8e36 aa95 1636 b9f2 a536 9f6b 9a35
00000260: 45cf 1435 0c25 ef34 7858 0535 086c c734
00000270: f146 9835 cc57 1935 a65f 8334 47be 1735
00000280: e600 1436 e922 2a36 75c9 0836 1e86 7336
00000290: 5e06 ee36 acd8 e235 e0f6 0937 4e8b 0c36
000002a0: 8fdb c235 cfd1 d435 f081 fa35 9386 fb36
000002b0: edde 6d36 3a7f 3635 f2a9 2136 d7a3 8235
000002c0: 1f4b b435 5017 aa35 bbed c935 bb6f c336
000002d0: bab3 4336 9c5d 7235 78f4 9235 e4d0 3735
000002e0: 93f9 2b37 0537 7f37 0032 5737 fae4 5f38
000002f0: 97f3 7137 8c6f 5336 1bc9 9f37 e022 c636
00000300: feed 0337 fdb3 0b37 81eb 0e37 7de4 fe37
00000310: a419 5037 e7cd 7936 34e5 b437 ff5a 8236
00000320: 9840 1337 88dc 0f37 5dd1 c536 418f 9136
00000330: ce38 f036 c843 9f36 741c 1c36 68e0 ef36
00000340: 0550 1537 5681 d436 104e cc36 594c 8137
00000350: f2e4 5837 e082 f036 c991 5137 f876 6f36
00000360: 7798 f336 85ce 1037 32f8 d436 7a8e 9b37
00000370: c94a 2437 ceb8 9c36 e009 1337 c070 8e36
00000380: d7b0 b736 3b74 9936 6d52 8236 f268 5637
00000390: 5171 db36 acce f535 6eb1 b336 5638 4336
000003a0: b8f4 3c36 4de8 4d36 18c3 4536 62cf 0c37
000003b0: b7f2 6c36 2ea9 0536 224b 3f36 c432 0a36
000003c0: 7121 0c36 bd31 b335 40cf d435 4234 6835
000003d0: 312e a636 73c1 1136 1c22 9c35 ef24 3336
000003e0: 8a30 6736 5206 ab36 eea0 9c36 7fae f036
000003f0: 3d6e 4e37 3223 7e36 0f86 7d36 f246 9a36

exp_avg f4 [128]
0.00015138095 2.7093673e-05 -0.0003059228 3.063656e-05 -0.00012701626 -0.00016233267 0.0004988071 0.00019157623
-0.00021033816 6.833629e-05 -0.00030702574 -0.0002134023 4.9990427e-05 -0.00013947744 -0.00019967332 -0.0003773623
-0.0003432522 -5.7035715e-05 0.000133676 0.00013636837 -1.8145853e-05 0.00018808889 5.5772594e-05 0.00055485
-0.00029270592 0.00025334058 0.000438058 0.00031184882 -0.0002908722 1.56534e-05 -7.133429e-05 -0.00014318162
0.0001248901 0.00038159406 0.00059304095 0.00015946248 0.00040435296 -0.00012288248 -0.00015595478 -0.00037145865
-0.0001751063 -0.00035075436 -0.00084346865 -0.0002639877 -5.6770743e-05 -0.00013276955 -0.00021193289 -0.00031027594
-1.692626e-05 6.8550406e-05 8.39592e-05 0.00012739951 -0.00017784408 0.00027418573 0.00025778782 -7.352243e-05
-0.00045336178 5.7939535e-05 0.0006337714 -0.0003163187 4.239812e-05 0.00013364335 -8.694951e-06 2.3307133e-05
-2.5867368e-05 0.00012083391 6.30125e-05 0.00011669228 -5.9315505e-05 2.0823609e-05 -2.9048126e-05 0.00028919603
-0.000548325 -0.00033149222 0.00010152766 9.1003865e-05 4.774156e-05 -5.724754e-05 -0.000121262936 5.6593486e-05
0.00025190937 1.0542557e-05 -9.964866e-05 -0.00015736936 -0.0007003669 -0.0005946562 1.942119e-05 -0.00011575827
0.0002771204 -9.498124e-05 -0.00034447754 0.000109775 -0.0005897546 -2.9281e-05 0.00010709439 -4.385267e-06
-0.00047046546 9.6410105e-05 -9.758391e-06 -0.00018728754 0.00031528357 0.00018198331 -8.562968e-05 -3.1440097e-05
0.00022458474 -0.00021336708 6.00988e-05 -8.8614746e-05 -0.00021344132 -2.6735572e-05 5.870661e-05 -6.332607e-05
-0.00030278202 0.0005673188 0.00026092195 -7.6018965e-05 -0.00036828048 0.00010806718 -0.00027565344 -5.5981018e-05
-0.0002740973 9.3432755e-07 2.4128552e-05 -0.00028614007 -9.4224146e-05 -0.00023415947 -0.00015589649 -0.0001384547
00000000: 04bc 1e39 3847 e337 4364 a0b9 c17f 0038
00000010: ab2f 05b9 d837 2ab9 61c2 023a dae1 4839
00000020: 388e 5cb9 c44f 8f38 4cf8 a0b9 bec4 5fb9
00000030: d0ac 5138 b140 12b9 665f 51b9 b6d8 c5b9
00000040: 88f6 b3b9 a239 6fb8 612b 0c39 1bfe 0e39
00000050: ec37 98b7 ba39 4539 5eed 6938 5a73 113a
00000060: 5376 99b9 ccd2 8439 26ab e539 a47f a339
00000070: 3580 98b9 6c4f 8337 4e99 95b8 0623 16b9
00000080: eef4 0239 b010 c839 4e76 1b3a 6235 2739
00000090: 56ff d339 04da 00b9 cb87 23b9 56c0 c2b9
000000a0: bd9c 37b9 74e5 b7b9 391c 5dba d467 8ab9
000000b0: 1f1d 6eb8 0e38 0bb9 4d3a 5eb9 88ac a2b9
000000c0: defc 8db7 b8c2 8f38 4113 b038 8c96 0539
000000d0: a87b 3ab9 96c0 8f39 b227 8739 0e30 9ab8
000000e0: 30b1 edb9 1a04 7338 ae23 263a 94d7 a5b9
000000f0: a2d4 3138 9d22 0c39 88e0 11b7 b083 c337
00000100: c0fd d8b7 3668 fd38 9425 8438 b1b8 f438
00000110: 8ac9 78b8 5cae ae37 60ac f3b7 3c9f 9739
00000120: 78bd 0fba 22cc adb9 3feb d438 54d9 be38
00000130: 1c3e 4838 141d 70b8 8b4e feb8 cb5e 6d38
00000140: b412 8439 f0df 3037 78fa d0b8 8403 25b9
00000150: d498 37ba b4e2 1bba b0ea a237 3fc3 f2b8
00000160: 784a 9139 aa30 c7b8 fe9a b4b9 0137 e638
00000170: c399 1aba 78a0 f5b7 dd97 e038 2825 93b6
00000180: cea8 f6b9 c82f ca38 f8b7 23b7 9e62 44b9
00000190: a54c a539 c6d2 3e39 1694 b3b8 8cde 03b8
000001a0: 827e 6b39 4abb 5fb9 9812 7c38 aed6 b9b8
000001b0: 38cf 5fb9 3446 e0b7 be3b 7638 edcd 84b8
000001c0: b7be 9eb9 1fb8 143a 5acc 8839 5f6c 9fb8
000001d0: c515 c1b9 20a2 e238 9485 90b9 29cd 6ab8
000001e0: b8b4 8fb9 80ce 7a35 ac67 ca37 1205 96b9
000001f0: 349a c5b8 b488 75b9 2578 23b9 272e 11b9

exp_avg_sq f4 [128]
4.4791104e-06 6.4372316e-06 3.679605e-06 1.6238334e-06 1.3338916e-05 3.3948054e-06 4.1341627e-06 1.4486387e-06
1.1984554e-06 5.955751e-06 2.7127242e-06 1.1614534e-06 8.201505e-06 2.9806054e-06 6.5590343e-06 3.9827028e-06
7.29319e-06 5.550572e-07 1.6903101e-06 5.8700186e-07 2.003069e-06 1.309074e-06 1.1527986e-06 8.737929e-06
5.5460287e-06 9.975791e-06 5.701599e-06 6.458165e-06 4.27108e-06 2.2219801e-06 1.9712436e-06 3.7574375e-06
3.7148975e-06 1.2451674e-05 5.8025453e-06 1.4832464e-05 2.5101883e-06 4.4309204e-06 1.1953875e-05 9.1854e-06
4.805273e-06 1.0986184e-05 9.701626e-06 4.102886e-06 4.4245107e-06 4.1346543e-06 2.1454111e-06 4.213355e-06
3.6041247e-06 5.7984234e-06 1.0286647e-06 1.2479752e-06 1.7709768e-05 3.1867012e-06 5.8286514e-06 4.8314296e-06
2.2470997e-05 3.715714e-06 1.10073015e-05 2.4874957e-06 2.3029827e-06 2.0104749e-06 2.08563e-05 1.5249929e-05
5.9215263e-06 2.0466226e-05 2.1249732e-06 1.7974608e-06 2.0393902e-06 2.4796398e-06 5.971966e-06 1.9967451e-06
8.299846e-06 2.624422e-06 4.1011635e-06 4.816574e-06 2.0321938e-06 3.2637777e-06 3.3577478e-06 9.904603e-07
3.3111037e-06 1.865943e-06 9.170427e-06 3.542306e-06 9.276468e-06 6.970598e-06 7.5321614e-06 1.4492663e-06
8.9112757e-07 1.1996231e-06 5.7768343e-06 2.2541155e-06 1.1353849e-05 5.605811e-06 2.220757e-06 7.2428105e-07
1.682102e-05 3.6715774e-06 8.002652e-07 1.549922e-05 2.7922767e-06 3.958871e-06 5.5185255e-06 3.4519076e-06
1.1195496e-06 3.3329165e-06 6.791073e-06 4.8017523e-06 5.773891e-06 3.3200567e-06 4.2953207e-06 5.1268316e-06
2.0193509e-06 1.1589396e-05 1.898962e-05 4.7146415e-07 1.0468456e-05 1.0123368e-06 8.60914e-06 7.6794583e-07
2.5214424e-06 1.8621907e-06 1.0561995e-05 3.2068992e-06 6.082308e-06 1.2889901e-06 1.8313592e-06 3.0888145e-06
00000000: 444b 9636 66ff d736 22ef 7636 7ef2 d935
00000010: 35ca 5f37 50d2 6336 30b8 8a36 d96e c235
00000020: 9dda a035 83d7 c736 3f0c 3636 3ce3 9b35
00000030: 3299 0937 6906 4836 ad15 dc36 28a3 8536
00000040: 06b8 f436 3eff 1435 9dde e235 7692 1d35
00000050: 776c 0636 71b3 af35 dcb9 9a35 1f99 1237
00000060: 0618 ba36 b25d 2737 5d50 bf36 37b3 d836
00000070: 4c50 8f36 541d 1536 b549 0436 4928 7c36
00000080: 744d 7936 88e7 5037 7cb3 c236 f3d8 7837
00000090: b574 2836 51ad 9436 818d 4837 fe1a 1a37
000000a0: fb3c a136 4d51 3837 2bc4 2237 86ab 8936
000000b0: 4276 9436 69bc 8a36 e2f9 0f36 7260 8d36
000000c0: 64de 7136 1490 c236 a610 8a35 1a80 a735
000000d0: 708f 9437 1cdb 5536 bc93 c336 aa1d a236
000000e0: 1980 bc37 7b5b 7936 00ac 3837 daee 2636
000000f0: f18c 1a36 b2eb 0636 90f4 ae37 f2d9 7f37
00000100: 86b1 c636 e3ae ab37 c39a 0e36 4840 f135
00000110: 75dc 0836 e367 2636 cc62 c836 d2ff 0536
00000120: 913f 0b37 3a1f 3036 ba9c 8936 0e9e a136
00000130: d360 0836 4607 5b36 ab55 6136 f5ef 8435
00000140: 5434 5e36 5071 fa35 afda 1937 5bb8 6d36
00000150: 20a2 1b37 fbe4 e936 c6bc fc36 6984 c235
00000160: d235 6f35 bc02 a135 a1d6 c136 6945 1736
00000170: 697c 3e37 8d19 bc36 5108 1536 376c 4235
00000180: de1a 8d37 3865 7636 ced1 5635 5204 8237
00000190: f362 3b36 71d6 8436 c62b b936 52a7 6736
000001a0: 6e43 9635 12ab 5f36 dfde e336 bd1e a136
000001b0: 59bd c136 24ce 5e36 8620 9036 2607 ac36
000001c0: 2f84 0736 1470 4237 e64b 9f37 8a1d fd34
000001d0: ada1 2f37 a1df 8735 fa6f 1037 d624 4e35
000001e0: 0d36 2936 63f0 f935 6c33 3137 1c36 5736
000001f0: a116 cc36 5d01 ad35 06cd f535 6e49 4f36
