Project/Assets/ML-Agents/Examples/MyTest/Scripts/TFModels/MyTest1Models/Test5/MoveToGoal/checkpoint.pt (torch, 147746 bytes, 14 tensors)

network_body._body_endoder.seq_layers.0.weight f4 [128, 1]
00000000: c181 c2bf 21a8 5bbf 2d47 3cbf 33e9 e1be
00000010: 8ab1 8fbe 3bcb 4c3f ac95 043f 1b24 00bf
00000020: efb0 033f 778c bbbe 8621 963f 10f8 8b3f
00000030: 026e 633f e29b cabe 7ad2 35bf 9448 95be
00000040: 9353 99bf e23b 78be 1d31 53bd 7d3f 96be
00000050: 3987 f93f 088b c83e dffd c33a 9bb1 a3bf
00000060: bc1d 0cbf 7b4d 953f 0fa7 9dbf 848a 773f
00000070: 0259 f53d 525f 2cbf 4295 483e ded8 463f
00000080: 513f 07bf ee9b aebf cc37 a73e c27a 213f
00000090: 7c99 f7bf d41d af3e 7169 3dbf 3459 4f3f
000000a0: d142 ee3f f958 34bf b2cc 2c3f 154a acbf
000000b0: 5145 f7bf 5f96 953f 39dc 6bbf 8123 82bf
000000c0: b3aa 0bbf b51f d53e 4c2a 473e 7026 5cbe
000000d0: e438 7fbf 098e 87bf f9d0 903e ebdf 503f
000000e0: 2d02 25bf 2195 c53f 6223 e3bf aa6c 3cbf
000000f0: 836a a4be 7267 723f 4291 c53e 6f0b c0bf
00000100: b5d9 0a40 1ee2 b33f feaa 02be fb3d 59be
00000110: 4b2b 703f dc25 92bf b948 1840 87d3 813e
00000120: 863b aa3e d966 0ebf 2426 6ebf 5ca9 663f
00000130: 7b62 eebe c3c4 97be be94 fabe cfc2 80bf
00000140: 634b 373f 3890 0440 15e0 62bf cd03 5c3f
00000150: 02c4 43be 64a3 9bbe 79e0 503f 4d30 7d3f
00000160: 9aa3 6b3f 973b a2bf 7ea3 313f 4630 a3bf
00000170: b21b 4bbe 003c 763f fb73 c4bf 67b9 bf3f
00000180: b853 1e3f 8abf 893d bedf ba3e 210c 1cbf
00000190: 04cf c7bd 35b8 823f 7991 6c3f f475 82be
000001a0: 4bc1 09bf bbfe a33f 0d75 2e3f 2ce7 cdbe
000001b0: 65e7 e33d 8c0c 2ebf 7276 813f de5c 94bf
000001c0: bbdc ff3e 8267 85be 0a90 dcbf f916 323f
000001d0: bc75 0cbd 735b 77be 7cc9 11bf c111 adbe
000001e0: a684 f73e 971b c0be 3fb9 c7bd aba1 d83f
000001f0: cc70 373e d006 323f 6f27 f13e 5c2d de3e
-1.5195848 -0.8580342 -0.73546106 -0.4412323 -0.2806514 0.79997605 0.5179088 -0.5005509
0.51441854 -0.36630604 1.172898 1.0935078 0.88839734 -0.39572054 -0.71024287 -0.29156935
-1.197863 -0.24241593 -0.05156051 -0.29345313 1.9494392 0.39168572 0.0014952979 -1.2788576
-0.5473287 1.166427 -1.2316607 0.96695733 0.119798675 -0.6733295 0.19588187 0.77674663
-0.5283099 -1.3641336 0.32659757 0.6307794 -1.9343715 0.34202445 -0.73989016 0.8099549
1.8614141 -0.7044826 0.6749984 -1.3460108 -1.9318029 1.1686515 -0.9213291 -1.0167085
-0.5455734 0.41625753 0.19449729 -0.21499038 -0.99696183 -1.0590221 0.28284433 0.8159167
-0.64456445 1.5436136 -1.7745173 -0.7360331 -0.32112512 0.94689095 0.38587385 -1.5003489
2.1695378 1.405338 -0.12760541 -0.2121505 0.9381606 -1.1417804 2.3794386 0.25356695
0.33248538 -0.55625683 -0.9302695 0.9010217 -0.4655951 -0.29642305 -0.48941606 -1.0059451
0.71599406 2.0713024 -0.8862317 0.859433 -0.1911774 -0.30398095 0.8159252 0.98901826
0.9204651 -1.2674435 0.69390094 -1.2749107 -0.19834784 0.961853 -1.5347894 1.4978455
0.61846495 0.06725986 0.36498827 -0.6095601 -0.09756282 1.0212466 0.92409474 -0.25480616
-0.53810567 1.2812113 0.68147355 -0.40215433 0.111281194 -0.67987895 1.0114272 -1.1590841
0.4997309 -0.26055533 -1.7231457 0.69566303 -0.034291968 -0.24155979 -0.56948066 -0.33802608
0.4834339 -0.3752105 -0.0975213 1.6924337 0.17914122 0.69541645 0.47100398 0.4339398

network_body._body_endoder.seq_layers.0.bias f4 [128]
00000000: 0000 0000 0000 0000 0000 0000 0000 0000
00000010: 0000 0000 0000 0000 0000 0000 0000 0000
00000020: 0000 0000 0000 0000 0000 0000 0000 0000
00000030: 0000 0000 0000 0000 0000 0000 0000 0000
00000040: 0000 0000 0000 0000 0000 0000 0000 0000
00000050: 0000 0000 0000 0000 0000 0000 0000 0000
00000060: 0000 0000 0000 0000 0000 0000 0000 0000
00000070: 0000 0000 0000 0000 0000 0000 0000 0000
00000080: 0000 0000 0000 0000 0000 0000 0000 0000
00000090: 0000 0000 0000 0000 0000 0000 0000 0000
000000a0: 0000 0000 0000 0000 0000 0000 0000 0000
000000b0: 0000 0000 0000 0000 0000 0000 0000 0000
000000c0: 0000 0000 0000 0000 0000 0000 0000 0000
000000d0: 0000 0000 0000 0000 0000 0000 0000 0000
000000e0: 0000 0000 0000 0000 0000 0000 0000 0000
000000f0: 0000 0000 0000 0000 0000 0000 0000 0000
00000100: 0000 0000 0000 0000 0000 0000 0000 0000
00000110: 0000 0000 0000 0000 0000 0000 0000 0000
00000120: 0000 0000 0000 0000 0000 0000 0000 0000
00000130: 0000 0000 0000 0000 0000 0000 0000 0000
00000140: 0000 0000 0000 0000 0000 0000 0000 0000
00000150: 0000 0000 0000 0000 0000 0000 0000 0000
00000160: 0000 0000 0000 0000 0000 0000 0000 0000
00000170: 0000 0000 0000 0000 0000 0000 0000 0000
00000180: 0000 0000 0000 0000 0000 0000 0000 0000
00000190: 0000 0000 0000 0000 0000 0000 0000 0000
000001a0: 0000 0000 0000 0000 0000 0000 0000 0000
000001b0: 0000 0000 0000 0000 0000 0000 0000 0000
000001c0: 0000 0000 0000 0000 0000 0000 0000 0000
000001d0: 0000 0000 0000 0000 0000 0000 0000 0000
000001e0: 0000 0000 0000 0000 0000 0000 0000 0000
000001f0: 0000 0000 0000 0000 0000 0000 0000 0000
0.0 0.0 0.0 0.0 0.0 0.0 0.0 0.0
0.0 0.0 0.0 0.0 0.0 0.0 0.0 0.0
0.0 0.0 0.0 0.0 0.0 0.0 0.0 0.0
0.0 0.0 0.0 0.0 0.0 0.0 0.0 0.0
0.0 0.0 0.0 0.0 0.0 0.0 0.0 0.0
0.0 0.0 0.0 0.0 0.0 0.0 0.0 0.0
0.0 0.0 0.0 0.0 0.0 0.0 0.0 0.0
0.0 0.0 0.0 0.0 0.0 0.0 0.0 0.0
0.0 0.0 0.0 0.0 0.0 0.0 0.0 0.0
0.0 0.0 0.0 0.0 0.0 0.0 0.0 0.0
0.0 0.0 0.0 0.0 0.0 0.0 0.0 0.0
0.0 0.0 0.0 0.0 0.0 0.0 0.0 0.0
0.0 0.0 0.0 0.0 0.0 0.0 0.0 0.0
0.0 0.0 0.0 0.0 0.0 0.0 0.0 0.0
0.0 0.0 0.0 0.0 0.0 0.0 0.0 0.0
0.0 0.0 0.0 0.0 0.0 0.0 0.0 0.0

network_body._body_endoder.seq_layers.2.weight f4 [128, 128]
00000000: d82a 1f3e 0d26 19bd b15b 503e 432c bdbd
00000010: 0dfe 193e d5ec 73bb fc6f 8dbd dd27 b4bd
00000020: ddc0 443e c859 7c3c 8fd3 b93c e284 88bd
00000030: 621e 893d 78df 783d 8b9d bd3d e733 98bd
00000040: d64c 613d 0492 05be ef18 2f3c 9a19 8cbd
00000050: 8e0d 223d 8dc1 3a3c 3242 8d3d 02ff 32be
00000060: 2f8d 183c 728f 813c 3aac 7dbc d2f5 513d
00000070: 922b 313e a805 b43d 6a12 30bd 0ac9 a0bc
00000080: dce0 12be 88d5 21be 7641 4abd 4261 3bbe
00000090: b02f 9c3d a207 833d 3089 853d 5d49 a43c
000000a0: b4af 03bd 559e 96be 2105 e93a ff20 8a3c
000000b0: 8fa2 cabb d2c1 2c3d 452a 03bc 2866 103e
000000c0: 3958 adbc 88b3 fbbd 617f d13d 823d f13d
000000d0: 7d02 13bd 30b2 babc 3e53 40be 2d9d cabd
000000e0: fd3a 313d 7548 983d 4200 3e3d a02f 713d
000000f0: a739 0e3d bb0e f7bb 94e8 03be 6e64 d3bc
00000100: 5aa8 debd 3297 1a3b 2f87 dfbd 7e52 d6bc
00000110: 1721 da3d 19a0 5fbe a6ab 833d 3b2c c9bd
00000120: 3b72 1b3d f727 773c 7642 85bc 76e0 603d
00000130: 270d 843d 8d1e a4bd c182 b63d 6ffa 903d
00000140: c569 11bd 9e83 813d 1875 8abd 2cdc 2fbd
00000150: c5e3 2cbd 636b cd3d ac65 11be 9b2b 66bd
00000160: 291b a6bb 77e8 a1bd 8c4b 393d bfd6 2cbe
00000170: 35f8 bb3d 69d8 1a3c 8455 21bd f4fe c1bc
00000180: 5085 483e ac4b c93d 3a42 cfbd dc79 873d
00000190: 3de0 fcbd 180b a0bd ba4b d1bc f687 d63d
000001a0: 96c4 5c3d 50e0 873d b225 c9bd fb65 c2bd
000001b0: f6ab df3b 9801 403d 0f6d 853d 405d d1bd
000001c0: bba3 7b3d 61c9 443e 2e38 18bd 0524 60bd
000001d0: ca9e ebbd 0ac4 efbd 4e53 553e 0cdc 1f3b
000001e0: 0629 723c 0dc1 89bd 4396 cf3c 7851 563d
000001f0: 7d63 933c 7681 353d 6d4d eebd 109f d1bd
00000200: 4e10 16bc 1dd7 03bd 5ec8 313d f9d7 26be
00000210: 9f61 af3d de7d bebb bd92 1ebd e0ce e2bd
00000220: e196 303d 5bb9 293e d4c4 8ebd b746 433c
00000230: 0927 38bd 4c14 8bbb 337d dbbd adfc 4a3d
00000240: b52b 383c e452 84bd 2742 03bc 8da5 9f3c
00000250: befb 963d 40e6 aabd b546 1bbe 970c b53d
00000260: 2059 bf3d 6a3c e13d c32d e03c 191a c9bd
00000270: 7d74 fabc b8c0 9dbc f0e1 5abe 5b04 303d
00000280: 0ff3 83bd 08ef 6c3e 414b dabc 8c32 01be
00000290: ea9b bf3d b2e0 a0bd 5823 1dbe 4da6 b4bd
000002a0: be56 1e3e 05ea 293a 6300 8b3d 9fd9 053e
000002b0: e083 cc3d 154d 2cbe 5312 4b3d d637 a33d
000002c0: bea7 0e3e fcd7 393d e0f3 8a3d 499f 5ebd
000002d0: ffa8 5dbd 23a4 60bd 28e5 b53c 8a57 7ebd
000002e0: 5b1d a6bb e921 263d fb58 bc3d 4822 d63d
000002f0: 71b0 cebd d61d 4e3e 404a eb3d 4cd5 b7bd
00000300: 5705 173d 239c 8b3d 40d2 c3bd 09a6 a1bd
00000310: 67e2 7f3d d23a 0dbd a2ba b7bd b273 783d
00000320: c828 f33b 1182 083e 8299 09be 5fcf 1b3e
00000330: 61d8 243d b4fa f13c 185d 2c3c cf63 94bb
00000340: b3e9 29bd 19f8 d1bd 3068 a8bd e818 17be
00000350: 2370 0a3e acf2 4fbd 818d 8ebd 17df 3fbd
00000360: 192a d83d 6388 b2bd 3e66 cd3b 8b06 a6bd
00000370: 855f 3abb 6405 c3bd 340e 9abe 11d4 003e
00000380: 6e48 d2bd e687 6bbe fa2c 05bd a7ba 5fbd
00000390: 95b3 d53c 5e2a 5fbd 3e26 10bd 0d93 b13d
000003a0: a39c 53bd 1790 78bc 9e29 6c3b 3ba2 a03d
000003b0: e022 5fbc f865 f73c b850 743d 6c55 1dbd
000003c0: 5184 b03d fadc 233e 09dc 65be de09 96bd
000003d0: 4e32 4cbd 9af3 963d e2d9 aa3b f5a1 75bd
000003e0: a62f 3bbc c44d 4d3e 4a64 e33c a9c3 5fbd
000003f0: 5b61 cb3d de0e f2bd ed06 cbbd 734c 4a3d
0.15543687 -0.037389804 0.20347477 -0.09236958 0.15038319 -0.003722002 -0.06906125 -0.08796666
0.19214197 0.015402265 0.022683887 -0.066659704 0.06695248 0.06075999 0.092585646 -0.074317746
0.055004917 -0.13043982 0.010687097 -0.068408206 0.039563708 0.011398685 0.068973914 -0.1748009
0.009311005 0.01581547 -0.015482957 0.051259823 0.17301777 0.08790141 -0.04298631 -0.019627113
-0.1434359 -0.15804112 -0.049378835 -0.1829882 0.07626283 0.0639794 0.06520307 0.020054514
-0.032149985 -0.29417673 0.0017778018 0.016861437 -0.0061839293 0.04217703 -0.008005683 0.1410147
-0.021160232 -0.12290102 0.10229374 0.1177931 -0.035891045 -0.022790045 -0.18781754 -0.0989326
0.043269146 0.07435695 0.046386965 0.05888331 0.03472295 -0.007539598 -0.1288169 -0.025804725
-0.10871954 0.0023588655 -0.10914456 -0.026162382 0.10650843 -0.21838416 0.06429224 -0.098228894
0.037950736 0.015085212 -0.016267043 0.054901563 0.06447821 -0.080136396 0.08911658 0.070790164
-0.03550126 0.06323932 -0.06760615 -0.04293458 -0.042209405 0.10030248 -0.14198941 -0.05619393
-0.0050691557 -0.07905667 0.045238063 -0.16878794 0.09178201 0.00945101 -0.039388195 -0.023681141
0.19582105 0.098288864 -0.101200536 0.0661504 -0.123474576 -0.07814616 -0.025548805 0.10475151
0.053898416 0.06634581 -0.09821643 -0.094921075 0.0068259193 0.04687652 0.06514942 -0.10222864
0.061435442 0.19217445 -0.037162952 -0.05472185 -0.11504896 -0.11707313 0.2083256 0.0024392633
0.014780289 -0.06726275 0.025340205 0.05232379 0.017991776 0.044312917 -0.116358615 -0.10235417
-0.009159161 -0.03218757 0.043403976 -0.16293325 0.085635416 -0.0058133444 -0.03871416 -0.110746145
0.04311264 0.16574614 -0.06971136 0.011918715 -0.0449591 -0.004244363 -0.10717239 0.049557377
0.011240889 -0.06461123 -0.008011377 0.01948812 0.07372235 -0.08344698 -0.15163691 0.08840292
0.09343171 0.10997851 0.02736557 -0.09819431 -0.030573124 -0.019256935 -0.21375251 0.042972904
-0.06442844 0.23138058 -0.026647212 -0.12616938 0.0935591 -0.07855357 -0.15345514 -0.08820782
0.15462777 0.000648171 0.06787183 0.13071297 0.09986091 -0.1682628 0.049578022 0.07969634
0.13931176 0.045371994 0.06784797 -0.054351125 -0.054116245 -0.054844033 0.022203997 -0.062095203
-0.0050694174 0.040559683 0.09196659 0.104557574 -0.10092247 0.20128569 0.114887714 -0.0897623
0.036870327 0.0681689 -0.095615864 -0.07892997 0.062471773 -0.034479924 -0.08971144 0.06065721
0.007420633 0.13330866 -0.13437465 0.15215825 0.040245418 0.02953849 0.010520242 -0.0045284997
-0.04148264 -0.10252399 -0.08222997 -0.14755595 0.1351934 -0.05076854 -0.069605835 -0.046843614
0.105549045 -0.0871742 0.0062682917 -0.08106717 -0.0028438282 -0.095225126 -0.3008896 0.12580897
-0.10267721 -0.2300106 -0.032513596 -0.054621365 0.026086608 -0.054483764 -0.03519272 0.08670626
-0.051663052 -0.015171072 0.0036035548 0.07843443 -0.013619155 0.03019999 0.059647292 -0.038411543
0.08618987 0.16002265 -0.22447218 -0.07326101 -0.04985266 0.07370682 0.005213962 -0.059968907
-0.0114249345 0.20049196 0.027757782 -0.054629955 0.099306785 -0.11819242 -0.0991343 0.049389314

network_body._body_endoder.seq_layers.2.bias f4 [128]
00000000: 0000 0000 0000 0000 0000 0000 0000 0000
00000010: 0000 0000 0000 0000 0000 0000 0000 0000
00000020: 0000 0000 0000 0000 0000 0000 0000 0000
00000030: 0000 0000 0000 0000 0000 0000 0000 0000
00000040: 0000 0000 0000 0000 0000 0000 0000 0000
00000050: 0000 0000 0000 0000 0000 0000 0000 0000
00000060: 0000 0000 0000 0000 0000 0000 0000 0000
00000070: 0000 0000 0000 0000 0000 0000 0000 0000
00000080: 0000 0000 0000 0000 0000 0000 0000 0000
00000090: 0000 0000 0000 0000 0000 0000 0000 0000
000000a0: 0000 0000 0000 0000 0000 0000 0000 0000
000000b0: 0000 0000 0000 0000 0000 0000 0000 0000
000000c0: 0000 0000 0000 0000 0000 0000 0000 0000
000000d0: 0000 0000 0000 0000 0000 0000 0000 0000
000000e0: 0000 0000 0000 0000 0000 0000 0000 0000
000000f0: 0000 0000 0000 0000 0000 0000 0000 0000
00000100: 0000 0000 0000 0000 0000 0000 0000 0000
00000110: 0000 0000 0000 0000 0000 0000 0000 0000
00000120: 0000 0000 0000 0000 0000 0000 0000 0000
00000130: 0000 0000 0000 0000 0000 0000 0000 0000
00000140: 0000 0000 0000 0000 0000 0000 0000 0000
00000150: 0000 0000 0000 0000 0000 0000 0000 0000
00000160: 0000 0000 0000 0000 0000 0000 0000 0000
00000170: 0000 0000 0000 0000 0000 0000 0000 0000
00000180: 0000 0000 0000 0000 0000 0000 0000 0000
00000190: 0000 0000 0000 0000 0000 0000 0000 0000
000001a0: 0000 0000 0000 0000 0000 0000 0000 0000
000001b0: 0000 0000 0000 0000 0000 0000 0000 0000
000001c0: 0000 0000 0000 0000 0000 0000 0000 0000
000001d0: 0000 0000 0000 0000 0000 0000 0000 0000
000001e0: 0000 0000 0000 0000 0000 0000 0000 0000
000001f0: 0000 0000 0000 0000 0000 0000 0000 0000
0.0 0.0 0.0 0.0 0.0 0.0 0.0 0.0
0.0 0.0 0.0 0.0 0.0 0.0 0.0 0.0
0.0 0.0 0.0 0.0 0.0 0.0 0.0 0.0
0.0 0.0 0.0 0.0 0.0 0.0 0.0 0.0
0.0 0.0 0.0 0.0 0.0 0.0 0.0 0.0
0.0 0.0 0.0 0.0 0.0 0.0 0.0 0.0
0.0 0.0 0.0 0.0 0.0 0.0 0.0 0.0
0.0 0.0 0.0 0.0 0.0 0.0 0.0 0.0
0.0 0.0 0.0 0.0 0.0 0.0 0.0 0.0
0.0 0.0 0.0 0.0 0.0 0.0 0.0 0.0
0.0 0.0 0.0 0.0 0.0 0.0 0.0 0.0
0.0 0.0 0.0 0.0 0.0 0.0 0.0 0.0
0.0 0.0 0.0 0.0 0.0 0.0 0.0 0.0
0.0 0.0 0.0 0.0 0.0 0.0 0.0 0.0
0.0 0.0 0.0 0.0 0.0 0.0 0.0 0.0
0.0 0.0 0.0 0.0 0.0 0.0 0.0 0.0

action_model._continuous_distribution.log_sigma f4 [1, 2]
00000000: 0000 0000 0000 0000
0.0 0.0

action_model._continuous_distribution.mu.weight f4 [2, 128]
00000000: 9957 b9bc 565a a83a 2d3f 633c 98c5 323b
00000010: cc3e 383c ba97 acbb 3899 f4bb 1c7c 823c
00000020: 1d3e d9bb 5fb8 e1bc 18af 51bd 934a 3d3c
00000030: 3f4e 7b3c 4761 193d d040 5fbb b43e bf3c
00000040: 4ab0 073d bedf a23c d35a 8b3a 6f8e b8b9
00000050: fb9f 6c3c 98a2 743c eb20 0fbd fb8b 463c
00000060: 3754 82bc 6b97 86ba d234 9bbc 6922 29bc
00000070: a07e debc 896c bebc 5fb5 0cbc 62b4 5ebc
00000080: 29bf a13c daff d0bc ab6a 4bbb 7714 003c
00000090: 175c c43c 8681 9d3c 6690 37bc 6f37 003d
000000a0: 3ba5 11bc cdb2 393c f042 7cbc 63e2 d4bb
000000b0: 1db8 623c fbb4 b8bb 27be a13c b7c0 acbc
000000c0: 25b7 d93c ffa0 acbc 7ca5 833c bdbb d5bc
000000d0: 1db2 8dbc c8c4 bc3c 7d20 0d3d 65ca f2bc
000000e0: 58ee 5a3c 5048 53bc f7f0 febb 204c b93c
000000f0: a0b4 423c 52e3 53bc 0a5d 2a3b 95e4 b33c
00000100: bff3 a1bc 97cb a2bc b0f0 0a3c 41b3 acbc
00000110: 8136 45bc db19 203b 9555 95bc 6fe9 acbc
00000120: 8dab 23bc 489a e3bc b214 ee3c d53e c23b
00000130: ee9f 8bbc 6c90 493c 47c5 dcbc b7b7 13bb
00000140: af73 343c 05c0 a03c 905b dcbb 0750 c53c
00000150: 77b6 263c 7c19 c93c 1d65 f3ba 6771 cfbc
00000160: c76c 363c d52a 553b a824 6dbb e2b8 d43c
00000170: ad5d 6bbc 7f25 fe3b 4c50 c93c 7ab8 d13c
00000180: d725 fabc 0e24 0abc b3ee cdbc a30d cfbc
00000190: 772d 64bc 7b27 81bb a052 163d df5e 44bc
000001a0: 80a4 683b 720f 4b3b ce3c 32bc 88fc 1c3c
000001b0: 402b 46bc fb96 05bb 0567 dd3c 6fcd 7fbb
000001c0: f49a 3c3c c3ec 02bd 0bfb 80bc fff7 e8b9
000001d0: 2a1c 18bd e77a 7bbc ef7d 843c 9b94 e73c
000001e0: 57cd 9dbc 3055 f9bb 935f 583a eb9d a33c
000001f0: 9d95 e6ba 466e 2dbc 73f5 adbc a374 b83b
00000200: 0386 fa3b 60b6 683c d563 44bc 4b60 e2bc
00000210: 7f6c e03c c333 113c ed42 673a ae6e 93bb
00000220: 54d4 bdbb b051 4dbc 9718 643b 9fbd 31bd
00000230: 7ea7 c63c fae9 993b ed19 b33a 7064 aebc
00000240: 8cac 29bb 73f5 81bc c2de 23bb a63c 34bc
00000250: cafa cdb9 d231 723c 0f70 dbbc b0c1 393c
00000260: 6bc3 72bc 255d cebc 97f9 3c3d 9b03 913b
00000270: 2912 94bc 6a11 e2bb e55f e1bc 14c9 b935
00000280: 1b0c ccba 233e cabb 6207 0c3d d198 35bc
00000290: c893 c2bb 60f4 edbb a905 86bc da4f b6bc
000002a0: 593d 9a3a 3f55 b3bb 2e96 05bd b35d 96bc
000002b0: 65a6 dabb bdd6 363c 3498 203c 6a97 d9bc
000002c0: 2b81 c13c f5a2 853c 7af9 663b 0035 c53c
000002d0: cb10 1f3d ce41 84bc 7859 693c e05e f73b
000002e0: f546 233b 7b02 9a3b e703 22bb 8c5c 1fbc
000002f0: eda1 123c ba25 1a3c df80 cfbc a6c4 203c
00000300: d7a6 4b3b 5be5 b93c 6916 303c 72ea 1dbc
00000310: ff8f 8c3c a57b 0fbc c777 0dbc 9187 153d
00000320: 67da d9bc 68eb 583b 0764 61ba 032f 6abc
00000330: eb44 ce3b 231f cdbc 0b72 96bc 1249 abbc
00000340: 9fcb ecbb 07b1 20bd 2238 76ba dc41 3d3c
00000350: 1a0d 483c 136b 00bc 27af 683b f0fb d1bc
00000360: e6c4 9b3c e2b9 b2bb 5bd0 c83c 6f39 a43c
00000370: 7974 2b3c 635a 04bd 23a0 71bc 8830 983c
00000380: 9a6e 80bc f399 303b aa94 b03b b8fc ba3c
00000390: aa09 e3bc 1011 70bc 387f 053c 0590 21bc
000003a0: 4d5e 373c 42d2 533b af7b 2cbc 6b7a adba
000003b0: bf76 833c 7856 0e3d 371b 25bc 675e 443b
000003c0: 101d e1bc b130 233c dfc5 313b 1a5f dd3b
000003d0: 0544 78bc c4f0 07bd 42d4 d63b 50de ecbb
000003e0: d126 b0bc 0b71 81bc 1b0b b83b 8823 7b3b
000003f0: 241f 1fbc 0367 083c 1e0a c93b 603a e03b
-0.022624778 0.0012844305 0.013870043 0.002727842 0.011245441 -0.0052671107 -0.007464554 0.01592832
-0.006629719 -0.027553735 -0.051192373 0.011553424 0.01533848 0.037446287 -0.003406573 0.023345329
0.033127107 0.01988208 0.0010631926 -0.00035201336 0.014442439 0.0149313435 -0.034943502 0.012118335
-0.015909297 -0.0010268515 -0.018946085 -0.010323145 -0.027159989 -0.023245113 -0.008588164 -0.013592811
0.019744473 -0.025512625 -0.003103892 0.007817379 0.023969693 0.0192268 -0.011203861 0.031302866
-0.008889492 0.011334133 -0.0153968185 -0.006496714 0.013837841 -0.005636809 0.019743992 -0.021087987
0.026576588 -0.021072863 0.01607012 -0.026090497 -0.017296845 0.023043051 0.03445481 -0.029637525
0.01336249 -0.012895659 -0.00778019 0.022619307 0.011883885 -0.012932615 0.0025995397 0.021959582
-0.019769548 -0.01987247 0.008480236 -0.021081569 -0.0120369205 0.0024429474 -0.018229285 -0.021107404
-0.009989631 -0.027783528 0.029062603 0.0059279003 -0.017044034 0.012302499 -0.026949538 -0.0022539923
0.011013909 0.019622812 -0.0067247823 0.024086012 0.010175339 0.024548285 -0.0018569563 -0.02532263
0.011134333 0.003252675 -0.003618518 0.025967065 -0.014365596 0.0077559347 0.024574421 0.02560066
-0.030535622 -0.008431448 -0.025138235 -0.025275057 -0.013926855 -0.003941474 0.03669989 -0.01198551
0.003549844 0.0030984548 -0.010878755 0.0095816925 -0.012095273 -0.002038418 0.027026663 -0.003903236
0.011511553 -0.031964075 -0.015744707 -0.0004443526 -0.037136234 -0.015349126 0.016173331 0.028269103
-0.019262953 -0.007609032 0.0008253988 0.019972762 -0.0017592196 -0.010585373 -0.021235203 0.0056291386
0.00764537 0.014203638 -0.011986692 -0.027633807 0.027395485 0.008862439 0.00088219234 -0.004499278
-0.0057931338 -0.012531683 0.0034804696 -0.043393727 0.024249788 0.0046970816 0.0013664343 -0.021288127
-0.00258902 -0.01586411 -0.00250046 -0.011000788 -0.000392875 0.014782386 -0.026786832 0.011337683
-0.014817099 -0.0251909 0.046136465 0.0044254786 -0.018075066 -0.0068990486 -0.027511546 1.3842096e-06
-0.0015567573 -0.006171958 0.03418673 -0.011083798 -0.005938027 -0.007261798 -0.01636012 -0.022254873
0.0011767551 -0.0054728086 -0.032613926 -0.018355226 -0.006672668 0.011159596 0.009801913 -0.026561458
0.023621162 0.016313056 0.0035243914 0.024073124 0.038834374 -0.01614466 0.014242522 0.007549152
0.002491412 0.0047000027 -0.0024721564 -0.009726655 0.008949739 0.009408409 -0.025330005 0.00981251
0.0031074786 0.022692373 0.0107475305 -0.009638416 0.017158506 -0.0087575065 -0.008634514 0.03650624
-0.0265934 0.0033099297 -0.0008597974 -0.014293435 0.0062948368 -0.025039261 -0.018364927 -0.020908866
-0.007226422 -0.039231326 -0.000939252 0.011551347 0.012210155 -0.0078380285 0.003550479 -0.025632828
0.019014787 -0.005454288 0.024513414 0.020046918 0.010464781 -0.032312762 -0.014747652 0.018577829
-0.015677739 0.002694723 0.005388816 0.022825584 -0.02771457 -0.0146525055 0.008148007 -0.009860997
0.011191917 0.0032321368 -0.010527535 -0.0013235336 0.016047833 0.03475043 -0.010077289 0.0029963495
-0.027479678 0.009960339 0.0027125997 0.0067557218 -0.015152936 -0.033188596 0.006556065 -0.00722865
-0.021502884 -0.015800973 0.0056165583 0.0038320739 -0.009712014 0.008325341 0.0061352393 0.0068428963

action_model._continuous_distribution.mu.bias f4 [2]
00000000: 0000 0000 0000 0000
0.0 0.0

action_model._discrete_distribution.branches.0.weight f4 [5, 128]
00000000: 6de3 0e3c fe1f 03bb d305 8ebc 8fb8 8a3a
00000010: 5f69 e13b 6a99 6ebc 0112 0cbc 4736 48bc
00000020: ba0b a43c 6390 5b3c f5db 943a 6ee1 38bc
00000030: c860 b4ba 80ca 0e3b 4e9e b3bb 23c7 55bb
00000040: cf69 333c 77ee aa3c d049 7a3b a778 fabb
00000050: ea09 76bc 2767 29bb a740 8eb8 89f2 9938
00000060: 789a 04bc 4bc8 14bb fff0 0f3b 5d86 fcba
00000070: eda8 7f3c 8aa5 55bc 08db 00bc 0ae6 4d3b
00000080: 50c3 ebbb d2f5 143b 4c33 473c 57cb 54bc
00000090: 3762 78ba 8bc9 19bb 7e8f a23b 2ff7 083c
000000a0: 1f0c 023b bd62 b13b dc62 acbc a5e1 fbbb
000000b0: 47fe 043c 3654 123b 0a96 2c3c 1728 98bb
000000c0: b756 58bb b29e a7bc d36c debb a0e7 a53b
000000d0: cad9 113c 2c53 c2bb 8879 4ebc ba9d 57ba
000000e0: 4dcc 0a3c 5273 6b3a afe0 7cbb 3744 d83b
000000f0: 94ca 0d3c 748a 0a3c 99de 963c bc6c 943c
00000100: 36bc 043c 2bb9 25bc 2ba0 293b 8b6f 47bc
00000110: 0d6a bcbb 0f39 18bc 6f32 38bb 1f8c f83b
00000120: 1f6a 53bc 3a7d f63b 788d 2d3b 4f05 12bb
00000130: 53cc 2bba 225f 053c 03f5 d13b 038c b13b
00000140: 189e 03bc a075 6b3c b28c 9fba 7fa9 b93b
00000150: 5d81 d43b 2b60 413b daaa b53b dc9e 9f3b
00000160: cfa9 a63c c256 c23a 8620 0437 b040 2a3a
00000170: 12c6 193b 6a38 883b 9f2d 3dbc 80b9 a6ba
00000180: b63d 3ebb 9b60 32bc 60a6 503b 7b7f 1abb
00000190: 5e1b 9539 d648 bc3b 3f0f cfba cdb5 d03a
000001a0: 704d 523c 6fb9 a33b 3b7d 5cbc 824b fb39
000001b0: 9ed5 bd3b 19e3 143c f8f3 10bb 1533 3d3c
000001c0: a586 363c 1fd9 3fbc 8103 103b 423c 523c
000001d0: 88fd 59bc b5f5 c83c 65e2 48bb 6c98 48bc
000001e0: acdc 8bbb 9316 3b3b c29e 653a 7088 6ebc
000001f0: 191e aebc 54d6 96bb e276 0d3c 291b 113c
00000200: 7394 b63a 2b1c 40bc 6b18 033c 1bd4 2d3c
00000210: 0df1 963b 8b53 7fbc a076 c2bc 5b7e aa3b
00000220: 3f64 37ba cf71 a9bc 7ab6 273c 8f94 193c
00000230: ebc8 64bc efff 1fbc 0323 8d3c 2528 d4ba
00000240: 09ba 313c 5a9c be3b cfb0 983b 1a1a 343c
00000250: e018 a8bb 0a6a ad3b 511a 0e3c abd1 d73b
00000260: 773e b3ba 19c8 40bb 7750 8fbc 0fea 7c3b
00000270: 4b46 cfbb abf7 5abc 1539 ec39 28d0 c9bb
00000280: 31f8 8e3b 54b2 8fbc 7d55 7dba 1c42 273c
00000290: b324 70ba 63a3 813c 1596 65bb 0b40 47bc
000002a0: 6acf 5b3c 3a22 0f3c c8a0 0f3c 6c66 2ebc
000002b0: 38ba c3bb d77d 15bc 05c5 2c3c 930b 53bc
000002c0: 5441 b53a d4d9 353c 7257 a7bb e363 933c
000002d0: 318f c8b8 6b0b 683c eb3e 2dbc 6fb5 01bc
000002e0: 82b2 0f3c d825 9a3b 161a 2d3c 7fe8 5339
000002f0: 3374 9d3a 1f4d 133c c39f 223b fd96 08bc
00000300: a1ba 06ba 53d3 3dbc ddae 543c e000 19bc
00000310: 6ae1 d13c 05d7 1d3c ddff 5f3a 7ea7 a7bb
00000320: e7be bdbb e416 413c 6f03 70b8 cb05 1e3b
00000330: db0e eabb 9feb a239 13fa f7bb 0fa7 f03a
00000340: 27aa 4c3c 21d6 20bc 42fc 0b3c 7347 1bbb
00000350: 85b2 5f3c 0796 bbbb 6b17 0cbb 835b 36bc
00000360: 4b85 99b8 faea 5bbc 4fc6 813c ab40 0dba
00000370: 82ad c43b 13ba fcb6 2d82 9ebb c88b 5f3c
00000380: 3279 25b9 e3f1 63bb 2b40 163a 1530 573b
00000390: a0ce dcbb 6feb a0bb c020 5f3c 6f8f 88bb
000003a0: 33d0 293c 6a44 edbb 9387 ecbb 8a1c 00bc
000003b0: 9d7d 64bb 612e 323c 0165 893c 25fe db3a
000003c0: e2fd 683b dd14 4c3c 005e 113c c3d5 62bc
000003d0: 6d24 6c3b b6ab 0abc 386c 483c 3070 e4bb
000003e0: be59 a3bb d9d0 c0bc 1249 9d3a 0d00 28bb
000003f0: 5b23 863a 1b9a 7b3c df0f 563a 75b7 75bc
0.008721215 -0.0020008083 -0.017336762 0.0010583567 0.0068790163 -0.014562944 -0.008549214 -0.012219972
0.020025123 0.013401124 0.0011357056 -0.011284215 -0.0013761753 0.002178818 -0.005481518 -0.0032619915
0.01095052 0.020865662 0.0038190968 -0.0076437774 -0.015017012 -0.0025848837 -6.78313e-05 7.340784e-05
-0.008093469 -0.0022702392 0.0021963713 -0.0019266118 0.01560424 -0.013039956 -0.007864721 0.0031417632
-0.007194914 0.0022729528 0.012158226 -0.012987933 -0.00094750844 -0.0023466076 0.0049609533 0.008359714
0.001984365 0.005413382 -0.021043234 -0.007686811 0.008117265 0.0022328026 0.010533819 -0.004643451
-0.003301067 -0.020461414 -0.006787875 0.0050630122 0.008902023 -0.005930325 -0.0126022175 -0.0008225102
0.008471561 0.00089817226 -0.003858607 0.0065999287 0.008654255 0.008455861 0.01841669 0.018118255
0.008101514 -0.010114948 0.002588282 -0.01217259 -0.005749947 -0.009290948 -0.0028106233 0.007585063
-0.012903719 0.0075222524 0.0026482027 -0.0022280996 -0.0006553579 0.008140357 0.0064073815 0.005418302
-0.008033298 0.014371306 -0.0012172668 0.0056659575 0.006485148 0.0029506783 0.0055440487 0.0048712324
0.020344643 0.0014826881 7.875386e-06 0.00064946245 0.0023464006 0.0041571157 -0.011546521 -0.0012720078
-0.0029028482 -0.01088729 0.0031837448 -0.002357452 0.00028439885 0.0057459874 -0.001579739 0.0015923321
0.012835845 0.0049964706 -0.013457592 0.00047930708 0.0057932874 0.009087347 -0.0022118073 0.011547823
0.0111405 -0.011709481 0.0021974745 0.012831749 -0.0133050755 0.024531225 -0.003065252 -0.012243371
-0.0042682495 0.002854739 0.00087593135 -0.014558896 -0.021254586 -0.0046031866 0.008634301 0.008856573
0.0013929739 -0.011725466 0.008001427 0.010609652 0.004606372 -0.015583883 -0.023738205 0.005203051
-0.0006995834 -0.020684151 0.010236377 0.009373798 -0.013963918 -0.009765609 0.017228609 -0.001618628
0.010847577 0.0058169784 0.004659749 0.010992551 -0.0051299185 0.005292182 0.0086732665 0.0065862737
-0.0013675232 -0.0029416142 -0.017494423 0.0038591658 -0.0063255182 -0.013364713 0.00045055957 -0.0061588474
0.004363083 -0.017541088 -0.0009663923 0.010208633 -0.0009160742 0.01582498 -0.0035032083 -0.012161265
0.013416151 0.008736188 0.008766361 -0.010644536 -0.0059731267 -0.009124241 0.01054502 -0.0128811775
0.0013828673 0.011099298 -0.00510686 0.017991966 -9.563415e-05 0.0141628785 -0.010574083 -0.007916792
0.008770587 0.0047042184 0.010565301 0.0002020914 0.001201278 0.008990555 0.0024814464 -0.00833678
-0.0005139504 -0.011586028 0.012981144 -0.0093385875 0.025620181 0.009633784 0.00085449015 -0.005116402
-0.0057905796 0.011785243 -5.7223657e-05 0.002411234 -0.007142884 0.000310746 -0.007567653 0.0018360334
0.012491739 -0.009816677 0.00854403 -0.002369371 0.013653402 -0.0057246718 -0.0021376263 -0.0111302165
-7.320436e-05 -0.013422722 0.015841631 -0.00053883594 0.006002129 -7.531847e-06 -0.0048372955 0.013644166
-0.00015780775 -0.0034781627 0.00057316077 0.0032835056 -0.006738499 -0.0049108784 0.013618648 -0.0041674892
0.01036458 -0.0072408216 -0.00721831 -0.007819304 -0.003486491 0.010875315 0.016771795 0.0016784115
0.0035551717 0.012456146 0.008872509 -0.01384491 0.0036032454 -0.008463791 0.012232833 -0.0069713816
-0.0049850633 -0.023537086 0.0011999926 -0.0025634796 0.0010233925 0.015356566 0.0008165817 -0.014997353

action_model._discrete_distribution.branches.0.bias f4 [5]
00000000: 0000 0000 0000 0000 0000 0000 0000 0000
00000010: 0000 0000
0.0 0.0 0.0 0.0 0.0

network_body._body_endoder.seq_layers.0.weight f4 [128, 1]
00000000: b5fd c5bf 4419 c23e 59f0 97bf 771d 05c0
00000010: 47d7 e13e d5b7 22bf 2f2a 8fbf a7d4 e03e
00000020: b42c 87be 1966 db3e f459 413f 4a29 e73e
00000030: 92b3 08bf a460 ca3f 7fe5 523e 0741 e1bf
00000040: 6b6d 53bf 11a6 81bf 06fb 073f d338 8c3e
00000050: de68 b83f dda8 e1bf d9f3 dd3f c150 f0bf
00000060: ea7f 973f 2f08 d73f afa2 e53e 1e0e abbe
00000070: da35 303e 4425 143e 3ad5 0cbe faa7 b3bf
00000080: d36a 9e3c c046 99be 37fe 1bbf 6880 40bf
00000090: 5d15 26c0 0f2f 97be 45ee fdbe 3dc8 a5bf
000000a0: 3415 2c3e 4e11 163f f0e5 38bf ffa3 e83e
000000b0: 4071 623f 7e74 853e 75a8 efbe 7efc a2bd
000000c0: 5cb2 583f 7360 aa3e d33f 4a3f d0db c23d
000000d0: fc84 56bf 7b2d 52bc 2e36 bebf 381c 3ebf
000000e0: ec7e 15be 73e8 83be e255 03bf 8641 1a3f
000000f0: 6a01 0c3f fc09 7c3e b703 b1bf 8a0f ea3e
00000100: 4fa5 493f 1cc7 313f 1d4d e03f c4da 423f
00000110: 022c e7bf 4579 f63e baf7 ad3d 19be b03f
00000120: 4074 e1be f7bf 83bf 1e35 74bf 6015 e1be
00000130: e7a3 86bf d1bd 103f 806a c2bf 757f 303f
00000140: fedd b73e ab35 053f 009d cc3e 8212 aa3f
00000150: 9a91 033e a6a8 013f 6747 733f caf2 a8be
00000160: acca 0b3f 7f81 d23e cabb 603e aeba 843f
00000170: 7f5c 053f 0a00 2cbf 75d1 463f c4c0 0fbe
00000180: 476f 57be 59fd e1bf 91ae 463e 1cfb 83bf
00000190: 153b 80bf 8507 c93f c5c8 89bf 3cec 13c0
000001a0: 42ec 003f c675 3abf 321c 673f 915d bebf
000001b0: 97ad 983f 1f81 033f 9157 933e ee2c bebe
000001c0: d824 40bd 9f5c 0f3f 9562 423f 359e 0cbf
000001d0: a55a 9cbe 28f8 773e 660a 573f 1e2b e0be
000001e0: c4de e4bf 63a6 0bbf fdf5 203e 34c8 3ebf
000001f0: 3b86 9e3f 636f c2bf 6a6b ddbe 077a 17bf
-1.546805 0.379099 -1.1870223 -2.0799234 0.44109556 -0.63561755 -1.1184748 0.4391224
-0.26401293 0.42851332 0.7552788 0.4514869 -0.53399 1.5810742 0.20595358 -1.759797
-0.82588834 -1.0128804 0.53117406 0.27387103 1.4407003 -1.7629658 1.7340041 -1.8774644
1.1835911 1.6799372 0.4485068 -0.33409208 0.17208043 0.1446734 -0.13753214 -1.4035637
0.019338047 -0.2993679 -0.60934776 -0.7519593 -2.595054 -0.2952809 -0.49595848 -1.2951733
0.16804963 0.58620155 -0.72225857 0.4543762 0.88454056 0.2606544 -0.4680821 -0.07958315
0.84647155 0.3327671 0.7900364 0.09514582 -0.8379667 -0.012828226 -1.4860284 -0.7426181
-0.14599198 -0.25763282 -0.5130292 0.6025623 0.5468966 0.24613184 -1.3829259 0.4571498
0.78767866 0.6944444 1.7523533 0.7611506 -1.8060305 0.48139396 0.08494516 1.3808013
-0.44034004 -1.0292958 -0.9539355 -0.4396162 -1.0518769 0.56539637 -1.5188751 0.68944484
0.35911554 0.52035016 0.39963531 1.3286898 0.12848511 0.5064796 0.95030826 -0.32997733
0.5460613 0.41114423 0.21946636 1.036947 0.5209426 -0.6718756 0.77663356 -0.14038378
-0.21038543 -1.765544 0.1940253 -1.0311007 -1.001803 1.570542 -1.0764395 -2.3112936
0.503605 -0.7283596 0.902774 -1.4872304 1.1927975 0.513689 0.28777745 -0.37143654
-0.046910137 0.56000704 0.75931674 -0.54928905 -0.30537906 0.24215758 0.8400024 -0.43782896
-1.7880483 -0.5455076 0.15718837 -0.74524236 1.2384714 -1.5190243 -0.43246013 -0.59170574

network_body._body_endoder.seq_layers.0.bias f4 [128]
00000000: 0000 0000 0000 0000 0000 0000 0000 0000
00000010: 0000 0000 0000 0000 0000 0000 0000 0000
00000020: 0000 0000 0000 0000 0000 0000 0000 0000
00000030: 0000 0000 0000 0000 0000 0000 0000 0000
00000040: 0000 0000 0000 0000 0000 0000 0000 0000
00000050: 0000 0000 0000 0000 0000 0000 0000 0000
00000060: 0000 0000 0000 0000 0000 0000 0000 0000
00000070: 0000 0000 0000 0000 0000 0000 0000 0000
00000080: 0000 0000 0000 0000 0000 0000 0000 0000
00000090: 0000 0000 0000 0000 0000 0000 0000 0000
000000a0: 0000 0000 0000 0000 0000 0000 0000 0000
000000b0: 0000 0000 0000 0000 0000 0000 0000 0000
000000c0: 0000 0000 0000 0000 0000 0000 0000 0000
000000d0: 0000 0000 0000 0000 0000 0000 0000 0000
000000e0: 0000 0000 0000 0000 0000 0000 0000 0000
000000f0: 0000 0000 0000 0000 0000 0000 0000 0000
00000100: 0000 0000 0000 0000 0000 0000 0000 0000
00000110: 0000 0000 0000 0000 0000 0000 0000 0000
00000120: 0000 0000 0000 0000 0000 0000 0000 0000
00000130: 0000 0000 0000 0000 0000 0000 0000 0000
00000140: 0000 0000 0000 0000 0000 0000 0000 0000
00000150: 0000 0000 0000 0000 0000 0000 0000 0000
00000160: 0000 0000 0000 0000 0000 0000 0000 0000
00000170: 0000 0000 0000 0000 0000 0000 0000 0000
00000180: 0000 0000 0000 0000 0000 0000 0000 0000
00000190: 0000 0000 0000 0000 0000 0000 0000 0000
000001a0: 0000 0000 0000 0000 0000 0000 0000 0000
000001b0: 0000 0000 0000 0000 0000 0000 0000 0000
000001c0: 0000 0000 0000 0000 0000 0000 0000 0000
000001d0: 0000 0000 0000 0000 0000 0000 0000 0000
000001e0: 0000 0000 0000 0000 0000 0000 0000 0000
000001f0: 0000 0000 0000 0000 0000 0000 0000 0000
0.0 0.0 0.0 0.0 0.0 0.0 0.0 0.0
0.0 0.0 0.0 0.0 0.0 0.0 0.0 0.0
0.0 0.0 0.0 0.0 0.0 0.0 0.0 0.0
0.0 0.0 0.0 0.0 0.0 0.0 0.0 0.0
0.0 0.0 0.0 0.0 0.0 0.0 0.0 0.0
0.0 0.0 0.0 0.0 0.0 0.0 0.0 0.0
0.0 0.0 0.0 0.0 0.0 0.0 0.0 0.0
0.0 0.0 0.0 0.0 0.0 0.0 0.0 0.0
0.0 0.0 0.0 0.0 0.0 0.0 0.0 0.0
0.0 0.0 0.0 0.0 0.0 0.0 0.0 0.0
0.0 0.0 0.0 0.0 0.0 0.0 0.0 0.0
0.0 0.0 0.0 0.0 0.0 0.0 0.0 0.0
0.0 0.0 0.0 0.0 0.0 0.0 0.0 0.0
0.0 0.0 0.0 0.0 0.0 0.0 0.0 0.0
0.0 0.0 0.0 0.0 0.0 0.0 0.0 0.0
0.0 0.0 0.0 0.0 0.0 0.0 0.0 0.0

network_body._body_endoder.seq_layers.2.weight f4 [128, 128]
00000000: 2ab0 39bd 16de a93d dee9 be3d 08d6 d9bd
00000010: 7344 97bc 362e 923d 5395 0d3e aa62 b4bd
00000020: dce6 a23c 07a6 633e d85f 5e3d 1bca 523e
00000030: 8f96 853d 3ea8 17bd c2db 8ebc 0b9a 98bd
00000040: 12a3 623c 35f5 8dbd f326 233e c0a2 6bbc
00000050: 0551 e23b 7768 4ebd ca1c 913b 1f0e 74bd
00000060: 6cac 813e de2e 8b3c 1f8b 0c3e 8d79 213d
00000070: d089 eb3c 0916 8c3d 52a8 98bc 94a7 98bd
00000080: a7aa 683d 9922 ac3c a8c7 6ebd 2563 07b9
00000090: 5114 c2bd 3eb8 32bd 7753 4dbd 5449 99bd
000000a0: 3660 6e3d 3382 bd3d 1aea f0bd dd90 5f3c
000000b0: 9ac0 2a3d fe6b febd d023 863d f8fe b03d
000000c0: 5365 3f3d 5367 0c3d c963 b13c dc81 a4bc
000000d0: 4f3a b4bd 01f0 91bd b979 bfbd 84cb 6abc
000000e0: 679f e3bd e77c ad3d 00ad 10be 5b65 9b3d
000000f0: b6bf 20be 8970 a4bd 4d18 8c3d 2808 fc3b
00000100: 7b60 f13d 9dae 30bd 0a96 37be 09a7 0bbe
00000110: 7d55 203c 6917 cb3d 857f a73d 7d83 003d
00000120: fe18 4d3d e2d7 4dbd 4e67 fb3d 9429 80bd
00000130: 464b e23c 4ae8 22bd d73d 203d e00f 073e
00000140: a7e6 2e3e 8b4a 40bd 2c6c d33d e041 b43d
00000150: e8f8 cabc 974a 00bd aa55 2e3c cf57 0cbe
00000160: e603 10bd 9233 65bb 1837 313c 4a8d 8f3c
00000170: b860 8f3b 5c59 26bd c45c 7dbe 0ee8 063c
00000180: f1e8 79bd 5eed adbd e8bc 04be 7da8 30bc
00000190: 0c98 9bbd 479c ad3d de19 16bd 8578 a73b
000001a0: d1ac b3bd 5407 233e 5a3e 613c 725d 95bc
000001b0: a96c e53b 6226 20bd a5ea 2bbd 83d4 973d
000001c0: 8988 a4bd fcf1 6b3d 55d2 8dbd 94a8 a4bc
000001d0: 3d8a 8cbd 3e3f d23d cc26 c63d 7db4 053e
000001e0: fa03 b2bc 0970 a73c 6779 623c 51d5 233e
000001f0: f818 acbd 533c 333c e5e8 d33c e025 903d
00000200: a7b2 aa3d 583c 7f3d 7c8d 9c3d 05ce e53c
00000210: 0486 bebc 7d3e 3dbd 022c 1abd 42ff 03be
00000220: 069c 6c3d 16dc 5f3e 646e 63bd 7b3e 72bd
00000230: 98f9 d23d c487 afbd 37cc 1bbe 5fee 07bd
00000240: 0292 253c 411c 003e 345f 1fbe d448 93bd
00000250: ff5d a83d b0ea 09bd e6f5 0c3e cee2 bd3c
00000260: d04f 153e f841 ddbb ebe5 ebbd 537f 003e
00000270: df2b 993d 956f ea3c 4d5c a23c 0209 5abc
00000280: f4d4 113a 716a 5cbd bdf3 1e3c 3c8c 69bc
00000290: ec3e f5bd ad1a b6bd 5d09 1ebc 4384 4e3d
000002a0: 4636 68bd 0076 0f3d b8f1 823b 8388 cc3d
000002b0: b4fe f2bd ee69 bbbd 8888 583d aa24 82bd
000002c0: 5ee8 efbc bc32 b9bc 1af5 16bc a7b4 16bd
000002d0: 08c8 563e c1e8 5fbe fd29 97bd 5458 a0bc
000002e0: 5410 b3bb d1aa 38bd c391 49bd c2a4 e6bd
000002f0: c0e0 e53d 2ad8 f4bd b373 623d f7ee 56bd
00000300: e2f9 293d 9638 bd3d 1cc5 41bd 251d 02be
00000310: 1a30 e53c d4a7 22be 7ef4 0f3d 4b20 8ebb
00000320: a88f 22bd 9e72 a73c 70fe 4d3d a8d4 80be
00000330: e2f8 32be 8a86 4dbc f777 c9bd 0d94 9fbb
00000340: 0dfe f7bc abbc c83d 51d7 bdbd b730 f73d
00000350: e777 933d e55c 98bb 6fae 133e 25d9 92bd
00000360: 98e2 57bb 8a2e f73d 0dbc 853d a202 d8bc
00000370: 6542 2cbd 6a2f 233e ff46 b53d 65bd 20be
00000380: 63e7 403d 5ae4 313e f3b8 873e a2c2 273d
00000390: e3c5 f4bd 3191 933d 4029 933c 3a67 a2bd
000003a0: 2657 d2bd d524 61bd 54db 83ba 426f 43bd
000003b0: 4d51 60bd 0b10 4c3d beb2 f0bd ca7e 84bd
000003c0: 1894 de3d 7db8 95bd d2a1 2a3c 73ba 81bd
000003d0: 6d33 61bd 9edb 9b3c 5cff 483d 9b57 6cbd
000003e0: 730b 533e 61ad 8a3d 4e94 cebc f7fa e5bd
000003f0: f59c 92bc d357 ef3d c14c 9e3d 4b2f ec3d
-0.04533402 0.08294313 0.093219504 -0.10636526 -0.018465256 0.0713772 0.13826494 -0.08807881
0.019885473 0.22231303 0.054290622 0.2058491 0.065228574 -0.037025683 -0.017438773 -0.07451256
0.013832824 -0.06931535 0.15932827 -0.014382064 0.006906631 -0.050392594 0.0044284808 -0.05958378
0.2532686 0.016990121 0.13724945 0.03942256 0.028752238 0.0684014 -0.018634949 -0.07453838
0.05680337 0.021012591 -0.058295876 -0.00012911537 -0.09476531 -0.04363274 -0.050128426 -0.07484689
0.058197223 0.09253349 -0.11763401 0.013645378 0.041687585 -0.124229416 0.065497994 0.086423814
0.04672749 0.034278225 0.021654027 -0.020081453 -0.08800184 -0.07125855 -0.09349389 -0.0143307485
-0.11114388 0.08471089 -0.14128494 0.075876914 -0.15698132 -0.08029277 0.068405725 0.007691402
0.1178598 -0.043135274 -0.17928329 -0.13637938 0.009786007 0.099165745 0.08178619 0.031375397
0.050072663 -0.05025471 0.12275563 -0.062579304 0.027623784 -0.03977231 0.039121475 0.1318965
0.17080174 -0.04694609 0.103233665 0.08801627 -0.02477689 -0.031321134 0.010640541 -0.13705371
-0.035159968 -0.0034973365 0.010816358 0.017523427 0.0043755434 -0.040612563 -0.24742419 0.008234037
-0.061013166 -0.0849254 -0.12962687 -0.010782358 -0.0759736 0.08477073 -0.036645763 0.0051108026
-0.087731965 0.15920764 0.013747776 -0.018233035 0.0070014787 -0.039099105 -0.04197182 0.0741358
-0.080338545 0.05760382 -0.06924883 -0.020099916 -0.06862304 0.10265969 0.09675369 0.13057132
-0.021730412 0.020439165 0.01382289 0.15999343 -0.084032 0.010939675 0.025867889 0.07038474
0.083348565 0.062313408 0.076441735 0.02805234 -0.023257263 -0.04620217 -0.037639625 -0.12890342
0.057765983 0.218613 -0.0555252 -0.059141617 0.103015125 -0.08570817 -0.1521462 -0.033186313
0.010105612 0.12510778 -0.15563661 -0.07191625 0.08221053 -0.03367108 0.13765678 0.023179438
0.14581227 -0.006752249 -0.11518463 0.1254857 0.07479071 0.02861766 0.019819403 -0.013307812
0.00055630435 -0.053812448 0.009701666 -0.014254626 -0.11974892 -0.08891807 -0.009645787 0.050419103
-0.056692384 0.035024643 0.0039961003 0.09986975 -0.11864987 -0.09151064 0.05286458 -0.06354649
-0.029285606 -0.0226072 -0.00921371 -0.036793377 0.20974743 -0.21866132 -0.073810555 -0.019573368
-0.005464593 -0.04508478 -0.049211275 -0.11261894 0.11224508 -0.119552925 0.05528612 -0.05247399
0.041498072 0.092393085 -0.04730712 -0.1270643 0.027977038 -0.15884334 0.035145275 -0.0043373457
-0.039687783 0.020440396 0.05029148 -0.25162244 -0.17477754 -0.012544284 -0.098373346 -0.004869944
-0.030272508 0.098016106 -0.09269584 0.120698385 0.07200604 -0.0046497458 0.1442201 -0.07170323
-0.0032941457 0.120694235 0.065300085 -0.026368443 -0.042055506 0.15936056 0.08851432 -0.15697248
0.047095668 0.17372265 0.26508293 0.0409571 -0.119518064 0.072054274 0.017964005 -0.07929845
-0.102705285 -0.054966766 -0.0010059872 -0.047713526 -0.054765034 0.049819987 -0.11752842 -0.064694956
0.108680904 -0.07310579 0.0104145575 -0.063343905 -0.054980684 0.01902562 0.049071655 -0.057700735
0.20609836 0.06771351 -0.025217202 -0.11229508 -0.017897109 0.11686673 0.077294834 0.11532458

network_body._body_endoder.seq_layers.2.bias f4 [128]
00000000: 0000 0000 0000 0000 0000 0000 0000 0000
00000010: 0000 0000 0000 0000 0000 0000 0000 0000
00000020: 0000 0000 0000 0000 0000 0000 0000 0000
00000030: 0000 0000 0000 0000 0000 0000 0000 0000
00000040: 0000 0000 0000 0000 0000 0000 0000 0000
00000050: 0000 0000 0000 0000 0000 0000 0000 0000
00000060: 0000 0000 0000 0000 0000 0000 0000 0000
00000070: 0000 0000 0000 0000 0000 0000 0000 0000
00000080: 0000 0000 0000 0000 0000 0000 0000 0000
00000090: 0000 0000 0000 0000 0000 0000 0000 0000
000000a0: 0000 0000 0000 0000 0000 0000 0000 0000
000000b0: 0000 0000 0000 0000 0000 0000 0000 0000
000000c0: 0000 0000 0000 0000 0000 0000 0000 0000
000000d0: 0000 0000 0000 0000 0000 0000 0000 0000
000000e0: 0000 0000 0000 0000 0000 0000 0000 0000
000000f0: 0000 0000 0000 0000 0000 0000 0000 0000
00000100: 0000 0000 0000 0000 0000 0000 0000 0000
00000110: 0000 0000 0000 0000 0000 0000 0000 0000
00000120: 0000 0000 0000 0000 0000 0000 0000 0000
00000130: 0000 0000 0000 0000 0000 0000 0000 0000
00000140: 0000 0000 0000 0000 0000 0000 0000 0000
00000150: 0000 0000 0000 0000 0000 0000 0000 0000
00000160: 0000 0000 0000 0000 0000 0000 0000 0000
00000170: 0000 0000 0000 0000 0000 0000 0000 0000
00000180: 0000 0000 0000 0000 0000 0000 0000 0000
00000190: 0000 0000 0000 0000 0000 0000 0000 0000
000001a0: 0000 0000 0000 0000 0000 0000 0000 0000
000001b0: 0000 0000 0000 0000 0000 0000 0000 0000
000001c0: 0000 0000 0000 0000 0000 0000 0000 0000
000001d0: 0000 0000 0000 0000 0000 0000 0000 0000
000001e0: 0000 0000 0000 0000 0000 0000 0000 0000
000001f0: 0000 0000 0000 0000 0000 0000 0000 0000
0.0 0.0 0.0 0.0 0.0 0.0 0.0 0.0
0.0 0.0 0.0 0.0 0.0 0.0 0.0 0.0
0.0 0.0 0.0 0.0 0.0 0.0 0.0 0.0
0.0 0.0 0.0 0.0 0.0 0.0 0.0 0.0
0.0 0.0 0.0 0.0 0.0 0.0 0.0 0.0
0.0 0.0 0.0 0.0 0.0 0.0 0.0 0.0
0.0 0.0 0.0 0.0 0.0 0.0 0.0 0.0
0.0 0.0 0.0 0.0 0.0 0.0 0.0 0.0
0.0 0.0 0.0 0.0 0.0 0.0 0.0 0.0
0.0 0.0 0.0 0.0 0.0 0.0 0.0 0.0
0.0 0.0 0.0 0.0 0.0 0.0 0.0 0.0
0.0 0.0 0.0 0.0 0.0 0.0 0.0 0.0
0.0 0.0 0.0 0.0 0.0 0.0 0.0 0.0
0.0 0.0 0.0 0.0 0.0 0.0 0.0 0.0
0.0 0.0 0.0 0.0 0.0 0.0 0.0 0.0
0.0 0.0 0.0 0.0 0.0 0.0 0.0 0.0

value_heads.value_heads.extrinsic.weight f4 [1, 128]
00000000: 4098 d43d f0b0 333d 3cfe 29bd deec 003e
00000010: 48e2 3b3e 5569 29be 200c 18be e8b5 343d
00000020: 209d 4a3e ca7f 55be dda4 c2bd dd60 05be
00000030: eb0b 4abe dba8 52be 088a 4e3e 2701 c9bd
00000040: 44fe b33d 0847 523e e836 263e e273 053e
00000050: 15b5 edbd c021 303c 7ece 94bd ff6c 15be
00000060: a02b 07bc 5085 0e3d 861e 533e d8f7 0c3d
00000070: 20c6 08be 1099 a3bd c2e6 543e 0579 21be
00000080: ce8b dbbd bec9 0c3e ff85 42be 48e9 49be
00000090: dac8 48be bcd1 ef3d 9831 35be 9a5f 053e
000000a0: 001d a1bc c005 033e 68e0 413e 18b6 b73d
000000b0: 700a 68bd ae7c 133e cc3a 2abe 3043 a13d
000000c0: 20d3 0b3e 10b1 d93d 796a babd db02 ebbd
000000d0: e0b8 823d cc5e 01be 24e4 a6bd 3009 913c
000000e0: 30d5 1c3d c0f0 d33d 7249 403e 7bbc bfbd
000000f0: 86e6 03be 8c3a e7bd fc6d 163e 98be 023e
00000100: 780d 1c3e 24bc a53d 6898 533d 547c 463e
00000110: ea8e ecbd fc20 993d e05d 173d e6a1 3ebe
00000120: 4861 3abd 49b3 26be 548b 98bd 9c0c fa3d
00000130: d878 04be 808d 39bd b0d1 2a3d 0018 70bd
00000140: 94ac b43d 6036 573e b292 0dbe b0fd 1e3c
00000150: dd46 5bbe b146 e7bd e893 253e a871 123e
00000160: 5e0a 28be 20c4 2a3d 90bc 3ebe 54ff 3d3e
00000170: ba7d 1fbe bed5 31be e29c 85bd 4a5b c9bd
00000180: 24af a1bd a80e e83d 83bd 4abe 6e51 5a3e
00000190: c812 59bd e081 a23d f0f4 c63c 800a 3cbc
000001a0: 58bf bbbd 4080 733d 50a7 303d 4b36 e3bd
000001b0: b884 233d d8c8 ad3c ae5c 03be 9494 3b3e
000001c0: 40e6 663c 7c5f 82bd 500f 89bd d4eb bc3d
000001d0: 6096 06bc 5637 083e 60fb 19bc 0c00 26be
000001e0: 18bb aa3d 5419 0b3e ca8a 163e 7899 a7bc
000001f0: 98e2 f9bc 9057 443e 854a 23be 1c6c 233e
0.10380602 0.043869913 -0.041502222 0.12590358 0.18348038 -0.16544087 -0.14848375 0.04411879
0.19786501 -0.20849529 -0.095041014 -0.13025232 -0.19731109 -0.20572226 0.20169842 -0.09814673
0.08788732 0.20534909 0.16231883 0.13032487 -0.11606804 0.010750234 -0.07265948 -0.1459236
-0.008250147 0.034795105 0.20617113 0.03441605 -0.13356829 -0.07988179 0.20791152 -0.15768822
-0.10720025 0.13748834 -0.18996428 -0.19717896 -0.19607869 0.117099255 -0.176947 0.1302475
-0.019667149 0.12795162 0.1893326 0.089702785 -0.05665058 0.1440303 -0.16623992 0.07874143
0.13654757 0.10629475 -0.09102339 -0.11475154 0.06382918 -0.12633818 -0.08148983 0.017704576
0.03828925 0.10348654 0.18778017 -0.09362122 -0.12880906 -0.11290464 0.14690393 0.12768018
0.15239513 0.080925256 0.051659018 0.19383365 -0.11550696 0.074769944 0.03695476 -0.18616447
-0.04550293 -0.1627933 -0.0744845 0.12209436 -0.12936723 -0.04530096 0.04170388 -0.05861664
0.08821979 0.21016836 -0.13825491 0.0097040385 -0.21413751 -0.1129278 0.16169703 0.14301169
-0.16410205 0.041690946 -0.18626618 0.18554431 -0.15575305 -0.17366692 -0.06524064 -0.09831865
-0.078947335 0.113309205 -0.19798855 0.21320125 -0.052996427 0.07934928 0.024286717 -0.011477113
-0.09167355 0.05944848 0.04312831 -0.1109434 0.039921492 0.021213934 -0.12828323 0.18318397
0.014092982 -0.063658684 -0.06692374 0.09224668 -0.008214563 0.13302359 -0.009398311 -0.16210955
0.083364666 0.1358388 0.14701381 -0.020458922 -0.030503556 0.19174027 -0.15946396 0.15959209
