Project/Assets/ML-Agents/Examples/MyTest/Scripts/TFModels/MyTest1Models/Test5/MoveToGoal/MoveToGoal-8000.onnx (onnx, 77273 bytes, 8 tensors)

network_body._body_endoder.seq_layers.0.weight f4 [128, 1]
0	0xbfc281c1	-1.5195848
1	0xbf5ba821	-0.8580342
2	0xbf3c472d	-0.73546106
3	0xbee1e933	-0.4412323
4	0xbe8fb18a	-0.2806514
5	0x3f4ccb3b	0.79997605
6	0x3f0495ac	0.5179088
7	0xbf00241b	-0.5005509
8	0x3f03b0ef	0.51441854
9	0xbebb8c77	-0.36630604
10	0x3f962186	1.172898
11	0x3f8bf810	1.0935078
12	0x3f636e02	0.88839734
13	0xbeca9be2	-0.39572054
14	0xbf35d27a	-0.71024287
15	0xbe954894	-0.29156935
16	0xbf995393	-1.197863
17	0xbe783be2	-0.24241593
18	0xbd53311d	-0.05156051
19	0xbe963f7d	-0.29345313
20	0x3ff98739	1.9494392
21	0x3ec88b08	0.39168572
22	0x3ac3fddf	0.0014952979
23	0xbfa3b19b	-1.2788576
24	0xbf0c1dbc	-0.5473287
25	0x3f954d7b	1.166427
26	0xbf9da70f	-1.2316607
27	0x3f778a84	0.96695733
28	0x3df55902	0.119798675
29	0xbf2c5f52	-0.6733295
30	0x3e489542	0.19588187
31	0x3f46d8de	0.77674663
32	0xbf073f51	-0.5283099
33	0xbfae9bee	-1.3641336
34	0x3ea737cc	0.32659757
35	0x3f217ac2	0.6307794
36	0xbff7997c	-1.9343715
37	0x3eaf1dd4	0.34202445
38	0xbf3d6971	-0.73989016
39	0x3f4f5934	0.8099549
40	0x3fee42d1	1.8614141
41	0xbf3458f9	-0.7044826
42	0x3f2cccb2	0.6749984
43	0xbfac4a15	-1.3460108
44	0xbff74551	-1.9318029
45	0x3f95965f	1.1686515
46	0xbf6bdc39	-0.9213291
47	0xbf822381	-1.0167085
48	0xbf0baab3	-0.5455734
49	0x3ed51fb5	0.41625753
50	0x3e472a4c	0.19449729
51	0xbe5c2670	-0.21499038
52	0xbf7f38e4	-0.99696183
53	0xbf878e09	-1.0590221
54	0x3e90d0f9	0.28284433
55	0x3f50dfeb	0.8159167
56	0xbf25022d	-0.64456445
57	0x3fc59521	1.5436136
58	0xbfe32362	-1.7745173
59	0xbf3c6caa	-0.7360331
60	0xbea46a83	-0.32112512
61	0x3f726772	0.94689095
62	0x3ec59142	0.38587385
63	0xbfc00b6f	-1.5003489
64	0x400ad9b5	2.1695378
65	0x3fb3e21e	1.405338
66	0xbe02aafe	-0.12760541
67	0xbe593dfb	-0.2121505
68	0x3f702b4b	0.9381606
69	0xbf9225dc	-1.1417804
70	0x401848b9	2.3794386
71	0x3e81d387	0.25356695
72	0x3eaa3b86	0.33248538
73	0xbf0e66d9	-0.55625683
74	0xbf6e2624	-0.9302695
75	0x3f66a95c	0.9010217
76	0xbeee627b	-0.4655951
77	0xbe97c4c3	-0.29642305
78	0xbefa94be	-0.48941606
79	0xbf80c2cf	-1.0059451
80	0x3f374b63	0.71599406
81	0x40049038	2.0713024
82	0xbf62e015	-0.8862317
83	0x3f5c03cd	0.859433
84	0xbe43c402	-0.1911774
85	0xbe9ba364	-0.30398095
86	0x3f50e079	0.8159252
87	0x3f7d304d	0.98901826
88	0x3f6ba39a	0.9204651
89	0xbfa23b97	-1.2674435
90	0x3f31a37e	0.69390094
91	0xbfa33046	-1.2749107
92	0xbe4b1bb2	-0.19834784
93	0x3f763c00	0.961853
94	0xbfc473fb	-1.5347894
95	0x3fbfb967	1.4978455
96	0x3f1e53b8	0.61846495
97	0x3d89bf8a	0.06725986
98	0x3ebadfbe	0.36498827
99	0xbf1c0c21	-0.6095601
100	0xbdc7cf04	-0.09756282
101	0x3f82b835	1.0212466
102	0x3f6c9179	0.92409474
103	0xbe8275f4	-0.25480616
104	0xbf09c14b	-0.53810567
105	0x3fa3febb	1.2812113
106	0x3f2e750d	0.68147355
107	0xbecde72c	-0.40215433
108	0x3de3e765	0.111281194
109	0xbf2e0c8c	-0.67987895
110	0x3f817672	1.0114272
111	0xbf945cde	-1.1590841
112	0x3effdcbb	0.4997309
113	0xbe856782	-0.26055533
114	0xbfdc900a	-1.7231457
115	0x3f3216f9	0.69566303
116	0xbd0c75bc	-0.034291968
117	0xbe775b73	-0.24155979
118	0xbf11c97c	-0.56948066
119	0xbead11c1	-0.33802608
120	0x3ef784a6	0.4834339
121	0xbec01b97	-0.3752105
122	0xbdc7b93f	-0.0975213
123	0x3fd8a1ab	1.6924337
124	0x3e3770cc	0.17914122
125	0x3f3206d0	0.69541645
126	0x3ef1276f	0.47100398
127	0x3ede2d5c	0.4339398

network_body._body_endoder.seq_layers.0.bias f4 [128]
0	0x00000000	0.0
1	0x00000000	0.0
2	0x00000000	0.0
3	0x00000000	0.0
4	0x00000000	0.0
5	0x00000000	0.0
6	0x00000000	0.0
7	0x00000000	0.0
8	0x00000000	0.0
9	0x00000000	0.0
10	0x00000000	0.0
11	0x00000000	0.0
12	0x00000000	0.0
13	0x00000000	0.0
14	0x00000000	0.0
15	0x00000000	0.0
16	0x00000000	0.0
17	0x00000000	0.0
18	0x00000000	0.0
19	0x00000000	0.0
20	0x00000000	0.0
21	0x00000000	0.0
22	0x00000000	0.0
23	0x00000000	0.0
24	0x00000000	0.0
25	0x00000000	0.0
26	0x00000000	0.0
27	0x00000000	0.0
28	0x00000000	0.0
29	0x00000000	0.0
30	0x00000000	0.0
31	0x00000000	0.0
32	0x00000000	0.0
33	0x00000000	0.0
34	0x00000000	0.0
35	0x00000000	0.0
36	0x00000000	0.0
37	0x00000000	0.0
38	0x00000000	0.0
39	0x00000000	0.0
40	0x00000000	0.0
41	0x00000000	0.0
42	0x00000000	0.0
43	0x00000000	0.0
44	0x00000000	0.0
45	0x00000000	0.0
46	0x00000000	0.0
47	0x00000000	0.0
48	0x00000000	0.0
49	0x00000000	0.0
50	0x00000000	0.0
51	0x00000000	0.0
52	0x00000000	0.0
53	0x00000000	0.0
54	0x00000000	0.0
55	0x00000000	0.0
56	0x00000000	0.0
57	0x00000000	0.0
58	0x00000000	0.0
59	0x00000000	0.0
60	0x00000000	0.0
61	0x00000000	0.0
62	0x00000000	0.0
63	0x00000000	0.0
64	0x00000000	0.0
65	0x00000000	0.0
66	0x00000000	0.0
67	0x00000000	0.0
68	0x00000000	0.0
69	0x00000000	0.0
70	0x00000000	0.0
71	0x00000000	0.0
72	0x00000000	0.0
73	0x00000000	0.0
74	0x00000000	0.0
75	0x00000000	0.0
76	0x00000000	0.0
77	0x00000000	0.0
78	0x00000000	0.0
79	0x00000000	0.0
80	0x00000000	0.0
81	0x00000000	0.0
82	0x00000000	0.0
83	0x00000000	0.0
84	0x00000000	0.0
85	0x00000000	0.0
86	0x00000000	0.0
87	0x00000000	0.0
88	0x00000000	0.0
89	0x00000000	0.0
90	0x00000000	0.0
91	0x00000000	0.0
92	0x00000000	0.0
93	0x00000000	0.0
94	0x00000000	0.0
95	0x00000000	0.0
96	0x00000000	0.0
97	0x00000000	0.0
98	0x00000000	0.0
99	0x00000000	0.0
100	0x00000000	0.0
101	0x00000000	0.0
102	0x00000000	0.0
103	0x00000000	0.0
104	0x00000000	0.0
105	0x00000000	0.0
106	0x00000000	0.0
107	0x00000000	0.0
108	0x00000000	0.0
109	0x00000000	0.0
110	0x00000000	0.0
111	0x00000000	0.0
112	0x00000000	0.0
113	0x00000000	0.0
114	0x00000000	0.0
115	0x00000000	0.0
116	0x00000000	0.0
117	0x00000000	0.0
118	0x00000000	0.0
119	0x00000000	0.0
120	0x00000000	0.0
121	0x00000000	0.0
122	0x00000000	0.0
123	0x00000000	0.0
124	0x00000000	0.0
125	0x00000000	0.0
126	0x00000000	0.0
127	0x00000000	0.0

network_body._body_endoder.seq_layers.2.weight f4 [128, 128]
0	0x3e1f2ad8	0.15543687
1	0xbd19260d	-0.037389804
2	0x3e505bb1	0.20347477
3	0xbdbd2c43	-0.09236958
4	0x3e19fe0d	0.15038319
5	0xbb73ecd5	-0.003722002
6	0xbd8d6ffc	-0.06906125
7	0xbdb427dd	-0.08796666
8	0x3e44c0dd	0.19214197
9	0x3c7c59c8	0.015402265
10	0x3cb9d38f	0.022683887
11	0xbd8884e2	-0.066659704
12	0x3d891e62	0.06695248
13	0x3d78df78	0.06075999
14	0x3dbd9d8b	0.092585646
15	0xbd9833e7	-0.074317746
16	0x3d614cd6	0.055004917
17	0xbe059204	-0.13043982
18	0x3c2f18ef	0.010687097
19	0xbd8c199a	-0.068408206
20	0x3d220d8e	0.039563708
21	0x3c3ac18d	0.011398685
22	0x3d8d4232	0.068973914
23	0xbe32ff02	-0.1748009
24	0x3c188d2f	0.009311005
25	0x3c818f72	0.01581547
26	0xbc7dac3a	-0.015482957
27	0x3d51f5d2	0.051259823
28	0x3e312b92	0.17301777
29	0x3db405a8	0.08790141
30	0xbd30126a	-0.04298631
31	0xbca0c90a	-0.019627113
32	0xbe12e0dc	-0.1434359
33	0xbe21d588	-0.15804112
34	0xbd4a4176	-0.049378835
35	0xbe3b6142	-0.1829882
36	0x3d9c2fb0	0.07626283
37	0x3d8307a2	0.0639794
38	0x3d858930	0.06520307
39	0x3ca4495d	0.020054514
40	0xbd03afb4	-0.032149985
41	0xbe969e55	-0.29417673
42	0x3ae90521	0.0017778018
43	0x3c8a20ff	0.016861437
44	0xbbcaa28f	-0.0061839293
45	0x3d2cc1d2	0.04217703
46	0xbc032a45	-0.008005683
47	0x3e106628	0.1410147
48	0xbcad5839	-0.021160232
49	0xbdfbb388	-0.12290102
50	0x3dd17f61	0.10229374
51	0x3df13d82	0.1177931
52	0xbd13027d	-0.035891045
53	0xbcbab230	-0.022790045
54	0xbe40533e	-0.18781754
55	0xbdca9d2d	-0.0989326
56	0x3d313afd	0.043269146
57	0x3d984875	0.07435695
58	0x3d3e0042	0.046386965
59	0x3d712fa0	0.05888331
60	0x3d0e39a7	0.03472295
61	0xbbf70ebb	-0.007539598
62	0xbe03e894	-0.1288169
63	0xbcd3646e	-0.025804725
64	0xbddea85a	-0.10871954
65	0x3b1a9732	0.0023588655
66	0xbddf872f	-0.10914456
67	0xbcd6527e	-0.026162382
68	0x3dda2117	0.10650843
69	0xbe5fa019	-0.21838416
70	0x3d83aba6	0.06429224
71	0xbdc92c3b	-0.098228894
72	0x3d1b723b	0.037950736
73	0x3c7727f7	0.015085212
74	0xbc854276	-0.016267043
75	0x3d60e076	0.054901563
76	0x3d840d27	0.06447821
77	0xbda41e8d	-0.080136396
78	0x3db682c1	0.08911658
79	0x3d90fa6f	0.070790164
80	0xbd1169c5	-0.03550126
81	0x3d81839e	0.06323932
82	0xbd8a7518	-0.06760615
83	0xbd2fdc2c	-0.04293458
84	0xbd2ce3c5	-0.042209405
85	0x3dcd6b63	0.10030248
86	0xbe1165ac	-0.14198941
87	0xbd662b9b	-0.05619393
88	0xbba61b29	-0.0050691557
89	0xbda1e877	-0.07905667
90	0x3d394b8c	0.045238063
91	0xbe2cd6bf	-0.16878794
92	0x3dbbf835	0.09178201
93	0x3c1ad869	0.00945101
94	0xbd215584	-0.039388195
95	0xbcc1fef4	-0.023681141
96	0x3e488550	0.19582105
97	0x3dc94bac	0.098288864
98	0xbdcf423a	-0.101200536
99	0x3d8779dc	0.0661504
100	0xbdfce03d	-0.123474576
101	0xbda00b18	-0.07814616
102	0xbcd14bba	-0.025548805
103	0x3dd687f6	0.10475151
104	0x3d5cc496	0.053898416
105	0x3d87e050	0.06634581
106	0xbdc925b2	-0.09821643
107	0xbdc265fb	-0.094921075
108	0x3bdfabf6	0.0068259193
109	0x3d400198	0.04687652
110	0x3d856d0f	0.06514942
111	0xbdd15d40	-0.10222864
112	0x3d7ba3bb	0.061435442
113	0x3e44c961	0.19217445
114	0xbd18382e	-0.037162952
115	0xbd602405	-0.05472185
116	0xbdeb9eca	-0.11504896
117	0xbdefc40a	-0.11707313
118	0x3e55534e	0.2083256
119	0x3b1fdc0c	0.0024392633
120	0x3c722906	0.014780289
121	0xbd89c10d	-0.06726275
122	0x3ccf9643	0.025340205
123	0x3d565178	0.05232379
124	0x3c93637d	0.017991776
125	0x3d358176	0.044312917
126	0xbdee4d6d	-0.116358615
127	0xbdd19f10	-0.10235417
128	0xbc16104e	-0.009159161
129	0xbd03d71d	-0.03218757
130	0x3d31c85e	0.043403976
131	0xbe26d7f9	-0.16293325
132	0x3daf619f	0.085635416
133	0xbbbe7dde	-0.0058133444
134	0xbd1e92bd	-0.03871416
135	0xbde2cee0	-0.110746145
136	0x3d3096e1	0.04311264
137	0x3e29b95b	0.16574614
138	0xbd8ec4d4	-0.06971136
139	0x3c4346b7	0.011918715
140	0xbd382709	-0.0449591
141	0xbb8b144c	-0.004244363
142	0xbddb7d33	-0.10717239
143	0x3d4afcad	0.049557377
144	0x3c382bb5	0.011240889
145	0xbd8452e4	-0.06461123
146	0xbc034227	-0.008011377
147	0x3c9fa58d	0.01948812
148	0x3d96fbbe	0.07372235
149	0xbdaae640	-0.08344698
150	0xbe1b46b5	-0.15163691
151	0x3db50c97	0.08840292
152	0x3dbf5920	0.09343171
153	0x3de13c6a	0.10997851
154	0x3ce02dc3	0.02736557
155	0xbdc91a19	-0.09819431
156	0xbcfa747d	-0.030573124
157	0xbc9dc0b8	-0.019256935
158	0xbe5ae1f0	-0.21375251
159	0x3d30045b	0.042972904
160	0xbd83f30f	-0.06442844
161	0x3e6cef08	0.23138058
162	0xbcda4b41	-0.026647212
163	0xbe01328c	-0.12616938
164	0x3dbf9bea	0.0935591
165	0xbda0e0b2	-0.07855357
166	0xbe1d2358	-0.15345514
167	0xbdb4a64d	-0.08820782
168	0x3e1e56be	0.15462777
169	0x3a29ea05	0.000648171
170	0x3d8b0063	0.06787183
171	0x3e05d99f	0.13071297
172	0x3dcc83e0	0.09986091
173	0xbe2c4d15	-0.1682628
174	0x3d4b1253	0.049578022
175	0x3da337d6	0.07969634
176	0x3e0ea7be	0.13931176
177	0x3d39d7fc	0.045371994
178	0x3d8af3e0	0.06784797
179	0xbd5e9f49	-0.054351125
180	0xbd5da8ff	-0.054116245
181	0xbd60a423	-0.054844033
182	0x3cb5e528	0.022203997
183	0xbd7e578a	-0.062095203
184	0xbba61d5b	-0.0050694174
185	0x3d2621e9	0.040559683
186	0x3dbc58fb	0.09196659
187	0x3dd62248	0.104557574
188	0xbdceb071	-0.10092247
189	0x3e4e1dd6	0.20128569
190	0x3deb4a40	0.114887714
191	0xbdb7d54c	-0.0897623
192	0x3d170557	0.036870327
193	0x3d8b9c23	0.0681689
194	0xbdc3d240	-0.095615864
195	0xbda1a609	-0.07892997
196	0x3d7fe267	0.062471773
197	0xbd0d3ad2	-0.034479924
198	0xbdb7baa2	-0.08971144
199	0x3d7873b2	0.06065721
200	0x3bf328c8	0.007420633
201	0x3e088211	0.13330866
202	0xbe099982	-0.13437465
203	0x3e1bcf5f	0.15215825
204	0x3d24d861	0.040245418
205	0x3cf1fab4	0.02953849
206	0x3c2c5d18	0.010520242
207	0xbb9463cf	-0.0045284997
208	0xbd29e9b3	-0.04148264
209	0xbdd1f819	-0.10252399
210	0xbda86830	-0.08222997
211	0xbe1718e8	-0.14755595
212	0x3e0a7023	0.1351934
213	0xbd4ff2ac	-0.05076854
214	0xbd8e8d81	-0.069605835
215	0xbd3fdf17	-0.046843614
216	0x3dd82a19	0.105549045
217	0xbdb28863	-0.0871742
218	0x3bcd663e	0.0062682917
219	0xbda6068b	-0.08106717
220	0xbb3a5f85	-0.0028438282
221	0xbdc30564	-0.095225126
222	0xbe9a0e34	-0.3008896
223	0x3e00d411	0.12580897
224	0xbdd2486e	-0.10267721
225	0xbe6b87e6	-0.2300106
226	0xbd052cfa	-0.032513596
227	0xbd5fbaa7	-0.054621365
228	0x3cd5b395	0.026086608
229	0xbd5f2a5e	-0.054483764
230	0xbd10263e	-0.03519272
231	0x3db1930d	0.08670626
232	0xbd539ca3	-0.051663052
233	0xbc789017	-0.015171072
234	0x3b6c299e	0.0036035548
235	0x3da0a23b	0.07843443
236	0xbc5f22e0	-0.013619155
237	0x3cf765f8	0.03019999
238	0x3d7450b8	0.059647292
239	0xbd1d556c	-0.038411543
240	0x3db08451	0.08618987
241	0x3e23dcfa	0.16002265
242	0xbe65dc09	-0.22447218
243	0xbd9609de	-0.07326101
244	0xbd4c324e	-0.04985266
245	0x3d96f39a	0.07370682
246	0x3baad9e2	0.005213962
247	0xbd75a1f5	-0.059968907
248	0xbc3b2fa6	-0.0114249345
249	0x3e4d4dc4	0.20049196
250	0x3ce3644a	0.027757782
251	0xbd5fc3a9	-0.054629955
252	0x3dcb615b	0.099306785
253	0xbdf20ede	-0.11819242
254	0xbdcb06ed	-0.0991343
255	0x3d4a4c73	0.049389314

action_model._continuous_distribution.log_sigma f4 [1, 2]
0	0x00000000	0.0
1	0x00000000	0.0

action_model._continuous_distribution.mu.weight f4 [2, 128]
0	0xbcb95799	-0.022624778
1	0x3aa85a56	0.0012844305
2	0x3c633f2d	0.013870043
3	0x3b32c598	0.002727842
4	0x3c383ecc	0.011245441
5	0xbbac97ba	-0.0052671107
6	0xbbf49938	-0.007464554
7	0x3c827c1c	0.01592832
8	0xbbd93e1d	-0.006629719
9	0xbce1b85f	-0.027553735
10	0xbd51af18	-0.051192373
11	0x3c3d4a93	0.011553424
12	0x3c7b4e3f	0.01533848
13	0x3d196147	0.037446287
14	0xbb5f40d0	-0.003406573
15	0x3cbf3eb4	0.023345329
16	0x3d07b04a	0.033127107
17	0x3ca2dfbe	0.01988208
18	0x3a8b5ad3	0.0010631926
19	0xb9b88e6f	-0.00035201336
20	0x3c6c9ffb	0.014442439
21	0x3c74a298	0.0149313435
22	0xbd0f20eb	-0.034943502
23	0x3c468bfb	0.012118335
24	0xbc825437	-0.015909297
25	0xba86976b	-0.0010268515
26	0xbc9b34d2	-0.018946085
27	0xbc292269	-0.010323145
28	0xbcde7ea0	-0.027159989
29	0xbcbe6c89	-0.023245113
30	0xbc0cb55f	-0.008588164
31	0xbc5eb462	-0.013592811
32	0x3ca1bf29	0.019744473
33	0xbcd0ffda	-0.025512625
34	0xbb4b6aab	-0.003103892
35	0x3c001477	0.007817379
36	0x3cc45c17	0.023969693
37	0x3c9d8186	0.0192268
38	0xbc379066	-0.011203861
39	0x3d00376f	0.031302866
40	0xbc11a53b	-0.008889492
41	0x3c39b2cd	0.011334133
42	0xbc7c42f0	-0.0153968185
43	0xbbd4e263	-0.006496714
44	0x3c62b81d	0.013837841
45	0xbbb8b4fb	-0.005636809
46	0x3ca1be27	0.019743992
47	0xbcacc0b7	-0.021087987
48	0x3cd9b725	0.026576588
49	0xbcaca0ff	-0.021072863
50	0x3c83a57c	0.01607012
51	0xbcd5bbbd	-0.026090497
52	0xbc8db21d	-0.017296845
53	0x3cbcc4c8	0.023043051
54	0x3d0d207d	0.03445481
55	0xbcf2ca65	-0.029637525
56	0x3c5aee58	0.01336249
57	0xbc534850	-0.012895659
58	0xbbfef0f7	-0.00778019
59	0x3cb94c20	0.022619307
60	0x3c42b4a0	0.011883885
61	0xbc53e352	-0.012932615
62	0x3b2a5d0a	0.0025995397
63	0x3cb3e495	0.021959582
64	0xbca1f3bf	-0.019769548
65	0xbca2cb97	-0.01987247
66	0x3c0af0b0	0.008480236
67	0xbcacb341	-0.021081569
68	0xbc453681	-0.0120369205
69	0x3b2019db	0.0024429474
70	0xbc955595	-0.018229285
71	0xbcace96f	-0.021107404
72	0xbc23ab8d	-0.009989631
73	0xbce39a48	-0.027783528
74	0x3cee14b2	0.029062603
75	0x3bc23ed5	0.0059279003
76	0xbc8b9fee	-0.017044034
77	0x3c49906c	0.012302499
78	0xbcdcc547	-0.026949538
79	0xbb13b7b7	-0.0022539923
80	0x3c3473af	0.011013909
81	0x3ca0c005	0.019622812
82	0xbbdc5b90	-0.0067247823
83	0x3cc55007	0.024086012
84	0x3c26b677	0.010175339
85	0x3cc9197c	0.024548285
86	0xbaf3651d	-0.0018569563
87	0xbccf7167	-0.02532263
88	0x3c366cc7	0.011134333
89	0x3b552ad5	0.003252675
90	0xbb6d24a8	-0.003618518
91	0x3cd4b8e2	0.025967065
92	0xbc6b5dad	-0.014365596
93	0x3bfe257f	0.0077559347
94	0x3cc9504c	0.024574421
95	0x3cd1b87a	0.02560066
96	0xbcfa25d7	-0.030535622
97	0xbc0a240e	-0.008431448
98	0xbccdeeb3	-0.025138235
99	0xbccf0da3	-0.025275057
100	0xbc642d77	-0.013926855
101	0xbb81277b	-0.003941474
102	0x3d1652a0	0.03669989
103	0xbc445edf	-0.01198551
104	0x3b68a480	0.003549844
105	0x3b4b0f72	0.0030984548
106	0xbc323cce	-0.010878755
107	0x3c1cfc88	0.0095816925
108	0xbc462b40	-0.012095273
109	0xbb0596fb	-0.002038418
110	0x3cdd6705	0.027026663
111	0xbb7fcd6f	-0.003903236
112	0x3c3c9af4	0.011511553
113	0xbd02ecc3	-0.031964075
114	0xbc80fb0b	-0.015744707
115	0xb9e8f7ff	-0.0004443526
116	0xbd181c2a	-0.037136234
117	0xbc7b7ae7	-0.015349126
118	0x3c847def	0.016173331
119	0x3ce7949b	0.028269103
120	0xbc9dcd57	-0.019262953
121	0xbbf95530	-0.007609032
122	0x3a585f93	0.0008253988
123	0x3ca39deb	0.019972762
124	0xbae6959d	-0.0017592196
125	0xbc2d6e46	-0.010585373
126	0xbcadf573	-0.021235203
127	0x3bb874a3	0.0056291386
128	0x3bfa8603	0.00764537
129	0x3c68b660	0.014203638
130	0xbc4463d5	-0.011986692
131	0xbce2604b	-0.027633807
132	0x3ce06c7f	0.027395485
133	0x3c1133c3	0.008862439
134	0x3a6742ed	0.00088219234
135	0xbb936eae	-0.004499278
136	0xbbbdd454	-0.0057931338
137	0xbc4d51b0	-0.012531683
138	0x3b641897	0.0034804696
139	0xbd31bd9f	-0.043393727
140	0x3cc6a77e	0.024249788
141	0x3b99e9fa	0.0046970816
142	0x3ab319ed	0.0013664343
143	0xbcae6470	-0.021288127
144	0xbb29ac8c	-0.00258902
145	0xbc81f573	-0.01586411
146	0xbb23dec2	-0.00250046
147	0xbc343ca6	-0.011000788
148	0xb9cdfaca	-0.000392875
149	0x3c7231d2	0.014782386
150	0xbcdb700f	-0.026786832
151	0x3c39c1b0	0.011337683
152	0xbc72c36b	-0.014817099
153	0xbcce5d25	-0.0251909
154	0x3d3cf997	0.046136465
155	0x3b91039b	0.0044254786
156	0xbc941229	-0.018075066
157	0xbbe2116a	-0.0068990486
158	0xbce15fe5	-0.027511546
159	0x35b9c914	1.3842096e-06
160	0xbacc0c1b	-0.0015567573
161	0xbbca3e23	-0.006171958
162	0x3d0c0762	0.03418673
163	0xbc3598d1	-0.011083798
164	0xbbc293c8	-0.005938027
165	0xbbedf460	-0.007261798
166	0xbc8605a9	-0.01636012
167	0xbcb64fda	-0.022254873
168	0x3a9a3d59	0.0011767551
169	0xbbb3553f	-0.0054728086
170	0xbd05962e	-0.032613926
171	0xbc965db3	-0.018355226
172	0xbbdaa665	-0.006672668
173	0x3c36d6bd	0.011159596
174	0x3c209834	0.009801913
175	0xbcd9976a	-0.026561458
176	0x3cc1812b	0.023621162
177	0x3c85a2f5	0.016313056
178	0x3b66f97a	0.0035243914
179	0x3cc53500	0.024073124
180	0x3d1f10cb	0.038834374
181	0xbc8441ce	-0.01614466
182	0x3c695978	0.014242522
183	0x3bf75ee0	0.007549152
184	0x3b2346f5	0.002491412
185	0x3b9a027b	0.0047000027
186	0xbb2203e7	-0.0024721564
187	0xbc1f5c8c	-0.009726655
188	0x3c12a1ed	0.008949739
189	0x3c1a25ba	0.009408409
190	0xbccf80df	-0.025330005
191	0x3c20c4a6	0.00981251
192	0x3b4ba6d7	0.0031074786
193	0x3cb9e55b	0.022692373
194	0x3c301669	0.0107475305
195	0xbc1dea72	-0.009638416
196	0x3c8c8fff	0.017158506
197	0xbc0f7ba5	-0.0087575065
198	0xbc0d77c7	-0.008634514
199	0x3d158791	0.03650624
200	0xbcd9da67	-0.0265934
201	0x3b58eb68	0.0033099297
202	0xba616407	-0.0008597974
203	0xbc6a2f03	-0.014293435
204	0x3bce44eb	0.0062948368
205	0xbccd1f23	-0.025039261
206	0xbc96720b	-0.018364927
207	0xbcab4912	-0.020908866
208	0xbbeccb9f	-0.007226422
209	0xbd20b107	-0.039231326
210	0xba763822	-0.000939252
211	0x3c3d41dc	0.011551347
212	0x3c480d1a	0.012210155
213	0xbc006b13	-0.0078380285
214	0x3b68af27	0.003550479
215	0xbcd1fbf0	-0.025632828
216	0x3c9bc4e6	0.019014787
217	0xbbb2b9e2	-0.005454288
218	0x3cc8d05b	0.024513414
219	0x3ca4396f	0.020046918
220	0x3c2b7479	0.010464781
221	0xbd045a63	-0.032312762
222	0xbc71a023	-0.014747652
223	0x3c983088	0.018577829
224	0xbc806e9a	-0.015677739
225	0x3b3099f3	0.002694723
226	0x3bb094aa	0.005388816
227	0x3cbafcb8	0.022825584
228	0xbce309aa	-0.02771457
229	0xbc701110	-0.0146525055
230	0x3c057f38	0.008148007
231	0xbc219005	-0.009860997
232	0x3c375e4d	0.011191917
233	0x3b53d242	0.0032321368
234	0xbc2c7baf	-0.010527535
235	0xbaad7a6b	-0.0013235336
236	0x3c8376bf	0.016047833
237	0x3d0e5678	0.03475043
238	0xbc251b37	-0.010077289
239	0x3b445e67	0.0029963495
240	0xbce11d10	-0.027479678
241	0x3c2330b1	0.009960339
242	0x3b31c5df	0.0027125997
243	0x3bdd5f1a	0.0067557218
244	0xbc784405	-0.015152936
245	0xbd07f0c4	-0.033188596
246	0x3bd6d442	0.006556065
247	0xbbecde50	-0.00722865
248	0xbcb026d1	-0.021502884
249	0xbc81710b	-0.015800973
250	0x3bb80b1b	0.0056165583
251	0x3b7b2388	0.0038320739
252	0xbc1f1f24	-0.009712014
253	0x3c086703	0.008325341
254	0x3bc90a1e	0.0061352393
255	0x3be03a60	0.0068428963

action_model._continuous_distribution.mu.bias f4 [2]
0	0x00000000	0.0
1	0x00000000	0.0

action_model._discrete_distribution.branches.0.weight f4 [5, 128]
0	0x3c0ee36d	0.008721215
1	0xbb031ffe	-0.0020008083
2	0xbc8e05d3	-0.017336762
3	0x3a8ab88f	0.0010583567
4	0x3be1695f	0.0068790163
5	0xbc6e996a	-0.014562944
6	0xbc0c1201	-0.008549214
7	0xbc483647	-0.012219972
8	0x3ca40bba	0.020025123
9	0x3c5b9063	0.013401124
10	0x3a94dbf5	0.0011357056
11	0xbc38e16e	-0.011284215
12	0xbab460c8	-0.0013761753
13	0x3b0eca80	0.002178818
14	0xbbb39e4e	-0.005481518
15	0xbb55c723	-0.0032619915
16	0x3c3369cf	0.01095052
17	0x3caaee77	0.020865662
18	0x3b7a49d0	0.0038190968
19	0xbbfa78a7	-0.0076437774
20	0xbc7609ea	-0.015017012
21	0xbb296727	-0.0025848837
22	0xb88e40a7	-6.78313e-05
23	0x3899f289	7.340784e-05
24	0xbc049a78	-0.008093469
25	0xbb14c84b	-0.0022702392
26	0x3b0ff0ff	0.0021963713
27	0xbafc865d	-0.0019266118
28	0x3c7fa8ed	0.01560424
29	0xbc55a58a	-0.013039956
30	0xbc00db08	-0.007864721
31	0x3b4de60a	0.0031417632
32	0xbbebc350	-0.007194914
33	0x3b14f5d2	0.0022729528
34	0x3c47334c	0.012158226
35	0xbc54cb57	-0.012987933
36	0xba786237	-0.00094750844
37	0xbb19c98b	-0.0023466076
38	0x3ba28f7e	0.0049609533
39	0x3c08f72f	0.008359714
40	0x3b020c1f	0.001984365
41	0x3bb162bd	0.005413382
42	0xbcac62dc	-0.021043234
43	0xbbfbe1a5	-0.007686811
44	0x3c04fe47	0.008117265
45	0x3b125436	0.0022328026
46	0x3c2c960a	0.010533819
47	0xbb982817	-0.004643451
48	0xbb5856b7	-0.003301067
49	0xbca79eb2	-0.020461414
50	0xbbde6cd3	-0.006787875
51	0x3ba5e7a0	0.0050630122
52	0x3c11d9ca	0.008902023
53	0xbbc2532c	-0.005930325
54	0xbc4e7988	-0.0126022175
55	0xba579dba	-0.0008225102
56	0x3c0acc4d	0.008471561
57	0x3a6b7352	0.00089817226
58	0xbb7ce0af	-0.003858607
59	0x3bd84437	0.0065999287
60	0x3c0dca94	0.008654255
61	0x3c0a8a74	0.008455861
62	0x3c96de99	0.01841669
63	0x3c946cbc	0.018118255
64	0x3c04bc36	0.008101514
65	0xbc25b92b	-0.010114948
66	0x3b29a02b	0.002588282
67	0xbc476f8b	-0.01217259
68	0xbbbc6a0d	-0.005749947
69	0xbc18390f	-0.009290948
70	0xbb38326f	-0.0028106233
71	0x3bf88c1f	0.007585063
72	0xbc536a1f	-0.012903719
73	0x3bf67d3a	0.0075222524
74	0x3b2d8d78	0.0026482027
75	0xbb12054f	-0.0022280996
76	0xba2bcc53	-0.0006553579
77	0x3c055f22	0.008140357
78	0x3bd1f503	0.0064073815
79	0x3bb18c03	0.005418302
80	0xbc039e18	-0.008033298
81	0x3c6b75a0	0.014371306
82	0xba9f8cb2	-0.0012172668
83	0x3bb9a97f	0.0056659575
84	0x3bd4815d	0.006485148
85	0x3b41602b	0.0029506783
86	0x3bb5aada	0.0055440487
87	0x3b9f9edc	0.0048712324
88	0x3ca6a9cf	0.020344643
89	0x3ac256c2	0.0014826881
90	0x37042086	7.875386e-06
91	0x3a2a40b0	0.00064946245
92	0x3b19c612	0.0023464006
93	0x3b88386a	0.0041571157
94	0xbc3d2d9f	-0.011546521
95	0xbaa6b980	-0.0012720078
96	0xbb3e3db6	-0.0029028482
97	0xbc32609b	-0.01088729
98	0x3b50a660	0.0031837448
99	0xbb1a7f7b	-0.002357452
100	0x39951b5e	0.00028439885
101	0x3bbc48d6	0.0057459874
102	0xbacf0f3f	-0.001579739
103	0x3ad0b5cd	0.0015923321
104	0x3c524d70	0.012835845
105	0x3ba3b96f	0.0049964706
106	0xbc5c7d3b	-0.013457592
107	0x39fb4b82	0.00047930708
108	0x3bbdd59e	0.0057932874
109	0x3c14e319	0.009087347
110	0xbb10f3f8	-0.0022118073
111	0x3c3d3315	0.011547823
112	0x3c3686a5	0.0111405
113	0xbc3fd91f	-0.011709481
114	0x3b100381	0.0021974745
115	0x3c523c42	0.012831749
116	0xbc59fd88	-0.0133050755
117	0x3cc8f5b5	0.024531225
118	0xbb48e265	-0.003065252
119	0xbc48986c	-0.012243371
120	0xbb8bdcac	-0.0042682495
121	0x3b3b1693	0.002854739
122	0x3a659ec2	0.00087593135
123	0xbc6e8870	-0.014558896
124	0xbcae1e19	-0.021254586
125	0xbb96d654	-0.0046031866
126	0x3c0d76e2	0.008634301
127	0x3c111b29	0.008856573
128	0x3ab69473	0.0013929739
129	0xbc401c2b	-0.011725466
130	0x3c03186b	0.008001427
131	0x3c2dd41b	0.010609652
132	0x3b96f10d	0.004606372
133	0xbc7f538b	-0.015583883
134	0xbcc276a0	-0.023738205
135	0x3baa7e5b	0.005203051
136	0xba37643f	-0.0006995834
137	0xbca971cf	-0.020684151
138	0x3c27b67a	0.010236377
139	0x3c19948f	0.009373798
140	0xbc64c8eb	-0.013963918
141	0xbc1fffef	-0.009765609
142	0x3c8d2303	0.017228609
143	0xbad42825	-0.001618628
144	0x3c31ba09	0.010847577
145	0x3bbe9c5a	0.0058169784
146	0x3b98b0cf	0.004659749
147	0x3c341a1a	0.010992551
148	0xbba818e0	-0.0051299185
149	0x3bad6a0a	0.005292182
150	0x3c0e1a51	0.0086732665
151	0x3bd7d1ab	0.0065862737
152	0xbab33e77	-0.0013675232
153	0xbb40c819	-0.0029416142
154	0xbc8f5077	-0.017494423
155	0x3b7cea0f	0.0038591658
156	0xbbcf464b	-0.0063255182
157	0xbc5af7ab	-0.013364713
158	0x39ec3915	0.00045055957
159	0xbbc9d028	-0.0061588474
160	0x3b8ef831	0.004363083
161	0xbc8fb254	-0.017541088
162	0xba7d557d	-0.0009663923
163	0x3c27421c	0.010208633
164	0xba7024b3	-0.0009160742
165	0x3c81a363	0.01582498
166	0xbb659615	-0.0035032083
167	0xbc47400b	-0.012161265
168	0x3c5bcf6a	0.013416151
169	0x3c0f223a	0.008736188
170	0x3c0fa0c8	0.008766361
171	0xbc2e666c	-0.010644536
172	0xbbc3ba38	-0.0059731267
173	0xbc157dd7	-0.009124241
174	0x3c2cc505	0.01054502
175	0xbc530b93	-0.0128811775
176	0x3ab54154	0.0013828673
177	0x3c35d9d4	0.011099298
178	0xbba75772	-0.00510686
179	0x3c9363e3	0.017991966
180	0xb8c88f31	-9.563415e-05
181	0x3c680b6b	0.0141628785
182	0xbc2d3eeb	-0.010574083
183	0xbc01b56f	-0.007916792
184	0x3c0fb282	0.008770587
185	0x3b9a25d8	0.0047042184
186	0x3c2d1a16	0.010565301
187	0x3953e87f	0.0002020914
188	0x3a9d7433	0.001201278
189	0x3c134d1f	0.008990555
190	0x3b229fc3	0.0024814464
191	0xbc0896fd	-0.00833678
192	0xba06baa1	-0.0005139504
193	0xbc3dd353	-0.011586028
194	0x3c54aedd	0.012981144
195	0xbc1900e0	-0.0093385875
196	0x3cd1e16a	0.025620181
197	0x3c1dd705	0.009633784
198	0x3a5fffdd	0.00085449015
199	0xbba7a77e	-0.005116402
200	0xbbbdbee7	-0.0057905796
201	0x3c4116e4	0.011785243
202	0xb870036f	-5.7223657e-05
203	0x3b1e05cb	0.002411234
204	0xbbea0edb	-0.007142884
205	0x39a2eb9f	0.000310746
206	0xbbf7fa13	-0.007567653
207	0x3af0a70f	0.0018360334
208	0x3c4caa27	0.012491739
209	0xbc20d621	-0.009816677
210	0x3c0bfc42	0.00854403
211	0xbb1b4773	-0.002369371
212	0x3c5fb285	0.013653402
213	0xbbbb9607	-0.0057246718
214	0xbb0c176b	-0.0021376263
215	0xbc365b83	-0.0111302165
216	0xb899854b	-7.320436e-05
217	0xbc5beafa	-0.013422722
218	0x3c81c64f	0.015841631
219	0xba0d40ab	-0.00053883594
220	0x3bc4ad82	0.006002129
221	0xb6fcba13	-7.531847e-06
222	0xbb9e822d	-0.0048372955
223	0x3c5f8bc8	0.013644166
224	0xb9257932	-0.00015780775
225	0xbb63f1e3	-0.0034781627
226	0x3a16402b	0.00057316077
227	0x3b573015	0.0032835056
228	0xbbdccea0	-0.006738499
229	0xbba0eb6f	-0.0049108784
230	0x3c5f20c0	0.013618648
231	0xbb888f6f	-0.0041674892
232	0x3c29d033	0.01036458
233	0xbbed446a	-0.0072408216
234	0xbbec8793	-0.00721831
235	0xbc001c8a	-0.007819304
236	0xbb647d9d	-0.003486491
237	0x3c322e61	0.010875315
238	0x3c896501	0.016771795
239	0x3adbfe25	0.0016784115
240	0x3b68fde2	0.0035551717
241	0x3c4c14dd	0.012456146
242	0x3c115e00	0.008872509
243	0xbc62d5c3	-0.01384491
244	0x3b6c246d	0.0036032454
245	0xbc0aabb6	-0.008463791
246	0x3c486c38	0.012232833
247	0xbbe47030	-0.0069713816
248	0xbba359be	-0.0049850633
249	0xbcc0d0d9	-0.023537086
250	0x3a9d4912	0.0011999926
251	0xbb28000d	-0.0025634796
252	0x3a86235b	0.0010233925
253	0x3c7b9a1b	0.015356566
254	0x3a560fdf	0.0008165817
255	0xbc75b775	-0.014997353

action_model._discrete_distribution.branches.0.bias f4 [5]
0	0x00000000	0.0
1	0x00000000	0.0
2	0x00000000	0.0
3	0x00000000	0.0
4	0x00000000	0.0
