Project/Assets/ML-Agents/Examples/MyTest/Scripts/TFModels/MyTest1Models/Test9/MoveToGoal/MoveToGoal-34800.pt (torch, 451980 bytes, 42 tensors)

network_body._body_endoder.seq_layers.0.weight f4 [128, 6]
-0.36543742 -0.48597425 -0.71957994 0.1246745 0.55774075 -0.080243625 -0.5518421 -0.12720053
-0.35795695 -0.15601188 -0.6567735 -0.2236671 -0.5342915 0.7365547 0.29105806 -0.44128275
-0.41389942 0.58359474 0.039807346 0.109490365 -0.10736503 0.16995753 -0.4081053 0.46247506
0.12274305 0.26582882 -0.38817027 -0.40097466 -0.8207707 0.33804092 0.24351497 -0.20956694
0.10130765 0.51784766 -0.29265186 0.27680793 -0.24187131 -0.011745923 0.39292526 -0.048236635
-0.72407013 0.68008375 -0.34141257 0.5380734 0.17281243 -0.37868062 0.2611 -0.05164253
-0.0655874 0.3429873 -0.09005362 -0.47528642 -0.057346985 -0.5350635 -0.058107797 0.41856036
0.5430699 0.2665906 0.020168306 -0.22356129 0.7266175 0.2857068 0.8368773 0.41785204
0.31500435 0.17762463 -0.16792114 0.02964357 0.50614876 -0.47073764 -0.32920656 0.08459091
0.6198366 -0.5787782 -0.19362734 0.28408444 0.62309086 -0.42344028 0.08818076 -0.17417957
0.48998684 -0.1836838 -0.5706231 0.11545194 0.4809839 -0.114273414 -0.25396663 -0.090665564
0.19958034 -0.4841354 0.15666074 -0.0689105 -0.97228754 -0.79631835 0.103594095 -0.45343944
0.11251941 0.063073635 -0.3600237 0.058699895 0.37260893 0.34014028 0.04712484 0.37196806
-0.22702928 0.7651086 0.022291945 0.26603097 0.7470412 0.06013162 -0.7192015 0.020047281
0.26235607 0.070964575 0.08907536 0.7438922 0.20620562 0.22382657 -0.5613746 0.29697144
-0.4262723 -0.30322263 0.81036913 -0.39754087 0.16972573 -0.013716336 0.21364065 -0.4077473
-0.16083021 -0.794189 0.40492436 -0.3530828 0.40446737 0.01769752 -0.37977183 -0.12234937
-1.102575 -0.022215396 0.7250498 -0.3026084 -0.13526967 -0.3380489 0.36676595 -0.69158304
-0.14862873 -0.17698523 -0.27459478 -0.14615606 0.4486787 0.33244836 0.32381874 -0.4211853
0.57916194 0.28615114 0.17423952 0.45371404 -0.1639098 0.45828512 0.29005024 0.47743884
-0.28754833 -0.033118736 0.884312 -0.30751348 -0.097704 0.02251797 0.25236627 0.24294128
0.082271226 0.523774 0.08524441 -0.15321195 -0.0876772 -0.42586082 0.23725325 0.09037149
-0.65426373 0.52527004 -0.5925401 0.51306933 -0.12588587 -0.09211689 -0.044357993 0.10198526
-0.28578743 0.667977 -0.32942045 -0.02784399 -0.26882872 0.22543605 -0.06550923 0.38897443
0.32249346 0.45758605 -0.33397773 -0.13318986 0.503612 0.54007715 0.10872909 -0.1766261
0.73357385 -0.48091817 0.09734983 0.08932235 -0.2416148 0.13284428 0.5881216 -0.08405282
0.87098545 0.011199498 0.9111096 -0.34897754 0.39820275 0.29714715 0.753906 0.6019473
-1.202527 -0.45304686 -0.15228644 0.2873525 -0.4931703 0.011422849 0.16503185 0.5169661
0.23141825 0.29290658 -0.73847604 1.1430415 -0.045759525 -0.29603395 -0.41389018 0.38687256
0.14332479 -0.3776855 0.34879997 0.04751218 0.15283465 0.26035878 -0.35651934 -0.8688028
0.6240111 0.09575126 0.16226248 -0.9655639 0.7024076 -0.011316107 0.6224487 0.15347008
0.60920465 -0.5673417 -0.11645305 0.17768435 0.48430777 -0.37313122 -0.027910981 -0.29888457
00000000: 9d1a bbbe 9ed1 f8be 6436 38bf 5855 ff3d
00000010: 19c8 0e3f c556 a4bd 8645 0dbf db40 02be
00000020: 2246 b7be 94c1 1fbe 4f22 28bf fd08 65be
00000030: 54c7 08bf d98e 3c3f 9005 953e d0ef e1be
00000040: a0ea d3be 7766 153f 070d 233d 7c3c e03d
00000050: 32e2 dbbd 5909 2e3e 2ef3 d0be 88c9 ec3e
00000060: b560 fb3d b71a 883e 41be c6be 8d4c cdbe
00000070: 071e 52bf b313 ad3e fd5b 793e b798 56be
00000080: 637a cf3d aa91 043f 77d6 95be c5b9 8d3e
00000090: 1dad 77be f971 40bc 802d c93e c793 45bd
000000a0: a95c 39bf f819 2e3f a1cd aebe 2ebf 093f
000000b0: bef5 303e 6de2 c1be e6ae 853e 1e87 53bd
000000c0: b052 86bd 089c af3e 086e b8bd be58 f3be
000000d0: ace4 6abd ecf9 08bf 7102 6ebd 8b4d d63e
000000e0: a106 0b3f 907e 883e 0138 a53c 40ed 64be
000000f0: 9b03 3a3f 2948 923e 973d 563f b4f0 d53e
00000100: 4048 a13e 3be3 353e 85f3 2bbe 12d7 f23c
00000110: f792 013f 8604 f1be c38d a8be 003e ad3d
00000120: 9dad 1e3f cf2a 14bf 3f46 46be 8473 913e
00000130: e282 1f3f 2acd d8be 1d98 b43d 215c 32be
00000140: 8edf fa3e 9b17 3cbe 5b14 12bf 1172 ec3d
00000150: 8643 f63e 2e08 eabd ea07 82be deae b9bd
00000160: ca5e 4c3e 98e0 f7be ac6b 203e f320 8dbd
00000170: d6e7 78bf 85db 4bbf 2429 d43d 3729 e8be
00000180: 9470 e63d c02c 813d 0755 b8be 4d6f 703d
00000190: 99c6 be3e de26 ae3e fa05 413d 9972 be3e
000001a0: 5d7a 68be 28de 433f 999d b63c 3635 883e
000001b0: 183e 3f3f 934c 763d 971d 38bf 323a a43c
000001c0: 8953 863e e055 913d 246d b63d b86f 3e3f
000001d0: 9127 533e cb32 653e 3fb6 0fbf a40c 983e
000001e0: 5d40 dabe ff3f 9bbe 5a74 4f3f 7a8a cbbe
000001f0: 95cc 2d3e 7cba 60bc 9dc4 5a3e 41c4 d0be
00000200: adb0 24be f84f 4bbf 3f52 cf3e 45c7 b4be
00000210: 5916 cf3e 64fa 903c 7471 c2be 4e92 fabd
00000220: 2d21 8dbf 10fd b5bc dd9c 393f 7def 9abe
00000230: 2284 0abe bf14 adbe bfc8 bb3e 960b 31bf
00000240: 2132 18be 9e3b 35be b097 8cbe efa9 15be
00000250: 37b9 e53e ac36 aa3e 92cb a53e 9aa5 d7be
00000260: f543 143f 6782 923e d86b 323e 354d e83e
00000270: f8d7 27be 59a4 ea3e 7781 943e dd72 f43e
00000280: 8939 93be 83a7 07bd 4562 623f 6872 9dbe
00000290: 0919 c8bd 9b77 b83c 2736 813e 99c5 783e
000002a0: d17d a83d 0e16 063f 9f94 ae3d 98e3 1cbe
000002b0: 1b90 b3bd 6e0a dabe 84f2 723e b014 b93d
000002c0: d47d 27bf 1978 063f b5b0 17bf 8358 033f
000002d0: 3ae8 00be c8a7 bcbd bab0 35bd a6dd d03d
000002e0: bb52 92be 8a00 2b3f cca9 a8be 1419 e4bc
000002f0: eba3 89be b5d8 663e b429 86bd a827 c73e
00000300: dd1d a53e b848 ea3e 21ff aabe ec62 08be
00000310: b7ec 003f 7f42 0a3f 5bad de3d 79dd 34be
00000320: 7fcb 3b3f e83a f6be 595f c73d a3ee b63d
00000330: df69 77be 5508 083e 238f 163f e323 acbd
00000340: e7f8 5e3f 197e 373c 7b3e 693f 2fad b2be
00000350: 3be1 cb3e ac23 983e fcff 403f 3819 1a3f
00000360: 68ec 99bf c2f5 e7be faf0 1bbe de1f 933e
00000370: d180 fcbe e726 3b3c 1cfe 283e e457 043f
00000380: e8f8 6c3e daf7 953e c40c 3dbf 2f4f 923f
00000390: 576e 3bbd c391 97be 6ae9 d3be 2914 c63e
000003a0: bcc3 123e fe5f c1be e995 b23e 229c 423d
000003b0: b080 1c3e bf4d 853e b489 b6be dc69 5ebf
000003c0: 31bf 1f3f 3d19 c43d 2328 263e 322f 77bf
000003d0: fcd0 333f 3167 39bc cc58 1f3f 4327 1d3e
000003e0: d6f4 1b3f 4e3d 11bf f07e eebd e3f2 353e
000003f0: 30f7 f73e 0e0b bfbe 92a5 e4bc 6607 99be

network_body._body_endoder.seq_layers.0.bias f4 [128]
0.004797357 0.00078076345 0.006911517 -0.002799262 -0.0007296362 0.004019867 -0.0011338618 0.008534703
-0.00027166313 0.0044104867 0.004962924 0.004358213 0.0007416725 -0.0014217035 -0.00415942 -0.0025116669
0.0022176213 -0.002803893 -0.0027648043 -0.002263536 0.0051345807 0.0017955549 -0.001913637 -0.0037985381
-0.00037542058 -0.004818869 0.0024018795 -0.00016286969 -0.0013285358 -0.0043535926 0.004575366 -0.0022618307
-0.0015775474 -0.003294544 0.004103175 0.0039698356 0.0051149786 -0.0031427515 0.0045108157 0.0051982924
0.0034819639 -0.0057491134 -6.1641804e-05 -0.0038018157 0.0056762053 -0.00065473333 -0.003070538 0.002771933
-0.004772676 -0.00014892693 0.005605904 -0.0057957503 0.0046196952 0.0024015077 -0.0018797945 0.0043943175
0.005173755 -0.006080898 -0.0025885773 0.0023010634 0.0013198475 0.0062016845 -0.0056809015 -0.0034228372
-0.004175155 0.004966386 0.0039953985 0.001970937 -0.0020662672 0.002239258 -0.00029921887 0.0035756808
0.0050925687 -0.0072081764 0.004025267 -0.0045948783 0.0066732694 -0.002384574 0.0036946244 -0.0036187074
-0.006119319 -0.00019625308 -0.0006650865 0.0052919975 -0.003975628 0.0026101884 -0.005385186 -0.0010416999
-0.010430553 -0.0021979976 -0.0064839167 0.004213782 -6.1457074e-05 0.007464354 -0.004626769 0.0016826341
0.001207783 0.0014579829 0.0009186711 0.006474739 0.0010749279 0.005395288 0.0035459397 -0.0037448811
-0.0037497377 -0.0046829814 -0.0050569787 -0.0029758774 0.0007886964 -0.005221399 0.0043873237 -0.0029500753
0.0012872313 0.0026340566 -4.918631e-06 -0.0015018338 0.0039789323 0.0031921186 0.00051830476 -0.0070765796
0.01456937 -0.004935128 0.0009466658 -0.004346695 -0.0045812 -0.0029961695 -0.004352407 0.0054547554
00000000: 2633 9d3b 26ac 4c3a 027a e23b d373 37bb
00000010: 0e45 3fba 17b9 833b 179e 94ba 24d5 0b3c
00000020: 026e 8eb9 d885 903b 06a0 a23b 57cf 8e3b
00000030: cd6c 423a 7458 baba be4b 88bb c79a 24bb
00000040: 8355 113b 85c1 37bb b831 35bb d557 14bb
00000050: fc3f a83b d358 eb3a 01d3 faba e5f0 78bb
00000060: 19d4 c4b9 9ae7 9dbb da68 1d3b 00c8 2ab9
00000070: 4422 aeba 95a8 8ebb f4ec 953b 393b 14bb
00000080: b5c5 ceba 47e9 57bb ed73 863b 6515 823b
00000090: 8d9b a73b 9ff6 4dbb 77cf 933b 7056 aa3b
000000a0: a931 643b 0f63 bcbb b145 81b8 e227 79bb
000000b0: 76ff b93b 69a2 2bba 143b 49bb 52a9 353b
000000c0: 1c64 9cbb 4529 1cb9 bbb1 b73b 47ea bdbb
000000d0: d060 973b 9d62 1d3b 7063 f6ba 35fe 8f3b
000000e0: 9a88 a93b 4542 c7bb 1fa5 29bb 70cd 163b
000000f0: bcfe ac3a 8037 cb3b db26 babb ae51 60bb
00000100: bdcf 88bb 11bd a23b d5eb 823b d62a 013b
00000110: 366a 07bb 84c0 123b 7ae0 9cb9 f855 6a3b
00000120: 90df a63b 9132 ecbb 63e6 833b a290 96bb
00000130: 71ab da3b 8346 1cbb 8321 723b d627 6dbb
00000140: 9184 c8bb 49c9 4db9 3359 2eba 7e68 ad3b
00000150: fc45 82bb b20f 2b3b 3776 b0bb a689 88ba
00000160: e9e4 2abc 480c 10bb 0977 d4bb c413 8a3b
00000170: 84e2 80b8 8a97 f43b 279c 97bb d58b dc3a
00000180: 794e 9e3a ca19 bf3a f9d2 703a 0c2a d43b
00000190: 98e4 8c3a f5ca b03b ff62 683b ae6c 75bb
000001a0: 29be 75bb b273 99bb 03b5 a5bb f006 43bb
000001b0: 85c0 4e3a 4518 abbb 8ac3 8f3b 0d56 41bb
000001c0: 51b8 a83a 23a0 2c3b b80a a5b6 2ed9 c4ba
000001d0: b461 823b dd32 513b d8de 073a a7e2 e7bb
000001e0: 5eb4 6e3c dbb6 a1bb ab29 783a b86e 8ebb
000001f0: e41d 96bb 625b 44bb a39e 8ebb cebd b23b

network_body._body_endoder.seq_layers.2.weight f4 [128, 128]
-0.10697782 -0.035559267 -0.04995995 -0.04855063 0.022772485 0.06393097 0.12526222 -0.110564575
0.021986637 -0.038946636 -0.03811045 0.053739417 -0.062241748 0.059769895 -0.06978478 -0.043459356
-0.053004228 -0.013848455 -0.055177044 0.06566992 0.05503572 0.081993446 -0.0776257 0.035434864
-0.041330326 -0.0056236135 -0.10641187 0.09549412 -0.13055226 -0.06446123 -0.0016049282 0.05217457
0.08118314 0.07663922 0.09112305 -0.029012414 0.06193713 0.05710561 -0.06761866 -0.09550874
0.00048566808 -0.07273024 0.0016464912 -0.1588525 0.025217628 -0.0742194 -0.061153844 -0.015979862
0.024314877 0.06497022 0.014934032 0.016545884 -0.061311133 -0.10561695 0.014582703 0.0519424
-0.07659893 0.121503696 -0.21044746 -0.020101264 0.0066075753 -0.123999044 0.13561544 0.010960617
-0.07429883 -0.06856403 0.02810896 0.05634646 0.13664909 0.0368773 -0.021467304 0.16007663
-0.0596066 0.007947203 -0.23101072 0.063674614 -0.15741843 -0.054422006 0.07001395 -0.022563139
-0.049731012 -0.018797088 0.04873682 -0.068990104 -0.0822514 -0.0866325 0.002899216 -0.0627091
-0.038069002 -0.128596 0.054495476 0.17853439 0.032094087 -0.12538649 -0.1196471 -0.028168658
-0.020961171 -0.051884115 0.0040357225 0.059929438 0.045844365 0.011834635 -0.07566136 -0.012245679
-0.013247568 0.012892367 -0.06725011 0.03912024 0.18062402 -0.058936305 -0.1662042 0.039668385
0.022383718 0.14244467 -0.071351126 -0.06840186 0.056748927 -0.12709457 -0.022155982 0.07860366
0.034563284 0.03456845 -0.033804588 -0.10046587 -0.0073986608 0.034999445 0.08446822 0.013580784
0.00035084406 0.028612206 -0.094401635 0.182867 0.09291924 0.23469524 0.054432888 -0.0351374
-0.09682281 0.06859274 -0.049566705 0.017878039 0.041038726 0.039030686 -0.15122066 0.1448414
-0.20574287 0.049166314 0.06817471 0.062009543 -0.03750856 -0.05663389 0.051596817 0.14112726
0.030841298 0.13978595 0.029256515 -0.0022151978 -0.17606877 0.112911716 0.0031516294 -0.014597343
0.020737136 -0.022946594 0.13112262 0.06544439 0.008294995 0.10016044 0.024149112 0.000985799
-0.14043564 -0.18124764 -0.066403106 0.02592488 0.014538283 0.018812062 -0.08070962 -0.0051322323
-0.1333868 -0.10431363 -0.11627899 0.0358933 0.16044739 0.15243529 0.06887198 -0.1283704
-0.19936562 0.04281423 0.03001251 0.017645122 -0.108754605 -0.14560898 -0.06332473 -0.00939529
-0.06545792 -0.048983306 0.054840993 -0.0032228762 0.024080107 0.008095536 0.008371108 -0.22632495
-0.0072006113 -0.039150137 0.09137622 0.010255664 -0.037021626 -0.009762507 -0.055935625 -0.21792264
-0.061214093 -0.06892745 -0.11149827 0.14552669 -0.097502045 -0.015764348 0.02439027 -0.03770892
-0.035696004 0.014319264 -0.119342 -0.21917957 0.058181163 0.037903294 0.04637464 0.015813295
0.021309823 0.073267184 0.050904557 -0.045068342 0.09251087 0.022363512 -0.011337417 -0.2119569
-0.10331575 -0.0016346328 0.21302554 -0.07776715 0.028420456 -0.07264648 0.0754524 -0.11880936
-0.07189918 0.10862895 0.10139061 0.23026736 0.13971688 0.09596019 0.04401432 -0.0011316567
-0.10527093 -0.21760009 -0.17736633 0.045273505 0.1162299 0.0547125 0.071359254 0.04835406
00000000: 3017 dbbd 98a6 11bd cea2 4cbd 07dd 46bd
00000010: 5d8d ba3c 3eee 823d bd44 003e ae6f e2bd
00000020: 521d b43c 8286 1fbd b419 1cbd dd1d 5c3d
00000030: 34f1 7ebd 47d1 743d 53eb 8ebd 7002 32bd
00000040: f61a 59bd a1e4 62bc 5301 62bd f37d 863d
00000050: 236d 613d 2eec a73d 39fa 9ebd 2624 113d
00000060: fd49 29bd 4a46 b8bb 77ee d9bd 6c92 c33d
00000070: 7eaf 05be 4004 84bd 745c d2ba 00b5 553d
00000080: 5943 a63d 06f5 9c3d b99e ba3d 71ab edbc
00000090: cab1 7d3d 92e7 693d a77b 8abd 169a c3bd
000000a0: 44a1 fe39 98f3 94bd 14cf d73a 3baa 22be
000000b0: 3395 ce3c 5700 98bd 747c 7abd 33e8 82bc
000000c0: fe2f c73c 1b0f 853d dfad 743c 3c8b 873c
000000d0: 6221 7bbd b34d d8bd 4aec 6e3c 8ec1 543d
000000e0: e6df 9cbd eed6 f83d 8a7f 57be 68ab a4bc
000000f0: 5c84 d83b 36f3 fdbd c6de 0a3e 2994 333c
00000100: fc29 98bd 4c6b 8cbd c344 e63c 8ccb 663d
00000110: bded 0b3e a70c 173d 33dc afbc 21eb 233e
00000120: 0d26 74bd fc34 023c 138e 6cbe d667 823d
00000130: 4c32 21be 9ce9 5ebd 7963 8f3d 55d6 b8bc
00000140: bfb2 4bbd 5afc 99bc 43a0 473d af4a 8dbd
00000150: 6c73 a8bd 616c b1bd c600 3e3b a16d 80bd
00000160: 3eee 1bbd abae 03be a636 5f3d b8d1 363e
00000170: 1775 033d 5165 00be 8a09 f5bd f5c1 e6bc
00000180: c3b6 abbc 7084 54bd 183e 843b 9278 753d
00000190: 4dc7 3b3d 0fe6 413c 58f4 9abd 1aa2 48bc
000001a0: 540c 59bc 823a 533c 6dba 89bd 8b3c 203d
000001b0: 81f5 383e 3267 71bd 6f31 2abe 517b 223d
000001c0: 0f5e b73c 04dd 113e 8a20 92bd 4616 8cbd
000001d0: 9071 683d 1425 02be 7680 b5bc f5fa a03d
000001e0: 3b92 0d3d a697 0d3d ae76 0abd 0dc1 cdbd
000001f0: 7770 f2bb 945b 0f3d adfd ac3d f081 5e3c
00000200: 7ef1 b739 2564 ea3c a555 c1bd 7d41 3b3e
00000210: 714c be3d f353 703e 05f5 5e3d 3cec 0fbd
00000220: 0a4b c6bd 5a7a 8c3d 7506 4bbd f774 923c
00000230: 3918 283d a4de 1f3d 97d9 1abe 4e51 143e
00000240: 42ae 52be 9e62 493d 2f9f 8b3d b8fd 7d3d
00000250: 93a2 19bd f0f8 67bd 2f57 533d aa83 103e
00000260: e4a6 fc3c 0c24 0f3e 5cab ef3c da2c 11bb
00000270: 5f4b 34be 423e e73d 918b 4e3b b229 6fbc
00000280: ede0 a93c 7ffa bbbc 0245 063e b507 863d
00000290: bbe7 073c eb20 cd3d 5cd4 c53c ed35 813a
000002a0: 5cce 0fbe fb98 39be 5afe 87bd 6a60 d43c
000002b0: fb31 6e3c c11b 9a3c 164b a5bd 492c a8bb
000002c0: 8d96 08be 62a2 d5bd ae23 eebd da04 133d
000002d0: 524c 243e ff17 1c3e c10c 8d3d 8873 03be
000002e0: 8026 4cbe f95d 2f3d ccdc f53c 818c 903c
000002f0: bcba debd 851a 15be 65b0 81bd b4ee 19bc
00000300: cd0e 86bd b8a2 48bd f3a0 603d e436 53bb
00000310: a543 c53c 24a3 043c f926 093c bac1 67be
00000320: 1bf3 ebbb e55b 20bd 7523 bb3d 5f07 283c
00000330: fda3 17bd ecf2 1fbc c11c 65bd 1d27 5fbe
00000340: a1bb 7abd d629 8dbd 3459 e4bd f304 153e
00000350: 27af c7bd 3c24 81bc 1ace c73c ab74 1abd
00000360: f935 12bd 599b 6a3c 9469 f4bd 9c70 60be
00000370: 5f4f 6e3d 7c40 1b3d 56f3 3d3d e28a 813c
00000380: f091 ae3c 1b0d 963d 4c81 503d 9599 38bd
00000390: 5776 bd3d af33 b73c 93c0 39bc 3b0b 59be
000003a0: 3597 d3bd 2d41 d6ba 5e23 5a3e 6244 9fbd
000003b0: 04d2 e83c adc7 94bd ca86 9a3d 5252 f3bd
000003c0: e13f 93bd db78 de3d e1a5 cf3d 35cb 6b3e
000003d0: f111 0f3e c786 c43d 5c48 343d 1954 94ba
000003e0: 4998 d7bd 8fd2 5ebe 859f 35be b670 393d
000003f0: f109 ee3d 371a 603d cd24 923d e80e 463d

network_body._body_endoder.seq_layers.2.bias f4 [128]
-0.0044052512 0.0049180766 0.0029726855 -0.009045193 0.0021207172 -0.00015010354 -0.005640597 0.0037002354
0.00449603 0.0022524523 0.00024097704 0.005004548 0.0032177637 -0.0065216413 0.0034812307 -0.005081295
0.007043828 -0.004985594 0.0024836012 -0.0035750845 -0.005095452 0.00536579 -0.0047181025 -0.004255689
0.0032397846 0.005756785 0.0052683814 -0.0034161047 -0.003264466 -0.005345439 -0.003710183 0.0019432863
-0.0024743138 0.0041742306 0.0018880089 -0.00477768 0.005051849 -0.0015621145 -0.005976622 -0.0014613183
0.0026849378 -0.00064902974 -0.0059178993 0.0039978498 0.0023963323 -0.0031029726 -0.003660327 0.0042603244
-0.0041945847 -0.00184574 -1.7209688e-05 0.0037398182 -0.007031837 -0.0011448805 0.0037753545 0.005397902
-0.005053495 -0.0021880423 -0.0008187067 -0.005094248 -0.003972153 0.0044050277 0.0045231837 0.00022921954
-0.002759554 -0.0023376322 -0.0050242464 -0.004585213 0.0022034687 -0.0011065505 -0.005031413 0.0029936957
0.00457333 0.0011998025 0.004135674 -0.0064311437 -0.0005769626 -0.0028303685 0.0023875588 -0.0040470934
-0.0026127836 -0.005731351 0.0017078847 0.0009444163 -0.007319372 -0.005981315 0.0046065613 -0.00088848005
-0.004512871 -0.0045547727 -0.0043649534 -0.005386494 -0.003663346 0.00070788304 0.0003529187 -0.005158846
-0.0032132308 0.002354032 -0.004853959 0.0069405916 -0.0042885663 -0.00025582302 -0.0033287238 -0.0003980624
-0.0022561466 -0.0054015513 0.005525192 0.0054005757 -0.0038458297 -0.00043702842 -0.005403029 -0.00353491
0.0043639056 -0.0043006283 0.0027488924 -0.0015705766 0.0027865325 0.004497964 0.0032812401 0.0018394811
0.003981793 -0.0044598277 0.0026419219 0.003138205 0.0033065267 -0.00395017 0.005459039 -0.00041365778
00000000: ed59 90bb d127 a13b 63d1 423b 4a32 14bc
00000010: bbfb 0a3b 1d65 1db9 c2d4 b8bb a67f 723b
00000020: 6f53 933b e19d 133b c8ae 7c39 31fd a33b
00000030: 1ee1 523b 7eb3 d5bb 5c25 643b fe80 a6bb
00000040: e9cf e63b 325e a3bb eac3 223b f74b 6abb
00000050: c0f7 a6bb 82d3 af3b 509a 9abb 4f73 8bbb
00000060: 9152 543b 6aa3 bc3b 63a2 ac3b bae0 5fbb
00000070: a7f0 55bb cb28 afbb 8b26 73bb deb5 fe3a
00000080: 1928 22bb fcc7 883b 1177 f73a 168e 9cbb
00000090: fb89 a53b ddbf ccba 8ad7 c3bb b589 bfba
000000a0: c8f5 2f3b a623 2aba f0ea c1bb 6500 833b
000000b0: c90b 1d3b 3e5b 4bbb 19e2 6fbb 319a 8b3b
000000c0: ba72 89bb c2ec f1ba 865d 90b7 bd17 753b
000000d0: 536b e6bb d10f 96ba f06b 773b e2e0 b03b
000000e0: ca97 a5bb 4265 0fbb 7a9e 56ba a6ed a6bb
000000f0: d628 82bb 0d58 903b 3737 943b a75a 7039
00000100: a2d9 34bb f632 19bb 6fa2 a4bb 8e3f 96bb
00000110: 1268 103b ac09 91ba 8dde a4bb e131 443b
00000120: dfdb 953b b142 9d3a 8c84 873b 58bc d2bb
00000130: 4e3f 17ba b47d 39bb 9778 1c3b 7b9d 84bb
00000140: 3c3b 2bbb 0fce bbbb 1adb df3a b492 773a
00000150: 58d7 efbb e8fe c3bb a3f2 963b e3e8 68ba
00000160: b5e0 93bb 3440 95bb e207 8fbb 3081 b0bb
00000170: bf14 70bb 3a91 393a f207 b939 890b a9bb
00000180: 1195 52bb 1a46 1a3b f60d 9fbb e76d e33b
00000190: 1a87 8cbb fc1f 86b9 b826 5abb 08b3 d0b9
000001a0: dcdb 13bb 7fff b0bb ab0c b53b 50f7 b03b
000001b0: 510a 7cbb f620 e5b9 e40b b1bb f3a9 67bb
000001c0: 18ff 8e3b 49ec 8cbb c326 343b cedb cdba
000001d0: 429e 363b a863 933b 130a 573b be1a f13a
000001e0: b379 823b bf23 92bb 1824 2d3b 58aa 4d3b
000001f0: 50b2 583b 6d70 81bb bde1 b23b 35e0 d8b9

action_model._continuous_distribution.log_sigma f4 [1, 2]
0.00066587696 0.0025211552
00000000: 3f8e 2e3a f739 253b

action_model._continuous_distribution.mu.weight f4 [2, 128]
0.014097419 -0.021413509 0.035576317 0.011912847 -0.0075576208 0.051866185 -0.010231987 0.012273442
-0.0085941665 0.016983824 0.041049134 -0.006479412 -0.011025628 -0.0027523742 -0.007133726 0.010351533
-0.044493303 0.0059582787 -0.0009875188 0.01273546 -0.018939972 0.030812742 0.003364803 -0.017263638
0.017750865 -0.0075869835 -0.03515877 -0.0024437616 -0.025706204 -0.0005377301 0.0056812917 0.011687525
0.012214696 0.019081172 -0.012802759 0.0076857703 -0.008358445 -0.0052197576 0.0018262125 0.018279878
-0.014641932 -0.01705219 -0.0048380163 0.018822392 0.006400159 0.02075297 -0.029032316 -0.014079495
0.002972251 -0.019005084 -0.01978319 -0.0025470096 -0.008019858 -0.016316501 0.0142382085 -0.012925648
-0.00073422614 0.028985979 -0.009291857 0.00088371924 0.013909562 0.0089673195 -0.0049030706 0.017114224
-0.002168626 0.030776406 -0.0036662612 0.024162214 0.034019534 -0.024761204 -0.011277784 -0.03130943
0.007453662 -0.037272505 -0.03685608 0.025567148 0.008206532 -0.022864636 0.023154562 -0.025651636
0.009495023 -0.0016013471 0.0507946 -0.018242167 0.003119685 -0.007222901 0.014379189 0.028362358
0.018504398 0.004075121 -0.009252369 0.009838072 0.013651289 0.011122577 0.028766997 -0.0011313391
0.019993942 -0.003066812 0.013581233 -0.013396094 0.005665453 -0.011995762 -0.016872132 0.015317332
-0.005469926 0.009442092 0.0001854029 -0.0049134344 -0.009489656 0.01035921 -0.020342236 -0.0015979644
-0.0065001934 -0.030781418 0.040417183 -0.0030266333 -0.014833126 0.010109158 0.02707357 -0.0059127957
-0.013517062 -0.009354453 0.024862591 0.027170425 0.032947924 0.016729634 -0.020302318 0.022691926
0.017435469 0.021340804 0.0023663207 -0.0033476423 0.0035164354 0.010157399 -0.03006891 0.008806531
0.012567931 0.014542337 -0.0028819526 0.018021341 0.013172738 -0.0025277785 0.022927178 -0.034215245
0.013858477 -0.034503255 0.0010366681 -0.0212004 -0.02155716 0.017804407 -0.026419677 -0.0014914749
0.021615434 0.003987827 0.025004365 -0.035886873 -0.015274263 -0.00788537 -0.0006748882 0.008505999
-0.016510991 0.029815605 0.009599056 0.010132627 0.013005043 0.010769448 0.0062181223 -0.0026822153
0.011116444 -0.004321226 -0.009958822 0.006493532 0.0042421394 0.0032136305 -0.01168357 0.026006829
-0.015023045 0.0023836617 -0.023448685 -0.021725565 -0.009137549 -0.014460892 0.010865856 0.03137166
0.03554341 0.0024625177 0.0013478658 -0.017108472 -0.03264706 0.021784388 0.0072189425 0.003248109
-0.0114788115 -0.009380421 -0.012662807 0.006841479 0.012086839 0.0015622375 -0.04113725 -0.011706543
0.01014714 -0.013205288 0.007499394 -0.010030007 -0.032877948 0.009036372 0.011754658 -0.011746569
-0.018241974 -0.0041938713 0.008216742 0.018864183 -0.0041791755 -0.027581215 -0.014430611 0.0055603078
-0.022000445 -0.014019501 -0.003814083 -0.010265265 -0.01882116 -0.041530322 -0.0062471 -0.017550992
-0.02125243 0.0004134015 0.01670154 0.01146987 -0.009293105 0.0013425886 -0.013652045 -0.0066822423
-0.0065777386 -0.005350021 0.02665835 0.0010871975 -0.00466044 -0.006293517 -0.0063317227 0.0012336333
0.024830304 -0.024980102 0.015062579 -0.03488252 0.0057372404 0.012859706 -0.0027811863 0.00243644
0.010134347 -0.0082200365 0.0075204507 0.010479469 0.009614269 -0.0017745679 0.0072225756 -0.035228614
00000000: dcf8 663c 626b afbc 79b8 113d 1a2e 433c
00000010: eba5 f7bb a371 543d 10a4 27bc 8c16 493c
00000020: 8cce 0cbc a921 8b3c 2323 283d 3f51 d4bb
00000030: d6a4 34bc 2d61 34bb 08c2 e9bb 7a99 293c
00000040: 9c3e 36bd aa3d c33b a26f 81ba 64a8 503c
00000050: 0028 9bbc 016b fc3c 0784 5c3b 796c 8dbc
00000060: 436a 913c 3b9c f8bb a402 10bd 8427 20bb
00000070: d195 d2bc 75f6 0cba 212a ba3b 087d 3f3c
00000080: 2620 483c 1e50 9c3c aac2 51bc ead8 fb3b
00000090: dcf1 08bc 800a abbb 865d ef3a afbf 953c
000000a0: b7e4 6fbc 09b1 8bbc 3988 9ebb 6b31 9a3c
000000b0: 6db8 d13b 2202 aa3c 2ed5 edbc afad 66bc
000000c0: 19ca 423b 8db0 9bbc 5b10 a2bc bbeb 26bb
000000d0: b965 03bc 2faa 85bc 6047 693c 19c6 53bc
000000e0: 1579 40ba 0174 ed3c df3c 18bc 65a9 673a
000000f0: eee4 633c aaeb 123c f0a9 a0bb 2133 8c3c
00000100: 821f 0ebb cd1e fc3c a845 70bb d6ef c53c
00000110: 1158 0b3d 02d8 cabc 74c6 38bc 513e 00bd
00000120: d93d f43b 0eab 18bd 67f6 16bd 3272 d13c
00000130: b174 063c 9e4e bbbc a3ae bd3c 6123 d2bc
00000140: 0391 1b3c 4be4 d1ba 000e 503d 9970 95bc
00000150: a173 4c3b 16ae ecbb b196 6b3c 2d58 e83c
00000160: 8996 973c 9888 853b 4097 17bc dd2f 213c
00000170: a8a9 5f3c 783b 363c c4a8 eb3c 7149 94ba
00000180: 56ca a33c 91fc 48bb d283 5e3c 4a7b 5bbc
00000190: 44a5 b93b df89 44bc 6d37 8abc 8cf5 7a3c
000001a0: 113d b3bb 01b3 1a3c b668 4239 e000 a1bb
000001b0: 817a 1bbc adb9 293c c3a4 a6bc ca72 d1ba
000001c0: 93ff d4bb 5029 fcbc 7d8c 253d 7b5a 46bb
000001d0: a406 73bc e2a0 253c 64c9 dd3c 20c0 c1bb
000001e0: ab76 5dbc 6b43 19bc a2ac cb3c 8394 de3c
000001f0: 67f4 063d 960c 893c 0c51 a6bc 6be4 b93c
00000200: d4d4 8e3c e9d2 ae3c 4614 1b3b 1e64 5bbb
00000210: ff73 663b 386b 263c 1353 f6bc 4549 103c
00000220: b9e9 4d3c fb42 6e3c 24df 3cbb 7ea1 933c
00000230: 78d2 573c 16a9 25bb c7d1 bb3c 4925 0cbd
00000240: aa0e 633c 4953 0dbd cfe0 873a 76ac adbc
00000250: a498 b0bc 8cda 913c 146e d8bc 987d c3ba
00000260: da12 b13c 51ac 823b f4d5 cc3c 1dfe 12bd
00000270: e740 7abc a431 01bc fbea 30ba bf5c 0b3c
00000280: 0f42 87bc db3f f43c 5c45 1d3c 5103 263c
00000290: 1b13 553c 5772 303c 64c1 cb3b 1bc8 2fbb
000002a0: bf21 363c 1299 8dbb 542a 23bc b2c7 d43b
000002b0: a501 8b3b c69b 523b 726c 3fbc 460c d53c
000002c0: 3823 76bc 3537 1c3b 7517 c0bc d0f9 b1bc
000002d0: a9b5 15bc 61ed 6cbc b406 323c 927f 003d
000002e0: f795 113d 3162 213b dfaa b03a 1127 8cbc
000002f0: ecb8 05bd 2c75 b23c e18c ec3b 3ade 543b
00000300: a011 3cbc 56b0 19bc a977 4fbc 7c2e e03b
00000310: e107 463c fec3 cc3a 887f 28bd cdcc 3fbc
00000320: 3140 263c fe5a 58bc 7abd f53b e654 24bc
00000330: 07ab 06bd 4b0d 143c 9c96 403c ae74 40bc
00000340: 3170 95bc be6c 89bb 849f 063c 0f89 9a3c
00000350: 77f1 88bb 00f2 e1bc 5f6e 6cbc 3e33 b63b
00000360: 473a b4bc 0db2 65bc b2f5 79bb a42f 28bc
00000370: d52e 9abc b31b 2abd 79b4 ccbb 19c7 8fbc
00000380: 9319 aebc cfbd d839 abd1 883c 1fec 3b3c
00000390: 1c42 18bc ccf9 af3a d4ac 5fbc b6f6 dabb
000003a0: 128a d7bb 3b4f afbb 9d62 da3c 4b80 8e3a
000003b0: 9bb6 98bb d939 cebb 577a cfbb ddb1 a13a
000003c0: ec68 cb3c 12a3 ccbc 09c9 763c f9e0 0ebd
000003d0: 76ff bb3b 84b1 523c 9044 36bb aeac 1f3b
000003e0: 880a 263c 55ad 06bc 1d6e f63b 14b2 2b3c
000003f0: 2b85 1d3c 9e98 e8ba 5bab ec3b e14b 10bd

action_model._continuous_distribution.mu.bias f4 [2]
0.000267151 0.0046391943
00000000: 6610 8c39 6204 983b

action_model._discrete_distribution.branches.0.weight f4 [5, 128]
0.014838508 -0.0059799952 -0.007976823 0.0047568083 0.0069873924 0.0035592904 0.006220564 -0.0080007985
-0.008361351 0.0053693354 0.0015475061 0.0006707031 0.005463112 0.003935292 -0.0032027436 -0.0025436217
0.0020915628 0.013994757 -0.00092587475 -0.009048869 -0.005863342 0.006162312 -0.0019365639 -0.010720682
-0.012817168 -0.004931989 0.01258939 -0.0033796532 -0.0053016646 -0.0068745245 0.004137347 -0.0064978832
-0.018760962 0.006336679 -0.0035162845 0.0025318456 -0.0040575988 0.007922984 0.0056229145 0.013045918
-0.021883022 0.0008054779 0.0019602308 0.0038928816 -0.008276433 -0.0064262524 0.016196772 -0.00789894
0.0067442087 0.008282242 0.008061653 -0.00082200725 0.0070995437 0.008084976 -0.004708203 0.0038652236
-0.0023175068 -0.003713668 -0.006288628 -0.0053756065 0.010396969 0.0070932326 -0.0024047643 0.011608254
-0.0051852735 -0.00464966 0.008504433 0.0015868567 5.267714e-05 -0.011704858 0.0046850364 -0.005371314
0.004376738 -0.011310679 0.032518547 0.0043937615 -0.0037696557 -0.012574258 0.011718273 0.0048156357
-0.0040073283 0.016597265 -0.0012225976 -0.00915767 0.0109274555 0.007941377 -0.008197457 0.01496568
0.0023953733 -0.008586111 -0.0013097065 0.007664705 0.012182989 0.0144615015 -0.009281812 0.0031620539
0.009886478 0.0013025382 0.014242108 0.010988141 -0.008739942 -0.0069099846 0.0003262892 -0.0061179777
-0.009990902 -0.0035407783 6.3121166e-05 0.002365316 -0.023074485 -0.0023234992 -0.0018139062 -0.0084168175
-0.009496797 -0.0016228367 0.010364866 0.004122144 -0.00976745 -0.0026216623 -0.003680685 -0.0064130416
0.0032160105 0.010666787 0.0021036745 0.01750819 -0.0020020606 0.012262848 0.003866517 2.33934e-05
0.003466307 -0.00013292057 -0.00047920397 0.016940435 0.014762831 -0.0064908527 0.0036524725 -0.00019372712
0.0064445063 -0.0031211285 0.009991473 0.009538963 0.012649457 0.0039936677 -0.0038494316 0.00021564076
0.006240349 -0.019295964 0.0032280453 0.008082058 0.020973822 0.0017165755 5.7697165e-05 0.0019206433
0.013323007 0.012496153 -0.012286068 0.011058843 -0.00080620096 -0.009163621 0.0066499026 0.004287941
0.001112961 0.011727855 0.007063329 0.019264646 -0.0010956163 -0.014432981 -0.0022810113 -0.008677766
0.00651987 -0.007084771 0.010766485 -0.0073325075 0.0049432786 0.009717137 0.007535645 0.0062279645
-0.005150935 0.004772711 -0.017081654 -0.004321035 0.018883657 -0.0064347982 0.0026627984 -0.0018729642
0.0041681477 -0.00731923 -0.0052934 -0.004541445 -0.00023269761 -0.007956322 0.0028034486 0.002051847
-0.0014287089 -0.0098105315 -0.004706011 0.014004497 -0.0046894616 0.013229196 -0.0144464215 0.003681277
-0.005163129 0.011082376 -0.021326229 0.0022179864 0.013971005 -0.008885195 0.009615179 -0.009171409
-0.010342299 0.010473522 -0.0011647034 -0.0011187266 0.0037916768 0.017934065 0.009970885 0.013740266
0.015049476 -0.0011684557 0.006728657 0.00999305 -0.008888333 -0.0125793815 0.000102773134 0.00065319106
0.010616702 0.004582362 0.0008997301 -0.0049502226 -0.0022358056 0.016573068 -0.0028073108 0.007983038
-0.001910875 0.02459081 -0.01172366 -0.0053425357 0.010128572 -0.0024935901 0.012784069 0.00017348303
0.007995143 0.005681522 -0.0028190303 -0.008517471 -0.0071455864 0.0073485095 -0.010441582 0.00026467786
-0.0035491548 0.007708564 0.009775525 0.0052766013 -0.0049565015 -0.013167999 -0.016873151 -0.00047197836
00000000: 371d 733c d6f3 c3bb 38b1 02bc 00df 9b3b
00000010: 7ff6 e43b fc42 693b dfd5 cb3b c815 03bc
00000020: 0cfe 08bc 40f1 af3b b0d5 ca3a 20d2 2f3a
00000030: e803 b33b 9ff3 803b 1fe5 51bb e4b2 26bb
00000040: 9a12 093b 444a 653c 67b6 72ba b541 14bc
00000050: 4721 c0bb 38ed c93b 4dd4 fdba cda5 2fbc
00000060: 19ff 51bc 869c a1bb bb43 4e3c 2c7d 5dbb
00000070: 96b9 adbb b143 e1bb 9592 873b 32ec d4bb
00000080: 97b0 99bc eba3 cf3b 7771 66bb 52ed 253b
00000090: 9bf5 84bb 67cf 013c 6d40 b83b 8cbe 553c
000000a0: 0644 b3bc b526 533a 3777 003b b71f 7f3b
000000b0: e099 07bc 5093 d2bb 18af 843c 8e6a 01bc
000000c0: 86fe dc3b 3eb2 073c 0615 043c f97b 57ba
000000d0: 4aa3 e83b d976 043c 4547 9abb b14f 7d3b
000000e0: 50e1 17bb 0361 73bb d610 cebb db25 b0bb
000000f0: 0c58 2a3c 596e e83b 4099 1dbb 8c30 3e3c
00000100: 3ae9 a9bb 2d5c 98bb 2d56 0b3c 13fe cf3a
00000110: a6f1 5c38 bcc5 3fbc ef84 993b d901 b0bb
00000120: bd6a 8f3b 6d50 39bc 2b32 053d 8bf9 8f3b
00000130: 540c 77bb 4304 4ebc 00fe 3f3c 7bcc 9d3b
00000140: e84f 83bb fdf6 873c 913f a0ba 0d0a 16bc
00000150: 1209 333c 8d1c 023c a04e 06bc 9d32 753c
00000160: b2fb 1c3b c2ac 0cbc 75aa abba 3528 fb3b
00000170: 299b 473c efef 6c3c be12 18bc 763a 4f3b
00000180: e5fa 213c eeb9 aa3a bb57 693c 9b07 343c
00000190: f931 0fbc 276d e2bb cc11 ab39 5179 c8bb
000001a0: e1b0 23bc 670c 68bb eb5f 8438 6b03 1b3b
000001b0: b406 bdbc d945 18bb 98c0 edba b1e6 09bc
000001c0: 7498 1bbc 5db5 d4ba 66d1 293c 0d13 873b
000001d0: a807 20bc 32d0 2bbb a637 71bb 7e24 d2bb
000001e0: b4c3 523b bfc3 2e3c cddd 093b 566d 8f3c
000001f0: 0135 03bb 1dea 483c 6465 7d3b f23c c437
00000200: fb2a 633b 9860 0bb9 ab3d fbb9 abc6 8a3c
00000210: cddf 713c 38b1 d4bb 525e 6f3b 3a23 4bb9
00000220: 702c d33b d98b 4cbb 46b3 233c 5049 1c3c
00000230: ab3f 4f3c 50dd 823b bf46 7cbb a01d 6239
00000240: d77b cc3b 9212 9ebc 9d8d 533b 9c6a 043c
00000250: 4bd1 ab3c b7fe e03a dcff 7138 18be fb3a
00000260: be48 5a3c aabc 4c3c 814b 49bc 2630 353c
00000270: 3b57 53ba 0323 16bc 6de7 d93b db81 8c3b
00000280: c6e0 913a 3026 403c 8073 e73b e4d0 9d3c
00000290: c89a 8fba 4f78 6cbc 057d 15bb 302d 0ebc
000002a0: a2a4 d53b 5e27 e8bb e965 303c 8845 f0bb
000002b0: 3afb a13b a034 1f3c 92ed f63b f413 cc3b
000002c0: 2dc9 a8bb 6764 9c3b d3ee 8bbc 7897 8dbb
000002d0: e6b1 9a3c 00db d2bb 5882 2e3b 407e f5ba
000002e0: f594 883b 27d6 efbb 4274 adbb 67d0 94bb
000002f0: 4a00 74b9 3c5b 02bc 10ba 373b 4878 063b
00000300: 8443 bbba 5abc 20bc e234 9abb 1e73 653c
00000310: 0eaa 99bb 45bf 583c afb0 6cbc 9441 713b
00000320: 772f a9bb db92 353c 58b4 aebc a35b 113b
00000330: a4e6 643c 3593 11bc fc88 1d3c ad43 16bc
00000340: bf72 29bc 2399 2b3c f6a8 98ba 3ca2 92ba
00000350: c87d 783b 76ea 923c ec5c 233c da1e 613c
00000360: 1492 763c de26 99ba 117c dc3b e4b9 233c
00000370: 5fa0 11bc c019 4ebc e887 d738 e93a 2b3a
00000380: adf1 2d3c a327 963b dddb 6b3a 7a35 a2bb
00000390: 9886 12bb 3ec4 873c dcfa 37bb 4acb 023c
000003a0: 5376 faba ab72 c93c 9814 40bc 7010 afbb
000003b0: 4ff2 253c 806b 23bb 4674 513c ffe8 3539
000003c0: 0ffe 023c 102c ba3b 7bbf 38bb dd8c 0bbc
000003d0: 8625 eabb c4cb f03b 2b13 2bbc 76c4 8a39
000003e0: f098 68bb 1f98 fc3b 8629 203c 57e7 ac3b
000003f0: 266a a2bb 97be 57bc 9039 8abc dd73 f7b9

action_model._discrete_distribution.branches.0.bias f4 [5]
0.0017842031 -0.0037609588 0.0027893293 0.0036659653 -0.00274271
00000000: ecdb e93a 6b7a 76bb 2ecd 363b b140 703b
00000010: 0abf 33bb

exp_avg f4 [128, 6]
-3.5268717e-05 3.5656967e-06 5.8941056e-05 -8.786716e-05 -3.4906563e-05 1.552207e-05 -2.0131713e-05 -4.3001717e-07
4.2813335e-05 9.26325e-06 3.679965e-06 -1.6363884e-06 -1.6424065e-05 -2.4249886e-07 -1.4882616e-05 9.401656e-06
3.7349516e-06 -1.6608399e-06 -6.343608e-05 2.7850765e-06 2.723404e-05 -6.5112545e-05 -2.586694e-05 1.150238e-05
-8.59367e-07 4.974512e-07 -1.1780764e-05 -1.1627288e-05 -4.6191158e-06 2.054005e-06 -0.0005534265 9.7622e-06
-0.00096690014 -0.00020160624 -8.00911e-05 3.5614517e-05 0.00026287875 -6.6361317e-06 0.00033248513 0.00014479729
5.75229e-05 -2.5578998e-05 -4.2291613e-06 1.7218129e-06 -4.9047274e-05 -4.03299e-05 -1.6021659e-05 7.1244317e-06
-8.841928e-06 -9.207602e-08 -3.0151656e-05 4.3220152e-06 1.7169868e-06 -7.63501e-07 -0.00018282102 6.7441197e-06
-0.0004359341 -0.00012724209 -5.0548846e-05 2.2477812e-05 3.806089e-05 -4.9478394e-06 -0.00015850796 0.00010131584
4.0249244e-05 -1.7897837e-05 -0.00010348132 5.479657e-06 -0.00027807162 -0.00013355003 -5.3054755e-05 2.3592123e-05
-0.000117561314 -4.3996743e-06 0.00016559388 0.00013171599 5.232614e-05 -2.3268132e-05 -9.452429e-06 3.4409e-06
-0.00016507744 -8.025805e-05 -3.1883734e-05 1.4177893e-05 -0.00012445185 1.1406569e-06 0.0001508895 -7.2729745e-06
-2.8893119e-06 1.2848031e-06 -1.1474203e-05 6.367958e-07 -6.2515037e-06 -1.2423503e-05 -4.935423e-06 2.1946594e-06
-1.4600597e-05 1.9051613e-06 0.00012174757 -5.2755036e-05 -2.0957747e-05 9.31938e-06 -3.2738215e-05 5.7755233e-06
-9.107024e-05 -0.0001165242 -4.629099e-05 2.0584452e-05 -0.00032307638 1.6379172e-06 -5.316775e-05 -4.2482116e-05
-1.6876656e-05 7.50463e-06 0.00013674334 -1.0676869e-06 6.194217e-05 -1.4693051e-06 -5.837119e-07 2.5955728e-07
6.184347e-05 -8.726158e-06 0.00022068284 0.00020389617 8.100082e-05 -3.601904e-05 -0.00047119288 4.73092e-06
-0.00026158182 -0.00010744657 -4.2684766e-05 1.8980847e-05 0.00014332008 -2.1879146e-06 9.162436e-05 4.7163652e-05
1.8736473e-05 -8.331642e-06 -0.0002144498 6.2053266e-07 -3.7955397e-06 -1.3449124e-05 -5.3428776e-06 2.3758394e-06
-3.827814e-05 5.6806994e-06 3.50964e-05 -0.00014517088 -5.7671317e-05 2.5644988e-05 1.4743052e-05 -1.2068142e-06
0.00010053019 1.866795e-05 7.416126e-06 -3.2977637e-06 -0.0003217253 2.3798211e-06 -0.00049756106 -2.3634373e-05
-9.38908e-06 4.1750973e-06 -9.295571e-05 -3.728217e-06 0.00020445685 0.00010136207 4.0267605e-05 -1.7905999e-05
0.0005074126 -1.7176073e-06 0.00031973643 2.7158003e-05 1.0788914e-05 -4.797552e-06 -0.00012744762 7.0267556e-06
2.6316859e-05 -0.00016765417 -6.6603134e-05 2.9616744e-05 -7.060574e-06 1.2489074e-06 -3.306355e-05 -3.181657e-05
-1.2639613e-05 5.620519e-06 1.9489036e-05 1.9359868e-06 -5.0743532e-05 -4.6902413e-05 -1.8632689e-05 8.28549e-06
-0.0002039478 2.9716907e-06 3.6529047e-05 -6.639361e-05 -2.6375852e-05 1.1728687e-05 0.00021160084 -1.0347456e-05
0.0003685475 0.00021053015 8.3636274e-05 -3.719097e-05 -0.00012683732 7.121104e-06 -3.7777296e-05 -0.00011638355
-4.6235113e-05 2.0559599e-05 -0.00030347024 -3.8219823e-06 -0.00024653773 0.00012003764 4.7686783e-05 -2.120511e-05
1.9831722e-07 -4.2892902e-06 4.736773e-05 0.00010627955 4.2221156e-05 -1.8774694e-05 -0.00052991207 3.977854e-06
-0.00055742596 -8.766273e-05 -3.48253e-05 1.5485959e-05 4.250209e-05 -1.1626614e-05 0.00014432041 0.0002698971
0.000107220716 -4.7678368e-05 -0.00031656594 3.6316287e-06 -0.00019388777 -7.683948e-05 -3.052564e-05 1.3573992e-05
-6.0648006e-05 -4.2147944e-06 0.00011897162 9.041078e-05 3.591704e-05 -1.5971415e-05 -3.920104e-06 -2.9344915e-06
-4.0631785e-05 5.8219084e-05 2.3128436e-05 -1.0284628e-05 -0.00031012952 4.938091e-06 -0.00033911856 -0.000109922075
00000000: 7fed 13b8 344a 6f36 7a37 7738 5345 b8b8
00000010: a368 12b8 6435 8237 86e0 a8b7 1cdd e6b4
00000020: 7892 3338 5b69 1b37 51f5 7636 e1a1 dbb5
00000030: 69c6 89b7 ca30 82b4 59b0 79b7 cebb 1d37
00000040: fba5 7a36 06ea deb5 fc08 85b8 40e7 3a36
00000050: a874 e437 088d 88b8 d5fc d8b7 59fa 4037
00000060: 40af 66b5 9688 0535 ffa5 45b7 d212 43b7
00000070: e7fd 9ab6 8ad7 0936 d313 11ba 54c8 2337
00000080: 9277 7dba 4366 53b9 95f6 a7b8 cc60 1538
00000090: fdd2 8939 f0ab deb6 6651 ae39 bad4 1739
000000a0: be44 7138 7b92 d6b7 38e8 8db6 0a19 e735
000000b0: 1cb8 4db8 e627 29b8 4066 86b7 670e ef36
000000c0: cb57 14b7 54bb c5b3 30ee fcb7 d405 9136
000000d0: 3873 e635 64f3 4cb5 a5b3 3fb9 8c4b e236
000000e0: 168e e4b9 4a6c 05b9 6904 54b8 bc8e bc37
000000f0: 92a3 1f38 9e05 a6b6 2835 26b9 8779 d438
00000100: 4cd1 2838 5023 96b7 1c04 d9b8 e5dd b736
00000110: 24ca 91b9 9009 0cb9 1c87 5eb8 b3e7 c537
00000120: 408b f6b8 eaa0 93b6 45a3 2d39 3e1d 0a39
00000130: c478 5b38 ef2f c3b7 e095 1eb7 36ea 6636
00000140: a318 2db9 3650 a8b8 e6ba 05b8 96dd 6d37
00000150: 4a7f 02b9 ac18 9935 1738 1e39 600a f4b6
00000160: 00e6 41b6 8071 ac35 5481 40b7 46f0 2a35
00000170: 02c4 d1b6 8a6e 50b7 f69a a5b6 f647 1336
00000180: 16f5 74b7 d8b4 ff35 bb52 ff38 4a45 5db8
00000190: 6bce afb7 6f5a 1c37 6450 09b8 5ecb c136
000001a0: f6fc beb8 745e f4b8 9228 42b8 c6ac ac37
000001b0: 9462 a9b9 68d6 db35 7000 5fb8 d32e 32b8
000001c0: 5892 8db7 48d0 fb36 c362 0f39 714d 8fb5
000001d0: f3e6 8138 f034 c5b5 60b0 1cb5 4859 8b34
000001e0: f6b1 8138 9066 12b7 1967 6739 f6cc 5539
000001f0: fcde a938 2613 17b8 700a f7b9 4bbe 9e36
00000200: eb24 89b9 f054 e1b8 6b08 33b8 0f39 9f37
00000210: 3148 1639 16d4 12b6 7426 c038 96d1 4538
00000220: 452c 9d37 21c8 0bb7 eedd 60b9 ae92 2635
00000230: e0b6 7eb6 8ca3 61b7 f846 b3b6 9c70 1f36
00000240: d78c 20b8 d69c be36 7934 1338 0339 18b9
00000250: 1be4 71b8 3120 d737 ed58 7737 d2f9 a1b5
00000260: bcd3 d238 1e99 9c37 0ad8 f836 264f 5db6
00000270: 3dad a8b9 04b5 1f36 c26e 02ba 6e42 c6b7
00000280: cb85 1db7 d017 8c36 38f1 c2b8 4832 7ab6
00000290: 7863 5639 5992 d438 03e5 2838 d734 96b7
000002a0: e203 053a 8a88 e6b5 4ca2 a739 5ed1 e337
000002b0: 0802 3537 a8fa a0b6 76a3 05b9 5fc7 eb36
000002c0: 06c3 dc37 53cc 2fb9 49ad 8bb8 7971 f837
000002d0: dee9 ecb6 22a0 a735 b7ad 0ab8 c872 05b8
000002e0: b90e 54b7 e497 bc36 637c a337 00ec 0136
000002f0: 74d5 54b8 15b9 44b8 654d 9cb7 e901 0b37
00000300: d2da 55b9 426d 4736 c436 1938 cc3c 8bb8
00000310: b641 ddb7 54c6 4437 2be1 5d39 fc99 2db7
00000320: 9c39 c139 c2c1 5c39 e265 af38 80fd 1bb8
00000330: a2ff 04b9 d1f1 ee36 1073 1eb8 f112 f4b8
00000340: 93ec 41b8 6777 ac37 161b 9fb9 943e 80b6
00000350: bc41 81b9 b8bc fb38 4b03 4838 a1e1 b1b7
00000360: 06f1 5434 b9ec 8fb6 b6ac 4638 66e2 de38
00000370: 9f16 3138 597e 9db7 cce9 0aba 8179 8536
00000380: 3920 12ba 92d7 b7b8 6211 12b8 d8e7 8137
00000390: 4644 3238 ed0f 43b7 b754 1739 fa80 8d39
000003a0: afdb e038 42fa 47b8 c3f8 a5b9 e8b6 7336
000003b0: 5a4e 4bb9 e224 a1b8 a808 00b8 dabb 6337
000003c0: 4d60 7eb8 cf6c 8db6 6780 f938 eb9a bd38
000003d0: a1a5 1638 5afa 85b7 7089 83b6 2eee 44b6
000003e0: 0c6c 2ab8 4430 7438 f003 c237 248c 2cb7
000003f0: e198 a2b9 e1b1 a536 b9cb b1b9 f785 e6b8

exp_avg_sq f4 [128, 6]
5.79516e-08 1.671363e-10 2.941376e-07 9.978094e-08 1.574739e-08 3.1138223e-09 1.8854723e-07 3.155069e-11
1.0034216e-06 1.8637483e-08 2.9413592e-09 5.816119e-10 2.8007896e-10 2.931263e-12 1.0788458e-09 1.7117119e-09
2.7014166e-10 5.341667e-11 3.421825e-07 1.00077446e-10 1.4372833e-06 5.8505535e-08 9.2333154e-09 1.8257581e-09
5.6921646e-08 1.6259596e-11 2.5537352e-07 9.684011e-09 1.528326e-09 3.022047e-10 1.4913098e-06 9.434834e-10
1.616919e-06 5.439176e-07 8.584081e-08 1.6973813e-08 5.1079695e-08 3.9724064e-11 1.10267564e-07 2.1989402e-08
3.4703584e-09 6.8621403e-10 2.4686178e-10 4.559426e-13 3.6529976e-10 2.6223257e-10 4.138542e-11 8.183384e-12
3.4267266e-08 3.598068e-12 1.6079265e-07 2.1444908e-09 3.3844283e-10 6.692228e-11 6.15862e-07 4.1655163e-10
5.304107e-07 2.408555e-07 3.8011702e-08 7.516281e-09 1.2375614e-07 3.224792e-10 5.2748707e-08 1.9155037e-07
3.023038e-08 5.977632e-09 3.9539056e-08 2.1685747e-11 6.0218625e-08 1.2624511e-08 1.992395e-09 3.9396786e-10
6.2258744e-07 2.3384963e-10 8.7385405e-07 1.3308501e-07 2.100342e-08 4.1531285e-09 3.0019507e-07 1.2288681e-10
3.1733416e-07 6.770828e-08 1.06856906e-08 2.1129445e-09 3.0475638e-07 2.1382963e-10 7.9958255e-07 1.2492464e-07
1.9715557e-08 3.8984713e-09 8.454561e-08 1.5955346e-11 1.6246626e-07 9.181062e-09 1.4489508e-09 2.8650957e-10
2.016454e-07 1.0654698e-10 5.7176067e-07 6.323331e-08 9.979455e-09 1.9732964e-09 6.7066516e-08 1.5785252e-10
1.490614e-07 9.343071e-08 1.474518e-08 2.9156542e-09 5.218206e-07 1.132609e-10 7.3601666e-07 6.5493595e-08
1.0336173e-08 2.0438322e-09 6.1871117e-07 1.5587824e-10 2.4185988e-07 9.0068525e-08 1.4214571e-08 2.8107303e-09
6.742663e-08 3.608342e-11 7.568629e-08 2.012975e-08 3.1768679e-09 6.281808e-10 1.4921088e-07 1.4804978e-11
6.2990395e-08 8.325315e-09 1.3138977e-09 2.598048e-10 3.7081417e-08 7.517594e-12 1.3684843e-07 4.3685864e-09
6.89448e-10 1.3632859e-10 5.402236e-07 2.37065e-10 8.1869996e-07 1.3816383e-07 2.1804954e-08 4.311618e-09
1.747206e-07 7.797162e-11 8.666854e-07 4.5954668e-08 7.252545e-09 1.4340892e-09 7.032314e-08 7.473335e-11
2.895878e-08 4.420216e-08 6.9759607e-09 1.3793979e-09 4.4585892e-07 3.7614337e-10 5.6420527e-07 2.1848274e-07
3.4480834e-08 6.8181016e-09 6.3781414e-07 1.4302015e-10 9.4072624e-07 8.204212e-08 1.2947858e-08 2.5602553e-09
4.924315e-07 1.5185848e-10 2.8278384e-07 8.840946e-08 1.395274e-08 2.7589573e-09 2.7202532e-07 3.3839598e-10
6.098952e-07 2.0060895e-07 3.1660026e-08 6.260318e-09 1.0677723e-09 3.0933702e-12 2.8118594e-09 1.8292202e-09
2.8868682e-10 5.7083737e-11 1.9463823e-08 8.474412e-12 1.020582e-07 4.98351e-09 7.864949e-10 1.5551821e-10
3.0574446e-07 8.129956e-11 7.7248694e-07 4.731065e-08 7.466547e-09 1.4764051e-09 5.5230714e-07 2.3532415e-10
5.618496e-07 1.3345398e-07 2.1061652e-08 4.1646433e-09 4.2390968e-07 4.7424836e-10 4.832689e-07 2.7291776e-07
4.3071765e-08 8.5168335e-09 2.990471e-07 3.6420966e-10 3.1989163e-07 2.128285e-07 3.358849e-08 6.6416472e-09
2.4327546e-10 2.8241772e-11 1.4177356e-09 1.6921687e-08 2.670572e-09 5.280678e-10 1.2507325e-06 4.9958365e-10
1.2470659e-06 2.800603e-07 4.4198984e-08 8.739724e-09 2.0549321e-07 6.8978306e-10 4.1596093e-07 4.0841587e-07
6.445602e-08 1.2745265e-08 2.1728574e-07 3.414131e-10 2.6742373e-07 2.0202393e-07 3.1883317e-08 6.304475e-09
3.5263145e-07 8.140656e-11 2.5139892e-07 4.5551445e-08 7.18891e-09 1.421505e-09 2.633957e-07 1.0018575e-10
1.9684043e-07 5.5746497e-08 8.797887e-09 1.7396584e-09 6.9672626e-07 2.3250826e-10 1.196903e-06 1.3337814e-07
00000000: 75e6 7833 b0c4 372f f7e9 9d34 2747 d633
00000010: e044 8732 f1fa 5531 7873 4a34 ebc2 0a2e
00000020: 4ead 8635 4218 a032 f020 4a31 4ddf 1f30
00000030: 9cf9 992f f144 4e2c 8346 9430 8241 eb30
00000040: 0f83 942f d3ed 6a2e 34b5 b734 9812 dc2e
00000050: aee8 c035 8447 7b33 8da0 1e32 27ee fa30
00000060: 037a 7433 5b05 8f2d 451a 8934 bb5e 2632
00000070: 310d d230 8823 a62f 0429 c835 dfab 8130
00000080: ea04 d935 bc01 1235 7c57 b833 cfcd 9132
00000090: b862 5b33 52b5 2e2e 3ccc ec33 35e3 bc32
000000a0: 317b 6e31 05a0 3c30 b5b6 872f 2056 002b
000000b0: 5fd3 c82f f429 902f d703 362e aff6 0f2d
000000c0: 422d 1333 0831 7d2c 59a6 2c34 485e 1331
000000d0: 980f ba2f e529 932e b751 2535 6e00 e52f
000000e0: 8c61 0e35 ee4e 8134 4f42 2333 f420 0132
000000f0: d4e1 0434 ea48 b12f d18d 6233 f7ac 4d34
00000100: a8d6 0133 cf63 cd31 a7d1 2933 f6bf be2d
00000110: 8a51 8133 30e3 5832 95ea 0831 0c96 d82f
00000120: e21f 2735 698f 802f cb92 6a35 21e6 0e34
00000130: 026b b432 4eb3 8e31 7f2a a134 901d 072f
00000140: 135e aa34 0567 9133 2a94 3732 5033 1131
00000150: 669d a334 b11b 6b2f e5a2 5635 0623 0634
00000160: f85a a932 51f3 8531 718f b533 3f58 8c2d
00000170: 6372 2e34 bdba 1d32 6d24 c730 a382 9d2f
00000180: de83 5834 9e4c ea2e 187b 1935 e1ca 8733
00000190: 1b72 2b32 999a 0731 3506 9033 898f 2d2f
000001a0: b00d 2034 13a4 c833 fd51 7d32 bb5c 4831
000001b0: 3d13 0c35 3810 f92e ae92 4535 7ca5 8c33
000001c0: f892 3132 7a73 0c31 8215 2635 d363 2b2f
000001d0: f8d8 8134 b26b c133 5834 7432 e426 4131
000001e0: 2fcc 9033 52b2 1e2e fa88 a233 cae9 ac32
000001f0: 0d50 5a31 4bac 2c30 c636 2034 d939 822d
00000200: 5645 8733 1f07 0f32 aa94 b430 46d4 8e2f
00000210: 7343 1f33 3c40 042d 9cf0 1234 7e1a 9631
00000220: 9783 3d30 16e5 152f e203 1135 ef53 822f
00000230: a2c4 5b35 2f5a 1434 9a4d bb32 6525 9431
00000240: d59a 3b34 1f76 ab2e 2ba6 6835 b15f 4533
00000250: 0f32 f931 8719 c530 8e04 9733 2357 a42e
00000260: 08c1 f832 cad8 3d33 33b1 ef31 4095 bd30
00000270: 625e ef34 79c9 ce2f e473 1735 1498 6a34
00000280: 1418 1433 a844 ea31 4136 2b35 9840 1d2f
00000290: 3786 7c35 222f b033 4871 5e32 7df0 2f31
000002a0: a32f 0435 5df8 262f 84d1 9734 9ddb bd33
000002b0: cdb4 6f32 1798 3d31 e00a 9234 0009 ba2f
000002c0: aeb7 2335 f866 5734 91fa 0733 571a d731
000002d0: e6c0 9230 34ad 592c c13a 4131 f767 fb30
000002e0: 0fb5 9e2f 930e 7b2e 6631 a732 5c15 152d
000002f0: 172b db33 6b3b ab31 a930 5830 7cfe 2a2f
00000300: 3325 a434 95c7 b22e e65c 4f35 9c32 4b33
00000310: 3946 0032 63ea ca30 4242 1435 ee5e 812f
00000320: 03d2 1635 8d4b 0f34 10eb b432 9718 8f31
00000330: b495 e334 435c 0230 fcb9 0135 8885 9234
00000340: e8fd 3833 6e51 1232 b88c a034 f439 c82f
00000350: 92bd ab34 da85 6434 ef42 1033 8c34 e431
00000360: fabd 852f d16a f82d 23da c230 2f5b 9132
00000370: 3385 3731 7827 1130 d7de a735 1353 0930
00000380: dc60 a735 325b 9634 4cd5 3d33 b625 1632
00000390: 8ba5 5c34 2b9b 3d30 3c51 df34 4044 db34
000003a0: 126b 8a33 45f6 5a32 0d4f 6934 9fb1 bb2f
000003b0: 7092 8f34 eaeb 5834 14f0 0833 c09e d831
000003c0: 4c51 bd34 d203 b32e 01f8 8634 58a4 4333
000003d0: 5202 f731 c35e c330 d468 8d34 904f dc2e
000003e0: 165b 5334 ec6d 6f33 8425 1732 ca18 ef30
000003f0: aa06 3b35 42a5 7f2f 46a5 a035 b436 0f34

exp_avg f4 [128]
-1.7621205e-05 1.8576865e-06 1.8854439e-06 -1.3057909e-05 -2.3317796e-06 -4.043087e-05 2.9038181e-05 -8.087907e-06
8.667529e-07 -2.5517604e-05 2.0318246e-05 -2.6782614e-05 2.6414808e-05 -1.6095248e-05 -1.4585539e-06 -2.4914552e-06
-1.05796935e-05 -2.3368186e-05 -8.51952e-06 -2.946606e-07 4.0890096e-05 -2.154773e-05 9.458373e-06 -2.6971393e-06
-2.9113107e-05 3.7437294e-06 -4.73972e-06 2.0327521e-05 5.446356e-06 -3.362198e-05 -6.380612e-06 -9.405982e-06
-1.3314821e-05 4.2220498e-05 -2.3339979e-05 2.4072797e-05 2.1313694e-05 -1.758022e-05 5.412617e-05 -1.5409682e-05
1.8131312e-05 1.16754545e-05 -2.2044189e-05 -4.3105538e-05 -7.3496058e-06 5.7246734e-06 7.2371074e-07 6.885364e-06
1.447567e-05 -3.0933028e-05 1.1187248e-06 -2.0932117e-05 3.4027602e-07 5.5657387e-05 -2.4293884e-06 3.3852689e-06
-2.1864626e-06 9.3239663e-07 5.235222e-09 7.256941e-06 -4.1572514e-07 -4.034695e-05 3.336594e-06 -5.0732924e-06
-4.9732378e-05 1.6022058e-06 5.6205187e-07 3.5117037e-06 1.3830006e-05 4.293244e-06 1.5709986e-05 1.5908654e-06
-3.9136353e-06 -1.4749753e-05 4.710845e-05 1.1365577e-05 2.6311582e-05 -5.6968356e-06 4.396769e-06 1.8697228e-05
-3.2765478e-05 6.213235e-05 -1.6060538e-05 2.478013e-06 -3.0758194e-05 1.9276682e-05 1.6186248e-05 1.8388128e-06
3.4034565e-07 -1.3829924e-06 1.31633e-05 -1.7274178e-05 1.1767229e-05 -6.039801e-05 -3.9067627e-06 5.564922e-05
2.5208e-06 1.4331765e-05 -2.1501555e-06 -1.4799234e-05 2.157816e-05 1.9609683e-05 -3.5566873e-06 -3.516081e-05
2.1421492e-06 -3.9023344e-05 5.7554207e-06 9.449919e-07 1.17110585e-05 -1.4825066e-05 2.5901158e-05 -2.477818e-06
-1.2119594e-05 1.3732538e-05 2.2119766e-05 -1.807369e-05 3.0378656e-05 6.453294e-05 4.323405e-05 9.997626e-06
-1.909722e-05 -1.6199217e-05 -2.4783374e-05 -2.6787593e-06 -1.7577233e-05 -2.1744045e-06 -4.3845273e-05 3.8816237e-05
00000000: 40d1 93b7 9f55 f935 5c0f fd35 4b13 5bb7
00000010: ab7b 1cb6 5194 29b8 0597 f337 4cb1 07b7
00000020: ceaa 6835 a30e d6b7 1a71 aa37 3aab e0b7
00000030: 5e95 dd37 4804 87b7 88c3 c3b5 e032 27b6
00000040: 707f 31b7 cc06 c4b7 0fef 0eb7 d831 9eb4
00000050: 6881 2b38 66c1 b4b7 67af 1e37 8000 35b6
00000060: ec37 f4b7 c83c 7b36 e309 9fb6 0585 aa37
00000070: d8bf b636 5305 0db8 0a19 d6b6 63ce 1db7
00000080: b962 5fb7 ea15 3138 39ca c3b7 f0ef c937
00000090: cfca b237 3c79 93b7 8805 6338 0a44 81b7
000000a0: b218 9837 b2e1 4337 89eb b8b7 38cc 34b8
000000b0: a29c f6b6 9216 c036 0645 4235 d408 e736
000000c0: 87dc 7237 16be 01b8 1727 9635 6197 afb7
000000d0: 2eaf b634 aa71 6938 9308 23b6 7a2e 6336
000000e0: 24bb 12b6 cf49 7a35 80e1 b331 a680 f336
000000f0: d430 dfb4 353a 29b8 40ea 5f36 403b aab6
00000100: bc97 50b8 5f0b d735 e9df 1635 9caa 6b36
00000110: 6c07 6837 af0e 9036 f0c8 8337 b885 d535
00000120: df51 83b6 b575 77b7 5096 4538 c8ae 3e37
00000130: b1b7 dc37 7227 bfb6 f587 9336 fed7 9c37
00000140: aa6d 09b8 0d4d 8238 beb9 86b7 f04b 2636
00000150: 5c02 01b8 5cb4 a137 b4c7 8737 20cd f635
00000160: c0b8 b634 429f b9b5 f1d7 5c37 04e8 90b7
00000170: dd6b 4537 df53 7db8 d616 83b6 e568 6938
00000180: 042b 2936 7672 7037 644b 10b6 3a4a 78b7
00000190: bf02 b537 797f a437 6caf 6eb6 a279 13b8
000001a0: d8c1 0f36 ffac 23b8 b01e c136 59ab 7d35
000001b0: 9d7a 4437 2cb9 78b7 5046 d937 9748 26b6
000001c0: 4355 4bb7 cd64 6637 d68d b937 f49c 97b7
000001d0: abd5 fe37 dc55 8738 3556 3538 7abb 2737
000001e0: f832 a0b7 8ee3 87b7 e4e5 cfb7 bcc4 33b6
000001f0: d272 93b7 fceb 11b6 81e6 37b8 9ece 2238
