Project/Assets/ML-Agents/Examples/MyTest/Scripts/TFModels/MyTest1Models/Test11/MoveToGoal/checkpoint.pt (torch, 451554 bytes, 42 tensors)

network_body._body_endoder.seq_layers.0.weight f4 [128, 6]
-0.48748067 -0.39924353 -0.18422641 0.57083046 -0.3942028 0.0686715 -0.2295781 -0.4581021
-0.43519342 -0.019743111 -0.04410225 -0.03008365 -1.1362615 0.22054373 -0.89648336 -0.4724034
0.2561517 0.29656944 -0.17356674 0.034881435 -0.123973064 -0.18687254 -0.03657943 0.13665476
-1.6139436 0.028998116 -0.25268033 -0.030922445 -0.08101637 0.33719438 -0.095639266 -0.069848746
0.18634354 0.29935712 -0.3879329 0.12073542 0.5887994 0.33864513 0.37292716 0.26474273
-0.16678084 -0.5580169 -0.80633605 -0.39918506 -0.61398387 0.20849551 -0.39480796 0.012709532
0.035643406 -0.045000844 -0.78028685 0.73055893 -0.6680997 -0.11689526 -0.5601711 0.18285093
0.12562765 0.201607 -1.1177342 0.16196716 -0.23171143 0.3567034 0.37644386 -0.1509898
0.185595 -0.36206764 -0.17054859 -0.61492866 -0.29909402 -0.11241771 -0.26678705 -0.36697158
-0.061270118 0.14831275 -0.49206126 -0.05455456 0.10686667 0.41376665 0.519338 0.3013139
-1.200915 0.5976636 -1.0878036 0.039540377 0.03679865 0.8482794 -0.17698385 -0.08725881
-0.014316537 -0.10823559 -0.8401607 -0.25536278 -0.30367434 -0.34617585 -0.60183424 -0.2541328
0.31084198 0.52272516 -0.37291992 -0.4201958 -0.5155746 -0.48891547 -0.71920896 -0.039270565
0.88809377 0.38449278 -0.28816792 -0.19623616 0.10911639 0.7338512 0.027735986 -0.41245177
-0.3142576 -0.03592021 -0.2150038 -0.37265518 0.5591635 0.30870014 0.7121608 -0.96435124
0.8625402 -0.46503058 -0.0034622275 -0.33513406 -0.47834197 -0.013794352 -1.3329198 -0.12576717
-0.7426288 -0.20800425 0.38111395 -0.029735038 -0.3412225 0.6445767 0.12802057 0.29557648
-0.11366462 -0.23051798 0.047517106 -0.26777777 0.2963504 -0.03161119 0.12612833 -0.5292885
0.64407706 -0.20610404 0.267935 0.117293805 0.116217144 0.18131962 0.1218386 0.4627316
-0.48368087 0.1922903 0.01601054 0.18368228 -0.53854454 -0.18962823 0.057286393 -0.87900114
0.53882205 -0.3048162 0.70303714 0.11747052 -0.39367875 -0.30441314 -0.02708539 0.14566116
0.10129542 0.03400269 0.1014412 0.8316733 -0.21632326 -0.13453633 0.2678578 -0.19378345
0.15589252 -1.3367562 -0.35905296 -0.08525754 -0.13289776 0.0122008445 0.033676013 0.12827262
-0.7344796 0.4288414 0.09382015 0.4337292 0.40462902 0.5015031 -0.7889929 0.19732161
0.5464921 -0.057730455 1.275024 0.6150333 -0.14567593 0.3862646 -0.31200847 -0.0977859
-0.13884503 0.08066559 0.32225952 -0.12884654 -0.1189828 -0.6798885 0.4631438 -0.6831934
0.14808306 -0.040132318 -0.04569784 0.028043885 -0.9524505 -0.21135537 0.8643084 0.58528876
-0.6780441 1.1680311 0.15870933 -0.78501016 -0.26475498 0.2649265 0.3837054 0.52503145
-0.08280796 0.07459776 0.30148473 -0.038703624 0.30190116 0.32190424 0.013116664 -0.3057313
0.091757864 -0.64304006 0.25790122 0.45279148 0.660481 0.15238078 -0.31518567 -0.47275493
0.55321926 0.32799143 -0.11943163 0.8311138 0.3861659 -0.11917337 -1.3063567 0.077345
-0.560435 -0.7591512 -0.46698245 -0.080562524 0.26747292 -0.06671958 0.3396384 -0.008658862
00000000: 1197 f9be a669 ccbe d9a5 3cbe f221 123f
00000010: f3d4 c9be a5a3 8c3d 8516 6bbe 5c8c eabe
00000020: acd1 debe 4ebc a1bc 90a4 34bd fd71 f6bc
00000030: 0471 91bf 37d6 613e ef7f 65bf dcde f1be
00000040: 5126 833e f3d7 973e 7bbb 31be d6df 0e3d
00000050: 97e5 fdbd 845b 3fbe 50d4 15bd 3aef 0b3e
00000060: b495 cebf 758d ed3c 515f 81be 1151 fdbc
00000070: e9eb a5bd bea4 ac3e 85de c3bd dc0c 8fbd
00000080: d7d0 3e3e 5645 993e 249f c6be 2244 f73d
00000090: 8fbb 163f e562 ad3e 4ff0 be3e 5c8c 873e
000000a0: 99c8 2abe 32da 0ebf 0a6c 4ebf fc61 ccbe
000000b0: 0c2e 1dbf d97f 553e 4524 cabe a43b 503c
000000c0: d2fe 113d ce52 38bd e1c0 47bf e905 3b3f
000000d0: 9508 2bbf c866 efbd 6067 0fbf 463d 3b3e
000000e0: 89a4 003e 1172 4e3e ea11 8fbf b8da 253e
000000f0: c345 6dbe d4a1 b63e 40bd c03e 129d 1abe
00000100: 9e0c 3e3e ee60 b9be 4aa4 2ebe f76b 1dbf
00000110: da22 99be 423b e6bd 5098 88be b3e3 bbbe
00000120: 60f6 7abd 4cdf 173e 74ef fbbe 9a74 5fbd
00000130: eadc da3d 39d9 d33e 56f3 043f d145 9a3e
00000140: 95b7 99bf 7b00 193f 263d 8bbf 17f5 213d
00000150: 2eba 163d d728 593f 413b 35be bfb4 b2bd
00000160: e98f 6abc 9faa ddbd c614 57bf e9be 82be
00000170: 347b 9bbe f63d b1be cf11 1abf b21d 82be
00000180: ae26 9f3e 51d1 053f 5cef bebe e723 d7be
00000190: b2fc 03bf 2153 fabe 141e 38bf 2cda 20bd
000001a0: 1d5a 633f 3ddc c43e bf8a 93be 22f2 48be
000001b0: 6a78 df3d acdd 3b3f 9436 e33c e12c d3be
000001c0: 5fe6 a0be 1221 13bd f529 5cbe a9cc bebe
000001d0: 5725 0f3f f20d 9e3e 2c50 363f b9df 76bf
000001e0: 6fcf 5c3f 7d18 eebe 8ae6 62bb b196 abbe
000001f0: 3de9 f4be b501 62bc 1e9d aabf 1cc9 00be
00000200: ec1c 3ebf 11ff 54be 5e21 c33e e596 f3bc
00000210: b7b4 aebe fb02 253f d317 033e cd55 973e
00000220: ffc8 e8bd e80c 6cbe 4ca1 423d 2b1a 89be
00000230: 3dbb 973e bc7a 01bd c927 013e 737f 07bf
00000240: 3ce2 243f f00c 53be c72e 893e bc37 f03d
00000250: 4103 ee3d daab 393e 8486 f93d 28eb ec3e
00000260: 05a5 f7be c0e7 443e 8928 833c 3517 3c3e
00000270: 0ede 09bf e72d 42be 23a5 6a3d 3806 61bf
00000280: 3ef0 093f de10 9cbe 3efa 333f 6294 f03d
00000290: 4390 c9be 0adc 9bbe 2ee2 ddbc 3328 153e
000002a0: f973 cf3d 6846 0b3d 67c0 cf3d 8be8 543f
000002b0: d883 5dbe e4c3 09be a824 893e 2b6f 46be
000002c0: 4aa2 1f3e d41a abbf cad5 b7be 819b aebd
000002d0: 5a16 08be 0de6 473c dcef 093d e659 033e
000002e0: db06 3cbf 1a91 db3e c724 c03d c111 de3e
000002f0: 892b cf3e 8262 003f 70fb 49bf ad0e 4a3e
00000300: e8e6 0b3f c576 6cbd fd33 a33f d372 1d3f
00000310: 122c 15be 79c4 c53e 93bf 9fbe f943 c8bd
00000320: 642d 0ebe 0034 a53d 33ff a43e 59f0 03be
00000330: 41ad f3bd 2c0d 2ebf 2f21 ed3e c3e5 2ebf
00000340: 16a3 173e c961 24bd a92d 3bbd 4abc e53c
00000350: ccd3 73bf 8b6d 58be 5143 5d3f 7cd5 153f
00000360: 4c94 2dbf 0b82 953f b384 223e 6df6 48bf
00000370: f78d 87be 72a4 873e 0975 c43e 7668 063f
00000380: 3897 a9bd b6c6 983d 355c 9a3e b187 1ebd
00000390: ca92 9a3e a2d0 a43e 47e7 563c d088 9cbe
000003a0: 8ceb bb3d 469e 24bf a10b 843e 49d4 e73e
000003b0: 4815 293f b509 1c3e 0460 a1be ef0c f2be
000003c0: c79f 0d3f 7eee a73e 9298 f4bd e0c3 543f
000003d0: 89b7 c53e 2b11 f4bd b236 a7bf 0e67 9e3d
000003e0: ab78 0fbf bc57 42bf 5318 efbe f7fd a4bd
000003f0: 36f2 883e 46a4 88bd 16e5 ad3e e6dd 0dbc

network_body._body_endoder.seq_layers.0.bias f4 [128]
0.017570665 0.021312825 0.003992921 -0.013703374 -0.007939095 -0.010003131 0.0010261396 -0.006045669
0.019956809 -0.0069036726 0.015073512 -0.0076760077 -0.010946501 -0.0076397657 0.012255643 0.0067809834
0.0136189945 -0.008057595 -0.014641194 0.005263052 -0.0004422469 -0.0031802119 0.0023823471 0.0005376967
-0.0031557288 0.010860959 0.019235263 -0.00077460863 -0.009582791 0.0024074975 0.0028382908 -0.0079687005
0.011745945 0.009916989 -0.012096879 2.3868823e-05 0.006712884 -0.012201779 -0.009211804 0.00389481
0.0015798713 0.014977366 -0.00081751856 -0.0031075643 0.0018197626 0.004018034 0.0033022456 -0.013469008
-6.684015e-05 -0.0046722954 0.012999569 -0.004294401 0.006878601 0.011082931 0.0042283298 -0.010293045
0.0008366317 0.009286393 -0.008528264 0.004862638 0.0098917335 -0.009092832 0.0073860125 0.008751013
-0.007354352 0.009328459 -0.009134113 9.5012554e-05 -0.002887923 0.0004874423 -0.019543763 -0.00827474
0.009593162 -0.008202401 0.0063966834 0.004095365 0.0019684983 0.00061804766 0.0038976024 -0.00035518792
-0.018189667 0.00077952456 0.0060755657 0.014202597 -0.0010837092 0.020128211 0.008579406 -0.0123652695
-0.009367533 0.017923985 -0.008802767 0.00029382607 0.0044679567 0.0094446875 -0.011308667 -0.017009234
0.0050529554 0.010876787 0.011655013 -0.0019438782 -0.002935507 0.0049804645 0.0075267646 0.0030530035
-0.0011109153 0.019525748 0.0070477757 0.00065545103 0.002129597 0.004219532 -0.0008115495 0.0063990285
0.004501893 0.04113633 0.0018551653 -0.008364554 0.004006564 0.00437864 0.034606844 -0.0010279225
0.007571177 0.006154751 -0.0073094307 0.015077962 0.004486855 0.00028311598 -0.0052730874 -0.007809955
00000000: 5bf0 8f3c 3c98 ae3c 0dd7 823b 1e84 60bc
00000010: fa12 02bc 2ce4 23bc 887f 863a bf1a c6bb
00000020: 767c a33c 3438 e2bb e4f6 763c 0587 fbbb
00000030: f458 33bc 0057 fabb e4cb 483c 0333 de3b
00000040: 3422 5f3c 0104 04bc 9ee1 6fbc ae75 ac3b
00000050: 60dd e7b9 1a6b 50bb 2721 1c3b 37f4 0c3a
00000060: 58d0 4ebb 2af2 313c 4593 9d3c 1b0f 4bba
00000070: 2301 1dbc 1bc7 1d3b 9e02 3a3b 278f 02bc
00000080: 1072 403c de7a 223c fd31 46bc e839 c837
00000090: c1f7 db3b f8e9 47bc 1bed 16bc 1240 7f3b
000000a0: af13 cf3a a063 753c be4e 56ba 47a8 4bbb
000000b0: 1a85 ee3a b6a9 833b 7d6a 583b 1dad 5cbc
000000c0: 882c 8cb8 0e1a 99bb 25fc 543c 0cb8 8cbb
000000d0: e365 e13b 2f95 353c cd8d 8a3b 29a4 28bc
000000e0: 6751 5b3a f525 183c 22ba 0bbc c456 9f3b
000000f0: f010 223c 1afa 14bc 5d06 f23b 6960 0f3c
00000100: c7fc f0bb 65d6 183c 3fa7 15bc 7a41 c738
00000110: 4f43 3dbb 668f ff39 3e1a a0bc c692 07bc
00000120: a32c 1d3c 5d63 06bc 459b d13b 6932 863b
00000130: ec01 013b 7a04 223a eb6e 7f3b 8438 bab9
00000140: 7f02 95bc 0259 4c3a 8a15 c73b 02b2 683c
00000150: 3f0b 8eba ebe3 a43c a390 0c3c b397 4abc
00000160: 487a 19bc 52d5 923c 7b39 10bc ab0c 9a39
00000170: f067 923b e4bd 1a3c fd47 39bc f356 8bbc
00000180: 4393 a53b 8d34 323c abf4 3e3c bbc9 feba
00000190: a361 40bb 2a33 a33b 14a3 f63b e614 483b
000001a0: 229c 91ba 76f4 9f3c 07f1 e63b 93d2 2b3a
000001b0: b590 0b3b 0044 8a3b 2abe 54ba f1ae d13b
000001c0: 9e84 933b 927e 283d 0529 f33a 7b0b 09bc
000001d0: 7f49 833b b27a 8f3b e8bf 0d3d 5bbb 86ba
000001e0: a317 f83b cbad c93b f383 efbb 8e09 773c
000001f0: 7806 933b 2f6f 9439 ddc9 acbb a7ea ffbb

network_body._body_endoder.seq_layers.2.weight f4 [128, 128]
-0.0131353885 -0.13237056 -0.05133909 -0.14543402 0.052910756 0.07463679 -0.12523568 0.04079776
-0.1290996 0.026582146 0.17122637 -0.1489913 0.09917408 -0.03329905 0.0030191229 0.056549475
-0.08745104 -0.055720672 -0.088483386 0.06920436 -0.10385149 -0.014520314 0.050243936 0.13402876
-0.04171671 0.13281098 0.08127221 -0.05928272 -0.101151325 0.071806096 0.14239919 -0.025318569
0.04265633 0.10244955 0.14653349 0.005159821 -0.014410025 -0.05563571 0.054636195 0.05167315
-0.10919654 0.07287839 0.078100994 0.11170469 0.0691448 -0.028224753 0.058494214 -0.0019882598
-0.1280879 0.08540438 -0.11507121 0.02862578 -0.118981175 -0.017048636 -0.17172302 0.03365697
0.04940291 0.11615067 0.081745476 -0.066258796 -0.0052334196 -0.076317675 -0.050692916 -0.051621363
-0.031260498 -0.014230199 -0.094259545 0.064287364 -0.19666713 0.022975877 -0.050317105 -0.04982098
0.077682294 -0.13228202 -0.10285811 0.11830551 0.097511865 -0.21813738 0.028416619 -0.2585201
0.060204662 0.032589044 0.07220097 -0.09527104 0.0052771317 -0.017586704 0.018505886 0.27699566
-0.16854557 -0.0025605168 -0.09321604 0.06678163 0.098956116 -0.060354773 -0.017597489 0.086678125
-0.06920538 0.16248752 -0.04463153 -0.070616715 -0.017759841 -0.06685354 0.20694049 0.097314656
0.11987332 0.113597535 -0.06639505 -0.11683942 0.05000511 -0.0022482367 0.21331516 0.14038764
0.06171862 -0.027855521 -0.0796797 0.029625246 -0.030992666 0.061997544 0.08790877 -0.10379919
0.028060282 -0.027953634 0.1285855 0.0018757221 -0.010760097 0.09360148 0.14897437 0.05966058
0.061448812 -0.23675542 0.100880556 -0.047490973 0.009206897 -0.15161628 0.07748678 0.03469756
0.05353936 0.043419935 -0.023949957 0.015571447 0.071674146 0.031506673 0.04374992 0.078503005
0.074049115 0.00976271 0.08499667 0.04464529 0.094670005 0.022032356 -0.07284234 0.06609153
0.055941302 -0.093514174 0.09838502 -0.14686194 -0.045338407 0.07472351 0.03461216 -0.003004656
-0.027601715 -0.009700992 0.10178759 0.029640783 -0.0076922704 -0.034533255 0.0224446 0.086592026
0.05103732 -0.060299214 0.0020647347 0.22567396 -0.07146439 0.0504562 0.11063743 0.08025545
-0.13133319 -0.072296955 -0.0726166 0.024991699 0.08645199 0.02742138 0.018014943 -0.014525254
0.06457692 -0.027611593 -0.106395684 -0.123329096 -0.02453951 0.0067142854 -0.08513863 -0.023064734
-0.081013694 0.09391459 0.03374722 0.055703383 0.03768509 -0.018959183 -0.12899002 -0.07940004
-0.09306972 -0.0542611 -0.019682731 -0.16292916 0.023362596 -0.041455727 -0.043626387 -0.14443158
0.057219356 -0.13984828 -0.07616287 0.097012706 -0.06770713 -0.09594623 -0.0856528 0.09163356
0.006113395 -0.014562328 -0.067018874 -0.03291733 0.10738909 -0.029255532 -0.05710444 0.18845588
0.10770138 0.046588406 0.001784605 0.045842014 -0.19310904 0.11434676 -0.06167381 0.054148804
0.07635527 0.018085364 -0.026996933 -0.15780468 0.20390503 0.10935446 0.019702895 0.05882148
-0.044949103 0.022836555 0.08311781 -0.058964368 -0.03650196 0.15642166 -0.08339564 0.1503656
0.15583535 -0.049159385 -0.0452642 -0.042929642 0.10693331 0.14282516 -0.029683022 0.048300695
00000000: d035 57bc 268c 07be f048 52bd a8ec 14be
00000010: f3b8 583d 2cdb 983d c83d 00be 8d1b 273d
00000020: af32 04be cdc2 d93c f755 2f3e 2d91 18be
00000030: c81b cb3d 9664 08bd 7adc 453b 6ca0 673d
00000040: 8819 b3bd 5c3b 64bd c736 b5bd 04bb 8d3d
00000050: 17b0 d4bd 9ce6 6dbc 96cc 4d3d d63e 093e
00000060: 24df 2abd 9aff 073e 0b72 a63d 70d2 72bd
00000070: 6d28 cfbd 130f 933d 18d1 113e e368 cfbc
00000080: 67b8 2e3d 12d1 d13d e00c 163e b713 a93b
00000090: 0718 6cbc 45e2 63bd 34ca 5f3d 3aa7 533d
000000a0: 70a2 dfbd 4441 953d 6af3 9f3d 6ec5 e43d
000000b0: ca9b 8d3d 9937 e7bc a197 6f3d 774d 02bb
000000c0: 7929 03be 7ee8 ae3d 74aa ebbd 9d80 ea3c
000000d0: 67ac f3bd 95a9 8bbc 29d8 2fbe e4db 093d
000000e0: b55a 4a3d 67e0 ed3d 2c6a a73d b1b2 87bd
000000f0: 1b7d abbb 714c 9cbd 60a3 4fbd ec70 53bd
00000100: 020b 00bd c825 69bc 260b c1bd 18a9 833d
00000110: 1c63 49be e837 bc3c 4f19 4ebd 1511 4cbd
00000120: e517 9f3d f074 07be 46a7 d2bd 294a f23d
00000130: 4db4 c73d 685f 5fbe f8c9 e83c bf5c 84be
00000140: 2a99 763d 177c 053d 1ade 933d 771d c3bd
00000150: caeb ac3b fe11 90bc a899 973c 60d2 8d3e
00000160: 3697 2cbe 58ce 27bb 0de8 bebd cfc4 883d
00000170: 81a9 ca3d 9136 77bd 9c28 90bc 4d84 b13d
00000180: 8dbb 8dbd 2163 263e 8dcf 36bd 7f9f 90bd
00000190: 167d 91bc 82ea 88bd 35e8 533e e84c c73d
000001a0: 2580 f53d d3a5 e83d 21fa 87bd 8149 efbd
000001b0: 29d2 4c3d 2757 13bb 4a6f 5a3e c7c1 0f3e
000001c0: aacc 7c3d 4331 e4bc 1c2f a3bd a5b0 f23c
000001d0: 55e4 fdbc 23f1 7d3d 8309 b43d ab94 d4bd
000001e0: adde e53c 05ff e4bc ebab 033e cada f53a
000001f0: 1e4b 30bc 22b2 bf3d bd8c 183e a75e 743d
00000200: c0b1 7b3d 0370 72be 779a ce3d e585 42bd
00000210: 86d8 163c 4c41 1bbe 64b1 9e3d 071f 0e3d
00000220: 174c 5b3d 1ad9 313d b332 c4bc 621f 7f3c
00000230: e5c9 923d 240d 013d 1e33 333d 2fc6 a03d
00000240: 10a7 973d c6f3 1f3c bc12 ae3d fbdd 363d
00000250: 59e2 c13d 337d b43c 5d2e 95bd ff5a 873d
00000260: b522 653d 5c84 bfbd 167e c93d fa62 16be
00000270: c4b4 39bd a408 993d 7bc5 0d3d c3e9 44bb
00000280: fe1c e2bc e9f0 1ebc 0376 d03d 3ad1 f23c
00000290: 710f fcbb be72 0dbd bddd b73c 2957 b13d
000002a0: 820c 513d 4ffc 76bd 8050 073b 1317 673e
000002b0: ec5b 92bd 29ab 4e3d e095 e23d f85c a43d
000002c0: 357c 06be 6d10 94bd 03b8 94bd 64bb cc3c
000002d0: be0d b13d cda2 e03c 1394 933c 55fb 6dbc
000002e0: e740 843d b531 e2bc fbe5 d9bd f793 fcbd
000002f0: 1507 c9bc 8203 dc3b 295d aebd 41f2 bcbc
00000300: 82ea a5bd 4b56 c03d 863a 0a3d 3b29 643d
00000310: ae5b 1a3d 4a50 9bbc f615 04be 7d9c a2bd
00000320: 569b bebd e340 5ebd ae3d a1bc e7d6 26be
00000330: ea62 bf3c 7bcd 29bd 95b1 32bd dfe5 13be
00000340: d85e 6a3d 6334 0fbe 47fb 9bbd 99ae c63d
00000350: 09aa 8abd 757f c4bd bc6a afbd 60aa bb3d
00000360: e052 c83b d596 6ebc 3141 89bd 52d4 06bd
00000370: d0ee db3d 4ca9 efbc 58e6 69bd 94fa 403e
00000380: 8b92 dc3d 7cd3 3e3d 68e9 e93a d6c4 3b3d
00000390: 60be 45be a22e ea3d ad9d 7cbd 23cb 5d3d
000003a0: 2760 9c3d c227 943c ac28 ddbc 8d97 21be
000003b0: 7bcc 503e 3bf5 df3d f767 a13c cbee 703d
000003c0: 8d1c 38bd ba13 bb3c ac39 aa3d 9f84 71bd
000003d0: 1483 15bd 002d 203e 55cb aabd 71f9 193e
000003e0: 4d93 1f3e 5a5b 49bd f466 39bd fed6 2fbd
000003f0: daff da3d c240 123e cf29 f3bc f3d6 453d

network_body._body_endoder.seq_layers.2.bias f4 [128]
0.005426929 -0.005525791 0.00079911575 -0.0056569213 -0.006801562 0.008176799 -0.0023101433 0.014419852
-0.0063565955 0.0002487514 0.015585097 -0.0073093665 -0.012843974 0.012272502 -0.008895768 0.010743455
-0.006403659 -0.009965123 4.341933e-05 0.0092520295 0.0069684577 0.014326592 0.0031982844 -0.010723421
0.0056140083 0.0038415086 0.008375084 0.014416904 0.013083351 0.012105751 -0.002010495 0.003935429
0.008405236 -0.005240533 0.0028563233 0.0037579825 0.016958477 -0.0075968527 0.0069342963 -0.0055224793
-0.008540472 -0.006314104 -0.012946613 0.0006857734 -0.011675242 0.0019516983 0.0029614815 0.000683729
0.0009941478 0.0046458533 0.0060572554 0.0015560647 -0.012093277 0.012980414 -0.0018281231 -0.008218933
-0.0039097136 -0.012684289 -0.0063943267 -0.0037096352 0.0028335517 -0.012480001 -0.003641298 0.003878788
0.0053696246 0.003182797 -0.010167707 -0.012195998 0.008317478 0.012899521 0.0013471376 -0.012210535
-0.0017428958 -0.007327065 0.004128985 -0.010445965 -0.011340251 3.5199922e-05 -0.010077916 -0.0032337871
0.0039608926 -0.00077881524 -0.00614497 0.009755203 -0.0044531664 -0.00077756 -0.009445219 0.009770803
0.004335455 -0.0013008437 -0.011721193 -0.0008090847 -0.008520892 0.004500295 0.008228534 0.012156118
0.0035321694 -0.006679252 0.0018322156 0.007100665 0.014643282 0.009202681 -0.005021443 0.0044519724
-0.010222869 0.010909222 -0.004859538 0.018407373 -0.0104812095 0.011371668 0.008778829 -0.0103143025
0.0013300799 0.010550361 -0.0017540631 -0.0010454319 0.0017174283 -0.007930568 -0.0066069677 -0.014110747
-0.005943496 -0.013998937 -0.00077434373 0.012045917 -0.005339451 0.003904105 0.01096564 0.0015288927
00000000: 61d4 b13b b211 b5bb c07b 513a b25d b9bb
00000010: a3df debb fbf7 053c c665 17bb 3e41 6c3c
00000020: fd4a d0bb d96a 8239 a258 7f3c 6983 efbb
00000030: 886f 52bc 9b12 493c 8ebf 11bc 5105 303c
00000040: c9d5 d1bb c144 23bc 271d 3638 d395 173c
00000050: a957 e43b 15ba 6a3c 4f9a 513b 4ab1 2fbc
00000060: b7f5 b73b d2c1 7b3b a637 093c e134 6c3c
00000070: 8d5b 563c 3357 463c 82c2 03bb c5f4 803b
00000080: 1db6 093c c7b8 abbb 2731 3b3b 7c48 763b
00000090: 81ec 8a3c 05ef f8bb 1839 e33b eaf5 b4bb
000000a0: 56ed 0bbc 8be6 cebb 081e 54bc 79c5 333a
000000b0: 8449 3fbc 21d0 ff3a 6a15 423b 473c 333a
000000c0: 114e 823a 3e3c 983b f17b c63b def4 cb3a
000000d0: e122 46bc cdab 543c a29d efba b4a8 06bc
000000e0: 0e1d 80bb c4d1 4fbc 8087 d1bb 5a1d 73bb
000000f0: 1cb3 393b eb78 4cbc d8a2 6ebb 4433 7e3b
00000100: adf3 af3b 7996 503b 7496 26bc b9d1 47bc
00000110: 0846 083c 8358 533c 7092 b03a b20e 48bc
00000120: e171 e4ba e017 f0bb 704c 873b 8e25 2bbc
00000130: 76cc 39bc a1a3 1338 d81d 25bc f2ed 53bb
00000140: 60ca 813b 6829 4cba bf5b c9bb 49d4 1f3c
00000150: deeb 91bb 2bd5 4bba 1fc0 1abc b815 203c
00000160: 6f10 8e3b 1281 aaba 3f0a 40bc c118 54ba
00000170: 369b 0bbc 3677 933b f9d0 063c 742a 473c
00000180: f87b 673b a0dd dabb f426 f03a b2ac e83b
00000190: 60ea 6f3c d7c6 163c eb8a a4bb dae1 913b
000001a0: d27d 27bc 98bc 323c c23c 9fbb 0fcb 963c
000001b0: 61b9 2bbc 3c50 3a3c 14d5 0f3c 52fd 28bc
000001c0: 1356 ae3a 6cdb 2c3c 97e8 e5ba e006 89ba
000001d0: 551b e13a 37ef 01bc 437f d8bb c330 67bc
000001e0: a8c1 c2bb cc5b 65bc 54fd 4aba 3d5c 453c
000001f0: 90f6 aebb 03dc 7f3b 3aa9 333c 2065 c83a

action_model._continuous_distribution.log_sigma f4 [1, 2]
-0.031612027 -0.019738175
00000000: 9d7b 01bd f4b1 a1bc

action_model._continuous_distribution.mu.weight f4 [2, 128]
0.01910174 -0.010867942 -0.009648522 0.026789522 0.021421503 -0.021243736 0.03503738 0.01487957
0.01717655 0.00827348 -0.01421686 -0.006223549 0.02755587 -0.03899347 0.0075316047 -0.013967332
-0.01813469 0.008475511 -0.0069394424 0.007922432 0.009748797 -0.06431723 -0.0006908379 0.0017766367
0.03468893 -0.01781045 -0.02696386 0.017369393 -0.017671337 -0.02252511 0.007328982 0.023265334
0.03835937 0.008833848 -0.021594081 0.024784226 -0.030683393 -0.016522381 -0.027155142 0.019539913
-0.005956823 0.04320402 -0.014404904 0.006258302 0.013408283 0.03162688 0.013231845 0.00050107425
-0.0116753215 -0.0021682733 -0.01704972 -0.038833816 0.021116024 -0.015865905 0.06216115 0.025742045
0.042159315 -0.011317338 0.030320022 -0.011141373 0.019713858 0.00694725 0.017541993 0.03916278
0.008247247 0.04568714 -0.0034589425 0.01980206 -0.031997766 -0.044522803 0.00085272227 0.027698996
0.006976405 0.02111677 0.04609298 0.0030197476 0.011072147 0.01637053 0.0061238157 -0.015084916
-0.034535423 0.023640808 0.050820947 -0.002460791 0.008121873 0.0037340622 0.01699701 0.01073328
-0.0008358892 0.04164347 0.0020244084 0.00079430314 0.037467692 0.030466245 0.025253072 -0.022737741
-0.003881995 0.04054959 -0.030353688 0.024820914 -0.047311958 0.032489732 -0.017458271 0.015837004
0.012663867 0.01369551 0.02818331 -0.03152572 0.024664577 -0.0019798942 -0.0029088354 0.013569649
-0.00078466133 0.032568138 0.025730722 0.014231089 0.020896196 -0.0075618117 0.013308627 0.016213903
0.032402508 -0.0096101705 0.019787105 0.0646769 0.04576853 0.026612343 -0.024324624 -0.0108322725
-0.010816719 -0.021635326 -0.0052904813 0.0010467834 -0.008552433 -0.017530994 0.011070408 0.032525245
-0.0017392274 0.0127199795 0.029252423 -0.021052815 0.012893442 0.039535385 0.010055029 0.005515016
-0.013723624 0.0011330629 -0.030107224 -0.035046596 -0.026772311 -0.013368093 0.005781369 -0.02055151
0.0073121144 -0.0105301915 0.0021027983 -0.014554473 -0.013064069 0.00729729 -0.04501038 -0.033718348
0.014355813 0.024322974 -0.032304484 -0.04701861 0.015561843 -0.03577399 -0.008285819 -0.0011673928
-0.030095328 -0.023706334 0.011964058 0.008219879 -0.006860282 0.009921325 0.006662767 -0.033132017
0.032218795 0.017039308 -0.021395197 -0.02275668 0.010200807 0.025268504 0.003644792 -0.040253922
0.047545165 -0.0042086984 -0.04575037 -0.006037988 -0.025828684 -0.0036012898 -0.0058040675 -0.025153479
-0.048473064 -0.003020272 -0.0086398125 -0.012101334 -0.034380104 0.005822573 0.017042931 -0.006921928
-0.013529386 0.0050687655 -0.032209508 -0.024992816 -0.05574486 0.021661319 -0.03454954 -0.026867623
-0.014660362 0.0029882144 0.01089084 0.007339302 -0.005835493 -0.0018051071 -0.012499552 -0.0719752
0.04200694 0.004789588 -0.006941416 -0.011413646 -0.004996298 0.0011424121 0.0115311425 0.026694035
0.0126358885 0.00017221551 -0.009685033 0.0006562468 -0.005204146 0.023752917 -0.02914247 0.0057143266
0.0040186606 0.050566312 -0.010669354 -0.009478813 -0.0036772215 0.023032961 0.0303357 -0.006558685
0.012971031 -0.061831 -0.039183304 0.03093059 -0.006749745 -0.021916198 0.00057087175 -0.011905301
-0.028380007 0.015623394 0.012088028 0.022556016 -0.003952521 0.011982488 0.0045640687 -0.001474227
00000000: 417b 9c3c 740f 32bc d614 1ebc b375 db3c
00000010: 267c af3c 5807 aebc 5b83 0f3d 71c9 733c
00000020: d6b5 8c3c 7e8d 073c d5ed 68bc eaee cbbb
00000030: d9bc e13c 9eb7 1fbd aecb f63b 3dd7 64bc
00000040: 348f 94bc dfdc 0a3c 4364 e3bb 17cd 013c
00000050: 6bb9 1f3c c0b8 83bd 5919 35ba 09de e83a
00000060: fb15 0e3d 39e7 91bc 50e3 dcbc 424a 8e3c
00000070: 7bc3 90bc 9486 b8bc f527 f03b f196 be3c
00000080: b71e 1d3d d8bb 103c 12e6 b0bc 4a08 cb3c
00000090: bd5b fbbc f259 87bc 7674 debc 2b12 a03c
000000a0: 7431 c3bb b3f6 303d 8c02 6cbc 7112 cd3b
000000b0: 6aae 5b3c 308b 013d 61ca 583c 865a 033a
000000c0: d949 3fbc 9719 0ebb dbab 8bbc 3510 1fbd
000000d0: 83fb ac3c 37f9 81bc b19c 7e3d fbe0 d23c
000000e0: 3faf 2c3d 5b6c 39bc b261 f83c 4e8a 36bc
000000f0: f57e a13c c2a5 e33b 3ab4 8f3c 2769 203d
00000100: 761f 073c 7022 3b3d 6daf 62bb ee37 a23c
00000110: 1710 03bd 8b5d 36bd 3989 5f3a 01e9 e23c
00000120: 549a e43b 14fd ac3c fecb 3c3d f5e6 453b
00000130: f367 353c 7d1b 863c 4aaa c83b b926 77bc
00000140: 0475 0dbd 5eaa c13c a029 503d 3945 21bb
00000150: 9b11 053c 2bb7 743b 503d 8b3c a4da 2f3c
00000160: 931f 5bba 5892 2a3d f0ab 043b c838 503a
00000170: b977 193d 5994 f93c 88df ce3c 8044 babc
00000180: 1269 7ebb 5417 263d 4ca8 f8bc 3b55 cb3c
00000190: 2fca 41bd f413 053d a604 8fbc 9bbc 813c
000001a0: 1c7c 4f3c 2263 603c afe0 e63c 1d21 01bd
000001b0: 5e0d ca3c 1dc1 01bb 29a2 3ebb 3c53 5e3c
000001c0: bbb1 4dba 2b66 053d 3cc9 d23c 8329 693c
000001d0: 802e ab3c 13c9 f7bb 6d0c 5a3c 05d3 843c
000001e0: 7eb8 043d fa73 1dbc 9118 a23c 5375 843d
000001f0: c877 3b3d 2102 da3c 6f44 c7bc d879 31bc
00000200: 9c38 31bc 913c b1bc c65b adbb 3934 893a
00000210: 811f 0cbc 299d 8fbc a860 353c 3139 053d
00000220: caf6 e3ba 7667 503c c7a2 ef3c f476 acbc
00000230: 043f 533c dbef 213d d9bd 243c 4fb7 b43b
00000240: 0dd9 60bc 4883 943a 6da3 f6bc 058d 0fbd
00000250: 9b51 dbbc d905 5bbc a371 bd3b a45b a8bc
00000260: 769a ef3b d386 2cbc 1acf 093b e275 6ebc
00000270: ad0a 56bc 1b1e ef3b ce5c 38bd 401c 0abd
00000280: a534 6b3c f940 c73c b551 04bd 9696 40bd
00000290: 1af7 7e3c bf87 12bd 3ec1 07bc 3403 99ba
000002a0: 7a8a f6bc c933 c2bc e504 443c acac 063c
000002b0: 37cc e0bb 0e8d 223c 5753 da3b 70b5 07bd
000002c0: dbf7 033d 0596 8b3c fb44 afbc 386c babc
000002d0: 4921 273c e5ff ce3c 76dd 6e3b 4ce1 24bd
000002e0: b8be 423d 1fe9 89bb bd64 3bbd 50da c5bb
000002f0: ad96 d3bc 9e03 6cbb 0c30 bebb ab0e cebc
00000300: b18b 46bd c1ef 45bb 008e 0dbc ac44 46bc
00000310: 27d2 0cbd 48cb be3b 9e9d 8b3c 57d1 e2bb
00000320: 5caa 5dbc e317 a63b 1eee 03bd bcbd ccbc
00000330: b954 64bd 1473 b13c d283 0dbd 7d19 dcbc
00000340: 0432 70bc ebd5 433b 7e6f 323c 877e f03b
00000350: aa37 bfbb 5899 ecba ecca 4cbc bc67 93bd
00000360: 780f 2c3d faf1 9c3b d174 e3bb 4d00 3bbc
00000370: fcb7 a3bb fdbc 953a 1eed 3c3c 73ad da3c
00000380: c206 4f3c c094 3439 f9ad 1ebc fa07 2c3a
00000390: 8a87 aabb 7a95 c23c 30bc eebc 3f3f bb3b
000003a0: f8ae 833b 9f1e 4f3d 84ce 2ebc 064d 1bbc
000003b0: 8afd 70bb 9faf bc3c 9382 f83c 3dea d6bb
000003c0: 7284 543c 8142 7dbd ac7e 20bd 2662 fd3c
000003d0: f72c ddbb 9989 b3bc 8ea6 153a 740e 43bc
000003e0: 307d e8bc 44f9 7f3c dd0c 463c 65c7 b83c
000003f0: 2684 81bb 3352 443c 2f8e 953b da3a c1ba

action_model._continuous_distribution.mu.bias f4 [2]
-0.010214426 0.009400727
00000000: 685a 27bc 8205 1a3c

action_model._discrete_distribution.branches.0.weight f4 [5, 128]
-0.015675636 0.009460287 -0.0050234282 0.011918851 0.014572936 0.0066620223 -0.012323322 0.0011736251
0.00024091177 0.016803859 0.0009426509 0.001417249 0.004440856 0.0015476539 -0.01424366 -0.009782681
-0.006872033 0.003944552 -0.014734314 -0.0039473907 -0.002379382 0.0019813415 0.004998655 0.0028188687
-0.0069023147 -0.006733204 0.00097380544 0.010969855 0.0027343084 -0.0072754263 0.0019433241 0.0064129373
0.01110099 -0.0026505878 -0.0030138306 0.004196379 0.02395162 -0.013022647 -0.018435024 0.004580768
-0.0046418803 -0.014401652 -0.0046877824 0.0058743064 -0.005352003 -0.0036327047 0.0054523447 0.0042820685
-0.0066791726 -0.0034582654 0.0053993263 -0.00574729 0.009161391 0.0033573387 0.00022570169 -0.0141016105
0.019615412 -0.010605911 -0.005810064 0.0035484731 0.004829617 -0.009943936 -0.006582984 -0.006676697
-0.009553986 -0.009763802 0.0038964814 0.0020341387 -0.016657123 -0.0075483867 -0.004875053 0.00077307574
-0.012899488 0.0020548673 -0.010347543 -0.021215357 -0.014675063 -0.0030619835 -0.00069812604 -0.014721047
-0.0032530783 -0.0016714692 0.01911 0.00022720246 -0.0031524887 -0.011592453 -0.0012607728 0.003332528
0.0073702093 0.0071830843 -0.0035670009 -0.00043566688 -0.0043065757 0.017443946 0.00097292045 -0.013516656
-0.008922526 -0.016185725 -0.013486545 0.0014488931 0.016030699 0.005498319 -0.0069643254 -0.0033345926
0.0009345586 0.0057843835 0.002615785 0.0017178858 0.0028255933 0.017404731 0.015208212 0.0040482455
-0.0023244906 -0.0091395015 -0.0016728272 -0.009914801 -0.0101038795 -0.006596231 0.00275812 -0.004664351
0.0045609344 -0.0109397 4.2665983e-05 -0.004492878 0.0059705465 0.0024836431 0.009280808 0.008071583
0.012881713 -0.007009536 -0.0014607366 -0.017536411 0.0061454703 0.0029583203 0.012644647 0.013531403
-0.0026488213 -0.007303814 0.003481937 0.0024197048 -0.010140516 0.0132230045 0.0019478496 0.013758245
-0.0008887086 0.0072903126 -0.0048848526 0.0016544459 -0.009560939 -0.0005031621 -0.015625937 -0.0035084325
0.015866008 -0.0052303323 0.0014104744 -0.016745575 -0.0068790205 0.00094101357 0.00015355846 -0.0022148644
0.013968307 0.015320597 0.001872615 -0.0011709849 -0.012420038 -0.0020652045 -0.008252487 -0.0060582524
0.007900689 -0.011106666 -0.007913886 0.014497228 0.00251311 0.0056149247 0.0011256981 -0.00510873
-0.0031963221 -0.0064701685 -0.0060456167 -0.004005296 -0.020029323 -0.00035800895 0.0025462206 0.0039719315
0.007925847 -0.0036937653 0.003477444 0.0060247565 -0.011648911 -0.0058476347 -0.014093612 -0.0050978544
-0.004564194 -0.024001958 0.010633071 0.008452645 -0.014703226 -0.011118598 0.0018830898 0.012372181
-0.011481606 0.005654124 -0.0015654771 0.003431326 0.00046520663 0.016261512 -0.0033782513 -0.02142401
0.008083885 0.0008340888 -0.021122435 0.01140879 0.0076732114 -0.014338509 0.0070280326 -0.013377372
0.00020073414 -0.0018214042 0.0051514804 -0.021620931 -0.0153146945 -0.0063851853 -0.025645265 -0.00038269503
-0.011352738 -0.009424245 0.0074217664 0.018134113 -0.011327859 0.008293439 -0.001645308 -0.0057666576
-0.0048500453 0.0029990603 -0.009641143 -0.0034502195 -0.00037343288 0.012774773 -0.00016026283 0.0049828254
-0.022394203 -0.0037780686 -0.0041547692 0.002732254 -0.0088873375 0.011345496 0.0025853233 0.00169554
0.00060251297 0.010717399 -0.00020614624 0.0016956297 -0.0152448 0.020224223 0.0032863817 0.0027296047
00000000: 316a 80bc 52ff 1a3c 929b a4bb 4947 433c
00000010: 53c3 6e3c 184d da3b c2e7 49bc 53d4 993a
00000020: 439d 7c39 3fa8 893c 3b1c 773a fcc2 b93a
00000030: 9a84 913b a6da ca3a 3d5e 69bc 8a47 20bc
00000040: ca2e e1bb 4d41 813b 3168 71bc 1d59 81bb
00000050: 68ef 1bbb 65d9 013b c2cb a33b c5bc 383b
00000060: d02c e2bb 35a2 dcbb fa46 7f3a e8ba 333c
00000070: 1532 333b b366 eebb 23b7 fe3a 9e23 d23b
00000080: ede0 353c 7cb5 2dbb b083 45bb c781 893b
00000090: 3036 c43c f15c 55bc 0c05 97bc 441a 963b
000000a0: ea1a 98bb e8f4 6bbc f89b 99bb 417d c03b
000000b0: db5f afbb ac12 6ebb 95a9 b23b 9850 8c3b
000000c0: f6dc dabb 11a4 62bb d5ec b03b c353 bcbb
000000d0: a919 163c cc06 5c3b 56aa 6c39 710a 67bc
000000e0: 80b0 a03c 6ac4 2dbc 5962 bebb 808d 683b
000000f0: c441 9e3b e4eb 22bc 12b6 d7bb 32c8 dabb
00000100: 5288 1cbc 5bf8 1fbc 1c5c 7f3b 2f4f 053b
00000110: 8574 88bc 7558 f7bb e9be 9fbb 3ca8 4a3a
00000120: 6058 53bc f4aa 063b be88 29bc d4cb adbc
00000130: ad6f 70bc 8fab 48bb 7202 37ba 8c30 71bc
00000140: 9931 55bb 3315 dbba 938c 9c3c 323d 6e39
00000150: fc99 4ebb 46ee 3dbc 8440 a5ba 8b66 5a3b
00000160: cc81 f13b 1460 eb3b 58c4 69bb 386a e4b9
00000170: 2d1e 8dbb 9be6 8e3c 960b 7f3a f774 5dbc
00000180: c92f 12bc ed97 84bc abf6 5cbc c9e8 bd3a
00000190: d052 833c 3e2b b43b ff34 e4bb 2e89 5abb
000001a0: 2afd 743a ed8a bd3b 976d 2b3b af2a e13a
000001b0: 972d 393b 5e94 8e3c dd2b 793c 25a7 843b
000001c0: 7b56 18bb d9bd 15bc c442 dbba b171 22bc
000001d0: be8a 25bc 3225 d8bb 93c1 343b 6ad7 98bb
000001e0: e473 953b 6d3c 33bc 40f4 3238 fe38 93bb
000001f0: 93a4 c33b 9ec4 223b 880e 183c ac3e 043c
00000200: d20d 533c 40b0 e5bb 3076 bfba 85a8 8fbc
00000210: f15f c93b 61e0 413b 7e2b 4f3c d1b2 5d3c
00000220: d997 2dbb d554 efbb 3631 643b e993 1e3b
00000230: 6824 26bc 4da5 583c fd4e ff3a 436a 613c
00000240: 39f8 68ba 93e3 ee3b 1d11 a0bb fed9 d83a
00000250: 7ca5 1cbc a3e6 03ba f701 80bc bbed 65bb
00000260: 6ef9 813c 3563 abbb abdf b83a 042e 89bc
00000270: 6869 e1bb 5aae 763a 8904 2139 4227 11bb
00000280: 53db 643c 3e03 7b3c 8872 f53a bc7b 99ba
00000290: 6a7d 4bbc 6258 07bb 7035 07bc 4e84 c6bb
000002a0: e471 013c bcf8 35bc 3ea9 01bc c885 6d3c
000002b0: fdb2 243b 67fd b73b 298c 933a 2267 a7bb
000002c0: 6379 51bb b503 d4bb 4f1a c6bb dc3e 83bb
000002d0: 8914 a4bc 26b3 bbb9 7ede 263b fa26 823b
000002e0: 69db 013c 1913 72bb d4e5 633b 526b c53b
000002f0: 13db 3ebc 849d bfbb e5e8 66bc e70b a7bb
00000300: 3c8f 95bb c19f c4bc 5536 2e3c f67c 0a3c
00000310: cde5 70bc c82a 36bc 02d2 f63a b0b4 4a3c
00000320: 591d 3cbc 3b46 b93b b230 cdba 19e0 603b
00000330: fae6 f339 dd36 853c a765 5dbb 6881 afbc
00000340: 4572 043c c0a6 5a3a f508 adbc efeb 3a3c
00000350: 906f fb3b 11ec 6abc 694b e63b c42c 5bbc
00000360: 297c 5239 2fbc eeba c0cd a83b 611e b1bc
00000370: 7cea 7abc d13a d1bb 0516 d2bc 75a4 c8b9
00000380: d600 3abc 2668 1abc 4a32 f33b fe8d 943c
00000390: 7c98 39bc 34e1 073c 60a7 d7ba 3bf6 bcbb
000003a0: 21ed 9ebb e28b 443b e2f5 1dbc 141d 62bb
000003b0: 50c9 c3b9 484d 513c 3a0c 28b9 f846 a33b
000003c0: 0c74 b7bc 7999 77bb bb24 88bb 9e0f 333b
000003d0: 329c 11bc 76e2 393c 876e 293b e23c de3a
000003e0: f6f1 1d3a 0898 2f3c f628 58b9 e43f de3a
000003f0: 53c5 79bc 45ad a53c 5660 573b 2be3 323b

action_model._discrete_distribution.branches.0.bias f4 [5]
-0.0011530957 0.0022868188 0.0035019252 -0.00090055645 -0.0027776377
00000000: 7923 97ba 74de 153b 8e80 653b 5213 6cba
00000010: 0709 36bb

exp_avg f4 [128, 6]
0.00031910505 -0.00011386067 -7.164205e-05 -0.0003276065 -0.0001301466 5.787295e-05 0.00010406788 -3.7780654e-05
-5.131809e-05 -0.000104617124 -4.1560736e-05 1.848102e-05 0.0019746905 -0.0006079059 -0.0009224388 -0.0018064897
-0.00071765535 0.00031912336 0.00011351352 -2.7555427e-05 -7.624648e-05 -8.688597e-05 -3.451676e-05 1.5348745e-05
0.0008350852 -0.0002499585 -0.0004894377 -0.00071463716 -0.00028390042 0.00012624341 -0.00035326264 0.00011216001
0.00016183165 0.00032092235 0.00012749122 -5.6692166e-05 -0.0003131885 9.383905e-05 0.00023124352 0.00025407653
0.000100935715 -4.4883578e-05 0.0012167792 -0.00033992366 -0.0007071598 -0.0010235464 -0.0004066192 0.0001808134
0.00027293203 -0.00012270857 -8.0707876e-05 -0.0003354656 -0.00013326872 5.9261278e-05 0.00074072066 -0.00021087566
-0.00040949724 -0.00065125857 -0.00025872226 0.000115047325 -7.252704e-05 1.8902068e-05 1.2467677e-05 3.3533903e-05
1.3321831e-05 -5.9238905e-06 2.060464e-05 -5.7803245e-06 -1.2044725e-05 -1.738634e-05 -6.9069856e-06 3.0713645e-06
1.184389e-06 -4.362329e-06 -2.7097215e-06 -1.3844154e-05 -5.4998e-06 2.4456226e-06 -2.5029389e-05 1.5754775e-05
8.126054e-06 4.375753e-05 1.7383338e-05 -7.729936e-06 0.00027796658 -9.700925e-05 -5.1840616e-05 -0.00027445424
-0.00010903109 4.8483405e-05 0.0008484976 -0.00024974742 -0.00047079267 -0.00075256126 -0.0002989663 0.00013294283
-1.0221616e-05 2.2251934e-06 6.6257644e-06 6.9266384e-06 2.7517121e-06 -1.2236176e-06 2.7550734e-05 -1.6462236e-06
-5.8876383e-05 -1.9330852e-05 -7.679471e-06 3.4148688e-06 -3.756465e-05 9.153022e-06 2.2211047e-05 3.0352901e-05
1.2058148e-05 -5.361956e-06 0.00025655035 -7.7305056e-05 -8.155624e-05 -0.00020715233 -8.229437e-05 3.659426e-05
-8.2776273e-07 1.0295392e-06 3.869162e-07 2.9590158e-06 1.1755136e-06 -5.2272156e-07 0.0009499383 -0.0002906375
-0.0003765757 -0.0008622451 -0.0003425398 0.00015231893 -0.00020096285 5.797884e-05 8.906475e-05 0.00017872018
7.0999304e-05 -3.157161e-05 7.4413256e-06 2.4278648e-05 -0.00018582038 5.590277e-05 2.220826e-05 -9.875439e-06
-9.419484e-05 3.6751004e-05 4.6343157e-05 0.00010935602 4.3443324e-05 -1.9318164e-05 -0.00016070336 8.2442057e-07
0.00012697169 -4.476242e-06 -1.7783059e-06 7.9076835e-07 0.00034036158 -0.000105795145 -0.00016548418 -0.0003166214
-0.00012578262 5.593238e-05 -1.8018605e-06 -6.156697e-07 5.711405e-07 -1.469473e-06 -5.837704e-07 2.5958798e-07
-0.0009508283 0.00027349129 0.0004813142 0.00081899296 0.0003253574 -0.0001446783 -5.329716e-07 1.2680319e-07
4.6500134e-07 3.7744397e-07 1.4994527e-07 -6.6676925e-08 0.00023784411 -7.085483e-05 -0.00012007222 -0.00021275754
-8.452115e-05 3.7584443e-05 -0.0008435268 0.00023097271 0.00040941755 0.0006906453 0.00027436926 -0.00012200514
-0.0015953376 0.00047146308 0.00074911874 0.0013823564 0.0005491619 -0.0002441985 1.920115e-05 -1.0950105e-05
0.00012385665 -2.8582028e-05 -1.13546375e-05 5.0491217e-06 -3.4775385e-05 1.0069107e-05 1.567776e-05 3.0801537e-05
1.2236371e-05 -5.4412085e-06 3.36431e-05 -1.2469543e-05 -1.4930694e-05 -3.6883306e-05 -1.4652451e-05 6.515578e-06
0.0007431381 -0.00022591623 -0.00039975252 -0.0006743379 -0.00026789092 0.00011912439 -4.0484927e-05 1.9720901e-05
2.6936461e-05 5.7307137e-05 2.276613e-05 -1.0123527e-05 -6.872033e-05 2.392992e-05 3.687893e-05 7.257789e-05
2.883266e-05 -1.2821162e-05 -0.001110003 0.00034942268 0.00037280255 0.0010029885 0.00039845228 -0.00017718179
-0.0016262518 0.00045204224 0.0010319172 0.0013547693 0.00053820264 -0.00023932525 0.0014112454 -0.00043486638
-0.0007121559 -0.0012961684 -0.00051492243 0.0002289731 1.166121e-05 -4.3159685e-06 -4.218482e-06 -1.2856205e-05
00000000: 8e4d a739 7bc8 eeb8 883e 96b8 9ac2 abb9
00000010: f677 08b9 9bbc 7238 053f da38 ab76 1eb8
00000020: 613e 57b8 e465 dbb8 8051 2eb8 b007 9b37
00000030: cf69 013b e05b 1fba d2cf 71ba bcc7 ecba
00000040: 0921 3cba 0350 a739 1b0e ee38 d426 e7b7
00000050: 84e6 9fb8 8d36 b6b8 17c6 10b8 2ec1 8037
00000060: 9ee9 5a3a dd0c 83b9 9c4d 00ba 7d56 3bba
00000070: 78d8 94b9 3560 0439 1c36 b9b9 7237 eb38
00000080: 5ab1 2939 7841 a839 2aaf 0539 c0c8 6db8
00000090: 7333 a4b9 75cb c438 f679 7239 9335 8539
000000a0: 73ad d338 6041 3cb8 567c 9f3a c837 b2b9
000000b0: b160 39ba 8528 86ba 812f d5b9 ba98 3d39
000000c0: 5118 8f39 55ab 00b9 b641 a9b8 6ee1 afb9
000000d0: 0dbe 0bb9 508f 7838 ec2c 423a 811e 5db9
000000e0: cab1 d6b9 39b9 2aba 1da5 87b9 9045 f138
000000f0: a819 98b8 e28f 9e37 442c 5137 c1a6 0c38
00000100: d480 5f37 d5c5 c6b6 21d8 ac37 9cf4 c1b6
00000110: b313 4ab7 e1d8 91b7 8ec2 e7b6 a41d 4e36
00000120: 4cf7 9e35 1f60 92b6 a9d8 35b6 3044 68b7
00000130: ec8a b8b6 7a1f 2436 34f6 d1b7 1f29 8437
00000140: 2355 0837 4a88 3738 6fd2 9137 d3af 01b7
00000150: 0bbc 9139 7271 cbb8 706f 59b8 a0e4 8fb9
00000160: 9fa7 e4b8 a95a 4b38 b66d 5e3a 88f0 82b9
00000170: b9d4 f6b9 8847 45ba 94be 9cb9 9266 0b39
00000180: 827d 2bb7 8854 1536 e252 de36 5f6b e836
00000190: 0eaa 3836 2e3b a4b5 c01c e737 d0f3 dcb5
000001a0: 09f2 76b8 b028 a2b7 14d7 00b7 002b 6536
000001b0: bc8e 1db8 ee8f 1937 dc51 ba37 5c9e fe37
000001c0: 5a4d 4a37 daea b3b6 9b81 8639 d61e a2b8
000001d0: 2c09 abb8 0837 59b9 7495 acb8 ca7c 1938
000001e0: 6c33 5eb5 b32e 8a35 5cb9 cf34 8193 4636
000001f0: 57c6 9d35 2751 0cb5 4805 793a b460 98b9
00000200: 236f c5b9 4a08 62ba ea96 b3b9 cdb7 1f39
00000210: 8eb9 52b9 4e2e 7338 46c8 ba38 d566 3b39
00000220: 76e5 9438 c26b 04b8 80b0 f936 00aa cb37
00000230: c7d8 42b9 2479 6a38 e04b ba37 b0ae 25b7
00000240: 788a c5b8 1725 1a38 9660 4238 1156 e538
00000250: ea36 3638 710d a2b7 7b82 28b9 c04d 5d35
00000260: b423 0539 a032 96b6 20ae eeb5 3045 5435
00000270: 8f72 b239 56de ddb8 d285 2db9 3400 a6b9
00000280: 84e4 03b9 f098 6a38 75d7 f1b5 8044 25b5
00000290: 7a50 1935 b53a c5b5 65b4 1cb5 805d 8b34
000002a0: 0241 79ba 6163 8f39 e658 fc39 b0b1 563a
000002b0: bb94 aa39 c9b4 17b9 8811 0fb5 6527 0834
000002c0: 4ca5 f934 81a3 ca34 a400 2134 0730 8fb3
000002d0: cb65 7939 e697 94b8 48cf fbb8 ab17 5fb9
000002e0: f240 b1b8 fda3 1d38 2020 5dba 4431 7239
000002f0: 18a7 d639 6c0c 353a 38d9 8f39 03dd ffb8
00000300: a61a d1ba b42e f739 8260 443a 2f30 b53a
00000310: a2f5 0f3a c507 80b9 2812 a137 58b6 37b7
00000320: 84df 0139 70c3 efb7 cc7f 3eb7 a06b a936
00000330: c9db 11b8 7cee 2837 bc83 8337 e630 0138
00000340: d04a 4d37 a093 b6b6 011c 0d38 4834 51b7
00000350: d87e 7ab7 26b3 1ab8 ccd3 75b7 64a0 da36
00000360: 27cf 423a ede3 6cb9 e095 d1b9 0dc6 30ba
00000370: b673 8cb9 6bd2 f938 5cce 29b8 506e a537
00000380: 9cf5 e137 125d 7038 e4f9 be37 38d8 29b7
00000390: f21d 90b8 1dbd c837 73ae 1a38 f534 9838
000003a0: aadd f137 791a 57b7 857d 91ba b832 b739
000003b0: b674 c339 b676 833a 5ce7 d039 e0c9 39b9
000003c0: f527 d5ba 1500 ed39 6541 873a 8492 b13a
000003d0: 2b16 0d3a 62f3 7ab9 8af9 b83a c7fe e3b9
000003e0: f9af 3aba 32e4 a9ba dcfb 06ba 8018 7039
000003f0: 84a4 4337 e3d1 90b6 7c8c 8db6 fbb0 57b7

exp_avg_sq f4 [128, 6]
8.2563054e-07 1.2240122e-07 1.9217853e-07 9.3672026e-07 1.4783268e-07 2.923186e-08 6.275784e-08 6.948632e-09
5.9798855e-09 5.6119163e-08 8.856703e-09 1.7512873e-09 6.4514056e-06 7.68722e-07 1.938449e-06 5.6723015e-06
8.952001e-07 1.7701316e-07 9.4905054e-08 1.1440045e-08 2.4042059e-08 8.27784e-08 1.3064044e-08 2.5832287e-09
2.141284e-06 2.6354135e-07 6.796439e-07 1.988316e-06 3.1379497e-07 6.204853e-08 4.397485e-07 5.4150746e-08
1.3488287e-07 4.0794555e-07 6.4381766e-08 1.2730594e-08 3.8616523e-07 5.3360424e-08 1.3745242e-07 3.848197e-07
6.073205e-08 1.20089085e-08 4.138135e-06 5.044681e-07 1.2854509e-06 3.7313869e-06 5.888858e-07 1.16443914e-07
1.0431899e-06 1.4170351e-07 2.1546043e-07 1.0814085e-06 1.7066732e-07 3.3747064e-08 1.4512106e-06 1.7016266e-07
4.237055e-07 1.272035e-06 2.007522e-07 3.969589e-08 2.6292125e-07 3.131447e-08 6.705285e-08 2.3631762e-07
3.7295575e-08 7.3746644e-09 2.3310633e-09 2.5378885e-10 6.1731054e-10 2.0293724e-09 3.2027445e-10 6.3329814e-11
3.3736885e-08 1.5572445e-08 2.5243336e-08 1.1925657e-07 1.8821028e-08 3.7215975e-09 1.7805148e-08 2.6977147e-09
7.0338113e-09 2.126209e-08 3.3555732e-09 6.6351735e-10 8.7621385e-07 1.2047819e-07 2.2852254e-07 8.5822376e-07
1.354445e-07 2.6782214e-08 1.4043909e-06 1.5602171e-07 4.0585672e-07 1.1688463e-06 1.8446683e-07 3.6475694e-08
7.0920464e-10 1.7812017e-10 5.151725e-10 1.1369627e-09 1.7943491e-10 3.548072e-11 2.828325e-07 3.6006238e-08
9.2374314e-08 2.7149213e-07 4.2846775e-08 8.472344e-09 3.3387164e-09 3.5703768e-10 1.0047615e-09 2.7952165e-09
4.411397e-10 8.722918e-11 9.454297e-07 1.4002319e-07 2.1866995e-07 1.0730138e-06 1.6934246e-07 3.3485094e-08
5.7444634e-08 3.734375e-09 2.5398505e-08 2.9426323e-08 4.6440505e-09 9.182955e-10 2.9072705e-06 3.5172707e-07
8.7751374e-07 2.6322914e-06 4.1542654e-07 8.21448e-08 1.8990312e-07 2.4114101e-08 3.8112233e-08 1.8328116e-07
2.892535e-08 5.719573e-09 2.4456917e-06 2.9129947e-07 8.2257174e-07 2.2357458e-06 3.5284438e-07 6.9769975e-08
9.805774e-08 1.5827963e-08 4.2096815e-08 1.2331246e-07 1.9461108e-08 3.8481613e-09 1.052772e-06 1.6736739e-07
2.59947e-07 1.1532222e-06 1.8200096e-07 3.5988126e-08 1.9602078e-07 2.0405547e-08 5.630641e-08 1.5419693e-07
2.4335279e-08 4.811958e-09 2.4354918e-07 1.6817918e-08 8.6492186e-08 1.3904922e-07 2.194469e-08 4.3392534e-09
1.9775662e-06 2.4440365e-07 6.1320793e-07 1.8196321e-06 2.8717344e-07 5.678454e-08 3.3461497e-11 2.3463028e-12
1.4650942e-11 1.9091133e-11 3.01296e-12 5.957697e-13 1.475019e-07 1.7391171e-08 4.2061004e-08 1.2752231e-07
2.0125514e-08 3.979532e-09 1.981566e-06 2.6362778e-07 5.3213375e-07 1.9567206e-06 3.0880875e-07 6.106255e-08
5.323127e-06 6.529904e-07 1.6703619e-06 4.8659954e-06 7.679492e-07 1.5185111e-07 1.8394161e-06 2.4189842e-07
5.4239314e-07 1.829479e-06 2.8872753e-07 5.7091807e-08 2.427715e-09 2.7130478e-10 5.007546e-10 2.0499449e-09
3.2352115e-10 6.397174e-11 1.87187e-08 2.8412481e-09 3.877597e-09 2.209051e-08 3.4863152e-09 6.8936906e-10
1.5901413e-06 1.8513877e-07 4.7825597e-07 1.3723034e-06 2.1657647e-07 4.2824922e-08 1.464722e-07 4.7477037e-08
4.429301e-08 3.740526e-07 5.903287e-08 1.1672915e-08 8.888895e-08 1.0228582e-08 3.4571595e-08 8.1114706e-08
1.28014745e-08 2.5313125e-09 6.0388625e-06 7.3796485e-07 1.9015143e-06 5.5155883e-06 8.704675e-07 1.7212272e-07
7.931761e-06 9.774957e-07 2.4853337e-06 7.2091966e-06 1.137752e-06 2.2497437e-07 2.678248e-06 3.0985552e-07
8.0868585e-07 2.2301692e-06 3.519643e-07 6.9596005e-08 1.6972403e-07 1.0779051e-08 7.3611574e-08 8.753515e-08
00000000: e6a0 5d35 646d 0334 a259 4e34 ed72 7b35
00000010: f0bb 1e34 8a19 fb32 7dc5 8633 d0c0 ee31
00000020: a177 cd31 ac07 7133 3128 1832 f2b1 f030
00000030: 2779 d836 2c5a 4e35 4d16 0236 b354 be36
00000040: af4d 7035 0211 3e34 9bce cb33 da89 4432
00000050: 0c85 ce32 e8c3 b133 4670 6032 a484 3131
00000060: fbb2 0f36 d97c 8d34 c670 3635 026f 0536
00000070: a777 a834 8a3f 8533 9316 ec34 6093 6833
00000080: 52d4 1034 9c03 db34 4042 8a33 bfb5 5a32
00000090: 2552 cf34 682e 6533 a296 1334 3899 ce34
000000a0: cc6b 8233 bd4f 4e32 4fda 8a36 c96a 0735
000000b0: c287 ac35 bd68 7a36 ed13 1e35 b80f fa33
000000c0: bb03 8c35 2a27 1834 5059 6734 ea24 9135
000000d0: ad40 3734 4af1 1033 37c7 c235 f5b5 3634
000000e0: a479 e334 caba aa35 588e 5734 187e 2a33
000000f0: 9f27 8d34 a07e 0633 b2fe 8f33 7ebe 7d34
00000100: eb2e 2033 3c64 fd31 8030 2031 9b85 8b2f
00000110: 5eaf 2930 1975 0b31 9f12 b02f 8443 8b2e
00000120: 19e6 1033 2bc4 8532 afd6 d832 ff0c 0034
00000130: e1ab a132 09bf 7f31 eff1 9832 b362 3931
00000140: 0fae f131 d5a3 b632 de97 6631 e262 3630
00000150: f534 6b35 cb5c 0134 cc5f 7534 b060 6635
00000160: b36e 1134 b60e e632 817e bc35 ec86 2734
00000170: 86e4 d934 41e1 9c35 db11 4634 73a9 1c33
00000180: d7f1 4230 5fd8 432f 0b9c 0d30 5243 9c30
00000190: 704a 452f bd0b 1c2e 34d8 9734 47a5 1a33
000001a0: 515f c633 98c1 9134 8706 3833 c38d 1132
000001b0: 526f 6531 9648 c42f e717 8a30 f815 4031
000001c0: e584 f22f aad1 bf2e 6fc9 7d35 4859 1634
000001d0: 8acb 6a34 7904 9035 80d4 3534 40d1 0f33
000001e0: 0bb9 7633 e94f 8031 e72b da32 2bc5 fc32
000001f0: 8091 9f31 4d6b 7c30 871a 4336 00d5 bc34
00000200: 498e 6b35 6ca6 3036 ca07 df34 9567 b033
00000210: 2ce8 4b34 7823 cf32 d8b0 2333 f1cb 4434
00000220: 8477 f832 e585 c431 aa20 2436 e563 9c34
00000230: b3ce 5c35 d209 1636 906e bd34 73d4 9533
00000240: d093 d233 0ff6 8732 f0cd 3433 df67 0434
00000250: 6e2b a732 c938 8431 f84c 8d35 99b5 3334
00000260: d88e 8b34 6ac8 9a35 0b6c 4334 5d91 1a33
00000270: c879 5234 4648 af32 8dd5 7133 5491 2534
00000280: d809 d132 6e56 a531 25c1 8234 fe76 9032
00000290: 95bd b933 8f4d 1534 e280 bc32 7a18 9531
000002a0: 54b6 0436 9536 8334 549b 2435 153a f435
000002b0: d12c 9a34 43e3 7333 4c2a 132e 3c1b 252c
000002c0: fdde 802d 69ed a72d aa04 542c bbb1 272b
000002d0: 0361 1e34 9763 9532 90a6 3433 11ed 0834
000002e0: 79e0 ac32 55bc 8831 0bfb 0436 ba88 8d34
000002f0: f4d7 0e35 3450 0336 5aca a534 7e21 8333
00000300: 509d b236 2949 2f35 3331 e035 9546 a336
00000310: 1125 4e35 840c 2334 dbe1 f635 44de 8134
00000320: f998 1135 6b8c f535 6902 9b34 1b35 7533
00000330: d0d4 2631 c126 952f 79a5 0930 03df 0c31
00000340: 8edb b12f e3ac 8c2e dbca a032 c43f 4331
00000350: b43b 8531 8cc1 bd32 e893 6f31 097e 3d30
00000360: d76c d535 8fca 4634 8061 0035 fc2f b835
00000370: 168c 6834 80ee 3733 f945 1d34 8ee9 4b33
00000380: ae3c 3e33 66d1 c834 548b 7d33 068a 4832
00000390: 38e3 be33 c8b9 2f32 df7b 1433 4831 ae33
000003a0: 7bed 5b32 52f3 2d31 6fa1 ca36 8f18 4635
000003b0: 8937 ff35 8b12 b936 12aa 6935 bcd0 3834
000003c0: a712 0537 7f32 8335 b5c9 2636 87e6 f136
000003d0: dcb4 9835 7c90 7134 f3bb 3336 385a a634
000003e0: 7814 5935 04aa 1536 9bf5 bc34 cf74 9533
000003f0: 633d 3634 c52e 3932 6414 9e33 f5fa bb33

exp_avg f4 [128]
-6.5699416e-05 -2.0980307e-05 -0.00036228017 -1.7424438e-05 -0.00014331595 6.435895e-05 5.095343e-05 -0.00020526578
-6.727548e-05 -0.00013060578 6.7250085e-06 -3.4867212e-06 -2.7763567e-06 8.775297e-06 -5.504006e-05 -0.00015092139
1.3890935e-06 -3.876685e-06 6.087083e-06 -4.15431e-05 5.934119e-07 -0.0001729178 3.5841207e-05 1.1210956e-05
2.1930662e-05 -8.9771675e-07 -6.349641e-05 -2.9469345e-07 0.00016424389 7.569399e-08 -4.266719e-05 0.00013850456
0.00027722283 -5.7319503e-06 6.177053e-06 -7.3967144e-06 -0.00013523424 1.1492589e-05 1.4555039e-05 0.00020114306
0.00027169046 -0.00025993836 -2.578232e-06 -5.850861e-05 -1.1769128e-05 -5.2972064e-06 -8.081684e-05 8.381643e-05
4.146203e-06 -8.9524365e-05 -2.9689065e-06 1.7068418e-06 5.966762e-05 -6.3674383e-07 -1.8527588e-05 0.00014350862
2.2228298e-06 -0.00020311876 5.4399093e-06 2.5564996e-06 -1.2917042e-07 -0.0001451287 -1.28301635e-05 0.00010461805
-3.665316e-05 1.7091547e-06 1.1232495e-05 -6.904587e-05 4.589862e-06 -9.8656674e-05 -3.8752733e-05 -3.9096965e-05
-7.700217e-06 1.2939131e-05 0.00014784861 5.4157344e-06 3.6562058e-05 -6.5837276e-06 4.049282e-07 -0.0001009339
1.9381243e-06 9.9771845e-05 -0.00013407005 1.9185361e-05 1.7563207e-05 -6.31251e-05 2.4187319e-05 0.00011682468
8.099715e-05 -4.6021887e-05 1.9617458e-07 2.5933693e-07 -3.733207e-05 -4.2815486e-06 -6.656681e-08 0.00012345354
4.5574077e-05 -8.20017e-05 0.00010037671 1.7268683e-05 -1.780661e-07 1.8447392e-05 -0.00021575572 3.0939368e-06
-4.7209373e-06 -0.00019130524 -3.3072596e-05 5.0268472e-06 0.00012935222 -0.00010173525 -5.668785e-05 -0.00010003268
-3.602785e-05 -0.00012533827 0.00011184713 -6.0681537e-05 -4.7037727e-05 8.6019445e-06 -2.6868845e-05 9.978486e-07
-1.0995246e-05 -6.19445e-07 -0.00016908729 2.9166105e-05 -9.174716e-05 6.7296023e-06 -3.1894502e-05 6.699264e-05
00000000: 1bc8 89b8 defe afb7 6cf0 bdb9 b22a 92b7
00000010: 1547 16b9 73f8 8638 d4b6 5538 9d3c 57b9
00000020: 4016 8db8 39f3 08b9 62a7 e136 6afd 69b6
00000030: 7251 3ab6 9d39 1337 d0da 66b8 a740 1eb9
00000040: e470 ba35 7814 82b6 a53f cc36 903e 2eb8
00000050: f54a 1f35 4551 35b9 3454 1638 b016 3c37
00000060: bdf7 b737 a0fa 70b5 6029 85b8 5c36 9eb4
00000070: e238 2c39 368d a233 8cf5 32b8 893b 1139
00000080: 3858 9139 1455 c0b6 7b44 cf36 4b31 f8b6
00000090: aacd 0db9 4bd0 4037 6b31 7437 eee9 5239
000000a0: ad71 8e39 5648 88b9 b005 2db6 2467 75b8
000000b0: 0574 45b7 a8be b1b6 367c a9b8 9ac6 af38
000000c0: 9d1f 8b36 07bf bbb8 6d3d 47b6 a316 e535
000000d0: 9e43 7a38 b4ec 2ab5 b16b 9bb7 cd7a 1639
000000e0: ed2b 1536 47fc 54b9 7788 b636 5490 2b36
000000f0: 18b2 0ab4 b02d 18b9 2241 57b7 6366 db38
00000100: 08bc 19b8 1c66 e535 3373 3c37 b8cc 90b8
00000110: 9d02 9a36 e6e5 ceb8 6e8a 22b8 0cfc 23b8
00000120: 2e30 01b7 2515 5937 cf07 1b39 ceb8 b536
00000130: 365a 1938 cae9 dcb6 e864 d934 7aac d3b8
00000140: b910 0236 9a3c d138 2895 0cb9 40f0 a037
00000150: b354 9337 0862 84b8 dfe5 ca37 c6ff f438
00000160: 04dd a938 a007 41b8 0fa4 5234 ff3a 8b34
00000170: 0195 1cb8 39aa 8fb6 7ef3 8eb3 4f73 0139
00000180: cb26 3f38 54f8 abb8 5681 d238 37dc 9037
00000190: 7032 3fb4 79bf 9a37 7c3c 62b9 6ea1 4f36
000001a0: 8b68 9eb6 1c99 48b9 6eb7 0ab8 4aac a836
000001b0: b9a2 0739 b25a d5b8 1ec4 6db8 a3c8 d1b8
000001c0: 9c1c 17b8 3c6d 03b9 788f ea38 4e84 7eb8
000001d0: 604a 45b8 1251 1037 6864 e1b7 d1ed 8535
000001e0: 3978 38b7 f047 26b5 064d 31b9 bca9 f437
000001f0: 6268 c0b8 d8ce e136 76c6 05b8 667e 8c38
