Project/Assets/ML-Agents/Examples/MyTest/Scripts/TFModels/MyTest1Models/Test2/MoveToGoal/checkpoint.pt (torch, 145634 bytes, 11 tensors)

network_body._body_endoder.seq_layers.0.weight f4 [128, 1]
1.357732 1.6624566 1.4819161 0.45607167 -1.5532367 0.03038011 0.56518906 -1.2722172
0.6004875 0.035151727 -0.70616066 0.2542996 1.579289 -0.77555335 0.050499983 -0.6594387
-0.018131962 -0.85015833 0.68619496 -0.14734201 0.4307171 -0.21263646 -1.5853404 1.2765563
-0.883594 1.1322125 -0.103288524 -0.33126625 0.3621681 1.1612267 -0.46813414 2.3811982
-1.3631862 0.07595096 -0.6549282 0.34890032 2.105436 -0.76676774 -0.104223214 0.6730517
-0.12006159 -1.2404059 -0.47615847 0.045729257 -1.2482295 -0.88189894 0.19996674 -1.6761607
1.793158 0.26755926 0.010362283 -0.43504232 -1.1861676 0.7386917 -0.69829834 -0.038034286
0.11659662 0.0698368 0.77141714 -0.20057136 -0.13263112 0.18926351 0.21682931 0.6364026
0.23756091 0.33629033 -0.1605946 -0.65272564 -0.4522008 0.5670177 -0.041786827 -0.15981708
-2.5039294 -1.0359831 0.4424316 -0.9039631 -0.58219236 -0.67460877 0.78633475 1.0510328
-2.107235 0.27443773 -0.64975435 -0.54512066 -0.26417443 1.1083615 1.3938807 -0.4730198
-0.43038824 -1.5469828 1.2585357 -1.2757176 -0.15114842 -0.6237693 -0.5104823 1.8525395
-1.2681646 -0.53245604 -0.2701827 0.43742248 1.3537104 -0.17145525 -0.96122885 0.5573893
-0.17430098 -0.45271116 -0.47418362 0.42140287 -0.55890274 -0.02665359 -0.20934175 -0.26491666
-0.058920547 -0.9845074 1.0367883 -1.7893574 0.7330932 -0.24033272 0.64345586 0.5812683
1.7243772 -0.6870598 1.166398 0.2261515 1.6795576 0.8645474 -0.8066964 1.3944836
00000000: 2aca ad3f 61cb d43f 6daf bd3f 3a82 e93e
00000010: 76d0 c6bf b5df f83c 3bb0 103f 03d8 a2bf
00000020: 8cb9 193f 42fb 0f3d f2c6 34bf 8f33 823e
00000030: 2426 ca3f aa8a 46bf 12d9 4e3d fad0 28bf
00000040: 7b89 94bc faa3 59bf 79aa 2f3f d3e0 16be
00000050: f486 dc3e 5fbd 59be 6fec cabf 3266 a33f
00000060: 3733 62bf 57ec 903f ef88 d3bd bb9b a9be
00000070: 196e b93e 14a3 943f 47af efbe 8d65 1840
00000080: e37c aebf 2d8c 9b3d 60a9 27bf 10a3 b23e
00000090: 77bf 0640 e44a 44bf fb72 d5bd 1e4d 2c3f
000000a0: dae2 f5bd 9fc5 9ebf 0bcb f3be 9a4e 3b3d
000000b0: fcc5 9fbf 21c4 61bf 15c4 4c3e 6f8c d6bf
000000c0: 3486 e53f 87fd 883e 91c6 293c debd debe
000000d0: 57d4 97bf e61a 3d3f aec3 32bf d7c9 1bbd
000000e0: 35ca ee3d 9906 8f3d 987b 453f 9462 4dbe
000000f0: 74d0 07be 4bce 413e 8108 5e3e 48eb 223f
00000100: 2b43 733e 3f2e ac3e e972 24be 0719 27bf
00000110: dd86 e7be 1228 113f aa28 2bbd 17a7 23be
00000120: 6140 20c0 189b 84bf 6586 e23e 206a 67bf
00000130: 8f0a 15bf 29b3 2cbf 3c4d 493f 3e88 863f
00000140: f0dc 06c0 1a83 8c3e 4d56 26bf 078d 0bbf
00000150: df41 87be cade 8d3f af6a b23f a72f f2be
00000160: d95b dcbe 8803 c6bf b317 a13f b74a a3bf
00000170: a7c6 1abe 58af 1fbf f8ae 02bf 0420 ed3f
00000180: 3853 a2bf 0a4f 08bf 6355 8abe d7f5 df3e
00000190: 6246 ad3f f791 2fbe 1813 76bf 11b1 0e3f
000001a0: f57b 32be c2c9 e7be 32c8 f2be 1ec2 d73e
000001b0: 4014 0fbf a158 dabc af5d 56be 28a3 87be
000001c0: ac56 71bd ad08 7cbf 7bb5 843f aa09 e5bf
000001d0: ffab 3b3f c819 76be 86b9 243f 00ce 143f
000001e0: 64b8 dc3f 27e3 2fbf 884c 953f 4294 673e
000001f0: befb d63f fa52 5d3f a883 4ebf 707e b23f

network_body._body_endoder.seq_layers.0.bias f4 [128]
0.0 0.0 0.0 0.0 0.0 0.0 0.0 0.0
0.0 0.0 0.0 0.0 0.0 0.0 0.0 0.0
0.0 0.0 0.0 0.0 0.0 0.0 0.0 0.0
0.0 0.0 0.0 0.0 0.0 0.0 0.0 0.0
0.0 0.0 0.0 0.0 0.0 0.0 0.0 0.0
0.0 0.0 0.0 0.0 0.0 0.0 0.0 0.0
0.0 0.0 0.0 0.0 0.0 0.0 0.0 0.0
0.0 0.0 0.0 0.0 0.0 0.0 0.0 0.0
0.0 0.0 0.0 0.0 0.0 0.0 0.0 0.0
0.0 0.0 0.0 0.0 0.0 0.0 0.0 0.0
0.0 0.0 0.0 0.0 0.0 0.0 0.0 0.0
0.0 0.0 0.0 0.0 0.0 0.0 0.0 0.0
0.0 0.0 0.0 0.0 0.0 0.0 0.0 0.0
0.0 0.0 0.0 0.0 0.0 0.0 0.0 0.0
0.0 0.0 0.0 0.0 0.0 0.0 0.0 0.0
0.0 0.0 0.0 0.0 0.0 0.0 0.0 0.0
00000000: 0000 0000 0000 0000 0000 0000 0000 0000
00000010: 0000 0000 0000 0000 0000 0000 0000 0000
00000020: 0000 0000 0000 0000 0000 0000 0000 0000
00000030: 0000 0000 0000 0000 0000 0000 0000 0000
00000040: 0000 0000 0000 0000 0000 0000 0000 0000
00000050: 0000 0000 0000 0000 0000 0000 0000 0000
00000060: 0000 0000 0000 0000 0000 0000 0000 0000
00000070: 0000 0000 0000 0000 0000 0000 0000 0000
00000080: 0000 0000 0000 0000 0000 0000 0000 0000
00000090: 0000 0000 0000 0000 0000 0000 0000 0000
000000a0: 0000 0000 0000 0000 0000 0000 0000 0000
000000b0: 0000 0000 0000 0000 0000 0000 0000 0000
000000c0: 0000 0000 0000 0000 0000 0000 0000 0000
000000d0: 0000 0000 0000 0000 0000 0000 0000 0000
000000e0: 0000 0000 0000 0000 0000 0000 0000 0000
000000f0: 0000 0000 0000 0000 0000 0000 0000 0000
00000100: 0000 0000 0000 0000 0000 0000 0000 0000
00000110: 0000 0000 0000 0000 0000 0000 0000 0000
00000120: 0000 0000 0000 0000 0000 0000 0000 0000
00000130: 0000 0000 0000 0000 0000 0000 0000 0000
00000140: 0000 0000 0000 0000 0000 0000 0000 0000
00000150: 0000 0000 0000 0000 0000 0000 0000 0000
00000160: 0000 0000 0000 0000 0000 0000 0000 0000
00000170: 0000 0000 0000 0000 0000 0000 0000 0000
00000180: 0000 0000 0000 0000 0000 0000 0000 0000
00000190: 0000 0000 0000 0000 0000 0000 0000 0000
000001a0: 0000 0000 0000 0000 0000 0000 0000 0000
000001b0: 0000 0000 0000 0000 0000 0000 0000 0000
000001c0: 0000 0000 0000 0000 0000 0000 0000 0000
000001d0: 0000 0000 0000 0000 0000 0000 0000 0000
000001e0: 0000 0000 0000 0000 0000 0000 0000 0000
000001f0: 0000 0000 0000 0000 0000 0000 0000 0000

network_body._body_endoder.seq_layers.2.weight f4 [128, 128]
0.01734421 -0.02854534 -0.017655378 0.056038607 0.14707509 0.08679889 0.044572737 -0.052152794
0.041435063 -0.028970042 -0.121761 0.09318033 0.04107623 -0.099219516 -0.12593614 -0.05985537
-0.010387985 -0.072752476 0.06239912 -0.09146806 -0.080821045 0.028255012 -0.12818685 0.0004002418
-0.06137051 0.07995163 -0.06720995 0.08994228 -0.091018066 -0.086054415 0.004228967 0.091910325
-0.007093291 0.024029925 0.15346682 -0.059093453 -0.05804862 -0.12751342 0.0948037 -0.0022940955
-0.07149111 -0.10052628 -0.2696016 -0.047844518 0.090931326 -0.017578647 0.006092622 -0.025277102
-0.03912544 -0.08268652 0.06357625 0.035962142 -0.0760435 0.017967815 -0.049497847 0.07921613
-0.03868507 -0.14976878 0.0115823755 -0.04862485 -0.04344142 0.10330257 0.06475331 -0.051557258
0.03635022 0.03267678 -0.09861206 -0.0061601903 -0.024431432 0.10691066 -0.092832945 -0.07815674
-0.07561263 -0.04450139 -0.043776836 0.025525449 0.17594573 0.060419578 0.03260148 0.003554215
-0.061277945 0.03259696 0.19905087 0.05169083 0.10317846 -0.14667861 -0.04309752 -0.04331183
0.020428741 0.017386714 -0.08321756 0.061020423 -0.041683026 -0.05443771 -0.03433628 -0.04333219
0.029717948 0.060996667 0.09003371 0.0007775277 -0.10729027 -0.050530802 0.03180958 0.0009915337
0.0037123493 0.11934555 0.084991656 0.06433365 -0.029871747 -0.018112976 0.17832856 -0.15948506
-0.12270432 -0.009863802 -0.09094503 0.08344909 0.0699479 0.04539948 0.034683388 0.02934807
-0.06235528 0.030769017 -0.1123115 -0.046417486 -0.022401178 -0.039132643 0.06612869 -0.0141055565
0.05601398 -0.0967711 0.069202654 0.05199621 -0.043071095 -0.13286883 -0.05271637 -0.065053456
-0.035412524 0.013407353 -0.041912585 -0.105310105 0.06332464 0.00019297334 0.10413945 0.069746956
-0.042097967 -0.19619727 0.12749228 -0.067815274 0.12816116 0.13221112 0.0011559501 -0.08418699
0.10137202 0.18339624 -0.1105427 -0.079269156 -0.03160826 0.03033013 0.04298614 0.05507131
-0.16039526 0.114821985 0.052588224 0.10815678 0.022329561 -0.025913939 0.03653756 0.1453577
0.096890405 -0.12084102 -0.091039374 0.051103942 -0.014578901 0.06645785 -0.13388203 -0.05211552
-0.021648953 -0.09057104 -0.100082316 0.053340003 0.1514755 -0.07799472 -0.068146914 0.057649978
0.14372098 0.13699584 0.025206588 0.01622199 -0.04187516 -0.083304174 0.023998644 0.053168327
-0.056426752 -0.044052586 0.20603168 0.05083014 -0.0073291156 0.015313433 -0.05249188 0.0684403
-0.1563431 -0.13152233 0.039697707 0.013406059 -0.17346239 -0.0021224597 -0.14714146 -0.13051817
0.031311445 -0.07362458 0.12142345 -0.19419934 0.019498488 -0.029316364 0.008396011 -0.0093727205
0.0012552278 0.06189919 0.07141244 0.19613624 -0.042621747 -0.018110996 -0.12986813 -0.030819891
0.05619237 -0.030400764 0.20509778 0.055294406 -0.03120155 -0.020917887 -0.03290366 0.13816191
-0.089506514 -0.047606584 0.036284212 -0.13535273 0.08860366 -0.044578705 0.06822034 -0.16906022
0.10264828 -0.043596152 0.07170626 -0.07103981 -0.1678044 0.017832031 0.048276745 0.012292127
-0.014812305 0.086764984 -0.16244231 -0.04845039 0.06873017 0.05360474 0.0062619094 -0.04517864
00000000: 7215 8e3c ebd7 e9bc 03a2 90bc bd88 653d
00000010: da9a 163e 9ec3 b13d e791 363d 2b9e 55bd
00000020: d0b7 293d 9552 edbc d55d f9bd 54d5 be3d
00000030: 8d3f 283d 9a33 cbbd 67f5 00be e82a 75bd
00000040: 5e32 2abc 40ff 94bd 3896 7f3d 9b53 bbbd
00000050: 8185 a5bd 0e77 e73c 6a43 03be 8cd7 d139
00000060: a55f 7bbd aebd a33d 5fa5 89bd a833 b83d
00000070: ae67 babd 4c3d b0bd 2593 8a3b 7b3b bc3d
00000080: d66e e8bb 68da c43c 6826 1d3e fa0b 72bd
00000090: 64c4 6dbd e192 02be 7128 c23d 8958 16bb
000000a0: ee69 92bd b9e0 cdbd 3909 8abe 9df8 43bd
000000b0: 343a ba3d 1801 90bc 9ea4 c73b ed11 cfbc
000000c0: ff41 20bd 8d57 a9bd 4434 823d 0a4d 133d
000000d0: b2bc 9bbd 3d31 933c 41be 4abd 113c a23d
000000e0: 3c74 1ebd fd5c 19be 01c4 3d3c da2a 47bd
000000f0: a1ef 31bd 4c90 d33d 629d 843d b42d 53bd
00000100: f8e3 143d 16d8 053d 1ff5 c9bd 6cdb c9bb
00000110: 6d24 c8bc faf3 da3d 331f bebd a410 a0bd
00000120: cbda 9abd 1747 36bd 574f 33bd bf1a d13c
00000130: 1e2b 343e 857a 773d 2189 053d d5ed 683b
00000140: 95fe 7abd 6484 053d fed3 4b3e c4b9 533d
00000150: 3a4f d33d eb32 16be 0687 30bd bf67 31bd
00000160: 2d5a a73c 956e 8e3c f86d aabd 8df0 793d
00000170: d2bb 2abd 14fa 5ebd 33a4 0cbd 187d 31bd
00000180: 0e73 f33c a4d7 793d 9863 b83d 00d3 4b3a
00000190: 00bb dbbd 63f9 4ebd c34a 023d 5af6 813a
000001a0: e34a 733b 716b f43d 1b10 ae3d 5cc1 833d
000001b0: 98b5 f4bc aa61 94bc c39b 363e 0d50 23be
000001c0: 674c fbbd c99b 21bc 6341 babd 5be7 aa3d
000001d0: d840 8f3d cef4 393d 2b10 0e3d 5d6b f03c
000001e0: 4068 7fbd 4e0f fc3c 9203 e6bd 4320 3ebd
000001f0: ad82 b7bc 8d49 20bd 7b6e 873d fe1a 67bc
00000200: ea6e 653d ed2f c6bd 1fba 8d3d faf9 543d
00000210: 516b 30bd c40e 08be 1fed 57bd bf3a 85bd
00000220: b90c 11bd 84aa 5b3c 88ac 2bbd d3ac d7bd
00000230: 59b0 813d e358 4a39 1047 d53d 7ed7 8e3d
00000240: eb6e 2cbd f0e7 48be 568d 023e bce2 8abd
00000250: ae3c 033e 5a62 073e 4083 973a 3b6a acbd
00000260: 229c cf3d 39cc 3b3e 3664 e2bd de57 a2bd
00000270: aa77 01bd e576 f83c 3c12 303d 7492 613d
00000280: a83e 24be ca27 eb3d c066 573d 4d81 dd3d
00000290: 7cec b63c 7849 d4bc 69a8 153d a6d8 143e
000002a0: 7a6e c63d 7f7b f7bd da72 babd 5e52 513d
000002b0: 58dc 6ebc 0e1b 883d 5f18 09be 1577 55bd
000002c0: 2559 b1bc 4f7d b9bd f5f7 ccbd 0c7b 5a3d
000002d0: 651c 1b3e b2bb 9fbd 9c90 8bbd 6222 6c3d
000002e0: 982b 133e a348 0c3e 0c7e ce3c fbe3 843c
000002f0: 4a85 2bbd 619b aabd ce98 c43c 08c7 593d
00000300: bd1f 67bd 7c70 34bd f8f9 523e 4433 503d
00000310: 1429 f0bb 31e5 7a3c ba01 57bd 6e2a 8c3d
00000320: 6818 20be caad 06be 109a 223d 16a5 5b3c
00000330: 20a0 31be f718 0bbb 40ac 16be 8ea6 05be
00000340: 6e40 003d 7cc8 96bd dcac f83d 31dc 46be
00000350: 4bbb 9f3c df28 f0bc 6c8f 093c 0a90 19bc
00000360: 7586 a43a 018a 7d3d af40 923d f0d7 483e
00000370: 2494 2ebd 835d 94bc 27fc 04be ff79 fcbc
00000380: f829 663d 060b f9bc 2705 523e 637c 623d
00000390: 659a ffbc fd5b abbc fdc5 06bd 517a 0d3e
000003a0: 314f b7bd 1fff 42bd c19e 143d e899 0abe
000003b0: d675 b53d 2998 36bd 1bb7 8b3d 1f1e 2dbe
000003c0: 4339 d23d e191 32bd bbda 923d 527d 91bd
000003d0: ebd4 2bbe 7b14 923c d6bd 453d eb64 493c
000003e0: 4faf 72bc d7b1 b13d 4757 26be eb73 46bd
000003f0: 67c2 8c3d a590 5b3d b430 cd3b 3d0d 39bd

network_body._body_endoder.seq_layers.2.bias f4 [128]
0.0 0.0 0.0 0.0 0.0 0.0 0.0 0.0
0.0 0.0 0.0 0.0 0.0 0.0 0.0 0.0
0.0 0.0 0.0 0.0 0.0 0.0 0.0 0.0
0.0 0.0 0.0 0.0 0.0 0.0 0.0 0.0
0.0 0.0 0.0 0.0 0.0 0.0 0.0 0.0
0.0 0.0 0.0 0.0 0.0 0.0 0.0 0.0
0.0 0.0 0.0 0.0 0.0 0.0 0.0 0.0
0.0 0.0 0.0 0.0 0.0 0.0 0.0 0.0
0.0 0.0 0.0 0.0 0.0 0.0 0.0 0.0
0.0 0.0 0.0 0.0 0.0 0.0 0.0 0.0
0.0 0.0 0.0 0.0 0.0 0.0 0.0 0.0
0.0 0.0 0.0 0.0 0.0 0.0 0.0 0.0
0.0 0.0 0.0 0.0 0.0 0.0 0.0 0.0
0.0 0.0 0.0 0.0 0.0 0.0 0.0 0.0
0.0 0.0 0.0 0.0 0.0 0.0 0.0 0.0
0.0 0.0 0.0 0.0 0.0 0.0 0.0 0.0
00000000: 0000 0000 0000 0000 0000 0000 0000 0000
00000010: 0000 0000 0000 0000 0000 0000 0000 0000
00000020: 0000 0000 0000 0000 0000 0000 0000 0000
00000030: 0000 0000 0000 0000 0000 0000 0000 0000
00000040: 0000 0000 0000 0000 0000 0000 0000 0000
00000050: 0000 0000 0000 0000 0000 0000 0000 0000
00000060: 0000 0000 0000 0000 0000 0000 0000 0000
00000070: 0000 0000 0000 0000 0000 0000 0000 0000
00000080: 0000 0000 0000 0000 0000 0000 0000 0000
00000090: 0000 0000 0000 0000 0000 0000 0000 0000
000000a0: 0000 0000 0000 0000 0000 0000 0000 0000
000000b0: 0000 0000 0000 0000 0000 0000 0000 0000
000000c0: 0000 0000 0000 0000 0000 0000 0000 0000
000000d0: 0000 0000 0000 0000 0000 0000 0000 0000
000000e0: 0000 0000 0000 0000 0000 0000 0000 0000
000000f0: 0000 0000 0000 0000 0000 0000 0000 0000
00000100: 0000 0000 0000 0000 0000 0000 0000 0000
00000110: 0000 0000 0000 0000 0000 0000 0000 0000
00000120: 0000 0000 0000 0000 0000 0000 0000 0000
00000130: 0000 0000 0000 0000 0000 0000 0000 0000
00000140: 0000 0000 0000 0000 0000 0000 0000 0000
00000150: 0000 0000 0000 0000 0000 0000 0000 0000
00000160: 0000 0000 0000 0000 0000 0000 0000 0000
00000170: 0000 0000 0000 0000 0000 0000 0000 0000
00000180: 0000 0000 0000 0000 0000 0000 0000 0000
00000190: 0000 0000 0000 0000 0000 0000 0000 0000
000001a0: 0000 0000 0000 0000 0000 0000 0000 0000
000001b0: 0000 0000 0000 0000 0000 0000 0000 0000
000001c0: 0000 0000 0000 0000 0000 0000 0000 0000
000001d0: 0000 0000 0000 0000 0000 0000 0000 0000
000001e0: 0000 0000 0000 0000 0000 0000 0000 0000
000001f0: 0000 0000 0000 0000 0000 0000 0000 0000

action_model._discrete_distribution.branches.0.weight f4 [5, 128]
-0.007690692 -0.011449697 -0.0065720114 0.0053717224 0.0103014065 0.0016061337 -0.013957634 0.0057114195
-0.0038178158 0.017423695 -0.0029961155 0.0014700567 -0.006833413 -0.012984079 0.0009942026 0.014408308
-0.0037646524 -0.0054138945 0.021600062 0.002778073 -0.006668597 0.010151998 -0.0010285542 0.0052946364
0.005387841 -0.004153523 0.004531429 -0.0073604765 -0.002885137 0.0002367741 -0.010743539 0.00562343
-0.0009872133 -0.002853386 0.005629702 -0.007901989 0.011562504 0.010350249 -0.0052445866 -0.00016405796
0.006218822 0.0058449893 0.0021114193 0.009581437 0.013095537 0.02093663 0.022089658 -0.002951514
0.0038153243 -0.008674509 7.204533e-05 0.0020920131 -0.006800224 -0.0055615753 -0.015373567 0.0010920643
0.010372497 -0.008512463 0.00021683823 -0.013005788 0.00051624 0.003731779 0.00829042 -0.00400295
0.0018024525 -0.01326852 -0.0114085935 0.0060690497 -0.0065574134 0.0031966509 0.007210556 0.005124315
0.0006671115 -0.0014083352 0.0048096664 -0.015791783 -0.0022284733 -0.0006994507 -0.011270024 0.004583614
0.010184893 -0.0032144792 0.016795715 -0.005143502 0.009798097 0.0028723215 -0.01070648 0.005292047
0.002059659 0.0067680017 0.004416005 -0.01666716 0.0019191152 0.010865352 -0.0025336207 0.003167582
-0.008293115 -0.012507317 0.0033920356 -0.0043323333 0.003303437 -0.0010751508 0.014624021 0.0016971038
0.013346012 0.0037121996 0.0076524727 -0.005042752 0.0019004465 -0.0017915557 -0.007290102 0.0024959007
-0.027994365 -0.0044877655 0.017510692 -0.00040754527 0.006174105 0.009924269 0.0049150283 -0.0023168467
0.00048053317 0.0009954137 0.008288144 -0.010787159 -0.009587738 -0.0046973466 -0.0016789864 -0.0046156845
0.0006019491 -0.004265231 0.007819852 0.0066786422 0.014841839 0.024273193 -0.002534301 0.0018431494
0.003045553 0.009476875 0.009963069 8.795723e-05 -0.016637756 -0.016311746 0.0068588913 -0.011658877
-0.00035776687 -0.004214515 -0.0096004885 0.010936442 -0.008542905 -0.011396501 8.0697246e-05 0.016126791
-0.011534283 0.008914792 0.012204522 0.0032343424 -0.0017040492 -0.009605647 0.0026454658 -0.006453793
0.000429459 0.013815518 -0.008128926 -0.0037101933 0.0035548308 0.0068340073 -0.0005540568 0.0064791963
0.0012802017 0.0069723986 -0.015888413 0.0040732604 0.0030920296 -0.002130492 0.0013310616 0.0077659064
0.001497288 0.0069046053 0.011794892 0.0012183673 0.007871114 -0.0021801942 0.010597291 -0.010951829
-0.003198847 0.0065017827 0.0027602576 0.0062593855 0.014911172 0.0061176713 -0.0035498037 -0.0071140598
0.00711704 0.006392443 -0.007840105 0.0069525735 0.0016149273 0.006315972 0.017299475 0.009343853
-3.206236e-05 -0.0060893963 0.010868746 -0.008230209 0.0034630548 -0.016469752 -0.013439501 0.00841995
0.017290479 0.0005583272 0.0025345364 0.00459231 -0.011057577 0.011118521 -0.021204509 0.0029823324
0.011420214 8.469592e-05 0.0005714768 -0.011644553 -0.0059747933 0.019551693 -0.0009038032 -0.011993365
0.013221442 0.001426782 0.0013084762 0.021981925 0.0025366216 0.0047638784 0.0020748943 0.0067400136
-0.0030817552 0.0083251465 -0.0015533939 -0.025043508 -0.0047821933 -0.015315065 -0.001959339 0.011559914
-0.0031687622 -0.006225849 0.013215437 0.009333787 0.003085668 -0.0043608323 -0.009220156 0.010288125
0.0077895867 0.0011252015 -0.0028577843 -0.011445617 -1.6964426e-05 0.001249761 -0.007414926 -0.0077644326
00000000: 3302 fcbb 8397 3bbc 075a d7bb 4605 b03b
00000010: 3bc7 283c e784 d23a 8fae 64bc dc26 bb3b
00000020: 5234 7abb 23bc 8e3c 7a5a 44bb ebae c03a
00000030: d3ea dfbb 2dbb 54bc e74f 823a d310 6c3c
00000040: 63b8 76bb 0a67 b1bb 9df2 b03c 5510 363b
00000050: 3f84 dabb 9154 263c 8dd0 86ba a17e ad3b
00000060: 7c8c b03b 471a 88bb 627c 943b 2730 f1bb
00000070: 9114 3dbb 9046 7839 ab05 30bc c044 b83b
00000080: 6265 81ba e0ff 3abb 5d79 b83b 5877 01bc
00000090: a870 3d3c 1794 293c c8da abbb f906 2cb9
000000a0: 43c7 cb3b 5387 bf3b bd5f 0a3b 76fb 1c3c
000000b0: aa8e 563c 4c83 ab3c 5ff5 b43c 306e 41bb
000000c0: 850a 7a3b 871f 0ebc 0b17 9738 281a 093b
000000d0: 6ad4 debb e03d b6bb 6ae1 7bbc 9923 8f3a
000000e0: 68f1 293c dc77 0bbc 125f 6339 3b16 55bc
000000f0: 4854 073a dd90 743b 8bd4 073c 2e2b 83bb
00000100: 4540 ec3a 3564 59bc 1ceb 3abc e1de c63b
00000110: 92df d6bb e77e 513b 8746 ec3b dfe9 a73b
00000120: 18e1 2e3a e397 b8ba 689a 9d3b c55d 81bc
00000130: 940b 12bb 585b 37ba e8a5 38bc 2432 963b
00000140: 8ade 263c 03aa 52bb 2b97 893c d28a a8bb
00000150: 3388 203c 8f3d 3c3b 3b6a 2fbc e868 ad3b
00000160: 58fb 063b 1dc6 dd3b 23b4 903b 9189 88bc
00000170: d28a fb3a 9704 323c 1a0b 26bb 3597 4f3b
00000180: d8df 07bc 7deb 4cbc ea4c 5e3b 3ff6 8dbb
00000190: 7a7e 583b 13ec 8cba 9799 6f3c 5b71 de3a
000001a0: 3ba9 5a3c 6048 733b 98c1 fa3b ab3d a5bb
000001b0: 6718 f93a a2d2 eaba cfe1 eebb 4492 233b
000001c0: 7054 e5bc 1b0e 93bb 9572 8f3c cdab d5b9
000001d0: 2650 ca3b 6799 223c 3f0e a13b 3dd6 17bb
000001e0: 12f0 fb39 8b78 823a ffca 073c a0bc 30bc
000001f0: e315 1dbc 33ec 99bb 6f11 dcba 2b3f 97bb
00000200: 1fcc 1d3a 5ac3 8bbb d61e 003c 83d8 da3b
00000210: 2f2b 733c 93d8 c63c 8416 26bb d595 f13a
00000220: e797 473b e544 1b3c 243c 233c ae75 b838
00000230: e74b 88bc 36a0 85bc 8dc0 e03b e004 3fbc
00000240: a892 bbb9 ea19 8abb 5e4b 1dbc c32e 333c
00000250: 8af7 0bbc 64b8 3abc 013c a938 551c 843c
00000260: 4afa 3cbc 590f 123c 7af5 473c 43f7 533b
00000270: 675a dfba 0161 1dbc 8d5f 2d3b 577a d3bb
00000280: 0329 e139 7b5a 623c 302f 05bc b726 73bb
00000290: 2af8 683b cfef df3b 1f3e 11ba 704f d43b
000002a0: 71cc a73a b878 e43b 6b28 82bc fc78 853b
000002b0: a6a3 4a3b b99f 0bbb 0477 ae3a 2579 fe3b
000002c0: a640 c43a 0740 e23b 5d3f 413c 9fb1 9f3a
000002d0: d8f5 003c 97e1 0ebb 43a0 2d3c 4d6f 33bc
000002e0: bfa3 51bb e80c d53b 70e5 343b 881b cd3b
000002f0: fd4d 743c bf76 c83b d3a3 68bb 0f1d e9bb
00000300: 0f36 e93b b377 d13b c973 00bc 6ad2 e33b
00000310: f8ab d33a 37f6 ce3b a1b7 8d3c f616 193c
00000320: b27a 06b8 8f89 c7bb d312 323c 00d8 06bc
00000330: 6bf4 623b 93eb 86bc 5a31 5cbc d4f3 093c
00000340: c3a4 8d3c b45c 123a 771a 263b 177b 963b
00000350: d72a 35bc 752a 363c 14b5 adbc 3c73 433b
00000360: d91b 3b3c c79e b138 29cf 153a ccc8 3ebc
00000370: 33c8 c3bb df2a a03c 35ed 6cba d27f 44bc
00000380: bf9e 583c dc02 bb3a 2d81 ab3a 7013 b43c
00000390: 733d 263b 4f1a 9c3b f3fa 073b 55db dc3b
000003a0: 46f7 49bb 3266 083c 409b cbba 0b28 cdbc
000003b0: f2b3 9cbb 0aec 7abc 4168 00bb cb65 3d3c
000003c0: 02ab 4fbb 3502 ccbb 8f85 583c bdec 183c
000003d0: eb38 4a3b 50e5 8ebb 2310 17bc 868f 283c
000003e0: ca3f ff3b 7f7b 933a aa49 3bbb 6686 3bbc
000003f0: d44e 8eb7 05cf a33a e8f8 f2bb c86c febb

action_model._discrete_distribution.branches.0.bias f4 [5]
0.0 0.0 0.0 0.0 0.0
00000000: 0000 0000 0000 0000 0000 0000 0000 0000
00000010: 0000 0000

network_body._body_endoder.seq_layers.0.weight f4 [128, 1]
0.06776815 0.820681 0.4357855 -0.6573982 1.0246496 1.169028 -1.4489937 0.29053724
1.7229676 0.88081527 -0.8115164 1.5337636 -0.6391355 0.12201943 0.050525546 0.2633294
-0.77446693 -0.021123962 -0.8941391 0.17205776 -0.4326504 -0.040306468 0.8335698 -0.09677886
1.2482741 2.3130977 0.6746514 -0.15516677 0.79443336 -0.16015618 -0.12040958 -0.6460447
-0.30151823 -0.6493618 0.34349242 -0.15242237 1.1795348 -1.4886099 0.5874956 1.6044347
0.011069803 -1.1948746 1.538314 0.34376553 1.4602221 0.81815374 -0.8095121 0.73003554
-0.4903616 1.3381195 0.25958142 0.23179072 -1.005375 0.2411605 0.6606124 0.013740326
-0.11503587 -0.68628794 2.303797 0.18003951 0.023422845 -0.04702071 -1.7507204 -0.40125215
-1.4948006 -0.05754789 -0.3536099 -1.1906868 0.30771682 -0.006141758 -0.9656073 -0.8453731
-0.40959576 0.4520662 -0.9680481 -0.24272415 -0.30405092 -0.39847746 0.8163244 -0.6228319
0.16103147 -1.3117833 1.50391 -1.4337156 1.0291028 -1.4234306 -0.7754765 -0.24663535
-0.48103744 -1.3722456 0.15033756 -1.6784519 0.38895282 0.14231941 -0.7429882 1.3888929
1.0299863 0.8717273 0.3626233 0.7143873 -0.37596953 -1.3865296 -1.5051852 1.1701456
1.0760409 -0.26059526 -0.32226753 -0.48155832 0.75047904 0.27062133 -0.5884143 -1.1508276
-1.446321 0.8827907 0.8689164 -0.05754131 -1.4045001 -0.9590035 0.7072279 0.6978654
-1.2235042 -0.685905 0.3399503 -1.3384234 -1.6175275 -1.4651012 0.76850986 0.14293441
00000000: 07ca 8a3d 2618 523f 471f df3e 404b 28bf
00000010: b827 833f b6a2 953f a078 b9bf 4cc1 943e
00000020: 348a dc3f 1c7d 613f 8abf 4fbf 5e52 c43f
00000030: 629e 23bf 53e5 f93d e0f3 4e3d 1cd3 863e
00000040: 7743 46bf 290c adbc 4de6 64bf e92f 303e
00000050: 5a84 ddbe 6518 25bd d564 553f ff33 c6bd
00000060: 72c7 9f3f cb09 1440 f4b5 2c3f 0ae4 1ebe
00000070: fc5f 4b3f fbff 23be 4c99 f6bd 2f63 25bf
00000080: 9960 9abe 933c 26bf 3dde af3e 9c14 1cbe
00000090: fffa 963f c58a bebf 1d66 163f 1e5e cd3f
000000a0: 1e5e 353c a7f1 98bf 79e7 c43f 0902 b03e
000000b0: 8fe8 ba3f 8672 513f 2f3c 4fbf 9ce3 3a3f
000000c0: ad10 fbbe 8047 ab3f dbe7 843e 8c5a 6d3e
000000d0: 21b0 80bf c7f2 763e e51d 293f 1b1f 613c
000000e0: ed97 ebbd 91b0 2fbf 6971 1340 475c 383e
000000f0: 44e1 bf3c ca98 40bd 9b17 e0bf ec70 cdbe
00000100: a055 bfbf 56b7 6bbd 5b0c b5be 6d68 98bf
00000110: 0f8d 9d3e cd40 c9bb 0a32 77bf 5f6a 58bf
00000120: 89b6 d1be 3975 e73e 00d2 77bf ae8c 78be
00000130: 90ac 9bbe 3d05 ccbe a3fa 503f e971 1fbf
00000140: 6fe5 243e 84e8 a7bf 1f80 c03f fe83 b7bf
00000150: a4b9 833f f932 b6bf a185 46bf fa8d 7cbe
00000160: 8a4a f6be bea5 afbf 17f2 193e 83d7 d6bf
00000170: d324 c73e 2ebc 113e 7a34 3ebf 3ec7 b13f
00000180: 97d6 833f 8529 5f3f c3a9 b93e 16e2 363f
00000190: 147f c0be cd79 b1bf e9a9 c0bf 55c7 953f
000001a0: b5bb 893f be6c 85be 4000 a5be d08e f6be
000001b0: 651f 403f e18e 8a3e 52a2 16bf 524e 93bf
000001c0: 0c21 b9bf 92fe 613f 4e71 5e3f 70b0 6bbd
000001d0: a9c6 b3bf 4181 75bf e30c 353f 4fa7 323f
000001e0: c99b 9cbf 7897 2fbf f70d ae3e 7551 abbf
000001f0: 240b cfbf 7088 bbbf 10bd 443f 665d 123e

network_body._body_endoder.seq_layers.0.bias f4 [128]
0.0 0.0 0.0 0.0 0.0 0.0 0.0 0.0
0.0 0.0 0.0 0.0 0.0 0.0 0.0 0.0
0.0 0.0 0.0 0.0 0.0 0.0 0.0 0.0
0.0 0.0 0.0 0.0 0.0 0.0 0.0 0.0
0.0 0.0 0.0 0.0 0.0 0.0 0.0 0.0
0.0 0.0 0.0 0.0 0.0 0.0 0.0 0.0
0.0 0.0 0.0 0.0 0.0 0.0 0.0 0.0
0.0 0.0 0.0 0.0 0.0 0.0 0.0 0.0
0.0 0.0 0.0 0.0 0.0 0.0 0.0 0.0
0.0 0.0 0.0 0.0 0.0 0.0 0.0 0.0
0.0 0.0 0.0 0.0 0.0 0.0 0.0 0.0
0.0 0.0 0.0 0.0 0.0 0.0 0.0 0.0
0.0 0.0 0.0 0.0 0.0 0.0 0.0 0.0
0.0 0.0 0.0 0.0 0.0 0.0 0.0 0.0
0.0 0.0 0.0 0.0 0.0 0.0 0.0 0.0
0.0 0.0 0.0 0.0 0.0 0.0 0.0 0.0
00000000: 0000 0000 0000 0000 0000 0000 0000 0000
00000010: 0000 0000 0000 0000 0000 0000 0000 0000
00000020: 0000 0000 0000 0000 0000 0000 0000 0000
00000030: 0000 0000 0000 0000 0000 0000 0000 0000
00000040: 0000 0000 0000 0000 0000 0000 0000 0000
00000050: 0000 0000 0000 0000 0000 0000 0000 0000
00000060: 0000 0000 0000 0000 0000 0000 0000 0000
00000070: 0000 0000 0000 0000 0000 0000 0000 0000
00000080: 0000 0000 0000 0000 0000 0000 0000 0000
00000090: 0000 0000 0000 0000 0000 0000 0000 0000
000000a0: 0000 0000 0000 0000 0000 0000 0000 0000
000000b0: 0000 0000 0000 0000 0000 0000 0000 0000
000000c0: 0000 0000 0000 0000 0000 0000 0000 0000
000000d0: 0000 0000 0000 0000 0000 0000 0000 0000
000000e0: 0000 0000 0000 0000 0000 0000 0000 0000
000000f0: 0000 0000 0000 0000 0000 0000 0000 0000
00000100: 0000 0000 0000 0000 0000 0000 0000 0000
00000110: 0000 0000 0000 0000 0000 0000 0000 0000
00000120: 0000 0000 0000 0000 0000 0000 0000 0000
00000130: 0000 0000 0000 0000 0000 0000 0000 0000
00000140: 0000 0000 0000 0000 0000 0000 0000 0000
00000150: 0000 0000 0000 0000 0000 0000 0000 0000
00000160: 0000 0000 0000 0000 0000 0000 0000 0000
00000170: 0000 0000 0000 0000 0000 0000 0000 0000
00000180: 0000 0000 0000 0000 0000 0000 0000 0000
00000190: 0000 0000 0000 0000 0000 0000 0000 0000
000001a0: 0000 0000 0000 0000 0000 0000 0000 0000
000001b0: 0000 0000 0000 0000 0000 0000 0000 0000
000001c0: 0000 0000 0000 0000 0000 0000 0000 0000
000001d0: 0000 0000 0000 0000 0000 0000 0000 0000
000001e0: 0000 0000 0000 0000 0000 0000 0000 0000
000001f0: 0000 0000 0000 0000 0000 0000 0000 0000

network_body._body_endoder.seq_layers.2.weight f4 [128, 128]
0.21278223 -0.10238473 0.019464932 -0.16422185 -0.19734113 0.008002569 -0.093962505 -0.031812284
0.061799455 -0.124251276 0.015363077 0.002978761 0.106694795 -0.0069257016 0.06536111 -0.29785043
-0.017410848 0.1426532 0.019190492 0.03888612 -0.074753195 -0.008520986 0.10453351 0.07580248
-0.03762914 0.18743989 -0.08844055 0.052949622 -0.03935063 -0.021258086 0.08856206 0.016228855
0.047184497 -0.049267415 0.051871475 -0.035322197 -0.0034795594 -0.088396326 -0.118087515 0.08689475
-0.013489631 -0.047801033 0.08559337 -0.10614181 -0.09685984 0.03517543 0.10354684 0.12643605
0.13255969 0.08066156 0.053029887 -0.018707443 0.0064198147 -0.036111116 0.10176861 0.11764272
-0.18357873 0.024893964 0.016198697 0.024688793 0.0067632156 -0.02819518 0.073183686 -0.061636742
-0.09104726 -0.17236397 0.040430117 -0.022959124 -0.10934733 0.12129298 0.0947265 0.059962295
0.04136789 -0.0073381336 0.18535008 -0.0461903 -0.037850227 0.13536902 -0.0942316 0.010506535
-0.15224215 -0.04403077 -0.12194693 -0.1756774 -0.089270025 0.054685578 -0.021527829 0.026827589
-0.1414519 -0.0451175 0.10336754 -0.047853854 0.06541687 0.04944879 0.108121194 0.013227397
-0.071560055 -0.16274288 -0.0083416505 -0.05941476 0.012136132 -0.027365487 0.007848072 -0.07443236
-0.036107786 0.0064591896 0.10780432 0.049588054 -0.07000327 0.043798756 0.039588977 -0.019570243
0.15206511 0.05358628 -0.025918398 -0.041649196 -0.08643438 0.1379313 -0.096289 0.028079895
0.121885225 -0.18632127 -0.04273457 -0.123905055 -0.1791138 0.0062672137 0.03880551 0.05792443
-0.021065468 0.03363151 0.014734968 0.07772955 -0.008379836 -0.05229967 0.11936519 0.08106871
0.046663266 -0.006424658 -0.016977854 -0.058161702 -0.041834503 0.01262291 0.06394279 -0.096298605
-0.0045079887 0.08910835 0.050501287 0.00458812 0.0036919203 0.008786843 0.12131848 -0.016519384
0.04042435 0.013266377 -0.022930812 0.037331965 0.10314323 -0.039345834 -0.024719529 0.047767583
0.21049632 -0.06154818 -0.1149708 -0.075724706 0.12277845 -0.09993561 0.05485089 -0.23631862
0.029742753 0.044630945 -0.0138626555 -0.09409583 0.15193437 0.07937566 -0.06461758 0.0040088687
0.11055737 -0.06538828 0.045308158 0.15692891 -0.045426246 0.110851824 0.08741117 -0.029586565
0.051954668 -0.20178604 -0.18128055 0.08533026 0.14566226 -0.17681761 0.014145894 0.05597645
0.03896262 -0.16583773 -0.11068782 -0.13626954 0.098717906 0.001450168 0.008169161 -0.006282517
-0.09662227 -0.14952514 -0.13441318 0.060676698 0.10960984 -0.068373285 0.05433853 -0.2030148
-0.049545553 0.062882625 -0.06359333 0.066915296 -0.032042578 0.05996188 -0.062825896 -0.045703277
0.08296254 -0.23926032 -0.028831359 0.008883935 0.12108272 0.0122648105 0.11957762 -0.043276746
-0.18855673 0.00044236748 -0.046063464 -0.13516541 0.018713731 -0.084273055 0.16425008 -0.03933194
-0.08086911 0.1461901 0.12751819 0.05778167 0.03589204 -0.06265417 0.14978227 -0.01586312
-0.07948216 0.025020221 -0.14927544 0.0030945633 0.05238447 0.04622418 -0.09371199 0.042252734
-0.0063395808 -0.13524324 0.11095065 -0.04784388 -0.12691393 -0.05985677 -0.114313714 -0.06547111
00000000: 96e3 593e 16af d1bd ec74 9f3c c629 28be
00000010: cb13 4abe 351d 033c 6a6f c0bd 994d 02bd
00000020: 6d21 7d3d 7477 febd 6ab5 7b3c 5137 433b
00000030: cd82 da3d fff0 e2bb 0cdc 853d da7f 98be
00000040: 32a1 8ebc ae13 123e 6135 9d3c 0d47 1f3d
00000050: 3418 99bd 9b9b 0bbc aa15 d63d 553e 9b3d
00000060: 0321 1abd 3ef0 3f3e 5220 b5bd b4e1 583d
00000070: 202e 21bd 7025 aebc 0660 b53d 60f2 843c
00000080: 8844 413d a1cc 49bd 2f77 543d 02ae 10bd
00000090: 5209 64bb 2209 b5bd ded7 f1bd e0f5 b13d
000000a0: 9d03 5dbc 04cb 43bd 944b af3d e160 d9bd
000000b0: 745e c6bd 1d14 103d 5e10 d43d 7478 013e
000000c0: babd 073e e331 a53d de35 593d 5a40 99bc
000000d0: 4f5d d23b 40e9 13bd 106c d03d abee f03d
000000e0: 10fc 3bbe 6dee cb3c 21b3 843c 2740 ca3c
000000f0: f79d dd3b 94f9 e6bc 54e1 953d cf76 7cbd
00000100: fc76 babd 2e80 30be 0d9a 253d c614 bcbc
00000110: 7ef1 dfbd 7468 f83d f8ff c13d 069b 753d
00000120: 6071 293d ba74 f0bb 69cc 3d3e 0a32 3dbd
00000130: d708 1bbd 2d9e 0a3e 7ffc c0bd 9a23 2c3c
00000140: 5ee5 1bbe 9c59 34bd 50bf f9bd c7e4 33be
00000150: 34d3 b6bd fcfd 5f3d 215b b0bc 88c5 db3c
00000160: c4d8 10be 21cd 38bd 5cb2 d33d 6702 44bd
00000170: 48f9 853d d08a 4a3d a56e dd3d b9b7 583c
00000180: 148e 92bd 12a6 26be 6bab 08bc e45c 73bd
00000190: a1d6 463c 962d e0bc 3395 003c fe6f 98bd
000001a0: c2e5 13bd 9ca7 d33b 83c8 dc3d d81c 4b3d
000001b0: e05d 8fbd 5366 333d 0d28 223d c651 a0bc
000001c0: f5b6 1b3e 4a7d 5b3d d252 d4bc 5998 2abd
000001d0: 8204 b1bd dd3d 0d3e 2b33 c5bd cf07 e63c
000001e0: f69e f93d 01cb 3ebe 720a 2fbd efc1 fdbd
000001f0: 9c69 37be 335d cd3b 87f2 1e3d 2b42 6d3d
00000200: 7d91 acbc 32c1 093d ef6a 713c ac30 9f3d
00000210: 944b 09bc 2e38 56bd bd75 f43d 5a07 a63d
00000220: fb21 3f3d f085 d2bb 2415 8bbc f73a 6ebd
00000230: a85a 2bbd 52d0 4e3c 70f4 823d 3438 c5bd
00000240: c0b7 93bb 707e b63d 70da 4e3d f157 963b
00000250: 25f4 713b b1f6 0f3c d375 f83d a953 87bc
00000260: 0194 253d 385b 593c 66d9 bbbc 67e9 183d
00000270: c23c d33d 1929 21bd 9c80 cabc f1a7 433d
00000280: 598c 573e f219 7cbd d075 ebbd 8e15 9bbd
00000290: 4573 fb3d 0bab ccbd 54ab 603d 82fd 71be
000002a0: 13a7 f33c f0ce 363d 3120 63bc 51b5 c0bd
000002b0: af94 1b3e b58f a23d 3956 84bd d45c 833b
000002c0: e76b e23d 4aea 85bd 0c95 393d f9b1 203e
000002d0: df10 3abd 4806 e33d a104 b33d 865f f2bc
000002e0: 6bce 543d 00a1 4ebe 9ca1 39be a2c1 ae3d
000002f0: 7d28 153e ad0f 35be 2ec4 673c 9047 653d
00000300: 4597 1f3d 5ed1 29be 4cb0 e2bd 3e8a 0bbe
00000310: 9d2c ca3d 9013 be3a f2d7 053c 93dd cdbb
00000320: e6e1 c5bd 1e1d 19be 9ca3 09be 2188 783d
00000330: 207b e03d 4b07 8cbd 1492 5e3d 1de3 4fbe
00000340: 47f0 4abd 9bc8 803d 383d 82bd e30a 893d
00000350: 143f 03bd 979a 753d ddaa 80bd 5c33 3bbd
00000360: 44e8 a93d a800 75be be2f ecbc ed8d 113c
00000370: 38fa f73d 58f2 483c 1ce5 f43d f542 31bd
00000380: 0415 41be 8fed e739 0bad 3cbd cd68 0abe
00000390: 8a4d 993c 5a97 acbd 2c31 283e 871a 21bd
000003a0: b49e a5bd dcb2 153e 2194 023e 79ac 6c3d
000003b0: 8803 133d d450 80bd 8660 193e 60f3 81bc
000003c0: 8bc7 a2bd 35f7 cc3c a9db 18be 28ce 4a3b
000003d0: 1991 563d 9155 3d3d 12ec bfbd 3411 2d3d
000003e0: 42bc cfbb 347d 0abe 183a e33d f2f7 43bd
000003f0: baf5 01be 5f2c 75bd 4f1d eabd b815 86bd

network_body._body_endoder.seq_layers.2.bias f4 [128]
0.0 0.0 0.0 0.0 0.0 0.0 0.0 0.0
0.0 0.0 0.0 0.0 0.0 0.0 0.0 0.0
0.0 0.0 0.0 0.0 0.0 0.0 0.0 0.0
0.0 0.0 0.0 0.0 0.0 0.0 0.0 0.0
0.0 0.0 0.0 0.0 0.0 0.0 0.0 0.0
0.0 0.0 0.0 0.0 0.0 0.0 0.0 0.0
0.0 0.0 0.0 0.0 0.0 0.0 0.0 0.0
0.0 0.0 0.0 0.0 0.0 0.0 0.0 0.0
0.0 0.0 0.0 0.0 0.0 0.0 0.0 0.0
0.0 0.0 0.0 0.0 0.0 0.0 0.0 0.0
0.0 0.0 0.0 0.0 0.0 0.0 0.0 0.0
0.0 0.0 0.0 0.0 0.0 0.0 0.0 0.0
0.0 0.0 0.0 0.0 0.0 0.0 0.0 0.0
0.0 0.0 0.0 0.0 0.0 0.0 0.0 0.0
0.0 0.0 0.0 0.0 0.0 0.0 0.0 0.0
0.0 0.0 0.0 0.0 0.0 0.0 0.0 0.0
00000000: 0000 0000 0000 0000 0000 0000 0000 0000
00000010: 0000 0000 0000 0000 0000 0000 0000 0000
00000020: 0000 0000 0000 0000 0000 0000 0000 0000
00000030: 0000 0000 0000 0000 0000 0000 0000 0000
00000040: 0000 0000 0000 0000 0000 0000 0000 0000
00000050: 0000 0000 0000 0000 0000 0000 0000 0000
00000060: 0000 0000 0000 0000 0000 0000 0000 0000
00000070: 0000 0000 0000 0000 0000 0000 0000 0000
00000080: 0000 0000 0000 0000 0000 0000 0000 0000
00000090: 0000 0000 0000 0000 0000 0000 0000 0000
000000a0: 0000 0000 0000 0000 0000 0000 0000 0000
000000b0: 0000 0000 0000 0000 0000 0000 0000 0000
000000c0: 0000 0000 0000 0000 0000 0000 0000 0000
000000d0: 0000 0000 0000 0000 0000 0000 0000 0000
000000e0: 0000 0000 0000 0000 0000 0000 0000 0000
000000f0: 0000 0000 0000 0000 0000 0000 0000 0000
00000100: 0000 0000 0000 0000 0000 0000 0000 0000
00000110: 0000 0000 0000 0000 0000 0000 0000 0000
00000120: 0000 0000 0000 0000 0000 0000 0000 0000
00000130: 0000 0000 0000 0000 0000 0000 0000 0000
00000140: 0000 0000 0000 0000 0000 0000 0000 0000
00000150: 0000 0000 0000 0000 0000 0000 0000 0000
00000160: 0000 0000 0000 0000 0000 0000 0000 0000
00000170: 0000 0000 0000 0000 0000 0000 0000 0000
00000180: 0000 0000 0000 0000 0000 0000 0000 0000
00000190: 0000 0000 0000 0000 0000 0000 0000 0000
000001a0: 0000 0000 0000 0000 0000 0000 0000 0000
000001b0: 0000 0000 0000 0000 0000 0000 0000 0000
000001c0: 0000 0000 0000 0000 0000 0000 0000 0000
000001d0: 0000 0000 0000 0000 0000 0000 0000 0000
000001e0: 0000 0000 0000 0000 0000 0000 0000 0000
000001f0: 0000 0000 0000 0000 0000 0000 0000 0000

value_heads.value_heads.extrinsic.weight f4 [1, 128]
-0.03798069 0.12526393 0.12816063 0.046081245 -0.10143387 -0.19724378 0.1467374 -0.1827429
-0.005672142 -0.21071066 0.10568592 -0.024376512 0.07511526 0.12741017 -0.087528154 0.019282907
-0.0032072365 -0.09232032 0.099421054 -0.20574261 -0.1988934 0.1729649 0.18471587 -0.023064435
0.09890649 0.008179888 0.1577923 0.19833279 0.19206288 -0.16164902 -0.21113649 0.032957062
0.04307145 -0.1500009 -0.04681696 0.1033431 0.1899707 -0.005144313 0.18404132 -0.16932458
-0.17222628 0.080789715 0.03829825 0.05023676 0.0853605 0.107910335 -0.0201834 -0.15913342
-0.09035501 0.15027493 0.14813524 0.018892556 0.09454471 -0.1426863 0.057976514 0.19671056
0.18951777 -0.01905483 0.17159495 -0.11104454 0.062992364 0.15607536 0.16895998 -0.10034233
-0.15015183 -0.15009004 -0.071043774 -0.05606404 -0.21331269 0.18571025 0.11317539 -0.07335208
-0.14450428 0.14110914 -0.10182139 0.18841544 -0.14747813 -0.14441186 0.20299932 0.074062884
-0.14569917 0.18104273 -0.1668365 0.18471152 0.055015564 0.012540713 -0.2044474 0.0015982538
-0.08004384 -0.13055477 0.16205716 0.077083796 -0.0058074296 0.014485255 0.14962667 -0.15382367
0.112137884 0.15097737 -0.0926584 0.16765982 -0.056643605 -0.07913576 0.030622527 -0.16252801
-0.14371113 0.1448743 -0.13315603 0.102597356 0.045844853 -0.039341792 -0.057521477 -0.12712213
-0.06949565 -0.07774882 -0.03948173 -0.075223416 0.08719003 0.06320241 -0.09133689 0.01415582
-0.16555487 0.20858279 -0.109773725 -0.04714164 -0.11541883 -0.20606357 0.09156877 0.20271936
00000000: a491 1bbd 3045 003e 8a3c 033e b0bf 3c3d
00000010: 90bc cfbd 46fa 49be 5442 163e f420 3bbe
00000020: 60dd b9bb 89c4 57be dc71 d83d 40b1 c7bc
00000030: 08d6 993d d077 023e f641 b3bd 30f7 9d3c
00000040: 8030 52bb 7012 bdbd 449d cb3d 31ae 52be
00000050: b6aa 4bbe b61d 313e 2826 3d3e a0f1 bcbc
00000060: 7c8f ca3d f004 063c 4e94 213e c017 4b3e
00000070: 22ac 443e 5287 25be 2a34 58be fcfd 063d
00000080: b06b 303d d699 19be 24c3 3fbd 8ca5 d33d
00000090: ae87 423e a091 a8bb 5475 3c3e 6c63 2dbe
000000a0: 165c 30be 1475 a53d a0de 1c3d 10c5 4d3d
000000b0: 7cd1 ae3d 1800 dd3d a857 a5bc dff3 22be
000000c0: 0c0c b9bd ace1 193e c4b0 173e 90c4 9a3c
000000d0: a8a0 c13d 5c1c 12be c878 6d3d 7e6e 493e
000000e0: f210 423e e018 9cbc 96b6 2f3e 526b e3bd
000000f0: 2402 813d 38d2 1f3e d803 2d3e 4880 cdbd
00000100: 67c1 19be 34b1 19be 667f 91bd 68a3 65bd
00000110: a46e 5abe d42a 3e3e 80c8 e73d 9e39 96bd
00000120: eef8 13be ea7e 103e bc87 d0bd faef 403e
00000130: 8204 17be b4e0 13be 0edf 4f3e 48ae 973d
00000140: 2a32 15be 4463 393e 30d7 2abe 0425 3d3e
00000150: 0058 613d 9077 4d3c a95a 51be 807c d13a
00000160: 06ee a3bd 26b0 05be 50f2 253e 1cde 9d3d
00000170: 404c bebb 9053 6d3c bc37 193e f483 1dbe
00000180: 8ca8 e53d d099 1a3e b0c3 bdbd 04af 2b3e
00000190: 2003 68bd ee11 a2bd 18dc fa3c be6d 26be
000001a0: 0329 13be ee59 143e 0e5a 08be 901e d23d
000001b0: d0c7 3b3d dc24 21bd a49b 6bbd 4e2c 02be
000001c0: bc53 8ebd c63a 9fbd 98b7 21bd bc0e 9abd
000001d0: b090 b23d 4470 813d d60e bbbd d0ed 673c
000001e0: 3787 29be ba96 553e 0cd1 e0bd 9817 41bd
000001f0: b560 ecbd 5402 53be 6888 bb3d aa95 4f3e
