Project/Assets/ML-Agents/Examples/MyTest/Scripts/TFModels/MyTest1Models/Test8/MoveToGoal/MoveToGoal-69800.pt (torch, 451980 bytes, 42 tensors)

network_body._body_endoder.seq_layers.0.weight f4 [128, 6]
000000 97 6f c3 be e4 b1 06 bf f0 97 bb 3b 46 f4 84 3e
       -0.38171074 -0.5261519 0.0057248995 0.25967616
000010 c5 67 2f 3d 13 7a ea be b3 7b a8 3e 93 ac dd bd
       0.04282357 -0.4579626 0.32906875 -0.108239315
000020 c9 7c 45 bf 18 c2 c7 3e 3c 0d 68 3e 75 9e 84 3c
       -0.7714353 0.3901527 0.22661299 0.01618884
000030 4a 4f 46 bd c8 49 99 3e 1f 11 19 3f ea 49 30 be
       -0.04841546 0.29939103 0.5979175 -0.17215696
000040 f7 c6 83 be 1c 05 3b bf d7 6b 00 3f 36 22 40 be
       -0.25737736 -0.7305467 0.5016455 -0.1876305
000050 15 58 31 3e cc 4c 0a 3f 27 0f 6c 3d a7 3e 68 3d
       0.17318757 0.5402343 0.057631638 0.056700375
000060 6c 30 2e 3f 9e bc 39 3f 9b f0 1b 3e bd 8e 13 3f
       0.68042636 0.7255343 0.15228502 0.57639676
000070 ac 99 df be bf 34 3d be cb 43 83 3e 5a 1f 78 3e
       -0.4367193 -0.18477152 0.2563766 0.2423071
000080 51 88 89 3c 72 c5 ad be 64 4d b1 be 94 b7 6d be
       0.016788634 -0.339397 -0.34629357 -0.23214561
000090 c2 1a 24 3e ff d1 24 3f 01 ad c4 bd e3 de 51 be
       0.16025832 0.6438293 -0.096033104 -0.20495181
0000a0 41 71 6f 3e d0 e8 c3 bd 12 78 f6 3d 4d 3e bf 3b
       0.23383047 -0.0956589 0.1203462 0.0058362843
0000b0 5e 5e 0c bd bf ad c0 3e 0a a5 37 3e f2 21 ca 3e
       -0.034269683 0.37632558 0.17934051 0.39479023
0000c0 2b f8 47 3f 47 15 9f 3e 6c f3 12 3e b6 e4 86 bf
       0.7811305 0.3107092 0.1435067 -1.0538547
0000d0 c3 12 48 3d ff b4 7d 3f 7f 1f d2 bd ba 24 50 3d
       0.048846018 0.99104303 -0.10259914 0.050816275
0000e0 55 b4 bc be 6c f6 0c bf 17 4b c1 3e c6 a0 64 3f
       -0.36856332 -0.5506351 0.37752602 0.8930782
0000f0 99 29 28 bf 14 2d 4e bf ef 46 61 3e 6f 98 72 bf
       -0.65688473 -0.80537534 0.21999715 -0.94763845
000100 d8 22 09 3e 35 46 59 3e 4d 61 bd be c7 bb cf bf
       0.13392198 0.21218188 -0.36988297 -1.622918
000110 91 7c 0e bf 6b 5f b1 3e a0 be 5a 3f 44 a7 9e bd
       -0.55658823 0.3464311 0.8544712 -0.07746747
000120 d2 4f fc be de 62 51 3e 35 b2 e6 be 44 c4 1b bf
       -0.49279648 0.20447871 -0.45057836 -0.6084635
000130 3d 12 50 bc a7 61 03 bf d6 b6 20 bf 7d 2f c3 be
       -0.012699661 -0.5132088 -0.62778986 -0.38122168
000140 d2 bb 3e 3f 67 57 cf bd 08 52 36 be 2c b5 f7 3d
       0.7450534 -0.101240925 -0.1780473 0.12095103
000150 1e 82 11 3e c0 6f 20 3e c0 2d 01 3e 9e 24 a4 be
       0.14209792 0.15667629 0.12615108 -0.32059187
000160 ec 32 2d 3e 2a fc 0c be 2c a3 15 3e 38 c2 94 3c
       0.16913956 -0.13768068 0.14613026 0.018159017
000170 f8 ff 6a 3a b6 35 6d bd bd cd 23 bf fa b7 9a be
       0.0008964534 -0.05791255 -0.63985807 -0.30218488
000180 65 97 56 be 49 09 08 bf 75 84 3b 3e d6 99 e2 be
       -0.2095619 -0.5313917 0.18312247 -0.44257993
000190 fa 34 02 be e0 c1 05 bf 36 90 06 be 5d 0e 0c bf
       -0.12715521 -0.52248955 -0.1314095 -0.54709417
0001a0 1c d5 47 3e 56 bc 9d be bd 19 d6 bd 09 0a ad 3e
       0.19514889 -0.3080775 -0.10454128 0.3379672
0001b0 b1 ee 41 3e bb 4f 84 be fb da 33 bf 24 cb 90 be
       0.1893871 -0.2584208 -0.7025601 -0.28279984
0001c0 ed bf 11 bf 6f ce 5d 3f 5d 70 bc 3e 52 4b d3 3d
       -0.5693348 0.8664312 0.36804476 0.103171006
0001d0 4e 2f ff 3d 03 f0 c8 bd 91 ca 2b 3f 1d 79 da be
       0.124601945 -0.098114036 0.67105967 -0.42670527
0001e0 b9 ac 90 be ee b7 e8 bd 8e 42 69 3e 0f c9 89 be
       -0.28256777 -0.11363207 0.22779295 -0.26911208
0001f0 73 a8 1d be 71 78 19 bd bb eb 66 3e 17 65 86 be
       -0.1539629 -0.037468378 0.22550862 -0.26249
000200 f6 94 ac bd 13 f7 9d bf 2f 33 c3 3e 9d a9 fd be
       -0.084268495 -1.2341026 0.38124987 -0.49543467
000210 c5 2d f9 be 0a f9 fb 3d 77 ed 88 3d b4 66 31 be
       -0.48667732 0.1230336 0.06685918 -0.17324334
000220 7c ba a9 be a4 51 c3 be e1 66 53 bf 28 2f ba be
       -0.3315009 -0.38148224 -0.82578856 -0.36364102
000230 71 0d 28 bf b4 76 0c be ac 4a 27 be db 90 47 3e
       -0.6564551 -0.13717157 -0.16337079 0.19488852
000240 65 f2 99 be a8 c4 92 3d b2 75 55 be b5 f8 c9 3e
       -0.30067745 0.071664155 -0.20845678 0.3944756
000250 f5 6a 9a 3e 6b 6f 7a 3e f3 d2 58 3d 10 55 38 bf
       0.30159727 0.24456565 0.05293555 -0.72004795
000260 99 f2 db 3e 5a b8 3f bf a5 4e cb 3e 65 60 5b bf
       0.42958525 -0.74890673 0.3970844 -0.8569396
000270 70 31 1f bf fe cd 65 bf 16 55 bb bd 06 ee c2 3e
       -0.6218481 -0.89767444 -0.09147088 0.38072222
000280 38 7b 39 3f ac c4 30 be 78 2f 57 3e 53 0f b8 3e
       0.7245364 -0.17262524 0.21014202 0.3594919
000290 f4 cb 19 bf d0 bb ac 3d 0c 48 1e bc d4 25 2e bf
       -0.6007683 0.0843426 -0.009660732 -0.6802647
0002a0 6e 2d 0f bc 05 fe aa be e0 39 32 3d 90 70 1c 3e
       -0.008738859 -0.33396927 0.043512225 0.15277314
0002b0 39 b1 9c be b6 fc 0f 3e db 51 92 be 63 81 d6 3e
       -0.3060396 0.14061245 -0.28578076 0.4189559
0002c0 ee e8 a1 be ec 8a 05 bf 33 ea 6a 3e 93 78 26 3f
       -0.31623024 -0.521651 0.22940902 0.6502773
0002d0 45 43 97 3e 0e 41 41 bf 60 68 92 3c 8a 17 9b be
       0.2954351 -0.7548989 0.017872036 -0.30291396
0002e0 5d 92 2b be 74 9e 3a 3e dc ab 0e 3f ca 76 1b be
       -0.16755052 0.18224508 0.55730987 -0.15182033
0002f0 be ca 2b 3e e4 db 13 3f 96 f1 44 bf 9a 3e aa 3d
       0.16776559 0.577574 -0.7693113 0.083127216
000300 12 17 38 3f b7 2c 0d 3f 4d c5 ec be ff 08 1f 3f
       0.719102 0.55146354 -0.4624428 0.621231
000310 0c f3 33 3f 8a 26 9f 3e da 2a 05 bf dc c6 3d be
       0.70292735 0.3108409 -0.5201851 -0.1853289
000320 9f 27 0d be 25 13 f4 3e 17 83 fe be 54 cc 37 3f
       -0.13784645 0.47670856 -0.4970939 0.71796155
000330 3a 94 33 bf 25 7f f1 3d 7e 98 01 be 96 3c 88 3e
       -0.7014805 0.11791829 -0.12655827 0.26608723
000340 a3 21 eb bd b6 ee 4d 3f 5b 91 05 3e 7b 13 c7 3e
       -0.11481025 0.8044237 0.1304373 0.3888205
000350 c3 87 2c bf 07 3b c5 3e ef 23 c4 3e 2e 2e ce be
       -0.67394656 0.38521597 0.38308665 -0.40269607
000360 68 2e 6e be 59 0b 20 3e e2 48 fa 3e 1b 31 19 bd
       -0.2325989 0.15629329 0.4888373 -0.037400346
000370 fe 62 a6 3e a2 c1 a8 be 77 28 88 3e 81 75 26 be
       0.324974 -0.3296023 0.26593372 -0.16255762
000380 9e a3 9a bd b5 60 a3 3d a5 e8 ee 3d e0 0f c5 be
       -0.07550739 0.0797743 0.11665467 -0.38488674
000390 ce cf 00 3f b4 1d ad 3d 40 68 8c be c7 1f 36 3f
       0.50317085 0.08452931 -0.27423286 0.7114224
0003a0 9b cb 02 3d ff d0 2e 3e bc 4b 80 3e 18 3f 7c 3d
       0.031932455 0.17071913 0.2505778 0.06158361
0003b0 82 3a fd 3e 66 4b 91 be 5a 58 2b 3d 73 7b 63 3c
       0.494587 -0.28377837 0.041832305 0.013884413
0003c0 aa 39 8a bd 56 87 e4 be 9e b3 df 3d a4 03 5c 3e
       -0.0674928 -0.44634503 0.10922931 0.21485764
0003d0 a7 5d 19 3e c1 08 41 bf 21 e5 69 3f 7f 8f ec be
       0.14977132 -0.7540398 0.9136525 -0.4620323
0003e0 19 02 24 3d 63 b8 0a 3f 30 d8 ef 3c 65 76 a9 3e
       0.040041063 0.541876 0.02927789 0.3309814
0003f0 7d 66 a7 be 98 81 82 be 51 e4 fa 3d 41 a1 1c 3f
       -0.3269538 -0.25489497 0.12250579 0.61183554

network_body._body_endoder.seq_layers.0.bias f4 [128]
000000 89 a1 8b b7 33 6b a8 b9 21 cf 1a 3a 36 11 4d bb
       -1.6645312e-05 -0.00032123327 0.00059054984 -0.0031290776
000010 9b fa c0 3a fd be a9 3a 1f 6d 45 3a 8c 8a 06 bb
       0.0014723124 0.0012950596 0.0007531214 -0.0020529358
000020 85 81 a1 3a e0 2d ad bb 2d 89 5f 3b cc ae 12 ba
       0.0012321925 -0.0052850097 0.0034108863 -0.0005595505
000030 c4 5b c6 ba ea 1f 5f bb a3 af d5 ba 8b bf 86 ba
       -0.001513355 -0.0034046122 -0.0016302954 -0.0010280473
000040 1f bb 01 ba 41 b0 91 39 69 d9 61 3a eb 55 55 3b
       -0.00049488427 0.00027787875 0.00086154655 0.0032552432
000050 30 dd a1 ba d1 5d e8 ba 3a 0b 80 ba 2d 44 1a bb
       -0.0012349244 -0.0017728155 -0.0009768971 -0.002353917
000060 7d 8f cf ba c0 26 8f 3a c0 f1 c6 ba 57 40 f6 3a
       -0.001583561 0.0010921583 -0.0015178248 0.0018787485
000070 bc 6a 14 b9 25 8a aa ba 19 8b 93 ba d8 a2 41 bb
       -0.00014154142 -0.0013011141 -0.0011256664 -0.0029546525
000080 ba f9 d8 3a 90 df 52 3a 8c fa b2 bb 1c ae b7 3a
       0.0016553917 0.00080441777 -0.0054619964 0.0014013681
000090 14 49 d3 ba bd e0 56 39 99 7b 9d ba e0 9d 3f ba
       -0.0016119801 0.00020492352 -0.0012014984 -0.0007309597
0000a0 7a b2 2a ba f7 a2 1e bb e5 19 9b ba 94 16 8c bb
       -0.00065115804 -0.0024206021 -0.0011833279 -0.0042751525
0000b0 72 85 91 ba 7e 46 de bb 16 59 00 39 29 bd 25 ba
       -0.0011102392 -0.0067833057 0.00012240218 -0.00063224375
0000c0 d6 f4 d0 37 69 41 16 ba 49 cb da b7 cf b5 d0 39
       2.4909543e-05 -0.0005731793 -2.6082287e-05 0.0003980831
0000d0 6c c3 89 3a 27 61 89 ba e5 75 1f bb 00 bc 0f 3b
       0.0010510511 -0.0010481224 -0.0024331745 0.0021932125
0000e0 ec ce 33 ba 31 6a 6e b9 e8 ee 4f 3b c9 e1 7a bb
       -0.0006859142 -0.00022737008 0.0031728093 -0.003828155
0000f0 89 82 85 3a d8 f4 02 bb 86 ca bf 3a c0 da fa ba
       0.0010185997 -0.0019982364 0.00146325 -0.0019138679
000100 17 03 89 3a 35 27 18 bb 6e 34 0c ba 91 84 8d bb
       0.0010453191 -0.0023216729 -0.0005348389 -0.0043187817
000110 77 01 f1 ba 56 f8 d9 b7 c6 6a e5 b9 63 ab 05 bb
       -0.0018387277 -2.5984056e-05 -0.00043757836 -0.0020396344
000120 4a 36 e6 3a ea 34 49 38 ab 38 01 3a 94 4f a0 3a
       0.0017563787 4.7971414e-05 0.00049294037 0.0012230747
000130 e5 5b 2a 3b 37 21 c8 3b d1 6b 73 3a 1d bd a5 38
       0.0025994715 0.006107475 0.000928578 7.903038e-05
000140 fc 31 cd ba d7 66 fe 3a 5c a2 8a b9 0a 6b 90 39
       -0.0015655155 0.0019409311 -0.00026442378 0.0002754557
000150 d6 c8 f7 39 6b e7 61 3b 0e 76 89 b8 b3 7e 65 bb
       0.00047261146 0.0034470211 -6.5546585e-05 -0.0035018146
000160 7f 00 41 bb bc e5 8f b8 53 b6 b3 39 e6 8e 49 bb
       -0.0029449759 -6.861563e-05 0.00034277383 -0.003075534
000170 14 ca 15 bb 1d 27 fc b9 50 69 6e ba 5f ee 8b bb
       -0.0022856044 -0.00048094327 -0.0009094672 -0.0042703594
000180 54 be f1 3a 87 2b 3d bb ae 32 b8 ba b9 53 0c 3b
       0.0018443563 -0.0028865056 -0.001405319 0.0021412207
000190 49 62 88 bb 27 b4 fc 3a ec fc 23 3a eb a2 1a bb
       -0.004162107 0.0019279764 0.0006255645 -0.0023595642
0001a0 5b 04 32 3b ce 2d db ba 84 0f 44 bb 8e c5 16 bb
       0.002716324 -0.0016722025 -0.0029916475 -0.0023005935
0001b0 41 5c 88 38 52 54 9c ba ce c9 23 3b a6 c1 4c b9
       6.502169e-05 -0.0011926985 0.002499211 -0.00019527096
0001c0 6c ec 92 ba c8 40 fe ba 48 bb 95 ba 43 94 1a ba
       -0.0011209375 -0.0019397968 -0.0011423612 -0.00058967265
0001d0 7a b8 6f 39 92 d0 76 3a 54 ed bc 3a 8e 62 0c bb
       0.00022861539 0.00094152347 0.0014413991 -0.0021421048
0001e0 26 8d 42 bb 81 10 26 bb 45 4c 21 ba 4f fe 07 bb
       -0.0029686182 -0.0025339427 -0.00061530276 -0.0020750945
0001f0 d6 fc 00 3a 1c 0b bf b9 be 89 5e 3b 90 46 bb 3a
       0.0004920488 -0.00036438636 0.0033956612 0.0014287997

network_body._body_endoder.seq_layers.2.weight f4 [128, 128]
000000 32 5f ab bd 37 ea 1b bc 6f 29 ce bc 64 35 67 3d
       -0.083677664 -0.00951629 -0.025166241 0.0564474
000010 da 5c 4c 3e 01 9e 10 bd 95 80 92 3d ee 59 82 bd
       0.19957295 -0.035306934 0.07153431 -0.06364809
000020 72 84 bc 3c 2d 87 86 bd 5a 1a 8a 3d 0b b4 b0 3d
       0.023012374 -0.065687515 0.067433074 0.086280905
000030 6d bf 1b bd 06 30 99 bd b8 cf 1b bd 00 76 29 3d
       -0.038024355 -0.07479863 -0.038039893 0.0413723
000040 b4 87 71 bd d9 f4 d0 bc 19 5c 76 bd 19 35 8d bd
       -0.058967307 -0.025507377 -0.060146425 -0.06894893
000050 01 69 42 bd ea af 09 be e6 33 bc 3d b7 d7 e9 bd
       -0.04746342 -0.13446012 0.09189586 -0.114180975
000060 1b a9 9f bd 96 51 cd 3c c8 d5 8a bd 8e 5e db 3c
       -0.07795926 0.025063317 -0.06779057 0.026778486
000070 aa 37 fb bd 1f b0 ff 3d 38 23 06 3e bf 91 43 be
       -0.122664765 0.12484764 0.13099372 -0.19098566
000080 aa 2c d1 3c 1a 6f 5e bd 82 93 12 3e 7c 21 9d bd
       0.025533993 -0.054305173 0.14314082 -0.07672402
000090 cc 87 13 bd 62 01 44 bd e0 06 0f be 57 69 df bc
       -0.036018178 -0.04785288 -0.13967466 -0.02727191
0000a0 1f 10 b6 bd 15 75 a5 3b fb 88 8e 3d 2a ad fe 3d
       -0.088897936 0.0050493577 0.06959721 0.12435372
0000b0 44 3a 7b bd 22 98 00 be da d6 01 3e 76 ff 22 bd
       -0.061334863 -0.12558034 0.12679616 -0.039794408
0000c0 ba bf 89 bd e4 1d 43 bd c2 6e 13 bd 06 cc 40 bd
       -0.06726022 -0.047635928 -0.0359943 -0.047069572
0000d0 c2 b6 21 3c 29 20 78 3d 27 bd b5 3d 1e 30 5d 3d
       0.009870233 0.060577545 0.088739686 0.054000966
0000e0 b8 bc dc bd ac 07 31 3d e7 4f 0b bc 6d 42 85 3e
       -0.10778183 0.043220207 -0.008502937 0.2602724
0000f0 fd b7 34 3d f5 d6 29 3c 2a df fa 3c 8e ca 94 3d
       0.044120777 0.010366191 0.030623991 0.07265197
000100 d7 1e aa bd ff 89 2d 3b d8 0a f3 3d 19 25 c3 bd
       -0.083066635 0.0026479957 0.11867303 -0.0952856
000110 3e a6 f5 3d d2 9f 46 3d 92 38 ca 3d 9c 09 b2 bd
       0.11994599 0.04849226 0.09874071 -0.08693239
000120 76 24 4f 3e 89 74 00 3c cc 36 d7 bc 8f 75 6b 3e
       0.20228752 0.007840284 -0.026271246 0.22994064
000130 2b 99 ab bb 8d 7d 11 be b8 b8 a4 bd 9c f4 72 3c
       -0.005236765 -0.1420805 -0.08043045 0.014828827
000140 e3 66 9e 3d 90 c7 07 bb 1e 64 19 bd b9 c3 b0 3d
       0.07734468 -0.0020718314 -0.037448995 0.08631081
000150 2d 88 17 3d 51 23 a3 bd 10 89 04 be 1f eb 7e 3d
       0.0369951 -0.079657204 -0.1294291 0.062235948
000160 96 f5 d1 bd ec e4 39 bd 6e 2f 6c bd 3d fa dd bd
       -0.1025192 -0.045384333 -0.05766242 -0.10838745
000170 7e 0a b9 bc 76 5b 37 bd a2 bd 2e 3e c6 a3 14 3e
       -0.02258801 -0.04476496 0.17064527 0.145156
000180 cb 72 26 bd b3 b9 a6 bc bf 46 5e bb 1d 53 06 bd
       -0.04063682 -0.02035222 -0.003391668 -0.032794107
000190 11 90 31 be 35 37 7d bd f8 14 f3 bd 54 ce 7e 3d
       -0.17340113 -0.061820228 -0.11869234 0.06220849
0001a0 f7 b5 9c 3d 41 06 1b bd ca 45 08 bd bd 4f 3a 3d
       0.076518945 -0.03784776 -0.03326968 0.0454862
0001b0 d8 1f 82 bd c1 a8 84 3d 6c 05 c4 bd f8 27 64 3e
       -0.0635373 0.064775 -0.09571347 0.22280872
0001c0 7d f9 d5 bc ae bf 08 be b2 9b b7 3d b7 e9 9d 3d
       -0.026119942 -0.1335437 0.089652434 0.07710593
0001d0 3a 3e 78 bc 42 c9 ee 3d 59 6b 23 3e 86 bf c2 bd
       -0.015151555 0.11659481 0.15958919 -0.095091864
0001e0 2f 80 b8 3d 75 03 14 3e 49 9a a6 3d f1 f0 c6 bc
       0.09008824 0.14454444 0.08134896 -0.024284812
0001f0 52 5c bf bd 15 52 e8 3d 7b ae 11 bc 16 68 df bd
       -0.093437806 0.11343781 -0.008891697 -0.10908525
000200 06 0f d9 bd 39 86 cd bd de 64 2b be 39 0b 3c 3e
       -0.105985686 -0.100353666 -0.16737697 0.18363656
000210 d5 af de bc d1 a8 30 3d 70 2e db bc e4 99 92 38
       -0.027183453 0.043129746 -0.026755542 6.990487e-05
000220 b5 6f 8e bc 2a 39 d8 bd e1 fa 61 3b a5 53 91 3d
       -0.01738725 -0.10557778 0.003448181 0.07096032
000230 fb 5c 9a 3d 7a eb 4e bd fa dd 9f bc d0 4e b5 bd
       0.07537266 -0.050517537 -0.019515026 -0.08852923
000240 d9 db 0b bd 9b 3c fe 3d 13 13 12 bd a6 6f 45 3d
       -0.03414521 0.12413903 -0.03566272 0.04820218
000250 07 26 a8 3d ae 91 bb bc 46 fa 77 bd f6 4b 1a be
       0.08210378 -0.022896614 -0.060541414 -0.1506804
000260 2d cf e3 bd ea a7 80 bd 23 d4 aa 3d 80 ed 37 3d
       -0.111235 -0.06282027 0.08341243 0.044904232
000270 fa 73 1d be ca ef fd bd 17 3d 3a bd 4a 98 12 be
       -0.15376273 -0.12399252 -0.045468416 -0.14315906
000280 2e 11 e0 bd 40 a4 62 be b3 b0 86 3c 99 ff 98 bb
       -0.10940777 -0.22132969 0.016441679 -0.0046691415
000290 0b 56 b8 bc da 0f 6f 3d e6 24 8b 3d a3 7c 93 bd
       -0.022501966 0.058364727 0.06794147 -0.07201507
0002a0 4f 6b 4b bd d5 d0 e8 3d 23 e9 0a 3c 38 9c 04 be
       -0.049662884 0.113679565 0.008478436 -0.12950218
0002b0 15 56 d1 3d 3c 93 c6 3d 21 ba 1b 3c c4 ca 33 3e
       0.10221497 0.096960515 0.009504826 0.17557818
0002c0 1f 53 10 bb ff 67 ed 3c f3 d4 07 3d 56 26 28 3e
       -0.00220222 0.028980253 0.03316207 0.16420874
0002d0 77 46 e6 bc 90 86 97 bd df b7 f2 bc 79 10 45 3d
       -0.028109772 -0.07398713 -0.029628692 0.048111413
0002e0 0b 38 a5 bd 50 0b 2d 3c e7 bd 47 bd ba 07 14 bd
       -0.0806733 0.010561779 -0.04876509 -0.03614018
0002f0 73 5b 9d 3d 43 68 17 3d e4 d5 a7 3d 53 55 d0 bc
       0.07683458 0.036964666 0.08195093 -0.02543131
000300 27 53 d0 3d 8a 0a 1f be b7 cf 17 bd 39 25 75 bd
       0.1017211 -0.15531364 -0.037063327 -0.05984995
000310 47 09 83 3c 70 5b 51 3b 36 2b 32 bd eb 59 41 bc
       0.015995635 0.003194537 -0.04349824 -0.011801223
000320 c3 04 ac bd f6 51 10 bd 83 59 19 3e 1c 5e b7 3d
       -0.08399346 -0.035234414 0.14975552 0.08953497
000330 30 39 c3 3a ea 4e d9 3d b4 39 ae bd 6a ba 17 bc
       0.0014894363 0.10610755 -0.085071 -0.009260753
000340 da 0d 80 bd 13 d0 86 3c a9 32 58 3d a7 88 fb bb
       -0.06252642 0.01645664 0.05278269 -0.0076762023
000350 3f 3b 93 bd f2 43 e4 bd d7 b8 68 3d 83 9c 11 3e
       -0.07189035 -0.11145772 0.056816902 0.1421986
000360 fd c5 34 be a6 88 b9 3c 67 15 83 3d 51 74 49 3d
       -0.17653652 0.022648167 0.064005665 0.049183194
000370 75 b0 e0 3d 5b 80 28 39 e5 bc 21 3d 06 29 a3 bd
       0.109711565 0.00016069545 0.039486784 -0.07966809
000380 d0 da 28 3d bb e3 7f bc 4f d1 c2 bd 08 ad 9d 3d
       0.0412243 -0.01561826 -0.09512579 0.07699019
000390 4c ec 1e 3e 9a f5 11 bd f3 76 43 bc 65 70 f5 3d
       0.15519828 -0.035634615 -0.011930215 0.11984328
0003a0 93 d4 f1 bc fc aa 80 bc f0 37 85 bc a9 75 e3 bd
       -0.029520309 -0.015706532 -0.016262025 -0.11106426
0003b0 9c 98 ac 3d df ab b1 3d a4 46 05 be 97 6c a6 3d
       0.084275454 0.0867536 -0.13015229 0.081261806
0003c0 86 9e 77 bd f2 d9 e0 3c 50 68 ad 3b 4d 47 ab 3d
       -0.060453914 0.027447674 0.005291976 0.08363209
0003d0 d6 d8 9f bd dd dc d7 bc ef 96 38 bc b0 99 73 3d
       -0.0780503 -0.026350433 -0.011266454 0.05947274
0003e0 b9 5a ad 3d 2a bb 34 3e b1 23 86 3d ad 71 a4 3d
       0.084645696 0.17649522 0.06549776 0.080294944
0003f0 87 6e 00 bd bc 3c bd bd 8d de 45 3d 4e 4e c5 bd
       -0.031355407 -0.092401 0.048307944 -0.09634076

network_body._body_endoder.seq_layers.2.bias f4 [128]
000000 98 97 77 b9 9b 50 10 3a 12 1b e5 ba 44 f4 3c ba
       -0.00023612229 0.0005505175 -0.0017479381 -0.0007208029
000010 81 43 e5 ba 97 8b df ba ab 91 cb ba 69 33 b3 39
       -0.0017491431 -0.0017055151 -0.0015531083 0.00034179844
000020 6b c7 9e ba 97 11 55 bb 85 f1 54 bb 6c 5d 1f 3a
       -0.0012113875 -0.0032511705 -0.003249259 0.00060792896
000030 fc 10 db ba 49 a8 d5 ba 94 9f 8e 3a 4d 2c 1d bb
       -0.0016713436 -0.0016300763 0.0010881298 -0.0023982704
000040 2a 6e 2c 3b b5 7a 1d bb f6 4b a5 bb 4f 54 82 ba
       0.002631078 -0.0024029438 -0.0050444556 -0.0009943339
000050 b5 48 1f bb da 63 47 3b 2c ec 8f bb 55 9d 1e 3b
       -0.0024304811 0.0030424506 -0.0043921676 0.0024202664
000060 e3 7a f0 ba 46 28 91 ba 59 c9 1c 3a 3d f6 20 bb
       -0.001834717 -0.0011074624 0.0005980931 -0.0024560832
000070 3b 47 9e ba a7 d4 f3 3a e3 41 a2 3b 69 aa 88 ba
       -0.0012075672 0.0018602804 0.004951702 -0.0010426763
000080 f6 ac 82 b9 25 c6 d8 39 b1 da 93 ba cc e0 94 ba
       -0.00024924398 0.0004134636 -0.0011280385 -0.0011358499
000090 6a 59 8e 3a 33 97 4f 3a 68 86 da ba d9 e1 2b b9
       0.0010860388 0.0007918954 -0.0016672136 -0.00016391966
0000a0 4c 02 1f bb 9d f6 30 bb e6 1f dc b9 db 4e 98 b9
       -0.0024262844 -0.0027002462 -0.00041985436 -0.0002905045
0000b0 59 7b 8e 3a ba ba 5d ba f5 06 18 3a 85 14 da ba
       0.0010870501 -0.00084583054 0.00057993765 -0.0016638195
0000c0 9d 76 0c 3a 4f a6 0c 38 81 75 90 ba 67 1d a7 ba
       0.0005358251 3.3533488e-05 -0.0011021347 -0.0012749851
0000d0 dc 1f 4c ba 3e f3 a5 ba 3c cf 1b bb bf e4 17 bb
       -0.000778673 -0.0012660993 -0.0023774644 -0.0023177115
0000e0 a0 77 56 39 eb 9a d3 bb fb c7 85 39 e9 e0 d1 3a
       0.00020453194 -0.0064576766 0.00025516734 0.0016012463
0000f0 7d 13 a9 3b fc 01 a1 3a d6 0b cc 37 db 88 13 bb
       0.005159794 0.0012283917 2.4324207e-05 -0.0022511992
000100 11 9e 04 bb fd af b5 ba 9c 5c 5c bb 70 9e 78 3a
       -0.0020235816 -0.0013861653 -0.0033624535 0.0009484058
000110 e8 a6 40 bb d7 2b 4e b9 df 8a 86 3a 44 47 a8 3a
       -0.002939636 -0.00019662023 0.0010264775 0.0012838622
000120 f1 bf 00 3a 52 97 37 b8 f0 37 c9 3a 24 25 a4 38
       0.0004911414 -4.3771528e-05 0.0015351754 7.8270474e-05
000130 0d 41 5a 3a b3 82 10 3b cd 5c d0 3a 6e 2c 73 39
       0.00083257334 0.002205056 0.0015896797 0.00023190837
000140 ee b8 0d ba b9 5d 7f 39 60 ad a7 ba 4b 90 16 ba
       -0.000540628 0.0002435361 -0.0012792759 -0.0005743547
000150 c8 91 6c 39 d5 00 65 ba a4 84 39 3a e7 bb 51 b9
       0.00022561022 -0.0008735781 0.0007076955 -0.00020001792
000160 9a eb b2 ba 44 26 bb b7 1b 02 58 bb 90 f7 3b b9
       -0.0013650537 -2.2309956e-05 -0.003296024 -0.00017925934
000170 f6 e8 46 b9 f2 58 72 bb b8 3d 2e bb 97 9b 98 b9
       -0.00018969536 -0.0036979285 -0.002658708 -0.00029107623
000180 3a 78 0c bb 4a 28 25 3b d5 12 96 bb 12 91 ed ba
       -0.0021433965 0.0025201016 -0.0045798817 -0.0018124899
000190 3d b0 66 b9 75 e9 ec ba 26 64 cc 3a bc 91 91 ba
       -0.00022000163 -0.0018074947 0.0015593811 -0.0011106054
0001a0 c3 b8 75 ba 36 37 56 bb fb 38 c9 39 57 90 7f ba
       -0.000937354 -0.0032686717 0.0003838016 -0.00097489863
0001b0 18 e8 c3 b9 6c 51 98 ba 5f cc d2 ba 08 89 d5 3a
       -0.00037366222 -0.0011620945 -0.0016082636 0.0016291449
0001c0 15 6b a8 3a d4 20 4a ba 68 09 8f 3b be 9e b1 bb
       0.0012849296 -0.000771058 0.004365135 -0.005420535
0001d0 6e 70 30 bb 3f 95 a3 ba af ed 3a 39 7a 84 45 3a
       -0.0026922482 -0.0012480392 0.00017826886 0.0007534694
0001e0 f4 0b 62 bb 70 00 8c 3a b8 24 c6 ba 6c 76 22 3b
       -0.0034491988 0.0010681283 -0.0015117144 0.0024789823
0001f0 97 b2 53 bb 85 33 36 b9 c0 02 51 bb f9 c8 e5 39
       -0.0032302493 -0.00017376065 -0.0031892508 0.0004382802

action_model._continuous_distribution.log_sigma f4 [1, 2]
000000 00 22 49 3c 40 12 93 3c
       0.012276173 0.017953038

action_model._continuous_distribution.mu.weight f4 [2, 128]
000000 49 4a 16 bc 71 c8 9a bb fe 6b 9c bb 3b d2 b4 3c
       -0.009172984 -0.0047236015 -0.004773616 0.022072902
000010 a9 26 09 bc ae c7 e6 bb 5c 50 b2 3c c0 ea 5e 3b
       -0.008371034 -0.0070428466 0.021766834 0.0034014434
000020 44 c9 9a 3b 08 01 c7 bb f3 8a 01 3c 65 51 35 bb
       0.0047236998 -0.006073121 0.007906663 -0.0027666923
000030 2f 52 91 bc a6 f4 50 bc 64 91 05 3c 4d 18 88 3c
       -0.017739384 -0.012753641 0.00815234 0.01661315
000040 e5 b5 14 bc b7 8e 24 3c 48 f3 0e 3b bb 21 7c 3c
       -0.00907657 0.0100437915 0.0021812487 0.015388901
000050 1d c3 75 bb 3e 38 8a bc 07 da 29 bc 37 7c 4c bb
       -0.003750033 -0.016872521 -0.010366923 -0.0031201968
000060 bc 12 2e bc 00 07 85 bb 0a cf 4b 3c 15 8e 80 bb
       -0.010624584 -0.0040596724 0.012439499 -0.0039231875
000070 2b 98 8c 3c 09 e2 02 bc b2 2d a2 3b 34 fc 0f bc
       0.017162403 -0.007988461 0.004949295 -0.008788157
000080 43 bf f7 bb 25 e4 0a 3d bf ca c3 bc c7 cb 81 bc
       -0.007560642 0.03390898 -0.023900388 -0.015844239
000090 b6 08 22 3b 98 83 8d 3c 26 ab 51 bb 5a 6e 76 3b
       0.002472443 0.017274663 -0.0031992882 0.0037602396
0000a0 af bd 16 bd 53 64 ad bb fc 45 89 3c f2 39 d3 3c
       -0.03680199 -0.0052915006 0.016757004 0.025784466
0000b0 d3 80 a7 bc c8 8e a0 bc 6e 60 2e 3b f9 72 0d bc
       -0.02044717 -0.019599333 0.002660777 -0.008633369
0000c0 d0 2e 48 ba 1c b2 ad bc 00 02 75 bc f9 0c 76 bc
       -0.000763637 -0.021203093 -0.01495409 -0.015017741
0000d0 31 10 d4 3a 4f b0 05 3c 15 90 84 3c 00 4b f1 3a
       0.0016179142 0.008159711 0.016181985 0.0018409193
0000e0 4d 0e 1e 3d 42 22 98 3b 29 38 8f 3c 45 12 dd bc
       0.038587857 0.0046427557 0.017482834 -0.02698625
0000f0 f2 5c 97 bc 9e a1 84 bc b7 9d 44 3d 63 33 c3 bc
       -0.018476937 -0.016190346 0.04800197 -0.023828214
000100 55 01 e3 bc 7f 17 4d bc b2 3f 59 bb 02 36 bc bc
       -0.027710596 -0.012517809 -0.0033149538 -0.022974972
000110 c5 85 7a bb 0e 20 70 bc 05 2b 9e 3c e3 4e a4 bb
       -0.0038226706 -0.01465608 0.019307623 -0.005014287
000120 fe cf 21 bc 50 46 d5 3b 47 a2 0b bd ae ef 87 bb
       -0.009876249 0.006508626 -0.034090307 -0.004148445
000130 45 be 3b 3c 4c 1c ba 3c ec b8 13 3c 7b d6 50 3c
       0.011458938 0.022718571 0.009016257 0.012746449
000140 6c d5 b1 bb 5e b4 a6 3c 81 1d bc 3b fd cc 9b bc
       -0.005427053 0.020349678 0.005740822 -0.019018644
000150 0c 6e 1c 3d 6d e4 78 bc 4e 4b 15 3c c1 bc fb bc
       0.038190886 -0.01519118 0.009112192 -0.030729653
000160 c0 59 36 ba b9 8f 88 3c 92 41 2e bc 14 5b 32 bb
       -0.0006956123 0.016670095 -0.01063575 -0.0027214931
000170 9d 80 a8 3c e6 f1 dd 3c e6 1f b8 bc cd 95 6e 3c
       0.02056914 0.027092885 -0.022476148 0.0145620825
000180 4a 44 32 bc 4d db 47 bc 77 69 5e bc c2 73 42 bb
       -0.010880539 -0.0121982815 -0.0135749495 -0.0029671048
000190 63 bb e5 3c 93 83 e2 3b c9 66 8a 3c 99 c8 ca bb
       0.028043455 0.0069126575 0.016894715 -0.006188464
0001a0 8a fb 30 bc b6 c2 8e bc 92 8e c0 3b f1 03 a4 bb
       -0.010802159 -0.01742683 0.0058763707 -0.0050053527
0001b0 a9 63 91 bc 2e de 98 3c 24 af d0 bc ce 6d 85 bc
       -0.017747717 0.018660631 -0.025474139 -0.01628771
0001c0 ff 27 c5 3c 38 f2 26 3c 09 28 ff bc eb ed 4f bb
       0.024066923 0.010189585 -0.03114702 -0.0031727504
0001d0 8a 99 eb bb e8 0d e4 3c 94 a3 94 3b 85 57 72 3c
       -0.007189934 0.027838662 0.0045361016 0.014791374
0001e0 2b fa 4d bc 25 f3 78 3c 65 5c 2b 3c 57 9e 5f bc
       -0.012571852 0.015194689 0.01045904 -0.013648591
0001f0 4a 61 31 3c 13 06 47 bc 9d 6a ef bb dc 94 f4 3c
       0.010826418 -0.012147444 -0.0073064105 0.029856138
000200 4a 4f 53 3c e4 72 a3 bb 3b 9d 8d bc 4c 3f ef 3c
       0.012897322 -0.0049880613 -0.017286887 0.029204987
000210 7a 7f 95 bc 23 31 4c bb db b3 f7 bc 42 56 2b 3d
       -0.018249262 -0.0031157217 -0.030237129 0.04183031
000220 7b bd 16 bd 6c de 0e 3b 24 82 0d bc 98 57 87 3c
       -0.036801796 0.0021800054 -0.008636985 0.01652126
000230 3f 00 cb bb f6 0e 62 bc 65 77 2d 3c c1 42 ea bb
       -0.0061950977 -0.013797512 0.010587548 -0.007149071
000240 e8 af 82 3c b0 03 be bc 11 4e 72 bb 8c ae be bb
       0.01595302 -0.023195118 -0.00369728 -0.0058191475
000250 40 cb 21 3c d4 92 0f 3c 81 8b 96 3b 83 e2 d7 3b
       0.009875119 0.008763034 0.004594267 0.0065882816
000260 06 12 a4 b9 3e d4 21 bc 3a 3d aa 3c fe 96 f0 b9
       -0.00031293946 -0.009877263 0.020781148 -0.00045888865
000270 52 c6 9f bc b6 15 00 3d 28 d4 c4 3b 26 0c 8f bc
       -0.019503746 0.031270705 0.0060067363 -0.017461848
000280 16 81 b7 bc 89 e5 79 bc f7 e8 b3 3c 3b f7 19 3c
       -0.02240042 -0.015252479 0.021961672 0.009397323
000290 90 e2 b6 3c 73 1a be 3c 1a e4 06 38 79 3d 05 3c
       0.02232483 0.023205971 3.2160526e-05 0.008132332
0002a0 54 ae 3c bc 3c 70 ed ba c9 23 e2 3c 0f 56 aa bc
       -0.011516172 -0.0018115113 0.027604954 -0.020792989
0002b0 c9 b5 23 3c 9c ec 15 3b a3 57 0f 3c fb b6 50 bb
       0.009992071 0.0022876626 0.008748922 -0.0031847346
0002c0 07 c4 44 bc 4a 7c 42 bc 54 5e 4b bc ca 2b 60 bc
       -0.012009627 -0.011870453 -0.012412626 -0.013682315
0002d0 2f a5 19 bc 5c 95 b2 bc 43 79 51 bc d0 0c fa bc
       -0.009377762 -0.021799736 -0.012785259 -0.030523688
0002e0 66 f6 a4 bc 3e 30 4c 3c 2f 10 0d bb 85 f6 27 bb
       -0.020137023 0.012462674 -0.0021524539 -0.0025629115
0002f0 ae 11 8a 3b 3d 0c a3 3c ba 39 4a 3c 66 f2 e7 3b
       0.0042135334 0.019903297 0.012342865 0.0070784567
000300 c2 5e 94 bc 52 17 b0 bc c1 a3 c6 bc c1 38 d1 bb
       -0.01811159 -0.021495495 -0.024248006 -0.0063849394
000310 96 46 9e bc 5c 19 08 3d cb b5 50 3a 71 d4 21 3c
       -0.019320767 0.03322731 0.00079616596 0.00987731
000320 94 6f 8a bc 26 fc c9 bb c5 1d 16 3d 48 4e 6a bc
       -0.016898908 -0.0061640916 0.036649484 -0.01430089
000330 4f a8 39 3c f1 58 04 3d 8b 11 ba 3b 24 ba 27 bd
       0.011331632 0.032311384 0.005678361 -0.040949002
000340 a8 74 54 3c 16 db bf 3a f0 b8 07 3c a0 ed 8b 3a
       0.012967266 0.0014637436 0.008283839 0.0010675676
000350 b5 31 84 3a 5d bc db bc 5f fb 97 3c 20 f3 c8 bc
       0.0010085615 -0.026823217 0.01855248 -0.024529994
000360 e9 51 00 bd cf fb 23 bc 93 a8 a0 bc 3e cc a1 bc
       -0.031328116 -0.010008766 -0.019611632 -0.01975071
000370 2d bb 9a 3b 88 63 24 bc 98 fe f7 3b be 76 11 bc
       0.00472202 -0.010033496 0.0075681917 -0.008878408
000380 7d 80 75 bc b9 b1 47 3c bd 5d 32 bc 52 e4 31 bc
       -0.014984247 0.0121883685 -0.010886607 -0.010857658
000390 bf 9d 8d bb aa 70 c9 bb 3a a8 7a 3c 6e 38 2c bb
       -0.0043217833 -0.006147464 0.015298897 -0.0026278752
0003a0 ca eb 05 3c f4 0a 26 bb c4 66 96 bc 1a 14 0e 3c
       0.008173892 -0.0025336118 -0.01835955 0.008671785
0003b0 47 46 56 3b 9a 40 5c bc e6 a6 81 3b 4a 2c 1b 3d
       0.0032695697 -0.013443137 0.0039566634 0.037884034
0003c0 ad 8b dc 3b 04 fc 37 bd a6 c6 f5 3c 52 6c 08 3b
       0.006730518 -0.044918075 0.03000195 0.0020816517
0003d0 ce 26 b7 bb 8a fb bc bb 0b 60 c4 3a 7b 13 49 3d
       -0.0055893427 -0.0057672905 0.0014982236 0.049090844
0003e0 fa df 90 ba 5a ed 5d 3c 6f e0 1b bd 10 49 9b 3c
       -0.0011053078 0.013545359 -0.038055833 0.018955737
0003f0 b9 38 21 bc 2b c3 14 bc ec 4c 82 3c 7c 86 0e 3d
       -0.009840184 -0.009079735 0.01590582 0.034796223

action_model._continuous_distribution.mu.bias f4 [2]
000000 b0 13 f0 39 40 b8 be 3a
       0.00045791036 0.001455076

action_model._discrete_distribution.branches.0.weight f4 [5, 128]
000000 d0 17 3d 3c 54 47 db 3a a8 71 20 bc bb 70 75 3a
       0.011541322 0.0016729631 -0.009792723 0.00093628064
000010 b2 1a 93 3b f7 45 84 bc 09 05 11 bb a9 e8 a0 bb
       0.0044892663 -0.016146643 -0.0022128245 -0.0049105478
000020 7d 3d 8d 3b a7 6f 84 3b 42 ba 4d 3b 11 eb f6 3a
       0.0043103085 0.0040416303 0.0031391536 0.0018838366
000030 5a 7c 3b bb 9e c3 05 bb b1 4b d6 3a 1c 94 3d bb
       -0.0028608055 -0.0020410786 0.0016349462 -0.0028927391
000040 2b 31 5a 3c b0 fb a7 bc 09 43 35 bc 17 96 1e 3b
       0.013317387 -0.020505756 -0.011063346 0.0024198347
000050 d2 9c 65 3c 9c c3 ec bb b9 25 68 3b 68 fe 0c 3c
       0.01401444 -0.007225467 0.0035422875 0.008605577
000060 7d 8e c8 3b 4b f1 40 3c 37 f4 ca 3b 43 26 9e bb
       0.0061205016 0.011776279 0.0061936635 -0.0048263385
000070 68 94 e9 3a 38 46 8f ba 4f e0 1e bc ec 8a 51 bc
       0.0017820718 -0.0010930961 -0.009697034 -0.012789469
000080 a1 14 00 bc c0 6e e6 bb 37 f8 1b 3b a2 69 1d 3c
       -0.007817418 -0.0070322454 0.002379907 0.009607704
000090 ca 5e 95 bb 00 74 44 bc 95 f3 53 3b 54 38 c2 bc
       -0.004558419 -0.011990547 0.003234123 -0.0237085
0000a0 1d 3d cb ba 9f f2 c6 3b 5b 2c db 3b a3 24 41 3c
       -0.0015505884 0.006071403 0.006688637 0.01178852
0000b0 1e bf 08 bb f9 48 b6 3a 82 cb 58 3c 04 d8 09 3b
       -0.0020865868 0.0013907246 0.013232114 0.0021033296
0000c0 cd ef 4f bb 86 45 62 bc 98 2c bb bb 9b c3 99 bc
       -0.0031728626 -0.013810521 -0.005712103 -0.01877003
0000d0 e8 54 01 3c 48 00 42 bc 61 83 ad bc 4b bf 8b 3c
       0.007893778 -0.011840887 -0.02118081 0.017058989
0000e0 1e 17 31 3c f2 29 81 bc 6f 5f 7d bc a7 2d 92 bc
       0.010808734 -0.015767071 -0.015464648 -0.017844034
0000f0 69 e9 54 bb 7f cb ad 3b 06 6a b1 bb 35 d9 04 3c
       -0.0032487756 0.0053037996 -0.0054142503 0.008108427
000100 73 a5 be 3a 28 49 78 3c 4d ea 37 bc 4c a9 33 ba
       0.0014545157 0.015154161 -0.011225295 -0.00068535353
000110 01 c1 4c bc c7 1d f4 bb 1f fb d4 3b 47 fb 84 bc
       -0.012497188 -0.007449839 0.0064996625 -0.0162331
000120 aa ae 52 bb 3a 8b 47 3c ef db 77 bc 4a 46 a4 bb
       -0.0032147565 0.01217919 -0.01512812 -0.005013262
000130 f7 48 33 3c 88 f8 45 bc b0 42 98 bb 23 31 0e 3c
       0.010942689 -0.01208318 -0.0046466216 0.008678707
000140 2d 78 fc 3a 94 19 e1 ba cd b3 6c 3c 3a b3 a6 3a
       0.0019261889 -0.001717376 0.014447165 0.0012718209
000150 aa 86 74 3a 66 e6 72 bc a0 c8 94 3b 43 ea d0 bb
       0.0009327928 -0.014825439 0.004540518 -0.0063755824
000160 0b ec 51 ba bb 00 52 bb de e1 4f bc 49 59 03 bc
       -0.00080078904 -0.0032043892 -0.012688128 -0.008016893
000170 1b 93 9c 3c 3b fa 02 bc af af 96 3b ed e8 75 3c
       0.019113114 -0.00799423 0.00459858 0.015009147
000180 09 c3 a9 bb b4 b8 31 bc 99 06 33 bb 75 87 6b 3b
       -0.0051807207 -0.010847259 -0.0027317165 0.0035938893
000190 74 42 33 bc 86 72 45 b8 6d 99 e0 bb 6b f6 94 bc
       -0.010941137 -4.707512e-05 -0.0068542273 -0.018183907
0001a0 43 5a fc 3a b3 cf 72 3c 1b 1f 85 bb 0a a9 65 bb
       0.0019252974 0.014820027 -0.004062546 -0.0035043382
0001b0 87 f4 04 3b c1 5c 7d 3b 62 bd 55 3b 76 8f 8e b9
       0.0020287351 0.0038660022 0.0032614102 -0.00027191237
0001c0 23 11 71 ba 33 a7 34 bc 11 87 9c 38 68 fe 6e 3b
       -0.0009195974 -0.0110261915 7.463818e-05 0.0036467556
0001d0 f4 0d 0c 3c 88 6e ee b9 9a f9 68 3c 28 66 eb bb
       0.008548249 -0.0004547725 0.014219666 -0.007183809
0001e0 ea c5 d6 3b 74 59 95 bb 7b ff 0c bc 86 46 b9 3b
       0.006554355 -0.004557783 -0.008605833 0.005654159
0001f0 77 41 18 3c 6d 7d d7 3a d5 e5 38 3c d6 4d a0 bb
       0.009292952 0.0016440578 0.011285265 -0.0048920913
000200 c3 06 fb bb be 8e 48 bc f4 70 5f bb 33 ae 92 3a
       -0.007660718 -0.012241064 -0.0034094425 0.0011190831
000210 c8 08 0b 3b 89 c7 4c 39 c2 48 5d bc 9e 07 73 bc
       0.002121495 0.00019529289 -0.013506116 -0.014833359
000220 e1 8a 58 bb ea 46 32 3c 0c 01 bd 39 8a 53 1a bb
       -0.0033041763 0.010881165 0.0003604967 -0.0023548328
000230 15 ab b4 ba 77 41 e3 3b 53 0d e2 3b 45 cc a0 bb
       -0.0013783897 0.0069352943 0.006898561 -0.0049071633
000240 31 47 96 3a f8 9f e0 bb 90 65 cc ba 28 55 0c 3b
       0.0011465308 -0.0068550073 -0.0015594233 0.0021413062
000250 27 3a 81 3c 0a a5 57 bc 00 51 79 3c 61 ec 7a 3c
       0.0157748 -0.013161907 0.015217066 0.015315146
000260 2a f2 3d 3b 74 b6 9d ba 26 69 99 3a 62 c7 20 3c
       0.0028983452 -0.0012032525 0.001170431 0.009813162
000270 60 91 62 3c 57 1c 1f bc ab b5 8e bc ef bb 14 bc
       0.013828605 -0.009711347 -0.01742061 -0.00907801
000280 1c 6c 00 bc 6d 13 68 3b 28 b1 ba 3b 75 32 3a 3b
       -0.007838275 0.003541197 0.005697388 0.0028411422
000290 51 4a 0a bc 3e 50 20 3c a8 cd 02 bb 48 7d 49 3c
       -0.00844057 0.009784756 -0.0019959006 0.012297936
0002a0 5f 9b 8b bb 67 04 72 3b ad 79 d6 bb 48 f4 6e 3b
       -0.004260465 0.0036928894 -0.0065452666 0.003646152
0002b0 32 bd a0 3b f8 e6 1d 3c fd b9 5f bc 4c df 12 3c
       0.0049053663 0.009637587 -0.013655183 0.008964371
0002c0 72 44 de 3b 39 05 83 bc d3 89 56 bb 50 bc 9e ba
       0.0067830617 -0.015993701 -0.0032735958 -0.0012110565
0002d0 14 38 23 3c ff ad 33 3b a8 27 80 39 0e 44 cf 3b
       0.009962101 0.0027416942 0.0002444361 0.0063252514
0002e0 a5 eb 11 3c fc d4 79 3b 8a 0f d1 b7 ac 14 81 bb
       0.00890628 0.0038121333 -2.4921977e-05 -0.003939232
0002f0 e4 5f 15 bc fa 9c 62 bb 9f 4c 33 3b 2a 31 a2 ba
       -0.0091171 -0.0034578429 0.0027358902 -0.0012374271
000300 33 df 06 bc a7 1a c0 3b 33 04 23 3b 21 77 8e 3b
       -0.008231926 0.005862552 0.002487433 0.0043476974
000310 29 bb 9a 3a 2a b8 3d bc 8c f4 66 bc 54 46 6b bb
       0.0011805046 -0.011579553 -0.01409639 -0.0035900073
000320 a5 a5 ab bb ee 7a 1b 39 1a cc 6f 3c 36 1e 78 3c
       -0.005238252 0.00014827747 0.014636064 0.015143922
000330 5a 39 59 bb 77 94 8b 3b 39 01 01 3c f4 c8 64 bb
       -0.0033145756 0.0042596417 0.007873827 -0.0034909816
000340 0b 26 30 bb 1d fb 8b 3b 68 07 c0 bb 16 b7 63 3b
       -0.0026878144 0.0042718784 -0.005860258 0.003474658
000350 3a 54 96 3b 25 b1 4c 3b f4 8e 71 3b 2e 7b 31 bc
       0.0045876773 0.0031233516 0.0036858888 -0.010832591
000360 bf cb cc ba 81 e0 75 3c c6 15 3f bb 57 2e 98 bb
       -0.0015624686 0.015007139 -0.0029157265 -0.004644196
000370 76 5a f9 3b 07 d9 3f bc e5 b5 20 3b e2 ec 1a 3b
       0.0076096607 -0.011709458 0.002452248 0.0023639728
000380 d0 e2 fb 3b 2e ba 85 3c 38 4c 9c ba f8 cf 08 bc
       0.0076869503 0.016324129 -0.001192457 -0.008350365
000390 eb 9d d2 3b 56 06 05 bb 56 2c a9 3c c0 26 3a 3c
       0.0064275167 -0.0020297966 0.020651024 0.011361778
0003a0 0a a5 38 3c ab 56 80 3c 9e 13 a1 bb 82 81 92 bc
       0.011269817 0.015666327 -0.0049156686 -0.01788402
0003b0 67 e9 07 bb 21 fb 3f ba 48 52 8c bc 1c d5 57 ba
       -0.0020738484 -0.0007323493 -0.017129079 -0.0008233355
0003c0 d0 f0 e8 3b f2 c7 a3 3b f5 83 dd bb 40 32 2c ba
       0.007108785 0.0049982006 -0.0067601153 -0.0006568767
0003d0 80 a4 c4 3b 0a b7 cb ba 05 d5 3c 3c 28 16 0c bc
       0.0060010552 -0.0015542221 0.011525397 -0.008550204
0003e0 03 65 31 3c 76 7c 28 3b db 28 21 3b 02 63 cf bc
       0.010827306 0.002570895 0.0024591002 -0.025315765
0003f0 0b 26 db 3b 86 d4 ac bb 85 b3 67 bb ff 22 c6 3c
       0.0066878847 -0.005274358 -0.0035354805 0.02418661

action_model._discrete_distribution.branches.0.bias f4 [5]
000000 94 36 bc bb 2a 2a 44 b9 3c 1e 98 39 96 3e dd 3a
       -0.005743811 -0.00018707724 0.00029014226 0.0016879614
000010 d0 ae 71 3b
       0.0036877878

exp_avg f4 [128, 6]
000000 05 38 55 3a b4 61 f8 3a 45 5f 30 bb 5b 47 cd b8
       0.0008133653 0.0018950016 -0.0026912254 -9.788453e-05
000010 9d 19 23 b8 96 0d 91 37 3b 44 76 bb 40 1e f0 3a
       -3.8886083e-05 1.7291673e-05 -0.003757729 0.0018319562
000020 a1 a0 fb b9 e0 b8 69 b9 08 b3 b9 b8 d8 26 25 38
       -0.0004799413 -0.00022289483 -8.8548346e-05 3.937524e-05
000030 2b 70 b9 39 80 ba 35 38 a6 83 3d 3a b3 a0 3d 38
       0.0003536952 4.3327454e-05 0.0007229395 4.5210774e-05
000040 39 aa 96 37 6e fe 05 b7 44 f2 10 3b c8 dc 9d ba
       1.796066e-05 -7.986657e-06 0.0022117058 -0.0012043947
000050 aa 05 5c 3a 55 79 1f 39 ec 69 7d 38 9f 5f e1 b7
       0.0008393178 0.00015208621 6.0418548e-05 -2.6866617e-05
000060 e0 b9 b0 b8 6a 5a a2 b9 98 1b 7e 3a b4 ba 83 b8
       -8.426956e-05 -0.00030966412 0.0009693443 -6.281343e-05
000070 66 53 d1 b7 f5 29 3a 37 f4 75 57 ba e4 0b 99 3a
       -2.4953577e-05 1.1096233e-05 -0.00082191755 0.0011676517
000080 8c bd df 3a 32 aa 4f b9 f7 fe a4 b8 39 bd 12 38
       0.0017070039 -0.00019804461 -7.86762e-05 3.498534e-05
000090 e7 f4 14 ba 17 e5 b4 38 82 6a 97 38 32 a2 a0 b8
       -0.0005682245 8.62574e-05 7.22008e-05 -7.659606e-05
0000a0 a7 41 ff b7 29 03 63 37 56 8e de 3a 19 8c 85 bb
       -3.042894e-05 1.353099e-05 0.0016979675 -0.004075539
0000b0 06 91 8a ba 79 36 1c 3a 42 3b 78 39 c3 c3 dc b8
       -0.0010571785 0.0005959045 0.00023673198 -0.00010526881
0000c0 62 ae 53 ba e0 0c 30 38 45 8b ee ba 96 3b e2 b8
       -0.00080749963 4.197366e-05 -0.0018199465 -0.000107876185
0000d0 ae bf 33 b8 0b dc 9f 37 91 37 ce ba 44 c7 20 3a
       -4.285544e-05 1.9056743e-05 -0.0015733113 0.00061332085
0000e0 04 34 01 3a 58 c5 ae b8 59 dc 0a b8 da fd 76 37
       0.00049287104 -8.333725e-05 -3.310698e-05 1.4721847e-05
0000f0 32 b9 7b 3a e0 ba f9 b9 dc 61 11 3a a0 ba b1 b7
       0.00096024864 -0.00047632214 0.0005545893 -2.1186948e-05
000100 08 36 0d b7 00 2c 7b 36 b4 fe 2a ba 4b d1 c0 ba
       -8.416835e-06 3.7427526e-06 -0.0006522939 -0.0014710812
000110 2e a4 17 bb 78 58 9e b7 c8 9e fb b6 44 c7 5f 36
       -0.002313863 -1.8876264e-05 -7.4988675e-06 3.3345577e-06
000120 f2 ab 16 ba 44 3c 09 bb b9 c6 ad ba 5a f8 20 b8
       -0.0005747668 -0.0020940462 -0.0013258077 -3.8378268e-05
000130 84 ca 7f b7 d4 7c e3 36 60 cb 02 3b 8f 24 c2 3a
       -1.5246336e-05 6.779659e-06 0.0019957647 0.0014811921
000140 c1 1d 7c 3a 15 12 0e b9 3e c2 61 b8 52 c7 c8 37
       0.0009617471 -0.00013548911 -5.3825082e-05 2.3934674e-05
000150 ff ab 8a 3a b6 eb b7 ba a7 eb 1c ba f9 63 2d 39
       0.0010579823 -0.0014032039 -0.00059860427 0.00016535808
000160 95 c3 89 38 74 0a f5 b7 d9 e0 f9 ba c8 ef 04 3a
       6.569099e-05 -2.9211144e-05 -0.0019064202 0.00050711306
000170 cb f8 11 bb 4f 63 aa b8 d8 60 07 b8 28 cc 70 37
       -0.0022273536 -8.124729e-05 -3.22767e-05 1.4352649e-05
000180 44 ad 58 bb cc fc ec ba 66 de 35 bb 60 f9 7d 38
       -0.0033062259 -0.001808071 -0.0027750968 6.055215e-05
000190 54 ca c9 37 4e 76 33 b7 04 f1 3c 3a bc 7d a0 bb
       2.4055284e-05 -1.0696776e-05 0.0007207545 -0.004897801
0001a0 b5 74 a6 3a 3c dd d8 39 20 4e 2c 39 56 3d 99 b8
       0.0012699576 0.00041363563 0.00016432302 -7.307033e-05
0001b0 24 a0 2e bb 60 8d d1 b8 7a f0 9f b9 c9 8d 16 b9
       -0.0026645744 -9.99223e-05 -0.00030506012 -0.00014357934
0001c0 3c 3d 6f b8 6d c4 d4 37 3e 71 fe 3a 04 d2 3e ba
       -5.703907e-05 2.5363837e-05 0.0019412411 -0.00072792196
0001d0 e8 8f 84 b9 34 9f b6 b8 3f 19 11 b8 1e 0b 81 37
       -0.0002528422 -8.70809e-05 -3.4594206e-05 1.5383175e-05
0001e0 17 3e eb 3a 3c bc e0 3b 5f 9e 92 3a d5 a7 bc b9
       0.0017947581 0.006858377 0.0011186114 -0.000359832
0001f0 81 e4 15 b9 96 4e 85 38 12 6b d8 3a f6 f2 ca bb
       -0.00014294872 6.356572e-05 0.0016511402 -0.006193514
000200 d2 0c 12 3b 62 07 07 3a a4 91 56 39 b0 d3 be b8
       0.0022285474 0.00051509414 0.00020462886 -9.099336e-05
000210 d7 39 d4 3a 67 8a 9c 3a ab a5 77 ba 28 08 33 b9
       0.0016191554 0.0011943103 -0.00094469887 -0.00017073809
000220 06 3f 8e b8 6a 03 fd 37 e7 8b 33 3a d0 7b ee b9
       -6.782827e-05 3.016154e-05 0.0006849155 -0.00045487145
000230 70 9b 1f b8 b8 20 9c b8 b4 18 f8 b7 02 a5 5c 37
       -3.8053317e-05 -7.444754e-05 -2.9575407e-05 1.3151441e-05
000240 e4 ca a4 3a 5c 59 19 3b f5 da 74 39 8b ed 16 b9
       0.0012572673 0.002339921 0.00023351221 -0.00014393606
000250 63 d5 6f b8 c8 4b d5 37 76 9a a7 ba 66 5b 3a 3b
       -5.7180772e-05 2.5426867e-05 -0.0012787122 0.0028435825
000260 c1 07 cc ba f4 10 86 b9 12 0a d5 b8 69 77 3d 38
       -0.0015566276 -0.00025571103 -0.00010158507 4.517232e-05
000270 24 97 ab 3a fc 7c d1 bb 60 c1 2c 3b 59 13 d6 39
       0.0013091308 -0.006393073 0.0026360378 0.00040831676
000280 e8 16 2a 39 e4 44 97 b8 8e 89 35 3a 48 43 5f 3a
       0.00016220997 -7.213073e-05 0.00069250993 0.00085168006
000290 5a d6 44 3a 6d 1b 46 b8 ed 66 9d b7 49 fc 0b 37
       0.00075087475 -4.723242e-05 -1.8763787e-05 8.343785e-06
0002a0 b4 12 ca 3a 38 df 88 bb ea da ce 3a 41 28 a8 38
       0.0015416951 -0.0041770004 0.0015781794 8.018362e-05
0002b0 2f 9b 05 38 31 a5 6d b7 22 21 69 39 10 3d 61 39
       3.1854197e-05 -1.4164762e-05 0.00022232955 0.0002148042
0002c0 bd 8e a2 39 ff 74 a2 b8 b6 13 01 b8 d9 96 65 37
       0.00031005396 -7.746554e-05 -3.0774354e-05 1.3684586e-05
0002d0 ea 9d 0e bb 58 cf 5a bb d8 cb ad 39 4c 7d dd 39
       -0.0021761605 -0.0033387747 0.00033149007 0.00042245758
0002e0 e4 fa 2f 39 06 82 9c b8 fb 0a 09 3b 84 1a 07 bb
       0.00016782765 -7.4628784e-05 0.0020911086 -0.002061517
0002f0 49 61 63 3b c8 4c 61 39 ee 01 b3 38 4b 33 1f b8
       0.0034695438 0.00021486275 8.5357446e-05 -3.7956324e-05
000300 18 a9 14 ba c0 16 96 b9 e0 06 5d b8 5c 31 aa b9
       -0.0005670949 -0.0002862718 -5.269691e-05 -0.00032461702
000310 2c 39 07 b9 91 85 70 38 02 ba cf b9 4a 0d a2 ba
       -0.00012895901 5.7344852e-05 -0.00039620703 -0.001236358
000320 b8 d7 02 3a e9 e0 97 38 1e 58 f1 37 b4 a3 56 b7
       0.0004991251 7.242134e-05 2.8770472e-05 -1.2793509e-05
000330 fc c6 9a ba 4a 12 a2 ba 7b 7b a7 b9 53 a3 b6 38
       -0.001180857 -0.001236507 -0.00031944722 8.708858e-05
000340 88 1c 11 38 0a 0e 81 b7 30 c5 7c 39 38 42 86 ba
       3.4597266e-05 -1.5384536e-05 0.00024106051 -0.0010243123
000350 28 3c 7c ba a8 8d ff 37 74 0b 4b 37 ec 93 b4 b6
       -0.0009622001 3.0464333e-05 1.21024095e-05 -5.3816384e-06
000360 25 61 8c 3a 32 1a 66 3a 1e 50 8f ba 20 1c 28 b9
       0.0010710104 0.0008777707 -0.0010933911 -0.00016032206
000370 80 91 85 b8 fc 93 ed 37 ba 5b a0 bb a4 5e eb ba
       -6.369036e-05 2.8321512e-05 -0.004893747 -0.0017957282
000380 de 52 99 ba 60 3d be b9 b6 26 17 b9 26 6d 86 38
       -0.001169767 -0.00036285352 -0.00014414903 6.4099484e-05
000390 36 f4 44 3b ec 39 1a bb 86 1c 18 3b 47 36 45 39
       0.0030052788 -0.002353306 0.002321036 0.00018807604
0003a0 e0 b0 9c 38 61 5a 0b b8 f3 14 2b bb 49 16 2d 3b
       7.471605e-05 -3.3224354e-05 -0.0026105016 0.0026410988
0003b0 c6 3e a4 39 91 48 3e b9 9b 2f 97 b8 0e 75 06 38
       0.00031327287 -0.00018146845 -7.209108e-05 3.2057105e-05
0003c0 74 22 a3 3a 04 a9 28 bb 67 ff ae 3a 3e af 1d 3a
       0.0012446181 -0.0025735507 0.0013351262 0.0006015188
0003d0 00 92 7a 39 3a d8 de b8 bc c9 33 3a 94 31 e0 bb
       0.00023896247 -0.0001062606 0.0006858369 -0.0068418477
0003e0 48 e3 5a 3a 02 85 0d 3a 12 e2 60 39 f3 ff c7 b8
       0.00083499076 0.0005398543 0.00021446522 -9.536734e-05
0003f0 38 2b 8c ba be 39 77 bb 23 d7 87 3a 71 d7 6e 39
       -0.0010694033 -0.0037723626 0.0010363798 0.00022777707
