Project/Assets/ML-Agents/Examples/MyTest/Scripts/TFModels/MyTest1Models/Test3/MoveToGoal/checkpoint.pt (torch, 147234 bytes, 12 tensors)

network_body._body_endoder.seq_layers.0.weight f4 [128, 1]
000000 19 6e fe bd f2 52 6e 3f b8 cf c9 bd 24 60 79 3f
       -0.12423343 0.93095315 -0.09854072 0.97412324
000010 21 9d fe 3f d5 ca 83 bd 2d bd 62 3f 84 84 93 be
       1.9891702 -0.064351715 0.8856991 -0.2881204
000020 6d 42 7c bf 87 06 9a 3f b7 d4 48 3f 94 19 a3 bf
       -0.9853886 1.2033242 0.7844958 -1.2742181
000030 74 57 a9 be 8e 2b 66 3f 06 00 b9 bf e1 e7 1a c0
       -0.33074534 0.8991021 -1.4453132 -2.4204028
000040 f9 79 9e 3f 20 d6 fd 3d fc 67 be 3d 81 98 22 be
       1.2380973 0.12394357 0.09297177 -0.15878488
000050 0c 5a 8c 3f 2d 19 21 3e 38 74 c9 be 3c a9 22 c0
       1.096498 0.1573226 -0.3934648 -2.5415792
000060 66 46 aa be 78 dd af be 17 47 ce 3d e6 da 0a be
       -0.33256835 -0.34348655 0.10072153 -0.13560066
000070 aa b8 9a bf 12 ad 58 bf 1e e7 cc 3f 0a ad 2c 3e
       -1.2087605 -0.84639084 1.6008031 0.16862884
000080 ac e0 9b bd 75 56 1d 3f 22 19 ea bf 1d e8 e3 be
       -0.07611212 0.6146005 -1.828892 -0.44513026
000090 a6 48 98 3f ad c3 9e 3e 79 31 88 bf 67 9f 86 be
       1.189717 0.31008664 -1.0640098 -0.2629349
0000a0 35 93 9c 3e 6e 2b 75 3f e4 f5 16 3d cd 14 38 3e
       0.3058106 0.95769393 0.036855593 0.17976685
0000b0 e0 88 b1 bf 31 ff 09 c0 03 e7 fb 3e 25 40 88 be
       -1.3869896 -2.1562006 0.49199685 -0.26611438
0000c0 70 22 74 be 57 0a 08 bf 75 2b f7 bd b9 7f 0d 3f
       -0.23841262 -0.5314078 -0.12068836 0.55273014
0000d0 04 8c b8 bf 9a 07 95 bd 1b e8 80 3d 80 c6 75 bf
       -1.4417729 -0.072768405 0.062942706 -0.9600601
0000e0 79 9d 8b 3f b4 66 ea be 70 8b 3e 3f 62 af 58 3e
       1.0907432 -0.4578148 0.74431515 0.21160653
0000f0 1d 42 e7 bf 1c 86 69 3e e0 ec b2 bd 69 06 5a 3d
       -1.8067051 0.22805065 -0.087365866 0.05322877
000100 6c ae c1 be 45 66 1d 3f 5a d2 f2 3c af 7c b8 3d
       -0.37828386 0.61484176 0.029641319 0.090081565
000110 64 08 99 be d5 d2 9b bf a1 1f d8 3f a0 65 0c bf
       -0.29889214 -1.2173716 1.6884652 -0.5484257
000120 f6 ef 96 bf e9 bc cd 3e 04 7c cf 3d f8 50 af 3e
       -1.179198 0.4018319 0.10131076 0.34241462
000130 c9 77 e3 be b6 56 40 3e 00 b0 4a 3f eb 61 80 bf
       -0.44427326 0.18783078 0.79174805 -1.0029882
000140 52 d1 23 3f 8a 29 88 be ff bf 86 bf 99 53 4f 3f
       0.6399127 -0.26594192 -1.0527343 0.80986935
000150 40 87 aa bf 24 f4 06 bf ce 15 a2 bf 62 69 ac 3f
       -1.3322525 -0.5271628 -1.2662904 1.346966
000160 8e a2 1f 3f 76 57 05 bf 02 b9 f3 bf bc ae 5b 3f
       0.62357414 -0.5208658 -1.9040835 0.858135
000170 23 f7 b3 3e f9 66 ff bf 97 69 cb bd 4d e8 f5 bc
       0.35149488 -1.99533 -0.09932249 -0.030017996
000180 78 7d f8 3f 7e 74 72 be 98 a8 61 3e 9e e4 8b 3e
       1.941329 -0.2367725 0.2203697 0.2732286
000190 50 f0 af 3e b1 76 ab be 7c 07 00 3f bc 67 66 bf
       0.3436303 -0.33488992 0.5001142 -0.90002036
0001a0 38 7e 2a bf f9 87 65 3f de 18 0f bf 90 ff be be
       -0.66598845 0.896606 -0.5589732 -0.37304354
0001b0 ab 0c af 3e d7 72 aa 3e 2e 6f 85 bf 23 97 02 bd
       0.34189352 0.3329074 -1.0424554 -0.031882416
0001c0 12 96 f7 bf 06 55 f5 bf 95 f2 78 bf 03 ff 9e 3f
       -1.9342673 -1.9166572 -0.9724515 1.2421573
0001d0 e5 e0 57 bf 49 58 98 be c0 fb 8b bf ed fd 7b 3f
       -0.84327537 -0.29754856 -1.0936203 0.98434335
0001e0 1c 9a 1a bf 81 d7 1d bf 5f e2 d3 3e 0b 67 ca be
       -0.603914 -0.6165696 0.41383645 -0.3953174
0001f0 d5 1d c0 3f 7e f8 41 3f 33 23 13 40 d9 25 b8 bf
       1.5009104 0.75769794 2.2990234 -1.438655

network_body._body_endoder.seq_layers.0.bias f4 [128]
000000 00 00 00 00 00 00 00 00 00 00 00 00 00 00 00 00
       0.0 0.0 0.0 0.0
000010 00 00 00 00 00 00 00 00 00 00 00 00 00 00 00 00
       0.0 0.0 0.0 0.0
000020 00 00 00 00 00 00 00 00 00 00 00 00 00 00 00 00
       0.0 0.0 0.0 0.0
000030 00 00 00 00 00 00 00 00 00 00 00 00 00 00 00 00
       0.0 0.0 0.0 0.0
000040 00 00 00 00 00 00 00 00 00 00 00 00 00 00 00 00
       0.0 0.0 0.0 0.0
000050 00 00 00 00 00 00 00 00 00 00 00 00 00 00 00 00
       0.0 0.0 0.0 0.0
000060 00 00 00 00 00 00 00 00 00 00 00 00 00 00 00 00
       0.0 0.0 0.0 0.0
000070 00 00 00 00 00 00 00 00 00 00 00 00 00 00 00 00
       0.0 0.0 0.0 0.0
000080 00 00 00 00 00 00 00 00 00 00 00 00 00 00 00 00
       0.0 0.0 0.0 0.0
000090 00 00 00 00 00 00 00 00 00 00 00 00 00 00 00 00
       0.0 0.0 0.0 0.0
0000a0 00 00 00 00 00 00 00 00 00 00 00 00 00 00 00 00
       0.0 0.0 0.0 0.0
0000b0 00 00 00 00 00 00 00 00 00 00 00 00 00 00 00 00
       0.0 0.0 0.0 0.0
0000c0 00 00 00 00 00 00 00 00 00 00 00 00 00 00 00 00
       0.0 0.0 0.0 0.0
0000d0 00 00 00 00 00 00 00 00 00 00 00 00 00 00 00 00
       0.0 0.0 0.0 0.0
0000e0 00 00 00 00 00 00 00 00 00 00 00 00 00 00 00 00
       0.0 0.0 0.0 0.0
0000f0 00 00 00 00 00 00 00 00 00 00 00 00 00 00 00 00
       0.0 0.0 0.0 0.0
000100 00 00 00 00 00 00 00 00 00 00 00 00 00 00 00 00
       0.0 0.0 0.0 0.0
000110 00 00 00 00 00 00 00 00 00 00 00 00 00 00 00 00
       0.0 0.0 0.0 0.0
000120 00 00 00 00 00 00 00 00 00 00 00 00 00 00 00 00
       0.0 0.0 0.0 0.0
000130 00 00 00 00 00 00 00 00 00 00 00 00 00 00 00 00
       0.0 0.0 0.0 0.0
000140 00 00 00 00 00 00 00 00 00 00 00 00 00 00 00 00
       0.0 0.0 0.0 0.0
000150 00 00 00 00 00 00 00 00 00 00 00 00 00 00 00 00
       0.0 0.0 0.0 0.0
000160 00 00 00 00 00 00 00 00 00 00 00 00 00 00 00 00
       0.0 0.0 0.0 0.0
000170 00 00 00 00 00 00 00 00 00 00 00 00 00 00 00 00
       0.0 0.0 0.0 0.0
000180 00 00 00 00 00 00 00 00 00 00 00 00 00 00 00 00
       0.0 0.0 0.0 0.0
000190 00 00 00 00 00 00 00 00 00 00 00 00 00 00 00 00
       0.0 0.0 0.0 0.0
0001a0 00 00 00 00 00 00 00 00 00 00 00 00 00 00 00 00
       0.0 0.0 0.0 0.0
0001b0 00 00 00 00 00 00 00 00 00 00 00 00 00 00 00 00
       0.0 0.0 0.0 0.0
0001c0 00 00 00 00 00 00 00 00 00 00 00 00 00 00 00 00
       0.0 0.0 0.0 0.0
0001d0 00 00 00 00 00 00 00 00 00 00 00 00 00 00 00 00
       0.0 0.0 0.0 0.0
0001e0 00 00 00 00 00 00 00 00 00 00 00 00 00 00 00 00
       0.0 0.0 0.0 0.0
0001f0 00 00 00 00 00 00 00 00 00 00 00 00 00 00 00 00
       0.0 0.0 0.0 0.0

network_body._body_endoder.seq_layers.2.weight f4 [128, 128]
000000 b7 38 fd bd 82 fc 91 3d 4a 0e a9 3d ac 55 57 3d
       -0.12364333 0.0712824 0.082546785 0.052571937
000010 1b ea 28 3c ac 87 d3 3b 70 5c b6 3b 65 06 67 3d
       0.010309721 0.0064553823 0.0055652186 0.056402583
000020 0f 6b c0 bd 40 5d ca bd 58 81 db bd c0 4b d0 3d
       -0.0939542 -0.09881067 -0.1071803 0.10170698
000030 57 e7 c5 bc 3e 5b 09 3e a9 4b d0 3d b3 6c 70 bc
       -0.024158163 0.13413712 0.10170681 -0.014674353
000040 6e c5 30 3e a3 73 1e 3e c6 4e a7 bd f1 3a fd bc
       0.17262813 0.154738 -0.08169322 -0.030911895
000050 29 5b 8e 3c 11 b4 fe 3a 92 4a 8c bd db dc 17 3d
       0.017377453 0.0019432326 -0.06850161 0.03707586
000060 1e 49 0c be a7 70 73 3d 71 d4 e3 3c c0 49 10 bd
       -0.13699767 0.059433606 0.02781126 -0.035226583
000070 04 f7 2e 3b 78 52 b9 3b 8f ea a2 bd 54 48 ee bc
       0.0026697526 0.005655583 -0.07954895 -0.029087223
000080 c3 34 c9 3d 94 f1 93 bd ce 7d 0d bd 46 77 aa 3d
       0.098245166 -0.07223812 -0.034543805 0.08323531
000090 52 1d 50 3d 9a 15 93 bd 76 65 88 3a fe da db bb
       0.050809212 -0.071818545 0.0010406214 -0.0067094555
0000a0 45 36 ab 3c 7e 3a 0a bd 3e f5 2b bb 3e ba 6a bd
       0.020899901 -0.03374719 -0.0026238705 -0.05730652
0000b0 a2 05 88 3d 2d 55 ae bb 1e ae 20 3e 4d 0d f2 3c
       0.066416994 -0.0053202123 0.1569142 0.029547358
0000c0 35 2a 61 3d e0 d9 d3 3d d0 b4 1f 3d 21 3f aa 3d
       0.054971892 0.10344291 0.038990796 0.08312822
0000d0 41 29 f2 bc 8e c2 71 3d fe a6 0f 3d 89 21 1e 3e
       -0.029560687 0.059023432 0.035071366 0.1544248
0000e0 83 48 ab 3c 16 a9 01 bc 0f 9e ad 3d 39 b3 d6 3d
       0.0209086 -0.007913848 0.08477413 0.10483403
0000f0 c0 a9 f0 bd 07 9d 32 be 54 3b 0a bd df 58 11 3c
       -0.11751127 -0.17442714 -0.033747986 0.008871286
000100 1d d2 87 3c 60 2c b1 3b ca 2d 56 bc da e1 da bb
       0.016579682 0.0054069012 -0.01307244 -0.0066797556
000110 4b 83 45 bc 87 c7 7e 3c fe 4e 35 3e 7e f8 76 3d
       -0.012055228 0.015550501 0.17705914 0.060295574
000120 f1 55 b5 3d cd 0f 31 bd 3f 30 c0 bc c1 85 ac 3d
       0.08854283 -0.04322796 -0.023460506 0.08423949
000130 df 80 04 3d 5b c8 e9 3d 8f e6 28 bd 93 32 79 bd
       0.032349464 0.11415168 -0.041235503 -0.060839247
000140 57 1e 73 3e 6d 09 cc bd 4b e7 13 3d 10 7c aa bb
       0.23742042 -0.09962735 0.03610925 -0.0052027777
000150 c7 22 ba 3d 4f 6e 0d bd 09 f9 e5 3c 82 e6 30 bd
       0.090886645 -0.034529027 0.02807285 -0.04318858
000160 9f e7 39 3d 3b 7e 4e 3e ad db 47 bd 73 7c 4b 3d
       0.045386907 0.2016534 -0.048793484 0.04967923
000170 8f c2 a4 bc c6 56 27 bd e3 5e 2e 3e fa ae 83 bc
       -0.020112304 -0.040854238 0.17028384 -0.016074646
000180 94 cc 06 3e 86 b5 ff 3c 22 db a1 3d 1f 39 3e 3d
       0.13163978 0.031214487 0.079031244 0.046441194
000190 48 9a dd bd 01 08 cd bc 55 d4 25 3b 8a d1 c3 bd
       -0.108204424 -0.02502823 0.0025303562 -0.09561451
0001a0 7b d4 8a 3d 36 67 95 bd 8b 2a 9e bd 1b 3b d3 bd
       0.06778809 -0.072950765 -0.07722958 -0.10314008
0001b0 1f 28 6a 3d 61 bd b5 3d 05 8b ca bd f9 c2 b1 3d
       0.05716717 0.08874012 -0.09889797 0.08679766
0001c0 be f1 5e 3d ec 97 0d 3e aa fe 49 bc eb cf a0 3d
       0.054429762 0.13827485 -0.012328783 0.07852157
0001d0 88 10 13 3d c3 db 3a be 13 14 2a 3e fb d4 a8 bd
       0.035904437 -0.18247895 0.1660922 -0.08243748
0001e0 ff fa f9 3d 52 a1 12 3d 84 d3 d5 3a 9c b0 60 3c
       0.12206077 0.03579838 0.0016313647 0.013713982
0001f0 3b 23 ee bd ea 07 7b be 15 39 44 bd 01 f1 08 bc
       -0.116278134 -0.24514738 -0.047906 -0.008358241
000200 93 dc f8 3d c4 83 95 3c 53 e1 ce bc 90 51 c3 3c
       0.12151446 0.018251307 -0.025253927 0.023842603
000210 84 c7 03 be fc 7b 95 3d 18 aa 85 bd 85 be 30 be
       -0.12869078 0.07299039 -0.065265834 -0.17260177
000220 f2 a7 85 3d fa f8 ed bd 1f 3e 02 bd 3f e4 47 3e
       0.06526174 -0.11619754 -0.031797525 0.19520663
000230 c6 08 90 3d 79 0d 81 3d 63 6d 21 be 91 95 a5 bc
       0.070329234 0.06301398 -0.15764384 -0.02021292
000240 99 2c 52 3d 00 54 a2 3d 4b 8d c4 bc ac 5e c7 3d
       0.051312063 0.07926178 -0.023993155 0.09734854
000250 ef 04 e0 3a ef 35 a4 3d 3e fc 96 3d 44 fb 1e bd
       0.0017091314 0.080180995 0.0737233 -0.038813844
000260 61 6e c3 bd ae 11 9b 3d 24 94 a3 bb 83 ab a8 bd
       -0.095425375 0.075717315 -0.004992025 -0.08235838
000270 0a f3 15 be 0b dc b4 bb 84 0a 14 bc 22 63 4a bc
       -0.14643493 -0.005519395 -0.00903571 -0.012352737
000280 c3 50 69 bd 82 d5 ab bb 03 64 9f bd 77 1f b2 bd
       -0.056961786 -0.005243958 -0.077827476 -0.08697408
000290 9e a0 75 3d 8d d7 cc bd 4d 60 f9 3b dd cc 0e be
       0.05996763 -0.100020505 0.007610357 -0.13945337
0002a0 5c d1 82 bc 99 e9 06 3c 29 b7 c3 bb 58 1a d5 bc
       -0.015968971 0.008234405 -0.005972762 -0.026013538
0002b0 63 7f 8b 3c b4 c3 b1 3c 7d 91 4b be 77 b2 2b 3e
       0.017028516 0.021699764 -0.19879718 0.16767298
0002c0 cf ff 8e 3d 84 8e 4b 3e a1 02 c7 bc 10 36 99 3d
       0.06982385 0.19878584 -0.024293246 0.07481015
0002d0 61 12 36 3c 8d 27 26 be 60 3e 5b bd 31 50 1c bd
       0.01111278 -0.16226025 -0.053526282 -0.038162414
0002e0 7c 03 b6 3b 2c a7 6a 3d 5f 31 b5 3d 73 6b c1 bd
       0.0055546146 0.057288334 0.088473074 -0.094443224
0002f0 6e 03 1d be cb 55 6a bd 52 21 87 3d 6b e4 ef bd
       -0.1533334 -0.057210725 0.06598152 -0.11713489
000300 15 d3 a8 bc bb ec 73 3d 67 55 64 3e 20 10 e5 3d
       -0.020608464 0.059551936 0.22298203 0.11184716
000310 5f a1 41 3c 34 7a 89 3d eb 9f 88 3e d0 bf 6d 3d
       0.011818259 0.067127615 0.26684508 0.058044255
000320 1c 22 84 3d 16 f1 05 3d 44 4e 1c 3e cb 87 9b bd
       0.06451818 0.03270062 0.15264231 -0.0759426
000330 47 c4 89 3d 09 d9 fe 3d 39 f1 b4 bc 84 cb 4a 3d
       0.0672689 0.1244374 -0.02208768 0.049510494
000340 bb 87 5c bd a2 ba aa bd 26 b7 c5 bc 09 70 29 be
       -0.05384038 -0.08336379 -0.024135184 -0.16546644
000350 55 4f 9c bc 14 73 e7 bd d8 18 8d bd 42 54 ac 3d
       -0.019080797 -0.11301246 -0.06889504 0.084145084
000360 ac fd 5c bd 08 5b 10 3d 55 65 df 3d be 18 11 be
       -0.053952858 0.035243064 0.109079994 -0.14169595
000370 2e 09 57 bd bb df 18 3b 3a 56 f3 bd ea d7 1f 3a
       -0.05249899 0.0023326713 -0.11881681 0.00060975424
000380 01 c8 a6 bd f8 3b 1d bd 44 70 4f 3d 45 39 ec 3d
       -0.081436165 -0.03838727 0.050644174 0.11534361
000390 ab 17 cd bd 67 b3 2d 3d 12 d1 ad bc f1 94 56 3d
       -0.1001428 0.04240742 -0.021217857 0.052388135
0003a0 3d 16 ff 3c 44 17 b2 bc a3 4e ac 3c d1 b7 41 3d
       0.031138534 -0.02173961 0.02103359 0.04729444
0003b0 91 2f 57 3d 61 ab 0e be 7d 71 af bd 8b da b2 3d
       0.052535597 -0.13932563 -0.08566568 0.0873309
0003c0 31 e1 61 3c a9 f8 df 3c de d0 a6 bd 79 a6 c9 3c
       0.0137866 0.02734025 -0.08145307 0.024615513
0003d0 64 2f 1f be 9e 4a 1c bd 01 27 1f 3e 0d bb 0c bc
       -0.15545422 -0.038157098 0.15542223 -0.008589518
0003e0 2c 9e d1 3d d4 7e d1 bc b9 34 11 bd fc 7d 02 bd
       0.10235247 -0.025573172 -0.03545067 -0.03185843
0003f0 6e 9c e0 bd 7e 18 03 3e 33 25 b6 3d 39 1f 6c 3d
       -0.109673366 0.12802312 0.08893814 0.057646964

network_body._body_endoder.seq_layers.2.bias f4 [128]
000000 00 00 00 00 00 00 00 00 00 00 00 00 00 00 00 00
       0.0 0.0 0.0 0.0
000010 00 00 00 00 00 00 00 00 00 00 00 00 00 00 00 00
       0.0 0.0 0.0 0.0
000020 00 00 00 00 00 00 00 00 00 00 00 00 00 00 00 00
       0.0 0.0 0.0 0.0
000030 00 00 00 00 00 00 00 00 00 00 00 00 00 00 00 00
       0.0 0.0 0.0 0.0
000040 00 00 00 00 00 00 00 00 00 00 00 00 00 00 00 00
       0.0 0.0 0.0 0.0
000050 00 00 00 00 00 00 00 00 00 00 00 00 00 00 00 00
       0.0 0.0 0.0 0.0
000060 00 00 00 00 00 00 00 00 00 00 00 00 00 00 00 00
       0.0 0.0 0.0 0.0
000070 00 00 00 00 00 00 00 00 00 00 00 00 00 00 00 00
       0.0 0.0 0.0 0.0
000080 00 00 00 00 00 00 00 00 00 00 00 00 00 00 00 00
       0.0 0.0 0.0 0.0
000090 00 00 00 00 00 00 00 00 00 00 00 00 00 00 00 00
       0.0 0.0 0.0 0.0
0000a0 00 00 00 00 00 00 00 00 00 00 00 00 00 00 00 00
       0.0 0.0 0.0 0.0
0000b0 00 00 00 00 00 00 00 00 00 00 00 00 00 00 00 00
       0.0 0.0 0.0 0.0
0000c0 00 00 00 00 00 00 00 00 00 00 00 00 00 00 00 00
       0.0 0.0 0.0 0.0
0000d0 00 00 00 00 00 00 00 00 00 00 00 00 00 00 00 00
       0.0 0.0 0.0 0.0
0000e0 00 00 00 00 00 00 00 00 00 00 00 00 00 00 00 00
       0.0 0.0 0.0 0.0
0000f0 00 00 00 00 00 00 00 00 00 00 00 00 00 00 00 00
       0.0 0.0 0.0 0.0
000100 00 00 00 00 00 00 00 00 00 00 00 00 00 00 00 00
       0.0 0.0 0.0 0.0
000110 00 00 00 00 00 00 00 00 00 00 00 00 00 00 00 00
       0.0 0.0 0.0 0.0
000120 00 00 00 00 00 00 00 00 00 00 00 00 00 00 00 00
       0.0 0.0 0.0 0.0
000130 00 00 00 00 00 00 00 00 00 00 00 00 00 00 00 00
       0.0 0.0 0.0 0.0
000140 00 00 00 00 00 00 00 00 00 00 00 00 00 00 00 00
       0.0 0.0 0.0 0.0
000150 00 00 00 00 00 00 00 00 00 00 00 00 00 00 00 00
       0.0 0.0 0.0 0.0
000160 00 00 00 00 00 00 00 00 00 00 00 00 00 00 00 00
       0.0 0.0 0.0 0.0
000170 00 00 00 00 00 00 00 00 00 00 00 00 00 00 00 00
       0.0 0.0 0.0 0.0
000180 00 00 00 00 00 00 00 00 00 00 00 00 00 00 00 00
       0.0 0.0 0.0 0.0
000190 00 00 00 00 00 00 00 00 00 00 00 00 00 00 00 00
       0.0 0.0 0.0 0.0
0001a0 00 00 00 00 00 00 00 00 00 00 00 00 00 00 00 00
       0.0 0.0 0.0 0.0
0001b0 00 00 00 00 00 00 00 00 00 00 00 00 00 00 00 00
       0.0 0.0 0.0 0.0
0001c0 00 00 00 00 00 00 00 00 00 00 00 00 00 00 00 00
       0.0 0.0 0.0 0.0
0001d0 00 00 00 00 00 00 00 00 00 00 00 00 00 00 00 00
       0.0 0.0 0.0 0.0
0001e0 00 00 00 00 00 00 00 00 00 00 00 00 00 00 00 00
       0.0 0.0 0.0 0.0
0001f0 00 00 00 00 00 00 00 00 00 00 00 00 00 00 00 00
       0.0 0.0 0.0 0.0

action_model._continuous_distribution.mu.weight f4 [1, 128]
000000 04 86 a3 ba 5b 45 8c bb 52 e0 0e bd 08 23 91 3c
       -0.0012475853 -0.0042807288 -0.034881897 0.0177169
000010 9b f4 3d bc 8a c5 5c 3c 57 0e dc 3b a7 2e 2c 3c
       -0.011593963 0.013474831 0.0067155766 0.01050917
000020 1d 0d 02 3b 1b 7f 9a 3b 32 34 82 3c 8d 43 bb 3a
       0.0019844242 0.004714859 0.01589403 0.00142871
000030 1a 78 da bc 7d fa 9f 3c 3b 5e 90 3c a3 c5 8d bb
       -0.026668597 0.019528622 0.017623058 -0.0043265386
000040 7a e8 8d 3c db b0 70 ba a8 6a a3 bc d9 20 39 3d
       0.017322768 -0.0009181627 -0.019948319 0.04519734
000050 68 bc eb 3c 06 0f 16 3d 18 dc 4d bc ee 97 34 bd
       0.028776363 0.03663542 -0.0125646815 -0.044090204
000060 10 c8 54 3c 3f 91 c5 3b c2 4d 64 bc 45 95 20 bb
       0.012987152 0.0060292776 -0.0139345545 -0.0024503034
000070 ef 82 0e bd 2f ae a7 3c 60 07 32 bc 09 31 a5 bb
       -0.034792837 0.0204688 -0.010866016 -0.005041246
000080 dd 02 85 bc d7 a5 35 3c b4 cd 97 bc 18 55 b0 3b
       -0.016236717 0.011086903 -0.018530704 0.0053812377
000090 af 28 be ba f4 c6 04 3d 8c 64 22 3a 02 ae 40 bc
       -0.0014507974 0.0324163 0.0006194792 -0.011760237
0000a0 8d 4f 13 bc 63 65 a1 3c fc c7 02 ba ff 2e 18 bd
       -0.008991134 0.019701665 -0.00049889064 -0.037154194
0000b0 78 7e 83 bc ad 39 9f bc c7 81 38 3c e3 d7 d4 3a
       -0.016051516 -0.019436682 0.01126141 0.0016238656
0000c0 2b cb 06 3c 37 43 94 3c 5a 7d b7 3b f3 7f a5 bc
       0.00822715 0.018098457 0.00559966 -0.020202613
0000d0 87 45 0a bc 20 34 bb bc 2b 41 7f 3c 1b 89 26 bd
       -0.008439428 -0.022852004 0.015579502 -0.040658098
0000e0 03 48 5d bb 4a ac e5 3b a3 c0 d6 3c 2b 36 dd 3b
       -0.0033764846 0.007009064 0.026214903 0.006750842
0000f0 27 b1 88 3c 52 6e 13 bd 20 f5 49 3c 8d 37 92 3c
       0.016686035 -0.03599388 0.012326509 0.017848754
000100 6b 26 27 3c 42 85 14 3c 6f 07 83 3c 4b fc a1 bc
       0.010202031 0.009064974 0.015994756 -0.019773623
000110 49 eb bf bb 6e 3d a7 bc 3f 8e 8d bb c2 36 00 3b
       -0.0058569056 -0.020415034 -0.0043199356 0.0019563888
000120 6a 82 9a 3b 32 b2 95 bb 37 8c 8b bb b7 aa 8d 3c
       0.0047152536 -0.0045683617 -0.0042586583 0.017293317
000130 72 55 fe 39 cd 44 d5 3c 0b c8 c9 3c 02 f3 f7 3c
       0.00048510317 0.026033783 0.02463152 0.030267242
000140 61 04 c6 bb ed 49 89 3a 03 6e 9c bc 9c 29 8d 39
       -0.0060430025 0.0010474302 -0.019095426 0.00026924617
000150 43 41 a6 3c bf 1f a8 3b da 20 49 b9 cb 90 86 bc
       0.020294791 0.0051307376 -0.00019181092 -0.016426465
000160 93 82 01 bc c7 89 d3 ba f0 05 12 bb fd 55 7d bb
       -0.0079046665 -0.0016139083 -0.002228137 -0.003865599
000170 86 1f 43 3c 5d 47 28 bc 1d de 37 bd 35 79 fb 3c
       0.011909371 -0.010270921 -0.044889558 0.030697444
000180 95 b7 fe 3c f7 72 c9 3c fa 14 d7 3c c0 8a de 3c
       0.031093398 0.024590952 0.02625512 0.02716577
000190 a7 56 d3 3c 2b 70 e1 3c df c0 bf bc 9d 4e c5 3b
       0.025798155 0.027519306 -0.023407398 0.0060213343
0001a0 80 34 e6 b8 30 29 7e bb 28 f3 b6 bb 5b 61 6b bc
       -0.000109770335 -0.0038781874 -0.0055831857 -0.014366473
0001b0 5a 75 b8 3c 1f be 2e ba d0 33 24 bc e0 74 ac 3b
       0.022516895 -0.00066659035 -0.010022119 0.005262956
0001c0 53 52 94 3c 23 33 9b bc 4b f7 48 3c 7f 5b 0c 3c
       0.018105661 -0.018945282 0.0122659905 0.008566736
0001d0 14 62 38 bb ca ab 04 3c 54 45 28 bc e3 8b 0c 3c
       -0.002813463 0.008097598 -0.010270435 0.0085782735
0001e0 f8 77 fa bb dd 1d 22 39 eb 83 8b 3c 43 90 11 bc
       -0.007643696 0.00015460649 0.017030677 -0.008884492
0001f0 bb 5f f2 3c 43 4c 06 bc 1b f0 b9 3c d6 f1 aa 3b
       0.029586663 -0.008196893 0.022697499 0.0052168174

action_model._discrete_distribution.branches.0.weight f4 [5, 128]
000000 d4 08 17 3b ff fd 73 3b 43 9a a4 bb 6f fa 89 bb
       0.0023046033 0.003723025 -0.0050232722 -0.004210762
000010 af cf 2b 3c e3 fc a9 ba 1d 18 aa bc 93 0d 01 3c
       0.010486527 -0.0012969043 -0.020763451 0.0078767715
000020 a0 5e 8a bb b2 4e 5f 3b 93 bd 0d bc 29 95 49 ba
       -0.004222706 0.0034074006 -0.008651155 -0.0007689768
000030 78 d7 6a bc 03 7d 0c 3c b7 db 58 3c 2d f4 f5 3b
       -0.014333598 0.008574727 0.013235978 0.0075059147
000040 a2 e2 53 3b 85 54 16 3b e7 6b fe bb d3 cc 04 bc
       0.0032331129 0.002293856 -0.007764328 -0.0081054745
000050 80 e6 83 bb da 75 19 bb ce 6d 08 3c 81 2b 26 3c
       -0.0040252805 -0.0023416192 0.008326961 0.010142208
000060 87 1d f4 b9 d4 76 21 bb 53 7c ff 39 8d 55 00 3c
       -0.00046561306 -0.0024637477 0.0004873002 0.007832897
000070 a3 53 76 3b 51 5a 2d bc 02 79 a5 bb 49 e9 1e 3c
       0.0037586472 -0.010580615 -0.0050498256 0.009699174
000080 aa e9 5f 3c 23 5d b0 bb 78 96 6a 3b 83 8d b1 bb
       0.01366655 -0.0053821965 0.0035795253 -0.005418481
000090 03 49 0d bc c3 3c a0 ba 5e a7 01 3c 0b 46 aa 3b
       -0.008623364 -0.001222514 0.007913439 0.005196338
0000a0 17 a5 cd ba af 11 da 3a 40 14 39 bc a2 9d c1 bb
       -0.0015689459 0.001663735 -0.011296332 -0.005908684
0000b0 02 cc 44 bc 24 31 a3 3a dd 6b 20 bc 37 86 fa ba
       -0.01201153 0.0012450558 -0.009791342 -0.0019113485
0000c0 14 3a c0 3b a5 f6 e6 3b db ce 80 39 da 9f 29 3b
       0.0058662985 0.0070484453 0.00024568182 0.0025882632
0000d0 eb b9 a1 bb d8 18 b7 3c 5b f9 96 bc d9 d6 c4 3b
       -0.004935493 0.022350714 -0.018429449 0.006007057
0000e0 71 26 af 3b 6b 49 a7 3b 4b 4b 1d 3b 0c 3d 23 ba
       0.0053451587 0.0051051877 0.0024001177 -0.0006227053
0000f0 4e 1c 05 3b 35 a9 8f bb cf 16 29 3c 88 b8 ed bb
       0.002031106 -0.0043841847 0.010320379 -0.007254664
000100 72 74 67 3c 00 67 63 3b 67 1b 3f bc 2b e3 d9 3b
       0.014126884 0.0034698844 -0.011664248 0.006649395
000110 4b c9 25 bc f0 57 ec 3b 0d 56 07 bc 72 04 0f 3b
       -0.010118793 0.0072126314 -0.008260262 0.0021822718
000120 40 3f 67 3a a5 01 9c 3b ef 7a 6b 3c f3 ca e2 3b
       0.00088213757 0.004760938 0.014372571 0.006921166
000130 6a 39 88 38 ec 41 3e b9 91 b8 96 3b 23 10 de 3a
       6.4956796e-05 -0.0001814437 0.0045996387 0.0016942065
000140 40 0d 76 bc 76 41 c2 bb 87 c9 3e 3c 62 26 37 bc
       -0.0150178075 -0.0059282137 0.011644728 -0.011178585
000150 b2 4e 92 3b d7 11 d4 3b 2a c5 68 bb 1b 39 4e b9
       0.0044649476 0.0064718532 -0.003551791 -0.00019666964
000160 6b c9 de 3b 0a 65 f9 bb 5b 65 e0 b8 4b e0 40 bb
       0.0067989132 -0.0076109217 -0.00010700031 -0.0029430564
000170 12 41 a7 3c ab 65 b8 bb b5 4e ce 3c 4e 47 08 3c
       0.02041677 -0.005627354 0.025184015 0.008317782
000180 b3 64 b4 bb cf 5c a2 3b a7 6f 80 bc 9c e4 a6 3c
       -0.0055051683 0.0049549113 -0.01567824 0.020372681
000190 fe b8 10 bb 6b f2 26 3c 2f 93 43 3a 6f 07 99 ba
       -0.002208292 0.010189633 0.0007460592 -0.0011675189
0001a0 d7 6f d0 3b 79 3d 28 bc d7 c1 49 bb 38 11 0a 3b
       0.0063609886 -0.0102685625 -0.0030785704 0.0021067392
0001b0 02 7b be 39 3b 9e 05 3c 63 d0 0d bc 8f 18 0a 3c
       0.00036331272 0.008155401 -0.00865564 0.008428707
0001c0 b6 06 9f 3c e2 d6 6b bc da cd 28 3c 7d 31 68 ba
       0.01941238 -0.014394494 0.010302985 -0.0008857472
0001d0 67 f1 9b bb eb d4 94 3b 23 ae 04 3c 07 c0 3d 3a
       -0.004759002 0.0045419834 0.008098158 0.0007238392
0001e0 c7 37 64 bb 43 65 99 3c e9 a9 00 3c 62 4e ca bb
       -0.0034823285 0.018725043 0.00785301 -0.0061738947
0001f0 03 59 50 bc eb dd 7a 3c 6b 98 b6 3a 0f fb 41 bc
       -0.012716535 0.015311698 0.0013930922 -0.011839642
000200 bd 6b 8e bb 7c 66 47 ba 67 9c ab bc 55 98 5a bc
       -0.0043463395 -0.0007606519 -0.020948602 -0.013341983
000210 e2 64 91 bb f3 9c 80 bb 13 ee 4d 3c de 50 17 3a
       -0.004437075 -0.00392496 0.012568968 0.0005772243
000220 5b fb 67 3a 7f fc 30 bc 07 09 6b ba 50 16 9b 3b
       0.00088494056 -0.010802387 -0.0008965884 0.0047328845
000230 93 77 c1 bb 8d 2e 14 3c 7e 9c 15 3c 47 0e 0e 3c
       -0.005904147 0.009044302 0.009131549 0.008670396
000240 bf f9 23 3b 6b d5 71 3b 0a b8 ed 3b eb 89 b9 bb
       0.0025020686 0.0036900889 0.007254605 -0.005662193
000250 df 47 a5 bb fb b1 e6 3a df 4f 08 bc bb 56 21 3c
       -0.005043968 0.001760065 -0.008319824 0.009847338
000260 c5 fa cc bb 59 58 32 bc 7e 30 03 bc fd 5d 24 3c
       -0.00625548 -0.010885322 -0.008007167 0.010032174
000270 bd 1d fa 3b 03 90 90 bb db 75 aa 3a 63 fc f8 3b
       0.0076329396 -0.004411699 0.0013005094 0.007598446
000280 60 36 d8 bb b8 4e 25 bb d2 ed 7b bb 03 64 8c bb
       -0.006598279 -0.0025223922 -0.0038441312 -0.0042843833
000290 11 36 2d 3b 83 48 7d bc 4f 29 a8 3b 3c 71 4a 3c
       0.0026429931 -0.015459183 0.0051318775 0.012356099
0002a0 07 aa f5 3b e5 88 e3 3b 62 42 22 3b fc 33 cb 3b
       0.0074970755 0.0069438093 0.0024758806 0.0062012654
0002b0 24 f4 b2 3b 68 4c aa bb c3 cb 32 bc ca c0 1b 3c
       0.0054612327 -0.0051970966 -0.010912838 0.009506414
0002c0 3a 6e 67 3c 80 8d 02 bb 6f ea 17 bc 0a ca 4d 3b
       0.014125401 -0.0019920766 -0.009272202 0.0031400942
0002d0 ad bb 20 bc d2 02 1f 3c 65 f2 2c bb 4f 74 dc bb
       -0.00981037 0.009705262 -0.0026389596 -0.0067277323
0002e0 76 00 a4 3b 1f 6b 40 3b b4 3d 0a 3c 33 a9 73 3b
       0.0050049378 0.0029360724 0.008437563 0.0037179708
0002f0 e3 84 2b 3b 87 d8 3c bc cb 3f 6d bc 68 9a 2f 3b
       0.0026171736 -0.0115262335 -0.014480541 0.0026794914
000300 b6 b2 ac 3b 34 89 4c bb 04 28 a6 bb 87 7e 04 bc
       0.0052703274 -0.003120971 -0.005070688 -0.008086807
000310 9d 74 ce bb 42 a9 76 bb 9b 32 15 3b 03 69 15 3b
       -0.0063005225 -0.0037637507 0.002276576 0.0022798188
000320 19 a8 aa bb 91 a1 8f 3b 8b 2d 16 3b 3b bd e1 b9
       -0.005208027 0.004383274 0.002291533 -0.00043056332
000330 ff d3 2b 3a bb 1d a0 3b 9d 1d b6 3a 8a cb 57 ba
       0.0006554722 0.0048863566 0.0013894323 -0.0008231929
000340 2b 8e 8b bc 20 4c 80 bc a3 ad 9f b9 ef eb 6c bb
       -0.017035564 -0.0156613 -0.00030456213 -0.003615137
000350 ea b4 0f bc 22 91 6e bb b8 b5 de 3b 9f b8 5f bb
       -0.008771161 -0.0036402424 0.006796565 -0.0034137142
000360 3f 19 c0 3c 3b a1 0c bc 84 89 b2 bb 97 43 04 bc
       0.023449538 -0.008583362 -0.005448522 -0.008072755
000370 40 b6 6c bb ef b9 aa ba 16 a3 96 3b c5 3b 88 bc
       -0.0036119372 -0.0013025383 0.004597078 -0.016630063
000380 3b f4 28 3c 2a 4d f8 3b 3b b0 a5 3c c1 29 a0 bb
       0.010312135 0.007577558 0.020225635 -0.00488779
000390 ef 12 04 3c cf 49 cc bb a5 cd 20 bb ab 77 5c 3c
       0.008061155 -0.0062343846 -0.0024536636 0.013456265
0003a0 37 c5 b4 3b a7 c6 87 ba 3d de 5f bc 2f 48 5e bc
       0.005516674 -0.0010358886 -0.013663826 -0.013567015
0003b0 a0 e1 d7 bb d1 aa 37 3b d2 f0 38 bc 25 fa d7 3b
       -0.006588176 0.0028025398 -0.011287885 0.006591099
0003c0 57 2c 83 bc 5f 0e f0 3a 8d 21 be 3a 65 fb 40 3b
       -0.016012354 0.001831483 0.0014505849 0.0029446718
0003d0 98 25 43 3b 5d e4 08 bb 02 c7 5c 3b 4b 00 ac 3c
       0.0029777046 -0.0020888068 0.0033687954 0.020996233
0003e0 ed db 70 3c 33 1a ae ba f1 ff 3c 3c bd 8c 61 bb
       0.014700872 -0.0013282954 0.011535631 -0.0034416162
0003f0 dd 76 5e bc 4f c8 8e bb 13 86 62 b9 0a e1 83 bb
       -0.013578144 -0.0043573747 -0.00021602986 -0.0040246295

action_model._discrete_distribution.branches.0.bias f4 [5]
000000 00 00 00 00 00 00 00 00 00 00 00 00 00 00 00 00
       0.0 0.0 0.0 0.0
000010 00 00 00 00
       0.0

network_body._body_endoder.seq_layers.0.weight f4 [128, 1]
000000 52 9a 3d 40 8b 16 96 3f f2 e7 21 c0 fa 21 c6 be
       2.962544 1.172563 -2.5297818 -0.38697797
000010 8a b9 4d be 39 1e c0 3e 24 c5 62 bf 6c 4b f4 3f
       -0.20090309 0.37523058 -0.8858206 1.9085517
000020 4d 9d be bf dc d1 36 3f bc c2 39 be 5f 3a 9a 3f
       -1.4891754 0.7141397 -0.18140692 1.2049063
000030 93 c1 06 bf 49 b5 8f be dd 05 c6 3f 4e 77 45 bf
       -0.5263912 -0.28067997 1.5470539 -0.7713517
000040 97 bb 1a 3f cf 5e e6 be d0 46 f5 3e 5a 52 4d bf
       0.6044249 -0.44994208 0.47905588 -0.80203784
000050 3c 79 02 bf 63 b3 73 3f c2 74 60 be 96 a5 13 bf
       -0.5096624 0.951956 -0.2191954 -0.5767454
000060 b4 fc e1 3e 34 bc 80 bd 53 2b fc 3f fe 1d 67 3f
       0.4413811 -0.06285897 1.9700722 0.9028014
000070 84 a0 2e 3f 33 34 ad 3f 7e 3e a1 3e 6b 31 20 3f
       0.6821368 1.3531555 0.3149299 0.62575406
000080 b0 c6 91 bf 66 26 60 3f 5d 36 4d 3e ba 9a 8f 3f
       -1.138876 0.8755859 0.20040269 1.1219094
000090 ab 98 3f 3f 42 33 3f 3f f4 92 48 c0 4c ff 55 3e
       0.7484233 0.7468759 -3.1339693 0.2089817
0000a0 1a 9f 99 3d 5c aa cc bf fb af 3b 3e 5b 2d c8 bf
       0.07501049 -1.598949 0.1832885 -1.5638841
0000b0 e5 7d 45 bf bd 1a c1 3f 11 cf 28 3f 0a 22 d1 3f
       -0.77145225 1.5086285 0.6594096 1.6338513
0000c0 7f 1e 9d bf 70 70 a8 be d6 19 98 3f ef ed 58 bf
       -1.2274932 -0.32898283 1.1882885 -0.8473806
0000d0 93 b5 fc be cb a1 98 be 98 e4 59 3f 55 e1 31 3f
       -0.4935728 -0.29810938 0.8511443 0.69484454
0000e0 8f 26 d0 3f a5 21 37 3e f4 28 d7 be 04 15 2d 3f
       1.6261767 0.17883928 -0.42023432 0.6761019
0000f0 c6 c5 25 bf 57 e5 9a be 73 9c 20 be 9a 34 4e 3e
       -0.64754903 -0.30253097 -0.1568468 0.20137253
000100 01 4b 2d 3f 3f 13 37 3f 05 f1 4f bd b6 35 46 3d
       0.6769257 0.7151374 -0.050766964 0.048391066
000110 5d 57 35 bd 23 56 88 3e 6b e0 fc 3e 6e 14 d1 3e
       -0.04427277 0.26628217 0.49389967 0.408359
000120 b8 90 65 be a9 76 db bf 1d ba ad bd c4 77 54 3f
       -0.22418487 -1.7145587 -0.08482764 0.8299525
000130 51 b0 fc 3e 0f 77 e6 be dd 61 be 3f a0 e5 a3 3f
       0.4935327 -0.4501271 1.4873616 1.2804451
000140 6d 5a 64 3e 03 e1 8b be 6f e3 52 3f c7 31 9e bd
       0.2230012 -0.27320108 0.82378286 -0.07724338
000150 42 74 1f 3f d9 f1 88 3f 45 e3 9b 3f 07 8e 1d bf
       0.6228677 1.0698806 1.2178732 -0.6154484
000160 ff 0b c6 3f 39 d4 e0 3e a5 0c 17 be 57 ce 73 3f
       1.5472411 0.43911913 -0.14750917 0.95236725
000170 57 b4 d4 3f 71 b4 dc 3e f9 d1 9b bf 21 57 16 3f
       1.6617535 0.43106416 -1.2173454 0.587267
000180 9d 8e 7e 3b e8 8c 3b 3e d9 3b 12 be 02 d0 2e 3f
       0.0038842328 0.1831547 -0.14280643 0.68286145
000190 6e 02 55 bf 79 0b ad bf 52 c7 3f 3e 59 5d e9 3f
       -0.8320683 -1.3519126 0.18728378 1.8231612
0001a0 8b b6 49 bf e4 23 11 bf 6a 37 1b bf 40 cb 23 be
       -0.78794163 -0.5669539 -0.6063143 -0.15995502
0001b0 4c 2b aa bf 8a 8b 46 3f 87 41 bd bf 59 95 36 3f
       -1.3294463 0.7755667 -1.4785622 0.71321636
0001c0 50 2a 76 3f be e6 91 bf d9 c4 a9 3c e0 72 36 3f
       0.96158314 -1.1398542 0.020723747 0.71269035
0001d0 db 0b 1b bd 79 4c 0c 40 70 d6 6f be 53 d9 8d 3d
       -0.037853103 2.1921675 -0.23421645 0.06926217
0001e0 01 f5 9b bf 92 58 a0 bf ff 41 59 be b9 44 57 3e
       -1.2184144 -1.252703 -0.21216582 0.2102231
0001f0 19 23 84 3f 1f a3 cf bf 83 f1 b5 be 92 69 0e bf
       1.0323211 -1.6221656 -0.3553582 -0.5562984

network_body._body_endoder.seq_layers.0.bias f4 [128]
000000 00 00 00 00 00 00 00 00 00 00 00 00 00 00 00 00
       0.0 0.0 0.0 0.0
000010 00 00 00 00 00 00 00 00 00 00 00 00 00 00 00 00
       0.0 0.0 0.0 0.0
000020 00 00 00 00 00 00 00 00 00 00 00 00 00 00 00 00
       0.0 0.0 0.0 0.0
000030 00 00 00 00 00 00 00 00 00 00 00 00 00 00 00 00
       0.0 0.0 0.0 0.0
000040 00 00 00 00 00 00 00 00 00 00 00 00 00 00 00 00
       0.0 0.0 0.0 0.0
000050 00 00 00 00 00 00 00 00 00 00 00 00 00 00 00 00
       0.0 0.0 0.0 0.0
000060 00 00 00 00 00 00 00 00 00 00 00 00 00 00 00 00
       0.0 0.0 0.0 0.0
000070 00 00 00 00 00 00 00 00 00 00 00 00 00 00 00 00
       0.0 0.0 0.0 0.0
000080 00 00 00 00 00 00 00 00 00 00 00 00 00 00 00 00
       0.0 0.0 0.0 0.0
000090 00 00 00 00 00 00 00 00 00 00 00 00 00 00 00 00
       0.0 0.0 0.0 0.0
0000a0 00 00 00 00 00 00 00 00 00 00 00 00 00 00 00 00
       0.0 0.0 0.0 0.0
0000b0 00 00 00 00 00 00 00 00 00 00 00 00 00 00 00 00
       0.0 0.0 0.0 0.0
0000c0 00 00 00 00 00 00 00 00 00 00 00 00 00 00 00 00
       0.0 0.0 0.0 0.0
0000d0 00 00 00 00 00 00 00 00 00 00 00 00 00 00 00 00
       0.0 0.0 0.0 0.0
0000e0 00 00 00 00 00 00 00 00 00 00 00 00 00 00 00 00
       0.0 0.0 0.0 0.0
0000f0 00 00 00 00 00 00 00 00 00 00 00 00 00 00 00 00
       0.0 0.0 0.0 0.0
000100 00 00 00 00 00 00 00 00 00 00 00 00 00 00 00 00
       0.0 0.0 0.0 0.0
000110 00 00 00 00 00 00 00 00 00 00 00 00 00 00 00 00
       0.0 0.0 0.0 0.0
000120 00 00 00 00 00 00 00 00 00 00 00 00 00 00 00 00
       0.0 0.0 0.0 0.0
000130 00 00 00 00 00 00 00 00 00 00 00 00 00 00 00 00
       0.0 0.0 0.0 0.0
000140 00 00 00 00 00 00 00 00 00 00 00 00 00 00 00 00
       0.0 0.0 0.0 0.0
000150 00 00 00 00 00 00 00 00 00 00 00 00 00 00 00 00
       0.0 0.0 0.0 0.0
000160 00 00 00 00 00 00 00 00 00 00 00 00 00 00 00 00
       0.0 0.0 0.0 0.0
000170 00 00 00 00 00 00 00 00 00 00 00 00 00 00 00 00
       0.0 0.0 0.0 0.0
000180 00 00 00 00 00 00 00 00 00 00 00 00 00 00 00 00
       0.0 0.0 0.0 0.0
000190 00 00 00 00 00 00 00 00 00 00 00 00 00 00 00 00
       0.0 0.0 0.0 0.0
0001a0 00 00 00 00 00 00 00 00 00 00 00 00 00 00 00 00
       0.0 0.0 0.0 0.0
0001b0 00 00 00 00 00 00 00 00 00 00 00 00 00 00 00 00
       0.0 0.0 0.0 0.0
0001c0 00 00 00 00 00 00 00 00 00 00 00 00 00 00 00 00
       0.0 0.0 0.0 0.0
0001d0 00 00 00 00 00 00 00 00 00 00 00 00 00 00 00 00
       0.0 0.0 0.0 0.0
0001e0 00 00 00 00 00 00 00 00 00 00 00 00 00 00 00 00
       0.0 0.0 0.0 0.0
0001f0 00 00 00 00 00 00 00 00 00 00 00 00 00 00 00 00
       0.0 0.0 0.0 0.0

network_body._body_endoder.seq_layers.2.weight f4 [128, 128]
000000 f5 07 f7 3d 25 17 29 bd 55 1f 8a 3d df 96 8d 3c
       0.120620646 -0.041281838 0.06744257 0.017283855
000010 d7 99 dd bb a2 83 0d 3d 0d bc b5 bd 4b 03 e5 3b
       -0.006762724 0.034549363 -0.088737585 0.006988918
000020 b9 7f e0 bd 93 62 ab bd af c9 d9 3d ca f1 ba bd
       -0.10961861 -0.08368411 0.10634171 -0.09128149
000030 81 04 3f bd 4b b8 e7 3d 50 7c 30 3d 6e 68 d8 bc
       -0.046635155 0.11314448 0.043087304 -0.026416983
000040 de 70 99 3d 6f 34 c6 3d b4 8e 3c 3d 9c fd 9b 3c
       0.07492231 0.0967797 0.04603453 0.019041829
000050 40 a8 c8 bd 4b b6 bb bd fb 31 d4 bd 98 72 13 3e
       -0.09797716 -0.09165629 -0.103610955 0.14399183
000060 97 b9 e7 bd 5b 79 d6 3c 46 e4 90 ba cc e1 f0 3b
       -0.11314695 0.026180914 -0.0011054359 0.007351136
000070 94 92 ad 3d a6 36 76 bc 89 80 c3 bd d0 e2 d3 bd
       0.08475223 -0.015027678 -0.095460005 -0.103459954
000080 ab 4f ee 3d 6f f3 1b 3d c0 1a 74 bd 0a f2 76 3d
       0.11636289 0.038073953 -0.059595823 0.06028942
000090 56 3b dc bd 04 a3 e1 3b 9c 47 c6 bc ef 83 e7 3c
       -0.10753505 0.006885888 -0.024204068 0.028261153
0000a0 cd 4c 30 be c0 96 c6 bb 6f 35 6e bd 58 71 c1 bc
       -0.17216797 -0.0060604513 -0.058156427 -0.023613617
0000b0 4c 31 8d 3d 5e 86 cd bd 0a 9c cd bd fe 9f 8e bc
       0.06894168 -0.10035394 -0.10039528 -0.017410275
0000c0 49 5f 3b 3c fa 69 7f 3d 5f 4b b1 bb 29 7d 24 be
       0.011436292 0.062356927 -0.0054105963 -0.1606337
0000d0 4e 54 8e 3c 0d 0c d4 bd 2d 64 ef bc b5 4f 1d 3d
       0.017374184 -0.10353861 -0.029222572 0.038406093
0000e0 9e 1e 68 3c 46 52 a8 3c 29 cc 08 3e 5d b0 a3 bd
       0.014167456 0.020547044 0.13359131 -0.07992623
0000f0 c1 05 95 bd 0a db c3 3d 02 e0 19 3e fd b0 76 3d
       -0.07276488 0.09563263 0.15026858 0.060227383
000100 86 b6 61 bd 5a 11 1c 3e 3b 41 92 bc 0f cf 2d 3d
       -0.05510571 0.15240994 -0.01785337 0.042433795
000110 92 c6 f6 bd 94 9e 47 bc 48 d5 96 bc 9e 56 e7 3c
       -0.12049593 -0.012183804 -0.018412247 0.028239544
000120 d6 b6 e2 bb ab 19 45 3d 52 0b 2d be d7 3b 32 bd
       -0.0069187684 0.048120182 -0.1689885 -0.0435141
000130 a8 8d d5 3c 87 f7 08 3e 5d ca 4b bd c3 3e 78 3d
       0.026068524 0.13375674 -0.049753536 0.06060673
000140 5e e8 1c bc 82 3a e0 3d f8 6a 66 3e e2 ea 79 3c
       -0.009576885 0.109486595 0.22501743 0.015253754
000150 26 a2 e0 3d b6 eb 85 bd b2 15 c1 3c d5 8c b2 bc
       0.10968427 -0.06539099 0.023569915 -0.02179567
000160 f9 a0 b5 bd e0 52 76 3d 3e cd 26 bc 83 dc 02 be
       -0.08868594 0.06013763 -0.0101807695 -0.12779431
000170 35 b0 2a bd 45 15 02 be e2 3d c6 3d 12 eb d3 3d
       -0.04167195 -0.12703426 0.09679772 0.103475705
000180 dd b2 4c bd 2e 6b 13 3d 3f e8 0d 3d 57 e4 5f bd
       -0.049975265 0.035990886 0.034645315 -0.05466112
000190 40 9c ba bc de d0 15 3e 8d 4e 5e bd 69 67 94 bd
       -0.022779584 0.14630458 -0.05427413 -0.072462864
0001a0 c8 fc fb 3d 5c cb 78 3e cc 4b 58 bd b7 8c 8f 3d
       0.123040736 0.24296325 -0.05280666 0.07009261
0001b0 b9 80 bc 3d 44 0d 1e bc 9c a0 9c 3d b9 b9 19 be
       0.092042394 -0.009646717 0.07647821 -0.15012254
0001c0 ae ed 0a bd bc d4 92 3c b1 00 82 bd 0f 37 8e 3d
       -0.033918075 0.017923705 -0.06347788 0.06944095
0001d0 89 87 29 be 85 f3 82 bb c0 56 3b 3e 23 09 ce 3c
       -0.16555609 -0.003996315 0.18294811 0.025150841
0001e0 31 c3 93 3c 6d ac 33 3e 04 9d ec 3c a3 9a 84 3c
       0.01803741 0.17546244 0.028883465 0.016187018
0001f0 67 40 83 3d 52 25 ad 3d 8e 5e 0e 3e fd 28 00 3d
       0.06408768 0.08454384 0.13903257 0.03128909
000200 f0 af 0a be 40 1f 99 3c 49 5f 9d bd 14 92 ef bb
       -0.13543677 0.018691659 -0.0768419 -0.007311115
000210 dc 9a 6a bd 60 d7 9d 3d 90 31 f5 3c ba db c1 bd
       -0.05727659 0.07707095 0.02993086 -0.09465738
000220 89 b5 97 3c 66 ff 1a ba f5 7a 9d 3d 7a 44 c8 3d
       0.01851918 -0.0005912691 0.07689468 0.09778686
000230 0f d5 ac 3d 3d c2 0d be 6f a5 46 bd d6 02 e6 3d
       0.08439075 -0.13843627 -0.048497614 0.1123101
000240 50 6e 55 3d 52 1d 67 bd ea c8 2b 3d 3b 43 b6 3d
       0.052107155 -0.056424446 0.041939653 0.08899542
000250 44 7a 2e 3c 07 1a 23 3e 77 6b 94 3d d6 41 2b bc
       0.010649268 0.15927897 0.0724706 -0.010452708
000260 ea cd fd 3d bc 48 16 bd 72 66 92 3d 5b 87 2b bd
       0.123927906 -0.03669046 0.07148446 -0.041877132
000270 4e f7 f1 3d 02 7f 22 3e 4c 4f aa 3d 2f b0 58 bd
       0.11814748 0.15868762 0.08315906 -0.052902397
000280 33 00 5f 3d 81 56 11 3e 03 2a 13 3b 2c 56 1d 3e
       0.05444355 0.14193155 0.002245546 0.15364903
000290 02 42 49 3d 76 a9 dd 3d 65 07 00 be 20 6d df bd
       0.049135216 0.10823338 -0.12502821 -0.10909486
0002a0 24 4d 27 3e c8 6f c4 bc 03 ec ea 3c 2e d8 97 bc
       0.1633802 -0.023979083 0.028676992 -0.0185357
0002b0 a3 5e ce bd df 19 0f bd ca 74 89 3b 8d bc bf bd
       -0.10076644 -0.034936782 0.0041948305 -0.09362135
0002c0 83 65 d6 bd 41 26 d9 bd 81 ce bb 3d 07 8f 38 3e
       -0.104685806 -0.106029995 0.09170247 0.1802331
0002d0 96 e4 f8 3c ed 87 96 bd f7 98 92 bd b5 5f 46 3c
       0.030382436 -0.073501445 -0.07158082 0.012107779
0002e0 20 38 f0 3d a0 3f 0e 3d b4 90 26 bd 56 b3 42 3d
       0.11729455 0.034728646 -0.040665343 0.04753431
0002f0 ad 01 11 be ed cb d6 3c ff a3 a7 bd 02 09 b3 bc
       -0.14160796 0.026220286 -0.08185577 -0.021854881
000300 68 1f 2e bc 29 5f a9 3c 4a fa 27 3d ed 91 e4 3d
       -0.010627605 0.020675259 0.04101018 0.11160646
000310 5a 91 28 3d 31 12 20 bd 67 89 be 3c 02 04 67 3c
       0.041154243 -0.03907985 0.023258878 0.014100077
000320 f5 64 f8 3c 08 40 72 bd 44 77 a4 3b e4 ca fb bd
       0.030321578 -0.059143096 0.0050191004 -0.12294558
000330 9b ef d1 3b a5 01 cc bd 27 5c 74 bb f2 ff 48 bc
       0.006406737 -0.09961251 -0.0037286372 -0.012268053
000340 4f 18 f5 3d 4d 58 01 3e 9e 90 bc 3d 99 be de 3d
       0.11967527 0.1263134 0.09207271 0.10876197
000350 69 32 78 3d 53 d6 6d bd 69 cd e1 bd 01 c3 3a 3e
       0.06059495 -0.058065724 -0.11025507 0.1823845
000360 9d ef a1 bd aa a2 8f bd 30 00 97 3d 5a cd 91 bd
       -0.07907031 -0.070134476 0.07373083 -0.07119246
000370 28 91 38 bd 3f 3c 69 3b 2d 06 f8 3c 0e 21 2a 3d
       -0.045060307 0.0035588888 0.030276382 0.04153543
000380 90 0e 30 3c 82 95 19 bd 69 9d 3b 3d ba bf 37 bd
       0.0107456595 -0.037496097 0.045804415 -0.04486058
000390 02 e2 71 bd e7 4b 09 bb 7b ae 57 be 08 14 f3 3c
       -0.05905343 -0.0020949782 -0.21062653 0.029672638
0003a0 ed 25 b9 3c ac 15 e2 bd 25 b7 ed bc 38 b7 94 bd
       0.022601092 -0.1103929 -0.029017994 -0.07261509
0003b0 56 9a 7d 3d b2 9e 94 bd 95 4a 84 bd b2 24 9e bb
       0.061914764 -0.07256831 -0.06459538 -0.0048261518
0003c0 1e ad 48 3e bd 61 a4 bc 52 99 b1 3d 55 6a 84 3d
       0.19597289 -0.020066136 0.08671822 0.06465594
0003d0 53 48 4c bc 83 af d9 3d 45 5d ea bd f6 93 89 3b
       -0.012468415 0.10629179 -0.11443571 0.0041985465
0003e0 77 38 d3 3d a1 f1 6c bd e5 70 3c be 8f 14 09 3d
       0.10313504 -0.057847623 -0.18402441 0.03346687
0003f0 aa 84 e0 3d b9 e7 f5 3d fe e9 b9 bd 15 77 fc b7
       0.10962804 0.12007088 -0.090778336 -3.0096193e-05

network_body._body_endoder.seq_layers.2.bias f4 [128]
000000 00 00 00 00 00 00 00 00 00 00 00 00 00 00 00 00
       0.0 0.0 0.0 0.0
000010 00 00 00 00 00 00 00 00 00 00 00 00 00 00 00 00
       0.0 0.0 0.0 0.0
000020 00 00 00 00 00 00 00 00 00 00 00 00 00 00 00 00
       0.0 0.0 0.0 0.0
000030 00 00 00 00 00 00 00 00 00 00 00 00 00 00 00 00
       0.0 0.0 0.0 0.0
000040 00 00 00 00 00 00 00 00 00 00 00 00 00 00 00 00
       0.0 0.0 0.0 0.0
000050 00 00 00 00 00 00 00 00 00 00 00 00 00 00 00 00
       0.0 0.0 0.0 0.0
000060 00 00 00 00 00 00 00 00 00 00 00 00 00 00 00 00
       0.0 0.0 0.0 0.0
000070 00 00 00 00 00 00 00 00 00 00 00 00 00 00 00 00
       0.0 0.0 0.0 0.0
000080 00 00 00 00 00 00 00 00 00 00 00 00 00 00 00 00
       0.0 0.0 0.0 0.0
000090 00 00 00 00 00 00 00 00 00 00 00 00 00 00 00 00
       0.0 0.0 0.0 0.0
0000a0 00 00 00 00 00 00 00 00 00 00 00 00 00 00 00 00
       0.0 0.0 0.0 0.0
0000b0 00 00 00 00 00 00 00 00 00 00 00 00 00 00 00 00
       0.0 0.0 0.0 0.0
0000c0 00 00 00 00 00 00 00 00 00 00 00 00 00 00 00 00
       0.0 0.0 0.0 0.0
0000d0 00 00 00 00 00 00 00 00 00 00 00 00 00 00 00 00
       0.0 0.0 0.0 0.0
0000e0 00 00 00 00 00 00 00 00 00 00 00 00 00 00 00 00
       0.0 0.0 0.0 0.0
0000f0 00 00 00 00 00 00 00 00 00 00 00 00 00 00 00 00
       0.0 0.0 0.0 0.0
000100 00 00 00 00 00 00 00 00 00 00 00 00 00 00 00 00
       0.0 0.0 0.0 0.0
000110 00 00 00 00 00 00 00 00 00 00 00 00 00 00 00 00
       0.0 0.0 0.0 0.0
000120 00 00 00 00 00 00 00 00 00 00 00 00 00 00 00 00
       0.0 0.0 0.0 0.0
000130 00 00 00 00 00 00 00 00 00 00 00 00 00 00 00 00
       0.0 0.0 0.0 0.0
000140 00 00 00 00 00 00 00 00 00 00 00 00 00 00 00 00
       0.0 0.0 0.0 0.0
000150 00 00 00 00 00 00 00 00 00 00 00 00 00 00 00 00
       0.0 0.0 0.0 0.0
000160 00 00 00 00 00 00 00 00 00 00 00 00 00 00 00 00
       0.0 0.0 0.0 0.0
000170 00 00 00 00 00 00 00 00 00 00 00 00 00 00 00 00
       0.0 0.0 0.0 0.0
000180 00 00 00 00 00 00 00 00 00 00 00 00 00 00 00 00
       0.0 0.0 0.0 0.0
000190 00 00 00 00 00 00 00 00 00 00 00 00 00 00 00 00
       0.0 0.0 0.0 0.0
0001a0 00 00 00 00 00 00 00 00 00 00 00 00 00 00 00 00
       0.0 0.0 0.0 0.0
0001b0 00 00 00 00 00 00 00 00 00 00 00 00 00 00 00 00
       0.0 0.0 0.0 0.0
0001c0 00 00 00 00 00 00 00 00 00 00 00 00 00 00 00 00
       0.0 0.0 0.0 0.0
0001d0 00 00 00 00 00 00 00 00 00 00 00 00 00 00 00 00
       0.0 0.0 0.0 0.0
0001e0 00 00 00 00 00 00 00 00 00 00 00 00 00 00 00 00
       0.0 0.0 0.0 0.0
0001f0 00 00 00 00 00 00 00 00 00 00 00 00 00 00 00 00
       0.0 0.0 0.0 0.0

value_heads.value_heads.extrinsic.weight f4 [1, 128]
000000 26 51 4e 3e 44 f9 00 3e 48 6a d3 3d b0 99 79 bd
       0.20148143 0.12595087 0.10323006 -0.060937583
000010 5e 9f c4 bd 10 6e 47 bc 62 1f 49 3e d5 c3 0c be
       -0.096007094 -0.012172237 0.19640878 -0.13746579
000020 66 a5 41 3e f0 c2 26 bd a8 f3 9d 3d aa 09 24 3e
       0.18910751 -0.04071325 0.07712489 0.16019312
000030 54 4f 45 3e a4 b3 5b 3e d4 28 40 3e 04 95 5e bd
       0.19268543 0.21455246 0.18765575 -0.05434133
000040 98 ce f8 3d 20 a7 9f bd f8 d5 a4 bd 75 af 48 be
       0.1214878 -0.077955484 -0.08048624 -0.19598182
000050 18 62 94 3d b8 59 24 be d0 f7 69 3d ec 4c 86 3d
       0.072452724 -0.1604985 0.057121098 0.065576404
000060 d3 f7 50 be 9c 84 e8 3d c0 76 7e 3c ac 18 8b 3d
       -0.20407037 0.11353418 0.015531242 0.06791815
000070 76 97 03 3e 48 3a 07 be e4 b1 8d 3d 80 11 75 3d
       0.12850747 -0.13205826 0.069186956 0.059831142
000080 94 63 f9 3d 62 af 3a be 74 cc 2a 3e 52 ec 15 3e
       0.12177196 -0.18230966 0.16679555 0.1464093
000090 8e c7 49 3e c9 c6 1f be a4 d7 b3 3d 28 03 bb 3c
       0.1970503 -0.15603174 0.087813646 0.022828653
0000a0 b0 f7 e8 3d 10 aa 98 3c 38 d0 dc 3d 56 50 1f be
       0.11375368 0.01863578 0.10781902 -0.1555799
0000b0 44 9c 53 be e0 d8 f6 bd fc 7d df 3d 03 d9 5b be
       -0.2066508 -0.120530844 0.109127015 -0.21469502
0000c0 1a 9a 4a be d2 d2 80 bd 40 75 98 3b 46 08 9a bd
       -0.19785348 -0.06290211 0.004652649 -0.07521109
0000d0 c0 03 2c 3c 8c b8 76 bd fa 12 01 3e 80 4e ce 3c
       0.010498941 -0.06023459 0.12604895 0.025183916
0000e0 84 94 b2 3d 78 e4 27 3e 18 85 45 be e8 df 32 3d
       0.08719733 0.16395748 -0.19289052 0.043670565
0000f0 31 3d 05 be 9b 97 45 be 9c 7e b0 3d c0 7c 05 bb
       -0.13011624 -0.19296114 0.08617899 -0.0020368546
000100 d0 aa af bd ae e9 af bd 00 3f ad 3b 80 3d 68 bc
       -0.08577502 -0.08589493 0.005287051 -0.014174819
000110 08 88 c3 bc c0 a6 13 3e 09 99 2a be 5c 4c 80 3d
       -0.023868576 0.14419079 -0.16659941 0.062645644
000120 58 e8 04 bd b1 20 40 be 50 4e 6a 3d c8 dd 58 3e
       -0.032448143 -0.18762471 0.05720359 0.21178353
000130 3c 33 2c 3e ec 2b 0e 3e f0 16 42 3d b2 63 3b 3e
       0.1681642 0.13883942 0.047385156 0.1829975
000140 18 35 f3 bd 34 34 fe bd e4 02 e2 3d b4 9d 01 bd
       -0.11875361 -0.12412301 0.110357076 -0.031644538
000150 90 3d 7f 3c 1e 6c 91 bd c6 34 4a be 34 0f 89 3d
       0.0155786425 -0.071007 -0.19746694 0.06692353
000160 65 da f7 bd 40 3c 9d bd 52 8b 2d 3e 58 9a 2f 3d
       -0.12102202 -0.076775074 0.16947678 0.042871803
000170 80 df 43 be 8c 40 78 bd c2 37 31 3e a0 96 09 3e
       -0.19128227 -0.06060843 0.17306426 0.13436365
000180 e0 4a 0a 3e a8 1e 72 bd f9 3f 36 be d2 12 c4 bd
       0.13505125 -0.059111267 -0.17797841 -0.09573902
000190 78 da 84 bd 38 17 5f 3d a2 b4 f6 bd e0 d2 6f 3d
       -0.06486982 0.054465503 -0.12046172 0.058550715
0001a0 40 44 df 3d 78 6a 71 3d a2 e0 0b 3e 1c 67 18 3e
       0.109016895 0.058939427 0.1365991 0.14883083
0001b0 c0 60 40 bc c4 b1 59 3e ba 8f 1b be 2c 2e 5b bd
       -0.011741817 0.21259218 -0.15191546 -0.05351083
0001c0 b8 66 ce bc 7c 91 2a 3e 62 4a 4a 3e 90 f1 16 bc
       -0.025195464 0.1665706 0.19754937 -0.009212866
0001d0 36 48 1a be d0 86 c9 bc fa b9 08 3e 08 55 05 bd
       -0.15066609 -0.024600416 0.13352194 -0.032551795
0001e0 8c c9 0a 3d e4 d9 d2 3d 36 e1 4d be 64 2d b4 bd
       0.033883616 0.102954656 -0.20105442 -0.0879772
0001f0 d8 cf ac 3c 78 b7 0f 3e 58 b1 87 3c d8 1a 44 bd
       0.021095201 0.14034832 0.016564056 -0.047877163
