Project/Assets/ML-Agents/Examples/MyTest/Scripts/TFModels/MyTest1Models/Test3/MoveToGoal/MoveToGoal-5952.onnx (onnx, 76785 bytes, 6 tensors)

network_body._body_endoder.seq_layers.0.weight f4 [128, 1]
0	0xbdfe6e19	-0.12423343
1	0x3f6e52f2	0.93095315
2	0xbdc9cfb8	-0.09854072
3	0x3f796024	0.97412324
4	0x3ffe9d21	1.9891702
5	0xbd83cad5	-0.064351715
6	0x3f62bd2d	0.8856991
7	0xbe938484	-0.2881204
8	0xbf7c426d	-0.9853886
9	0x3f9a0687	1.2033242
10	0x3f48d4b7	0.7844958
11	0xbfa31994	-1.2742181
12	0xbea95774	-0.33074534
13	0x3f662b8e	0.8991021
14	0xbfb90006	-1.4453132
15	0xc01ae7e1	-2.4204028
16	0x3f9e79f9	1.2380973
17	0x3dfdd620	0.12394357
18	0x3dbe67fc	0.09297177
19	0xbe229881	-0.15878488
20	0x3f8c5a0c	1.096498
21	0x3e21192d	0.1573226
22	0xbec97438	-0.3934648
23	0xc022a93c	-2.5415792
24	0xbeaa4666	-0.33256835
25	0xbeafdd78	-0.34348655
26	0x3dce4717	0.10072153
27	0xbe0adae6	-0.13560066
28	0xbf9ab8aa	-1.2087605
29	0xbf58ad12	-0.84639084
30	0x3fcce71e	1.6008031
31	0x3e2cad0a	0.16862884
32	0xbd9be0ac	-0.07611212
33	0x3f1d5675	0.6146005
34	0xbfea1922	-1.828892
35	0xbee3e81d	-0.44513026
36	0x3f9848a6	1.189717
37	0x3e9ec3ad	0.31008664
38	0xbf883179	-1.0640098
39	0xbe869f67	-0.2629349
40	0x3e9c9335	0.3058106
41	0x3f752b6e	0.95769393
42	0x3d16f5e4	0.036855593
43	0x3e3814cd	0.17976685
44	0xbfb188e0	-1.3869896
45	0xc009ff31	-2.1562006
46	0x3efbe703	0.49199685
47	0xbe884025	-0.26611438
48	0xbe742270	-0.23841262
49	0xbf080a57	-0.5314078
50	0xbdf72b75	-0.12068836
51	0x3f0d7fb9	0.55273014
52	0xbfb88c04	-1.4417729
53	0xbd95079a	-0.072768405
54	0x3d80e81b	0.062942706
55	0xbf75c680	-0.9600601
56	0x3f8b9d79	1.0907432
57	0xbeea66b4	-0.4578148
58	0x3f3e8b70	0.74431515
59	0x3e58af62	0.21160653
60	0xbfe7421d	-1.8067051
61	0x3e69861c	0.22805065
62	0xbdb2ece0	-0.087365866
63	0x3d5a0669	0.05322877
64	0xbec1ae6c	-0.37828386
65	0x3f1d6645	0.61484176
66	0x3cf2d25a	0.029641319
67	0x3db87caf	0.090081565
68	0xbe990864	-0.29889214
69	0xbf9bd2d5	-1.2173716
70	0x3fd81fa1	1.6884652
71	0xbf0c65a0	-0.5484257
72	0xbf96eff6	-1.179198
73	0x3ecdbce9	0.4018319
74	0x3dcf7c04	0.10131076
75	0x3eaf50f8	0.34241462
76	0xbee377c9	-0.44427326
77	0x3e4056b6	0.18783078
78	0x3f4ab000	0.79174805
79	0xbf8061eb	-1.0029882
80	0x3f23d152	0.6399127
81	0xbe88298a	-0.26594192
82	0xbf86bfff	-1.0527343
83	0x3f4f5399	0.80986935
84	0xbfaa8740	-1.3322525
85	0xbf06f424	-0.5271628
86	0xbfa215ce	-1.2662904
87	0x3fac6962	1.346966
88	0x3f1fa28e	0.62357414
89	0xbf055776	-0.5208658
90	0xbff3b902	-1.9040835
91	0x3f5baebc	0.858135
92	0x3eb3f723	0.35149488
93	0xbfff66f9	-1.99533
94	0xbdcb6997	-0.09932249
95	0xbcf5e84d	-0.030017996
96	0x3ff87d78	1.941329
97	0xbe72747e	-0.2367725
98	0x3e61a898	0.2203697
99	0x3e8be49e	0.2732286
100	0x3eaff050	0.3436303
101	0xbeab76b1	-0.33488992
102	0x3f00077c	0.5001142
103	0xbf6667bc	-0.90002036
104	0xbf2a7e38	-0.66598845
105	0x3f6587f9	0.896606
106	0xbf0f18de	-0.5589732
107	0xbebeff90	-0.37304354
108	0x3eaf0cab	0.34189352
109	0x3eaa72d7	0.3329074
110	0xbf856f2e	-1.0424554
111	0xbd029723	-0.031882416
112	0xbff79612	-1.9342673
113	0xbff55506	-1.9166572
114	0xbf78f295	-0.9724515
115	0x3f9eff03	1.2421573
116	0xbf57e0e5	-0.84327537
117	0xbe985849	-0.29754856
118	0xbf8bfbc0	-1.0936203
119	0x3f7bfded	0.98434335
120	0xbf1a9a1c	-0.603914
121	0xbf1dd781	-0.6165696
122	0x3ed3e25f	0.41383645
123	0xbeca670b	-0.3953174
124	0x3fc01dd5	1.5009104
125	0x3f41f87e	0.75769794
126	0x40132333	2.2990234
127	0xbfb825d9	-1.438655

network_body._body_endoder.seq_layers.0.bias f4 [128]
0	0x00000000	0.0
1	0x00000000	0.0
2	0x00000000	0.0
3	0x00000000	0.0
4	0x00000000	0.0
5	0x00000000	0.0
6	0x00000000	0.0
7	0x00000000	0.0
8	0x00000000	0.0
9	0x00000000	0.0
10	0x00000000	0.0
11	0x00000000	0.0
12	0x00000000	0.0
13	0x00000000	0.0
14	0x00000000	0.0
15	0x00000000	0.0
16	0x00000000	0.0
17	0x00000000	0.0
18	0x00000000	0.0
19	0x00000000	0.0
20	0x00000000	0.0
21	0x00000000	0.0
22	0x00000000	0.0
23	0x00000000	0.0
24	0x00000000	0.0
25	0x00000000	0.0
26	0x00000000	0.0
27	0x00000000	0.0
28	0x00000000	0.0
29	0x00000000	0.0
30	0x00000000	0.0
31	0x00000000	0.0
32	0x00000000	0.0
33	0x00000000	0.0
34	0x00000000	0.0
35	0x00000000	0.0
36	0x00000000	0.0
37	0x00000000	0.0
38	0x00000000	0.0
39	0x00000000	0.0
40	0x00000000	0.0
41	0x00000000	0.0
42	0x00000000	0.0
43	0x00000000	0.0
44	0x00000000	0.0
45	0x00000000	0.0
46	0x00000000	0.0
47	0x00000000	0.0
48	0x00000000	0.0
49	0x00000000	0.0
50	0x00000000	0.0
51	0x00000000	0.0
52	0x00000000	0.0
53	0x00000000	0.0
54	0x00000000	0.0
55	0x00000000	0.0
56	0x00000000	0.0
57	0x00000000	0.0
58	0x00000000	0.0
59	0x00000000	0.0
60	0x00000000	0.0
61	0x00000000	0.0
62	0x00000000	0.0
63	0x00000000	0.0
64	0x00000000	0.0
65	0x00000000	0.0
66	0x00000000	0.0
67	0x00000000	0.0
68	0x00000000	0.0
69	0x00000000	0.0
70	0x00000000	0.0
71	0x00000000	0.0
72	0x00000000	0.0
73	0x00000000	0.0
74	0x00000000	0.0
75	0x00000000	0.0
76	0x00000000	0.0
77	0x00000000	0.0
78	0x00000000	0.0
79	0x00000000	0.0
80	0x00000000	0.0
81	0x00000000	0.0
82	0x00000000	0.0
83	0x00000000	0.0
84	0x00000000	0.0
85	0x00000000	0.0
86	0x00000000	0.0
87	0x00000000	0.0
88	0x00000000	0.0
89	0x00000000	0.0
90	0x00000000	0.0
91	0x00000000	0.0
92	0x00000000	0.0
93	0x00000000	0.0
94	0x00000000	0.0
95	0x00000000	0.0
96	0x00000000	0.0
97	0x00000000	0.0
98	0x00000000	0.0
99	0x00000000	0.0
100	0x00000000	0.0
101	0x00000000	0.0
102	0x00000000	0.0
103	0x00000000	0.0
104	0x00000000	0.0
105	0x00000000	0.0
106	0x00000000	0.0
107	0x00000000	0.0
108	0x00000000	0.0
109	0x00000000	0.0
110	0x00000000	0.0
111	0x00000000	0.0
112	0x00000000	0.0
113	0x00000000	0.0
114	0x00000000	0.0
115	0x00000000	0.0
116	0x00000000	0.0
117	0x00000000	0.0
118	0x00000000	0.0
119	0x00000000	0.0
120	0x00000000	0.0
121	0x00000000	0.0
122	0x00000000	0.0
123	0x00000000	0.0
124	0x00000000	0.0
125	0x00000000	0.0
126	0x00000000	0.0
127	0x00000000	0.0

network_body._body_endoder.seq_layers.2.weight f4 [128, 128]
0	0xbdfd38b7	-0.12364333
1	0x3d91fc82	0.0712824
2	0x3da90e4a	0.082546785
3	0x3d5755ac	0.052571937
4	0x3c28ea1b	0.010309721
5	0x3bd387ac	0.0064553823
6	0x3bb65c70	0.0055652186
7	0x3d670665	0.056402583
8	0xbdc06b0f	-0.0939542
9	0xbdca5d40	-0.09881067
10	0xbddb8158	-0.1071803
11	0x3dd04bc0	0.10170698
12	0xbcc5e757	-0.024158163
13	0x3e095b3e	0.13413712
14	0x3dd04ba9	0.10170681
15	0xbc706cb3	-0.014674353
16	0x3e30c56e	0.17262813
17	0x3e1e73a3	0.154738
18	0xbda74ec6	-0.08169322
19	0xbcfd3af1	-0.030911895
20	0x3c8e5b29	0.017377453
21	0x3afeb411	0.0019432326
22	0xbd8c4a92	-0.06850161
23	0x3d17dcdb	0.03707586
24	0xbe0c491e	-0.13699767
25	0x3d7370a7	0.059433606
26	0x3ce3d471	0.02781126
27	0xbd1049c0	-0.035226583
28	0x3b2ef704	0.0026697526
29	0x3bb95278	0.005655583
30	0xbda2ea8f	-0.07954895
31	0xbcee4854	-0.029087223
32	0x3dc934c3	0.098245166
33	0xbd93f194	-0.07223812
34	0xbd0d7dce	-0.034543805
35	0x3daa7746	0.08323531
36	0x3d501d52	0.050809212
37	0xbd93159a	-0.071818545
38	0x3a886576	0.0010406214
39	0xbbdbdafe	-0.0067094555
40	0x3cab3645	0.020899901
41	0xbd0a3a7e	-0.03374719
42	0xbb2bf53e	-0.0026238705
43	0xbd6aba3e	-0.05730652
44	0x3d8805a2	0.066416994
45	0xbbae552d	-0.0053202123
46	0x3e20ae1e	0.1569142
47	0x3cf20d4d	0.029547358
48	0x3d612a35	0.054971892
49	0x3dd3d9e0	0.10344291
50	0x3d1fb4d0	0.038990796
51	0x3daa3f21	0.08312822
52	0xbcf22941	-0.029560687
53	0x3d71c28e	0.059023432
54	0x3d0fa6fe	0.035071366
55	0x3e1e2189	0.1544248
56	0x3cab4883	0.0209086
57	0xbc01a916	-0.007913848
58	0x3dad9e0f	0.08477413
59	0x3dd6b339	0.10483403
60	0xbdf0a9c0	-0.11751127
61	0xbe329d07	-0.17442714
62	0xbd0a3b54	-0.033747986
63	0x3c1158df	0.008871286
64	0x3c87d21d	0.016579682
65	0x3bb12c60	0.0054069012
66	0xbc562dca	-0.01307244
67	0xbbdae1da	-0.0066797556
68	0xbc45834b	-0.012055228
69	0x3c7ec787	0.015550501
70	0x3e354efe	0.17705914
71	0x3d76f87e	0.060295574
72	0x3db555f1	0.08854283
73	0xbd310fcd	-0.04322796
74	0xbcc0303f	-0.023460506
75	0x3dac85c1	0.08423949
76	0x3d0480df	0.032349464
77	0x3de9c85b	0.11415168
78	0xbd28e68f	-0.041235503
79	0xbd793293	-0.060839247
80	0x3e731e57	0.23742042
81	0xbdcc096d	-0.09962735
82	0x3d13e74b	0.03610925
83	0xbbaa7c10	-0.0052027777
84	0x3dba22c7	0.090886645
85	0xbd0d6e4f	-0.034529027
86	0x3ce5f909	0.02807285
87	0xbd30e682	-0.04318858
88	0x3d39e79f	0.045386907
89	0x3e4e7e3b	0.2016534
90	0xbd47dbad	-0.048793484
91	0x3d4b7c73	0.04967923
92	0xbca4c28f	-0.020112304
93	0xbd2756c6	-0.040854238
94	0x3e2e5ee3	0.17028384
95	0xbc83aefa	-0.016074646
96	0x3e06cc94	0.13163978
97	0x3cffb586	0.031214487
98	0x3da1db22	0.079031244
99	0x3d3e391f	0.046441194
100	0xbddd9a48	-0.108204424
101	0xbccd0801	-0.02502823
102	0x3b25d455	0.0025303562
103	0xbdc3d18a	-0.09561451
104	0x3d8ad47b	0.06778809
105	0xbd956736	-0.072950765
106	0xbd9e2a8b	-0.07722958
107	0xbdd33b1b	-0.10314008
108	0x3d6a281f	0.05716717
109	0x3db5bd61	0.08874012
110	0xbdca8b05	-0.09889797
111	0x3db1c2f9	0.08679766
112	0x3d5ef1be	0.054429762
113	0x3e0d97ec	0.13827485
114	0xbc49feaa	-0.012328783
115	0x3da0cfeb	0.07852157
116	0x3d131088	0.035904437
117	0xbe3adbc3	-0.18247895
118	0x3e2a1413	0.1660922
119	0xbda8d4fb	-0.08243748
120	0x3df9faff	0.12206077
121	0x3d12a152	0.03579838
122	0x3ad5d384	0.0016313647
123	0x3c60b09c	0.013713982
124	0xbdee233b	-0.116278134
125	0xbe7b07ea	-0.24514738
126	0xbd443915	-0.047906
127	0xbc08f101	-0.008358241
128	0x3df8dc93	0.12151446
129	0x3c9583c4	0.018251307
130	0xbccee153	-0.025253927
131	0x3cc35190	0.023842603
132	0xbe03c784	-0.12869078
133	0x3d957bfc	0.07299039
134	0xbd85aa18	-0.065265834
135	0xbe30be85	-0.17260177
136	0x3d85a7f2	0.06526174
137	0xbdedf8fa	-0.11619754
138	0xbd023e1f	-0.031797525
139	0x3e47e43f	0.19520663
140	0x3d9008c6	0.070329234
141	0x3d810d79	0.06301398
142	0xbe216d63	-0.15764384
143	0xbca59591	-0.02021292
144	0x3d522c99	0.051312063
145	0x3da25400	0.07926178
146	0xbcc48d4b	-0.023993155
147	0x3dc75eac	0.09734854
148	0x3ae004ef	0.0017091314
149	0x3da435ef	0.080180995
150	0x3d96fc3e	0.0737233
151	0xbd1efb44	-0.038813844
152	0xbdc36e61	-0.095425375
153	0x3d9b11ae	0.075717315
154	0xbba39424	-0.004992025
155	0xbda8ab83	-0.08235838
156	0xbe15f30a	-0.14643493
157	0xbbb4dc0b	-0.005519395
158	0xbc140a84	-0.00903571
159	0xbc4a6322	-0.012352737
160	0xbd6950c3	-0.056961786
161	0xbbabd582	-0.005243958
162	0xbd9f6403	-0.077827476
163	0xbdb21f77	-0.08697408
164	0x3d75a09e	0.05996763
165	0xbdccd78d	-0.100020505
166	0x3bf9604d	0.007610357
167	0xbe0eccdd	-0.13945337
168	0xbc82d15c	-0.015968971
169	0x3c06e999	0.008234405
170	0xbbc3b729	-0.005972762
171	0xbcd51a58	-0.026013538
172	0x3c8b7f63	0.017028516
173	0x3cb1c3b4	0.021699764
174	0xbe4b917d	-0.19879718
175	0x3e2bb277	0.16767298
176	0x3d8effcf	0.06982385
177	0x3e4b8e84	0.19878584
178	0xbcc702a1	-0.024293246
179	0x3d993610	0.07481015
180	0x3c361261	0.01111278
181	0xbe26278d	-0.16226025
182	0xbd5b3e60	-0.053526282
183	0xbd1c5031	-0.038162414
184	0x3bb6037c	0.0055546146
185	0x3d6aa72c	0.057288334
186	0x3db5315f	0.088473074
187	0xbdc16b73	-0.094443224
188	0xbe1d036e	-0.1533334
189	0xbd6a55cb	-0.057210725
190	0x3d872152	0.06598152
191	0xbdefe46b	-0.11713489
192	0xbca8d315	-0.020608464
193	0x3d73ecbb	0.059551936
194	0x3e645567	0.22298203
195	0x3de51020	0.11184716
196	0x3c41a15f	0.011818259
197	0x3d897a34	0.067127615
198	0x3e889feb	0.26684508
199	0x3d6dbfd0	0.058044255
200	0x3d84221c	0.06451818
201	0x3d05f116	0.03270062
202	0x3e1c4e44	0.15264231
203	0xbd9b87cb	-0.0759426
204	0x3d89c447	0.0672689
205	0x3dfed909	0.1244374
206	0xbcb4f139	-0.02208768
207	0x3d4acb84	0.049510494
208	0xbd5c87bb	-0.05384038
209	0xbdaabaa2	-0.08336379
210	0xbcc5b726	-0.024135184
211	0xbe297009	-0.16546644
212	0xbc9c4f55	-0.019080797
213	0xbde77314	-0.11301246
214	0xbd8d18d8	-0.06889504
215	0x3dac5442	0.084145084
216	0xbd5cfdac	-0.053952858
217	0x3d105b08	0.035243064
218	0x3ddf6555	0.109079994
219	0xbe1118be	-0.14169595
220	0xbd57092e	-0.05249899
221	0x3b18dfbb	0.0023326713
222	0xbdf3563a	-0.11881681
223	0x3a1fd7ea	0.00060975424
224	0xbda6c801	-0.081436165
225	0xbd1d3bf8	-0.03838727
226	0x3d4f7044	0.050644174
227	0x3dec3945	0.11534361
228	0xbdcd17ab	-0.1001428
229	0x3d2db367	0.04240742
230	0xbcadd112	-0.021217857
231	0x3d5694f1	0.052388135
232	0x3cff163d	0.031138534
233	0xbcb21744	-0.02173961
234	0x3cac4ea3	0.02103359
235	0x3d41b7d1	0.04729444
236	0x3d572f91	0.052535597
237	0xbe0eab61	-0.13932563
238	0xbdaf717d	-0.08566568
239	0x3db2da8b	0.0873309
240	0x3c61e131	0.0137866
241	0x3cdff8a9	0.02734025
242	0xbda6d0de	-0.08145307
243	0x3cc9a679	0.024615513
244	0xbe1f2f64	-0.15545422
245	0xbd1c4a9e	-0.038157098
246	0x3e1f2701	0.15542223
247	0xbc0cbb0d	-0.008589518
248	0x3dd19e2c	0.10235247
249	0xbcd17ed4	-0.025573172
250	0xbd1134b9	-0.03545067
251	0xbd027dfc	-0.03185843
252	0xbde09c6e	-0.109673366
253	0x3e03187e	0.12802312
254	0x3db62533	0.08893814
255	0x3d6c1f39	0.057646964

action_model._continuous_distribution.mu.weight f4 [1, 128]
0	0xbaa38604	-0.0012475853
1	0xbb8c455b	-0.0042807288
2	0xbd0ee052	-0.034881897
3	0x3c912308	0.0177169
4	0xbc3df49b	-0.011593963
5	0x3c5cc58a	0.013474831
6	0x3bdc0e57	0.0067155766
7	0x3c2c2ea7	0.01050917
8	0x3b020d1d	0.0019844242
9	0x3b9a7f1b	0.004714859
10	0x3c823432	0.01589403
11	0x3abb438d	0.00142871
12	0xbcda781a	-0.026668597
13	0x3c9ffa7d	0.019528622
14	0x3c905e3b	0.017623058
15	0xbb8dc5a3	-0.0043265386
16	0x3c8de87a	0.017322768
17	0xba70b0db	-0.0009181627
18	0xbca36aa8	-0.019948319
19	0x3d3920d9	0.04519734
20	0x3cebbc68	0.028776363
21	0x3d160f06	0.03663542
22	0xbc4ddc18	-0.0125646815
23	0xbd3497ee	-0.044090204
24	0x3c54c810	0.012987152
25	0x3bc5913f	0.0060292776
26	0xbc644dc2	-0.0139345545
27	0xbb209545	-0.0024503034
28	0xbd0e82ef	-0.034792837
29	0x3ca7ae2f	0.0204688
30	0xbc320760	-0.010866016
31	0xbba53109	-0.005041246
32	0xbc8502dd	-0.016236717
33	0x3c35a5d7	0.011086903
34	0xbc97cdb4	-0.018530704
35	0x3bb05518	0.0053812377
36	0xbabe28af	-0.0014507974
37	0x3d04c6f4	0.0324163
38	0x3a22648c	0.0006194792
39	0xbc40ae02	-0.011760237
40	0xbc134f8d	-0.008991134
41	0x3ca16563	0.019701665
42	0xba02c7fc	-0.00049889064
43	0xbd182eff	-0.037154194
44	0xbc837e78	-0.016051516
45	0xbc9f39ad	-0.019436682
46	0x3c3881c7	0.01126141
47	0x3ad4d7e3	0.0016238656
48	0x3c06cb2b	0.00822715
49	0x3c944337	0.018098457
50	0x3bb77d5a	0.00559966
51	0xbca57ff3	-0.020202613
52	0xbc0a4587	-0.008439428
53	0xbcbb3420	-0.022852004
54	0x3c7f412b	0.015579502
55	0xbd26891b	-0.040658098
56	0xbb5d4803	-0.0033764846
57	0x3be5ac4a	0.007009064
58	0x3cd6c0a3	0.026214903
59	0x3bdd362b	0.006750842
60	0x3c88b127	0.016686035
61	0xbd136e52	-0.03599388
62	0x3c49f520	0.012326509
63	0x3c92378d	0.017848754
64	0x3c27266b	0.010202031
65	0x3c148542	0.009064974
66	0x3c83076f	0.015994756
67	0xbca1fc4b	-0.019773623
68	0xbbbfeb49	-0.0058569056
69	0xbca73d6e	-0.020415034
70	0xbb8d8e3f	-0.0043199356
71	0x3b0036c2	0.0019563888
72	0x3b9a826a	0.0047152536
73	0xbb95b232	-0.0045683617
74	0xbb8b8c37	-0.0042586583
75	0x3c8daab7	0.017293317
76	0x39fe5572	0.00048510317
77	0x3cd544cd	0.026033783
78	0x3cc9c80b	0.02463152
79	0x3cf7f302	0.030267242
80	0xbbc60461	-0.0060430025
81	0x3a8949ed	0.0010474302
82	0xbc9c6e03	-0.019095426
83	0x398d299c	0.00026924617
84	0x3ca64143	0.020294791
85	0x3ba81fbf	0.0051307376
86	0xb94920da	-0.00019181092
87	0xbc8690cb	-0.016426465
88	0xbc018293	-0.0079046665
89	0xbad389c7	-0.0016139083
90	0xbb1205f0	-0.002228137
91	0xbb7d55fd	-0.003865599
92	0x3c431f86	0.011909371
93	0xbc28475d	-0.010270921
94	0xbd37de1d	-0.044889558
95	0x3cfb7935	0.030697444
96	0x3cfeb795	0.031093398
97	0x3cc972f7	0.024590952
98	0x3cd714fa	0.02625512
99	0x3cde8ac0	0.02716577
100	0x3cd356a7	0.025798155
101	0x3ce1702b	0.027519306
102	0xbcbfc0df	-0.023407398
103	0x3bc54e9d	0.0060213343
104	0xb8e63480	-0.000109770335
105	0xbb7e2930	-0.0038781874
106	0xbbb6f328	-0.0055831857
107	0xbc6b615b	-0.014366473
108	0x3cb8755a	0.022516895
109	0xba2ebe1f	-0.00066659035
110	0xbc2433d0	-0.010022119
111	0x3bac74e0	0.005262956
112	0x3c945253	0.018105661
113	0xbc9b3323	-0.018945282
114	0x3c48f74b	0.0122659905
115	0x3c0c5b7f	0.008566736
116	0xbb386214	-0.002813463
117	0x3c04abca	0.008097598
118	0xbc284554	-0.010270435
119	0x3c0c8be3	0.0085782735
120	0xbbfa77f8	-0.007643696
121	0x39221ddd	0.00015460649
122	0x3c8b83eb	0.017030677
123	0xbc119043	-0.008884492
124	0x3cf25fbb	0.029586663
125	0xbc064c43	-0.008196893
126	0x3cb9f01b	0.022697499
127	0x3baaf1d6	0.0052168174

action_model._discrete_distribution.branches.0.weight f4 [5, 128]
0	0x3b1708d4	0.0023046033
1	0x3b73fdff	0.003723025
2	0xbba49a43	-0.0050232722
3	0xbb89fa6f	-0.004210762
4	0x3c2bcfaf	0.010486527
5	0xbaa9fce3	-0.0012969043
6	0xbcaa181d	-0.020763451
7	0x3c010d93	0.0078767715
8	0xbb8a5ea0	-0.004222706
9	0x3b5f4eb2	0.0034074006
10	0xbc0dbd93	-0.008651155
11	0xba499529	-0.0007689768
12	0xbc6ad778	-0.014333598
13	0x3c0c7d03	0.008574727
14	0x3c58dbb7	0.013235978
15	0x3bf5f42d	0.0075059147
16	0x3b53e2a2	0.0032331129
17	0x3b165485	0.002293856
18	0xbbfe6be7	-0.007764328
19	0xbc04ccd3	-0.0081054745
20	0xbb83e680	-0.0040252805
21	0xbb1975da	-0.0023416192
22	0x3c086dce	0.008326961
23	0x3c262b81	0.010142208
24	0xb9f41d87	-0.00046561306
25	0xbb2176d4	-0.0024637477
26	0x39ff7c53	0.0004873002
27	0x3c00558d	0.007832897
28	0x3b7653a3	0.0037586472
29	0xbc2d5a51	-0.010580615
30	0xbba57902	-0.0050498256
31	0x3c1ee949	0.009699174
32	0x3c5fe9aa	0.01366655
33	0xbbb05d23	-0.0053821965
34	0x3b6a9678	0.0035795253
35	0xbbb18d83	-0.005418481
36	0xbc0d4903	-0.008623364
37	0xbaa03cc3	-0.001222514
38	0x3c01a75e	0.007913439
39	0x3baa460b	0.005196338
40	0xbacda517	-0.0015689459
41	0x3ada11af	0.001663735
42	0xbc391440	-0.011296332
43	0xbbc19da2	-0.005908684
44	0xbc44cc02	-0.01201153
45	0x3aa33124	0.0012450558
46	0xbc206bdd	-0.009791342
47	0xbafa8637	-0.0019113485
48	0x3bc03a14	0.0058662985
49	0x3be6f6a5	0.0070484453
50	0x3980cedb	0.00024568182
51	0x3b299fda	0.0025882632
52	0xbba1b9eb	-0.004935493
53	0x3cb718d8	0.022350714
54	0xbc96f95b	-0.018429449
55	0x3bc4d6d9	0.006007057
56	0x3baf2671	0.0053451587
57	0x3ba7496b	0.0051051877
58	0x3b1d4b4b	0.0024001177
59	0xba233d0c	-0.0006227053
60	0x3b051c4e	0.002031106
61	0xbb8fa935	-0.0043841847
62	0x3c2916cf	0.010320379
63	0xbbedb888	-0.007254664
64	0x3c677472	0.014126884
65	0x3b636700	0.0034698844
66	0xbc3f1b67	-0.011664248
67	0x3bd9e32b	0.006649395
68	0xbc25c94b	-0.010118793
69	0x3bec57f0	0.0072126314
70	0xbc07560d	-0.008260262
71	0x3b0f0472	0.0021822718
72	0x3a673f40	0.00088213757
73	0x3b9c01a5	0.004760938
74	0x3c6b7aef	0.014372571
75	0x3be2caf3	0.006921166
76	0x3888396a	6.4956796e-05
77	0xb93e41ec	-0.0001814437
78	0x3b96b891	0.0045996387
79	0x3ade1023	0.0016942065
80	0xbc760d40	-0.0150178075
81	0xbbc24176	-0.0059282137
82	0x3c3ec987	0.011644728
83	0xbc372662	-0.011178585
84	0x3b924eb2	0.0044649476
85	0x3bd411d7	0.0064718532
86	0xbb68c52a	-0.003551791
87	0xb94e391b	-0.00019666964
88	0x3bdec96b	0.0067989132
89	0xbbf9650a	-0.0076109217
90	0xb8e0655b	-0.00010700031
91	0xbb40e04b	-0.0029430564
92	0x3ca74112	0.02041677
93	0xbbb865ab	-0.005627354
94	0x3cce4eb5	0.025184015
95	0x3c08474e	0.008317782
96	0xbbb464b3	-0.0055051683
97	0x3ba25ccf	0.0049549113
98	0xbc806fa7	-0.01567824
99	0x3ca6e49c	0.020372681
100	0xbb10b8fe	-0.002208292
101	0x3c26f26b	0.010189633
102	0x3a43932f	0.0007460592
103	0xba99076f	-0.0011675189
104	0x3bd06fd7	0.0063609886
105	0xbc283d79	-0.0102685625
106	0xbb49c1d7	-0.0030785704
107	0x3b0a1138	0.0021067392
108	0x39be7b02	0.00036331272
109	0x3c059e3b	0.008155401
110	0xbc0dd063	-0.00865564
111	0x3c0a188f	0.008428707
112	0x3c9f06b6	0.01941238
113	0xbc6bd6e2	-0.014394494
114	0x3c28cdda	0.010302985
115	0xba68317d	-0.0008857472
116	0xbb9bf167	-0.004759002
117	0x3b94d4eb	0.0045419834
118	0x3c04ae23	0.008098158
119	0x3a3dc007	0.0007238392
120	0xbb6437c7	-0.0034823285
121	0x3c996543	0.018725043
122	0x3c00a9e9	0.00785301
123	0xbbca4e62	-0.0061738947
124	0xbc505903	-0.012716535
125	0x3c7addeb	0.015311698
126	0x3ab6986b	0.0013930922
127	0xbc41fb0f	-0.011839642
128	0xbb8e6bbd	-0.0043463395
129	0xba47667c	-0.0007606519
130	0xbcab9c67	-0.020948602
131	0xbc5a9855	-0.013341983
132	0xbb9164e2	-0.004437075
133	0xbb809cf3	-0.00392496
134	0x3c4dee13	0.012568968
135	0x3a1750de	0.0005772243
136	0x3a67fb5b	0.00088494056
137	0xbc30fc7f	-0.010802387
138	0xba6b0907	-0.0008965884
139	0x3b9b1650	0.0047328845
140	0xbbc17793	-0.005904147
141	0x3c142e8d	0.009044302
142	0x3c159c7e	0.009131549
143	0x3c0e0e47	0.008670396
144	0x3b23f9bf	0.0025020686
145	0x3b71d56b	0.0036900889
146	0x3bedb80a	0.007254605
147	0xbbb989eb	-0.005662193
148	0xbba547df	-0.005043968
149	0x3ae6b1fb	0.001760065
150	0xbc084fdf	-0.008319824
151	0x3c2156bb	0.009847338
152	0xbbccfac5	-0.00625548
153	0xbc325859	-0.010885322
154	0xbc03307e	-0.008007167
155	0x3c245dfd	0.010032174
156	0x3bfa1dbd	0.0076329396
157	0xbb909003	-0.004411699
158	0x3aaa75db	0.0013005094
159	0x3bf8fc63	0.007598446
160	0xbbd83660	-0.006598279
161	0xbb254eb8	-0.0025223922
162	0xbb7bedd2	-0.0038441312
163	0xbb8c6403	-0.0042843833
164	0x3b2d3611	0.0026429931
165	0xbc7d4883	-0.015459183
166	0x3ba8294f	0.0051318775
167	0x3c4a713c	0.012356099
168	0x3bf5aa07	0.0074970755
169	0x3be388e5	0.0069438093
170	0x3b224262	0.0024758806
171	0x3bcb33fc	0.0062012654
172	0x3bb2f424	0.0054612327
173	0xbbaa4c68	-0.0051970966
174	0xbc32cbc3	-0.010912838
175	0x3c1bc0ca	0.009506414
176	0x3c676e3a	0.014125401
177	0xbb028d80	-0.0019920766
178	0xbc17ea6f	-0.009272202
179	0x3b4dca0a	0.0031400942
180	0xbc20bbad	-0.00981037
181	0x3c1f02d2	0.009705262
182	0xbb2cf265	-0.0026389596
183	0xbbdc744f	-0.0067277323
184	0x3ba40076	0.0050049378
185	0x3b406b1f	0.0029360724
186	0x3c0a3db4	0.008437563
187	0x3b73a933	0.0037179708
188	0x3b2b84e3	0.0026171736
189	0xbc3cd887	-0.0115262335
190	0xbc6d3fcb	-0.014480541
191	0x3b2f9a68	0.0026794914
192	0x3bacb2b6	0.0052703274
193	0xbb4c8934	-0.003120971
194	0xbba62804	-0.005070688
195	0xbc047e87	-0.008086807
196	0xbbce749d	-0.0063005225
197	0xbb76a942	-0.0037637507
198	0x3b15329b	0.002276576
199	0x3b156903	0.0022798188
200	0xbbaaa819	-0.005208027
201	0x3b8fa191	0.004383274
202	0x3b162d8b	0.002291533
203	0xb9e1bd3b	-0.00043056332
204	0x3a2bd3ff	0.0006554722
205	0x3ba01dbb	0.0048863566
206	0x3ab61d9d	0.0013894323
207	0xba57cb8a	-0.0008231929
208	0xbc8b8e2b	-0.017035564
209	0xbc804c20	-0.0156613
210	0xb99fada3	-0.00030456213
211	0xbb6cebef	-0.003615137
212	0xbc0fb4ea	-0.008771161
213	0xbb6e9122	-0.0036402424
214	0x3bdeb5b8	0.006796565
215	0xbb5fb89f	-0.0034137142
216	0x3cc0193f	0.023449538
217	0xbc0ca13b	-0.008583362
218	0xbbb28984	-0.005448522
219	0xbc044397	-0.008072755
220	0xbb6cb640	-0.0036119372
221	0xbaaab9ef	-0.0013025383
222	0x3b96a316	0.004597078
223	0xbc883bc5	-0.016630063
224	0x3c28f43b	0.010312135
225	0x3bf84d2a	0.007577558
226	0x3ca5b03b	0.020225635
227	0xbba029c1	-0.00488779
228	0x3c0412ef	0.008061155
229	0xbbcc49cf	-0.0062343846
230	0xbb20cda5	-0.0024536636
231	0x3c5c77ab	0.013456265
232	0x3bb4c537	0.005516674
233	0xba87c6a7	-0.0010358886
234	0xbc5fde3d	-0.013663826
235	0xbc5e482f	-0.013567015
236	0xbbd7e1a0	-0.006588176
237	0x3b37aad1	0.0028025398
238	0xbc38f0d2	-0.011287885
239	0x3bd7fa25	0.006591099
240	0xbc832c57	-0.016012354
241	0x3af00e5f	0.001831483
242	0x3abe218d	0.0014505849
243	0x3b40fb65	0.0029446718
244	0x3b432598	0.0029777046
245	0xbb08e45d	-0.0020888068
246	0x3b5cc702	0.0033687954
247	0x3cac004b	0.020996233
248	0x3c70dbed	0.014700872
249	0xbaae1a33	-0.0013282954
250	0x3c3cfff1	0.011535631
251	0xbb618cbd	-0.0034416162
252	0xbc5e76dd	-0.013578144
253	0xbb8ec84f	-0.0043573747
254	0xb9628613	-0.00021602986
255	0xbb83e10a	-0.0040246295

action_model._discrete_distribution.branches.0.bias f4 [5]
0	0x00000000	0.0
1	0x00000000	0.0
2	0x00000000	0.0
3	0x00000000	0.0
4	0x00000000	0.0
