Project/Assets/ML-Agents/Examples/MyTest/Scripts/TFModels/MyTest1Models/Test2/MoveToGoal.onnx (onnx, 74134 bytes, 5 tensors)

network_body._body_endoder.seq_layers.0.weight f4 [128, 1]
000000 2a ca ad 3f 61 cb d4 3f 6d af bd 3f 3a 82 e9 3e
       1.357732 1.6624566 1.4819161 0.45607167
000010 76 d0 c6 bf b5 df f8 3c 3b b0 10 3f 03 d8 a2 bf
       -1.5532367 0.03038011 0.56518906 -1.2722172
000020 8c b9 19 3f 42 fb 0f 3d f2 c6 34 bf 8f 33 82 3e
       0.6004875 0.035151727 -0.70616066 0.2542996
000030 24 26 ca 3f aa 8a 46 bf 12 d9 4e 3d fa d0 28 bf
       1.579289 -0.77555335 0.050499983 -0.6594387
000040 7b 89 94 bc fa a3 59 bf 79 aa 2f 3f d3 e0 16 be
       -0.018131962 -0.85015833 0.68619496 -0.14734201
000050 f4 86 dc 3e 5f bd 59 be 6f ec ca bf 32 66 a3 3f
       0.4307171 -0.21263646 -1.5853404 1.2765563
000060 37 33 62 bf 57 ec 90 3f ef 88 d3 bd bb 9b a9 be
       -0.883594 1.1322125 -0.103288524 -0.33126625
000070 19 6e b9 3e 14 a3 94 3f 47 af ef be 8d 65 18 40
       0.3621681 1.1612267 -0.46813414 2.3811982
000080 e3 7c ae bf 2d 8c 9b 3d 60 a9 27 bf 10 a3 b2 3e
       -1.3631862 0.07595096 -0.6549282 0.34890032
000090 77 bf 06 40 e4 4a 44 bf fb 72 d5 bd 1e 4d 2c 3f
       2.105436 -0.76676774 -0.104223214 0.6730517
0000a0 da e2 f5 bd 9f c5 9e bf 0b cb f3 be 9a 4e 3b 3d
       -0.12006159 -1.2404059 -0.47615847 0.045729257
0000b0 fc c5 9f bf 21 c4 61 bf 15 c4 4c 3e 6f 8c d6 bf
       -1.2482295 -0.88189894 0.19996674 -1.6761607
0000c0 34 86 e5 3f 87 fd 88 3e 91 c6 29 3c de bd de be
       1.793158 0.26755926 0.010362283 -0.43504232
0000d0 57 d4 97 bf e6 1a 3d 3f ae c3 32 bf d7 c9 1b bd
       -1.1861676 0.7386917 -0.69829834 -0.038034286
0000e0 35 ca ee 3d 99 06 8f 3d 98 7b 45 3f 94 62 4d be
       0.11659662 0.0698368 0.77141714 -0.20057136
0000f0 74 d0 07 be 4b ce 41 3e 81 08 5e 3e 48 eb 22 3f
       -0.13263112 0.18926351 0.21682931 0.6364026
000100 2b 43 73 3e 3f 2e ac 3e e9 72 24 be 07 19 27 bf
       0.23756091 0.33629033 -0.1605946 -0.65272564
000110 dd 86 e7 be 12 28 11 3f aa 28 2b bd 17 a7 23 be
       -0.4522008 0.5670177 -0.041786827 -0.15981708
000120 61 40 20 c0 18 9b 84 bf 65 86 e2 3e 20 6a 67 bf
       -2.5039294 -1.0359831 0.4424316 -0.9039631
000130 8f 0a 15 bf 29 b3 2c bf 3c 4d 49 3f 3e 88 86 3f
       -0.58219236 -0.67460877 0.78633475 1.0510328
000140 f0 dc 06 c0 1a 83 8c 3e 4d 56 26 bf 07 8d 0b bf
       -2.107235 0.27443773 -0.64975435 -0.54512066
000150 df 41 87 be ca de 8d 3f af 6a b2 3f a7 2f f2 be
       -0.26417443 1.1083615 1.3938807 -0.4730198
000160 d9 5b dc be 88 03 c6 bf b3 17 a1 3f b7 4a a3 bf
       -0.43038824 -1.5469828 1.2585357 -1.2757176
000170 a7 c6 1a be 58 af 1f bf f8 ae 02 bf 04 20 ed 3f
       -0.15114842 -0.6237693 -0.5104823 1.8525395
000180 38 53 a2 bf 0a 4f 08 bf 63 55 8a be d7 f5 df 3e
       -1.2681646 -0.53245604 -0.2701827 0.43742248
000190 62 46 ad 3f f7 91 2f be 18 13 76 bf 11 b1 0e 3f
       1.3537104 -0.17145525 -0.96122885 0.5573893
0001a0 f5 7b 32 be c2 c9 e7 be 32 c8 f2 be 1e c2 d7 3e
       -0.17430098 -0.45271116 -0.47418362 0.42140287
0001b0 40 14 0f bf a1 58 da bc af 5d 56 be 28 a3 87 be
       -0.55890274 -0.02665359 -0.20934175 -0.26491666
0001c0 ac 56 71 bd ad 08 7c bf 7b b5 84 3f aa 09 e5 bf
       -0.058920547 -0.9845074 1.0367883 -1.7893574
0001d0 ff ab 3b 3f c8 19 76 be 86 b9 24 3f 00 ce 14 3f
       0.7330932 -0.24033272 0.64345586 0.5812683
0001e0 64 b8 dc 3f 27 e3 2f bf 88 4c 95 3f 42 94 67 3e
       1.7243772 -0.6870598 1.166398 0.2261515
0001f0 be fb d6 3f fa 52 5d 3f a8 83 4e bf 70 7e b2 3f
       1.6795576 0.8645474 -0.8066964 1.3944836

network_body._body_endoder.seq_layers.0.bias f4 [128]
000000 00 00 00 00 00 00 00 00 00 00 00 00 00 00 00 00
       0.0 0.0 0.0 0.0
000010 00 00 00 00 00 00 00 00 00 00 00 00 00 00 00 00
       0.0 0.0 0.0 0.0
000020 00 00 00 00 00 00 00 00 00 00 00 00 00 00 00 00
       0.0 0.0 0.0 0.0
000030 00 00 00 00 00 00 00 00 00 00 00 00 00 00 00 00
       0.0 0.0 0.0 0.0
000040 00 00 00 00 00 00 00 00 00 00 00 00 00 00 00 00
       0.0 0.0 0.0 0.0
000050 00 00 00 00 00 00 00 00 00 00 00 00 00 00 00 00
       0.0 0.0 0.0 0.0
000060 00 00 00 00 00 00 00 00 00 00 00 00 00 00 00 00
       0.0 0.0 0.0 0.0
000070 00 00 00 00 00 00 00 00 00 00 00 00 00 00 00 00
       0.0 0.0 0.0 0.0
000080 00 00 00 00 00 00 00 00 00 00 00 00 00 00 00 00
       0.0 0.0 0.0 0.0
000090 00 00 00 00 00 00 00 00 00 00 00 00 00 00 00 00
       0.0 0.0 0.0 0.0
0000a0 00 00 00 00 00 00 00 00 00 00 00 00 00 00 00 00
       0.0 0.0 0.0 0.0
0000b0 00 00 00 00 00 00 00 00 00 00 00 00 00 00 00 00
       0.0 0.0 0.0 0.0
0000c0 00 00 00 00 00 00 00 00 00 00 00 00 00 00 00 00
       0.0 0.0 0.0 0.0
0000d0 00 00 00 00 00 00 00 00 00 00 00 00 00 00 00 00
       0.0 0.0 0.0 0.0
0000e0 00 00 00 00 00 00 00 00 00 00 00 00 00 00 00 00
       0.0 0.0 0.0 0.0
0000f0 00 00 00 00 00 00 00 00 00 00 00 00 00 00 00 00
       0.0 0.0 0.0 0.0
000100 00 00 00 00 00 00 00 00 00 00 00 00 00 00 00 00
       0.0 0.0 0.0 0.0
000110 00 00 00 00 00 00 00 00 00 00 00 00 00 00 00 00
       0.0 0.0 0.0 0.0
000120 00 00 00 00 00 00 00 00 00 00 00 00 00 00 00 00
       0.0 0.0 0.0 0.0
000130 00 00 00 00 00 00 00 00 00 00 00 00 00 00 00 00
       0.0 0.0 0.0 0.0
000140 00 00 00 00 00 00 00 00 00 00 00 00 00 00 00 00
       0.0 0.0 0.0 0.0
000150 00 00 00 00 00 00 00 00 00 00 00 00 00 00 00 00
       0.0 0.0 0.0 0.0
000160 00 00 00 00 00 00 00 00 00 00 00 00 00 00 00 00
       0.0 0.0 0.0 0.0
000170 00 00 00 00 00 00 00 00 00 00 00 00 00 00 00 00
       0.0 0.0 0.0 0.0
000180 00 00 00 00 00 00 00 00 00 00 00 00 00 00 00 00
       0.0 0.0 0.0 0.0
000190 00 00 00 00 00 00 00 00 00 00 00 00 00 00 00 00
       0.0 0.0 0.0 0.0
0001a0 00 00 00 00 00 00 00 00 00 00 00 00 00 00 00 00
       0.0 0.0 0.0 0.0
0001b0 00 00 00 00 00 00 00 00 00 00 00 00 00 00 00 00
       0.0 0.0 0.0 0.0
0001c0 00 00 00 00 00 00 00 00 00 00 00 00 00 00 00 00
       0.0 0.0 0.0 0.0
0001d0 00 00 00 00 00 00 00 00 00 00 00 00 00 00 00 00
       0.0 0.0 0.0 0.0
0001e0 00 00 00 00 00 00 00 00 00 00 00 00 00 00 00 00
       0.0 0.0 0.0 0.0
0001f0 00 00 00 00 00 00 00 00 00 00 00 00 00 00 00 00
       0.0 0.0 0.0 0.0

network_body._body_endoder.seq_layers.2.weight f4 [128, 128]
000000 72 15 8e 3c eb d7 e9 bc 03 a2 90 bc bd 88 65 3d
       0.01734421 -0.02854534 -0.017655378 0.056038607
000010 da 9a 16 3e 9e c3 b1 3d e7 91 36 3d 2b 9e 55 bd
       0.14707509 0.08679889 0.044572737 -0.052152794
000020 d0 b7 29 3d 95 52 ed bc d5 5d f9 bd 54 d5 be 3d
       0.041435063 -0.028970042 -0.121761 0.09318033
000030 8d 3f 28 3d 9a 33 cb bd 67 f5 00 be e8 2a 75 bd
       0.04107623 -0.099219516 -0.12593614 -0.05985537
000040 5e 32 2a bc 40 ff 94 bd 38 96 7f 3d 9b 53 bb bd
       -0.010387985 -0.072752476 0.06239912 -0.09146806
000050 81 85 a5 bd 0e 77 e7 3c 6a 43 03 be 8c d7 d1 39
       -0.080821045 0.028255012 -0.12818685 0.0004002418
000060 a5 5f 7b bd ae bd a3 3d 5f a5 89 bd a8 33 b8 3d
       -0.06137051 0.07995163 -0.06720995 0.08994228
000070 ae 67 ba bd 4c 3d b0 bd 25 93 8a 3b 7b 3b bc 3d
       -0.091018066 -0.086054415 0.004228967 0.091910325
000080 d6 6e e8 bb 68 da c4 3c 68 26 1d 3e fa 0b 72 bd
       -0.007093291 0.024029925 0.15346682 -0.059093453
000090 64 c4 6d bd e1 92 02 be 71 28 c2 3d 89 58 16 bb
       -0.05804862 -0.12751342 0.0948037 -0.0022940955
0000a0 ee 69 92 bd b9 e0 cd bd 39 09 8a be 9d f8 43 bd
       -0.07149111 -0.10052628 -0.2696016 -0.047844518
0000b0 34 3a ba 3d 18 01 90 bc 9e a4 c7 3b ed 11 cf bc
       0.090931326 -0.017578647 0.006092622 -0.025277102
0000c0 ff 41 20 bd 8d 57 a9 bd 44 34 82 3d 0a 4d 13 3d
       -0.03912544 -0.08268652 0.06357625 0.035962142
0000d0 b2 bc 9b bd 3d 31 93 3c 41 be 4a bd 11 3c a2 3d
       -0.0760435 0.017967815 -0.049497847 0.07921613
0000e0 3c 74 1e bd fd 5c 19 be 01 c4 3d 3c da 2a 47 bd
       -0.03868507 -0.14976878 0.0115823755 -0.04862485
0000f0 a1 ef 31 bd 4c 90 d3 3d 62 9d 84 3d b4 2d 53 bd
       -0.04344142 0.10330257 0.06475331 -0.051557258
000100 f8 e3 14 3d 16 d8 05 3d 1f f5 c9 bd 6c db c9 bb
       0.03635022 0.03267678 -0.09861206 -0.0061601903
000110 6d 24 c8 bc fa f3 da 3d 33 1f be bd a4 10 a0 bd
       -0.024431432 0.10691066 -0.092832945 -0.07815674
000120 cb da 9a bd 17 47 36 bd 57 4f 33 bd bf 1a d1 3c
       -0.07561263 -0.04450139 -0.043776836 0.025525449
000130 1e 2b 34 3e 85 7a 77 3d 21 89 05 3d d5 ed 68 3b
       0.17594573 0.060419578 0.03260148 0.003554215
000140 95 fe 7a bd 64 84 05 3d fe d3 4b 3e c4 b9 53 3d
       -0.061277945 0.03259696 0.19905087 0.05169083
000150 3a 4f d3 3d eb 32 16 be 06 87 30 bd bf 67 31 bd
       0.10317846 -0.14667861 -0.04309752 -0.04331183
000160 2d 5a a7 3c 95 6e 8e 3c f8 6d aa bd 8d f0 79 3d
       0.020428741 0.017386714 -0.08321756 0.061020423
000170 d2 bb 2a bd 14 fa 5e bd 33 a4 0c bd 18 7d 31 bd
       -0.041683026 -0.05443771 -0.03433628 -0.04333219
000180 0e 73 f3 3c a4 d7 79 3d 98 63 b8 3d 00 d3 4b 3a
       0.029717948 0.060996667 0.09003371 0.0007775277
000190 00 bb db bd 63 f9 4e bd c3 4a 02 3d 5a f6 81 3a
       -0.10729027 -0.050530802 0.03180958 0.0009915337
0001a0 e3 4a 73 3b 71 6b f4 3d 1b 10 ae 3d 5c c1 83 3d
       0.0037123493 0.11934555 0.084991656 0.06433365
0001b0 98 b5 f4 bc aa 61 94 bc c3 9b 36 3e 0d 50 23 be
       -0.029871747 -0.018112976 0.17832856 -0.15948506
0001c0 67 4c fb bd c9 9b 21 bc 63 41 ba bd 5b e7 aa 3d
       -0.12270432 -0.009863802 -0.09094503 0.08344909
0001d0 d8 40 8f 3d ce f4 39 3d 2b 10 0e 3d 5d 6b f0 3c
       0.0699479 0.04539948 0.034683388 0.02934807
0001e0 40 68 7f bd 4e 0f fc 3c 92 03 e6 bd 43 20 3e bd
       -0.06235528 0.030769017 -0.1123115 -0.046417486
0001f0 ad 82 b7 bc 8d 49 20 bd 7b 6e 87 3d fe 1a 67 bc
       -0.022401178 -0.039132643 0.06612869 -0.0141055565
000200 ea 6e 65 3d ed 2f c6 bd 1f ba 8d 3d fa f9 54 3d
       0.05601398 -0.0967711 0.069202654 0.05199621
000210 51 6b 30 bd c4 0e 08 be 1f ed 57 bd bf 3a 85 bd
       -0.043071095 -0.13286883 -0.05271637 -0.065053456
000220 b9 0c 11 bd 84 aa 5b 3c 88 ac 2b bd d3 ac d7 bd
       -0.035412524 0.013407353 -0.041912585 -0.105310105
000230 59 b0 81 3d e3 58 4a 39 10 47 d5 3d 7e d7 8e 3d
       0.06332464 0.00019297334 0.10413945 0.069746956
000240 eb 6e 2c bd f0 e7 48 be 56 8d 02 3e bc e2 8a bd
       -0.042097967 -0.19619727 0.12749228 -0.067815274
000250 ae 3c 03 3e 5a 62 07 3e 40 83 97 3a 3b 6a ac bd
       0.12816116 0.13221112 0.0011559501 -0.08418699
000260 22 9c cf 3d 39 cc 3b 3e 36 64 e2 bd de 57 a2 bd
       0.10137202 0.18339624 -0.1105427 -0.079269156
000270 aa 77 01 bd e5 76 f8 3c 3c 12 30 3d 74 92 61 3d
       -0.03160826 0.03033013 0.04298614 0.05507131
000280 a8 3e 24 be ca 27 eb 3d c0 66 57 3d 4d 81 dd 3d
       -0.16039526 0.114821985 0.052588224 0.10815678
000290 7c ec b6 3c 78 49 d4 bc 69 a8 15 3d a6 d8 14 3e
       0.022329561 -0.025913939 0.03653756 0.1453577
0002a0 7a 6e c6 3d 7f 7b f7 bd da 72 ba bd 5e 52 51 3d
       0.096890405 -0.12084102 -0.091039374 0.051103942
0002b0 58 dc 6e bc 0e 1b 88 3d 5f 18 09 be 15 77 55 bd
       -0.014578901 0.06645785 -0.13388203 -0.05211552
0002c0 25 59 b1 bc 4f 7d b9 bd f5 f7 cc bd 0c 7b 5a 3d
       -0.021648953 -0.09057104 -0.100082316 0.053340003
0002d0 65 1c 1b 3e b2 bb 9f bd 9c 90 8b bd 62 22 6c 3d
       0.1514755 -0.07799472 -0.068146914 0.057649978
0002e0 98 2b 13 3e a3 48 0c 3e 0c 7e ce 3c fb e3 84 3c
       0.14372098 0.13699584 0.025206588 0.01622199
0002f0 4a 85 2b bd 61 9b aa bd ce 98 c4 3c 08 c7 59 3d
       -0.04187516 -0.083304174 0.023998644 0.053168327
000300 bd 1f 67 bd 7c 70 34 bd f8 f9 52 3e 44 33 50 3d
       -0.056426752 -0.044052586 0.20603168 0.05083014
000310 14 29 f0 bb 31 e5 7a 3c ba 01 57 bd 6e 2a 8c 3d
       -0.0073291156 0.015313433 -0.05249188 0.0684403
000320 68 18 20 be ca ad 06 be 10 9a 22 3d 16 a5 5b 3c
       -0.1563431 -0.13152233 0.039697707 0.013406059
000330 20 a0 31 be f7 18 0b bb 40 ac 16 be 8e a6 05 be
       -0.17346239 -0.0021224597 -0.14714146 -0.13051817
000340 6e 40 00 3d 7c c8 96 bd dc ac f8 3d 31 dc 46 be
       0.031311445 -0.07362458 0.12142345 -0.19419934
000350 4b bb 9f 3c df 28 f0 bc 6c 8f 09 3c 0a 90 19 bc
       0.019498488 -0.029316364 0.008396011 -0.0093727205
000360 75 86 a4 3a 01 8a 7d 3d af 40 92 3d f0 d7 48 3e
       0.0012552278 0.06189919 0.07141244 0.19613624
000370 24 94 2e bd 83 5d 94 bc 27 fc 04 be ff 79 fc bc
       -0.042621747 -0.018110996 -0.12986813 -0.030819891
000380 f8 29 66 3d 06 0b f9 bc 27 05 52 3e 63 7c 62 3d
       0.05619237 -0.030400764 0.20509778 0.055294406
000390 65 9a ff bc fd 5b ab bc fd c5 06 bd 51 7a 0d 3e
       -0.03120155 -0.020917887 -0.03290366 0.13816191
0003a0 31 4f b7 bd 1f ff 42 bd c1 9e 14 3d e8 99 0a be
       -0.089506514 -0.047606584 0.036284212 -0.13535273
0003b0 d6 75 b5 3d 29 98 36 bd 1b b7 8b 3d 1f 1e 2d be
       0.08860366 -0.044578705 0.06822034 -0.16906022
0003c0 43 39 d2 3d e1 91 32 bd bb da 92 3d 52 7d 91 bd
       0.10264828 -0.043596152 0.07170626 -0.07103981
0003d0 eb d4 2b be 7b 14 92 3c d6 bd 45 3d eb 64 49 3c
       -0.1678044 0.017832031 0.048276745 0.012292127
0003e0 4f af 72 bc d7 b1 b1 3d 47 57 26 be eb 73 46 bd
       -0.014812305 0.086764984 -0.16244231 -0.04845039
0003f0 67 c2 8c 3d a5 90 5b 3d b4 30 cd 3b 3d 0d 39 bd
       0.06873017 0.05360474 0.0062619094 -0.04517864

action_model._discrete_distribution.branches.0.weight f4 [5, 128]
000000 33 02 fc bb 83 97 3b bc 07 5a d7 bb 46 05 b0 3b
       -0.007690692 -0.011449697 -0.0065720114 0.0053717224
000010 3b c7 28 3c e7 84 d2 3a 8f ae 64 bc dc 26 bb 3b
       0.0103014065 0.0016061337 -0.013957634 0.0057114195
000020 52 34 7a bb 23 bc 8e 3c 7a 5a 44 bb eb ae c0 3a
       -0.0038178158 0.017423695 -0.0029961155 0.0014700567
000030 d3 ea df bb 2d bb 54 bc e7 4f 82 3a d3 10 6c 3c
       -0.006833413 -0.012984079 0.0009942026 0.014408308
000040 63 b8 76 bb 0a 67 b1 bb 9d f2 b0 3c 55 10 36 3b
       -0.0037646524 -0.0054138945 0.021600062 0.002778073
000050 3f 84 da bb 91 54 26 3c 8d d0 86 ba a1 7e ad 3b
       -0.006668597 0.010151998 -0.0010285542 0.0052946364
000060 7c 8c b0 3b 47 1a 88 bb 62 7c 94 3b 27 30 f1 bb
       0.005387841 -0.004153523 0.004531429 -0.0073604765
000070 91 14 3d bb 90 46 78 39 ab 05 30 bc c0 44 b8 3b
       -0.002885137 0.0002367741 -0.010743539 0.00562343
000080 62 65 81 ba e0 ff 3a bb 5d 79 b8 3b 58 77 01 bc
       -0.0009872133 -0.002853386 0.005629702 -0.007901989
000090 a8 70 3d 3c 17 94 29 3c c8 da ab bb f9 06 2c b9
       0.011562504 0.010350249 -0.0052445866 -0.00016405796
0000a0 43 c7 cb 3b 53 87 bf 3b bd 5f 0a 3b 76 fb 1c 3c
       0.006218822 0.0058449893 0.0021114193 0.009581437
0000b0 aa 8e 56 3c 4c 83 ab 3c 5f f5 b4 3c 30 6e 41 bb
       0.013095537 0.02093663 0.022089658 -0.002951514
0000c0 85 0a 7a 3b 87 1f 0e bc 0b 17 97 38 28 1a 09 3b
       0.0038153243 -0.008674509 7.204533e-05 0.0020920131
0000d0 6a d4 de bb e0 3d b6 bb 6a e1 7b bc 99 23 8f 3a
       -0.006800224 -0.0055615753 -0.015373567 0.0010920643
0000e0 68 f1 29 3c dc 77 0b bc 12 5f 63 39 3b 16 55 bc
       0.010372497 -0.008512463 0.00021683823 -0.013005788
0000f0 48 54 07 3a dd 90 74 3b 8b d4 07 3c 2e 2b 83 bb
       0.00051624 0.003731779 0.00829042 -0.00400295
000100 45 40 ec 3a 35 64 59 bc 1c eb 3a bc e1 de c6 3b
       0.0018024525 -0.01326852 -0.0114085935 0.0060690497
000110 92 df d6 bb e7 7e 51 3b 87 46 ec 3b df e9 a7 3b
       -0.0065574134 0.0031966509 0.007210556 0.005124315
000120 18 e1 2e 3a e3 97 b8 ba 68 9a 9d 3b c5 5d 81 bc
       0.0006671115 -0.0014083352 0.0048096664 -0.015791783
000130 94 0b 12 bb 58 5b 37 ba e8 a5 38 bc 24 32 96 3b
       -0.0022284733 -0.0006994507 -0.011270024 0.004583614
000140 8a de 26 3c 03 aa 52 bb 2b 97 89 3c d2 8a a8 bb
       0.010184893 -0.0032144792 0.016795715 -0.005143502
000150 33 88 20 3c 8f 3d 3c 3b 3b 6a 2f bc e8 68 ad 3b
       0.009798097 0.0028723215 -0.01070648 0.005292047
000160 58 fb 06 3b 1d c6 dd 3b 23 b4 90 3b 91 89 88 bc
       0.002059659 0.0067680017 0.004416005 -0.01666716
000170 d2 8a fb 3a 97 04 32 3c 1a 0b 26 bb 35 97 4f 3b
       0.0019191152 0.010865352 -0.0025336207 0.003167582
000180 d8 df 07 bc 7d eb 4c bc ea 4c 5e 3b 3f f6 8d bb
       -0.008293115 -0.012507317 0.0033920356 -0.0043323333
000190 7a 7e 58 3b 13 ec 8c ba 97 99 6f 3c 5b 71 de 3a
       0.003303437 -0.0010751508 0.014624021 0.0016971038
0001a0 3b a9 5a 3c 60 48 73 3b 98 c1 fa 3b ab 3d a5 bb
       0.013346012 0.0037121996 0.0076524727 -0.005042752
0001b0 67 18 f9 3a a2 d2 ea ba cf e1 ee bb 44 92 23 3b
       0.0019004465 -0.0017915557 -0.007290102 0.0024959007
0001c0 70 54 e5 bc 1b 0e 93 bb 95 72 8f 3c cd ab d5 b9
       -0.027994365 -0.0044877655 0.017510692 -0.00040754527
0001d0 26 50 ca 3b 67 99 22 3c 3f 0e a1 3b 3d d6 17 bb
       0.006174105 0.009924269 0.0049150283 -0.0023168467
0001e0 12 f0 fb 39 8b 78 82 3a ff ca 07 3c a0 bc 30 bc
       0.00048053317 0.0009954137 0.008288144 -0.010787159
0001f0 e3 15 1d bc 33 ec 99 bb 6f 11 dc ba 2b 3f 97 bb
       -0.009587738 -0.0046973466 -0.0016789864 -0.0046156845
000200 1f cc 1d 3a 5a c3 8b bb d6 1e 00 3c 83 d8 da 3b
       0.0006019491 -0.004265231 0.007819852 0.0066786422
000210 2f 2b 73 3c 93 d8 c6 3c 84 16 26 bb d5 95 f1 3a
       0.014841839 0.024273193 -0.002534301 0.0018431494
000220 e7 97 47 3b e5 44 1b 3c 24 3c 23 3c ae 75 b8 38
       0.003045553 0.009476875 0.009963069 8.795723e-05
000230 e7 4b 88 bc 36 a0 85 bc 8d c0 e0 3b e0 04 3f bc
       -0.016637756 -0.016311746 0.0068588913 -0.011658877
000240 a8 92 bb b9 ea 19 8a bb 5e 4b 1d bc c3 2e 33 3c
       -0.00035776687 -0.004214515 -0.0096004885 0.010936442
000250 8a f7 0b bc 64 b8 3a bc 01 3c a9 38 55 1c 84 3c
       -0.008542905 -0.011396501 8.0697246e-05 0.016126791
000260 4a fa 3c bc 59 0f 12 3c 7a f5 47 3c 43 f7 53 3b
       -0.011534283 0.008914792 0.012204522 0.0032343424
000270 67 5a df ba 01 61 1d bc 8d 5f 2d 3b 57 7a d3 bb
       -0.0017040492 -0.009605647 0.0026454658 -0.006453793
000280 03 29 e1 39 7b 5a 62 3c 30 2f 05 bc b7 26 73 bb
       0.000429459 0.013815518 -0.008128926 -0.0037101933
000290 2a f8 68 3b cf ef df 3b 1f 3e 11 ba 70 4f d4 3b
       0.0035548308 0.0068340073 -0.0005540568 0.0064791963
0002a0 71 cc a7 3a b8 78 e4 3b 6b 28 82 bc fc 78 85 3b
       0.0012802017 0.0069723986 -0.015888413 0.0040732604
0002b0 a6 a3 4a 3b b9 9f 0b bb 04 77 ae 3a 25 79 fe 3b
       0.0030920296 -0.002130492 0.0013310616 0.0077659064
0002c0 a6 40 c4 3a 07 40 e2 3b 5d 3f 41 3c 9f b1 9f 3a
       0.001497288 0.0069046053 0.011794892 0.0012183673
0002d0 d8 f5 00 3c 97 e1 0e bb 43 a0 2d 3c 4d 6f 33 bc
       0.007871114 -0.0021801942 0.010597291 -0.010951829
0002e0 bf a3 51 bb e8 0c d5 3b 70 e5 34 3b 88 1b cd 3b
       -0.003198847 0.0065017827 0.0027602576 0.0062593855
0002f0 fd 4d 74 3c bf 76 c8 3b d3 a3 68 bb 0f 1d e9 bb
       0.014911172 0.0061176713 -0.0035498037 -0.0071140598
000300 0f 36 e9 3b b3 77 d1 3b c9 73 00 bc 6a d2 e3 3b
       0.00711704 0.006392443 -0.007840105 0.0069525735
000310 f8 ab d3 3a 37 f6 ce 3b a1 b7 8d 3c f6 16 19 3c
       0.0016149273 0.006315972 0.017299475 0.009343853
000320 b2 7a 06 b8 8f 89 c7 bb d3 12 32 3c 00 d8 06 bc
       -3.206236e-05 -0.0060893963 0.010868746 -0.008230209
000330 6b f4 62 3b 93 eb 86 bc 5a 31 5c bc d4 f3 09 3c
       0.0034630548 -0.016469752 -0.013439501 0.00841995
000340 c3 a4 8d 3c b4 5c 12 3a 77 1a 26 3b 17 7b 96 3b
       0.017290479 0.0005583272 0.0025345364 0.00459231
000350 d7 2a 35 bc 75 2a 36 3c 14 b5 ad bc 3c 73 43 3b
       -0.011057577 0.011118521 -0.021204509 0.0029823324
000360 d9 1b 3b 3c c7 9e b1 38 29 cf 15 3a cc c8 3e bc
       0.011420214 8.469592e-05 0.0005714768 -0.011644553
000370 33 c8 c3 bb df 2a a0 3c 35 ed 6c ba d2 7f 44 bc
       -0.0059747933 0.019551693 -0.0009038032 -0.011993365
000380 bf 9e 58 3c dc 02 bb 3a 2d 81 ab 3a 70 13 b4 3c
       0.013221442 0.001426782 0.0013084762 0.021981925
000390 73 3d 26 3b 4f 1a 9c 3b f3 fa 07 3b 55 db dc 3b
       0.0025366216 0.0047638784 0.0020748943 0.0067400136
0003a0 46 f7 49 bb 32 66 08 3c 40 9b cb ba 0b 28 cd bc
       -0.0030817552 0.0083251465 -0.0015533939 -0.025043508
0003b0 f2 b3 9c bb 0a ec 7a bc 41 68 00 bb cb 65 3d 3c
       -0.0047821933 -0.015315065 -0.001959339 0.011559914
0003c0 02 ab 4f bb 35 02 cc bb 8f 85 58 3c bd ec 18 3c
       -0.0031687622 -0.006225849 0.013215437 0.009333787
0003d0 eb 38 4a 3b 50 e5 8e bb 23 10 17 bc 86 8f 28 3c
       0.003085668 -0.0043608323 -0.009220156 0.010288125
0003e0 ca 3f ff 3b 7f 7b 93 3a aa 49 3b bb 66 86 3b bc
       0.0077895867 0.0011252015 -0.0028577843 -0.011445617
0003f0 d4 4e 8e b7 05 cf a3 3a e8 f8 f2 bb c8 6c fe bb
       -1.6964426e-05 0.001249761 -0.007414926 -0.0077644326

action_model._discrete_distribution.branches.0.bias f4 [5]
000000 00 00 00 00 00 00 00 00 00 00 00 00 00 00 00 00
       0.0 0.0 0.0 0.0
000010 00 00 00 00
       0.0
