Project/Assets/ML-Agents/Examples/MyTest/Scripts/TFModels/MyTest1Models/Test7/MoveToGoal/MoveToGoal-23805.pt (torch, 451980 bytes, 42 tensors)

network_body._body_endoder.seq_layers.0.weight f4 [128, 6]
0	0xbd912398	-0.07086867
1	0xbda41f21	-0.0801375
2	0x3cf65231	0.030068489
3	0xbda67014	-0.08126846
4	0x3f0395f2	0.51400673
5	0xbf146840	-0.5797157
6	0x3f3308a0	0.69935036
7	0xbeddbf39	-0.43309954
8	0xbf019f19	-0.5063339
9	0xbf8b2517	-1.0870694
10	0xbdd86bf2	-0.10567464
11	0x3e8cd8ad	0.2750906
12	0x3e6e30f1	0.23260857
13	0xbcbe93e1	-0.023263874
14	0xbbcc5d7a	-0.006236729
15	0xbeb9407e	-0.36182016
16	0xbb949b15	-0.004535089
17	0x3de4f0d4	0.11178747
18	0x3f8fe935	1.1243044
19	0x3e6eba38	0.23313224
20	0x3d5f8eae	0.05457943
21	0xbe0075eb	-0.12544982
22	0xbd0cfbb3	-0.034419727
23	0x3e1483fc	0.14503473
24	0x3ce103a7	0.027467562
25	0xbe7c89c9	-0.24661936
26	0x3f2cd51b	0.67512673
27	0x3dd7a510	0.1052953
28	0x3ed43ccf	0.41452643
29	0xbe0af54e	-0.13570139
30	0xbd0538e5	-0.032524962
31	0xbc92fdc5	-0.017943272
32	0xbe496fb9	-0.19671525
33	0x3ea50488	0.3223002
34	0x3ebf43a1	0.37356284
35	0xbe8443fe	-0.25833124
36	0x3d8814b7	0.06644576
37	0x3ea5a129	0.32349518
38	0xbecd954c	-0.40152967
39	0xbcb1cc3d	-0.021703834
40	0x3de2b1d3	0.110690735
41	0x3f5d52c1	0.864544
42	0x3e8160ba	0.2526911
43	0xbe7c3188	-0.2462827
44	0x3f25168f	0.64487547
45	0xbe797cc9	-0.24364008
46	0x3e1ee60e	0.15517446
47	0x3e780bd8	0.24223268
48	0x3e0cba82	0.13743022
49	0xbe7a4e5e	-0.24443957
50	0xbe9e01f7	-0.30860874
51	0x3f002e68	0.5007081
52	0xbf33e43d	-0.7027014
53	0x3f2cfc02	0.67572033
54	0xbe28ca2f	-0.16483377
55	0x3f0fd6fe	0.5618743
56	0x3f195ea9	0.59910065
57	0x3f7a5c49	0.97797066
58	0x3e80d728	0.2516415
59	0xbd634ed8	-0.055495113
60	0x3e6abd6e	0.22923824
61	0xbe959798	-0.2921722
62	0x3da92969	0.082598515
63	0x3e4f1b81	0.20225336
64	0xbe895dce	-0.2682938
65	0xbedf96ac	-0.4366964
66	0x3e13ea04	0.14444739
67	0x3f5dfacb	0.86710805
68	0x3eb43a5f	0.35200784
69	0xbda93ac1	-0.082631595
70	0x3c816939	0.015797244
71	0x3e8e07d1	0.27740338
72	0xbddf0791	-0.10890115
73	0xbea09ac5	-0.3136808
74	0xbea648e2	-0.3247748
75	0xbe032075	-0.1280535
76	0xbda481d2	-0.08032574
77	0x3eaf62eb	0.34255156
78	0x3f4252b4	0.75907445
79	0x3d925f10	0.07147038
80	0xbefb2239	-0.49049547
81	0xbf025938	-0.50917387
82	0xbefaf7bf	-0.4901714
83	0xbeeafb0e	-0.45894665
84	0x3e0593a5	0.13044603
85	0xbead471e	-0.3384332
86	0xbe82b204	-0.2552644
87	0x3e76ad99	0.2408966
88	0xbd6cc893	-0.05780847
89	0x3f653faa	0.8955027
90	0xbef66f2a	-0.48131686
91	0xbc9d5328	-0.019204691
92	0x3d30da82	0.043177135
93	0x3dd8c9e0	0.105853796
94	0x3e858c63	0.2608367
95	0xbebebf08	-0.3725512
96	0x3d11edd8	0.035627216
97	0x3e9b5e01	0.30345157
98	0x3e15af04	0.14617544
99	0x3f11b435	0.569156
100	0xbfa037ba	-1.2517006
101	0x3ee3d4a2	0.44498163
102	0xbef74f87	-0.48302862
103	0x3ebe566a	0.37175304
104	0x3ca91848	0.020641461
105	0xbdc9fc6c	-0.09862599
106	0xbe8735da	-0.26408273
107	0x3eb5c07a	0.3549841
108	0xbe6d4fd8	-0.23174989
109	0xbe92fe32	-0.2870956
110	0xbf276c9a	-0.6540009
111	0xbfd421b9	-1.6572791
112	0x3ecf0083	0.40430078
113	0x3dc19880	0.09452915
114	0x3e7f06c9	0.24904932
115	0xbecdfbd5	-0.40231195
116	0x3dbe1d2e	0.09282909
117	0x3eafabed	0.34310856
118	0x3e8c4bcb	0.27401575
119	0xbe638085	-0.22216995
120	0xbf4e9b47	-0.80705684
121	0xbda74342	-0.08167125
122	0xbf7ee921	-0.99574476
123	0xbe62320d	-0.22089405
124	0x3dd96095	0.10614125
125	0xbd674173	-0.0564589
126	0xbed30d59	-0.4122112
127	0xbf515b86	-0.8178028
128	0xbf55ac64	-0.8346617
129	0x3ecd338a	0.40078384
130	0xbef74b02	-0.48299414
131	0xbe053273	-0.13007526
132	0xbe24f64b	-0.16109578
133	0x3d52a91a	0.0514308
134	0xbe61c301	-0.22047044
135	0xbef76f09	-0.483269
136	0xbf0edcab	-0.5580546
137	0x3f4f52b8	0.80985594
138	0xbe942823	-0.28936872
139	0x3ea6a260	0.32545757
140	0x3e0828a4	0.13296753
141	0x3e74a64c	0.23891562
142	0xbf3bcb43	-0.7335703
143	0x3f6eecc6	0.9333004
144	0x3e3dbe93	0.1852973
145	0xbe05a276	-0.13050255
146	0xbe68d6f9	-0.22738256
147	0xbe7d90a8	-0.24762213
148	0xbc6d4ce7	-0.014483667
149	0xbd800ee6	-0.06252842
150	0xbee3cf86	-0.44494265
151	0x3dffece9	0.12496359
152	0xbf31cd17	-0.6945357
153	0xbe448b4c	-0.19193763
154	0x3f2ebee8	0.6826005
155	0x3e065e15	0.13121827
156	0x3ea37125	0.3192226
157	0xbea764e9	-0.32694176
158	0x3eb46ea5	0.35240665
159	0xbdba49af	-0.09096085
160	0x3c256d00	0.010096788
161	0xbf0ff397	-0.56231064
162	0xbe741fec	-0.23840302
163	0x3f47e908	0.7808995
164	0xbde639dc	-0.112415045
165	0x3dde3c28	0.10851318
166	0x3f124c92	0.5714809
167	0x3e00468f	0.12526916
168	0x3d9f0699	0.0776493
169	0xbd0afdb3	-0.033933353
170	0xbdd39d07	-0.10332685
171	0xbdc87b97	-0.09789198
172	0xbf1e458a	-0.6182486
173	0x3f1fd688	0.62436724
174	0xbf0e4c92	-0.5558559
175	0x3f0c6a8a	0.54850066
176	0xbd7d142e	-0.061786823
177	0x3cadd20d	0.021218324
178	0xbd81632e	-0.06317745
179	0xbf08c1cc	-0.5342071
180	0xbe2a0cf2	-0.166065
181	0xbf0fa74e	-0.5611466
182	0xbea61226	-0.3243572
183	0xbec13413	-0.37735042
184	0xbe14e548	-0.14540589
185	0xbee37d66	-0.4443161
186	0x3e2aff20	0.16698885
187	0xbed59129	-0.4171231
188	0x3d709bb1	0.05874223
189	0x3e7e1fc3	0.24816804
190	0x3e04c7c5	0.12966831
191	0xbe0bba65	-0.13645323
192	0xbec28b0b	-0.37996706
193	0xbf92e598	-1.1476316
194	0xbdf84a27	-0.121235184
195	0xbf0843a6	-0.53228223
196	0xbe343a4b	-0.17600362
197	0x3d56d2f0	0.05244726
198	0xbd1d4ae3	-0.038401496
199	0x3e1dc135	0.15405734
200	0x3ab12e1a	0.0013517768
201	0xbecb2029	-0.39672974
202	0x3d947bff	0.07250213
203	0x3f2d6ac5	0.6774104
204	0x3e50128f	0.2031958
205	0xbe4ba1bb	-0.19885914
206	0xbee7cf28	-0.45275235
207	0x3e8a98e9	0.27069786
208	0xbeb71db0	-0.35764837
209	0xbe0ccc1e	-0.1374974
210	0xbe68a02d	-0.22717352
211	0xbe1d1e7f	-0.15343665
212	0x3edf9254	0.43666327
213	0xbe489bbc	-0.19590658
214	0x3de0b705	0.10972408
215	0xbe4b2a89	-0.19840445
216	0x3edd7f5c	0.4326123
217	0xbf1d0ebb	-0.613506
218	0x3e86692a	0.2625211
219	0x3cf12ba3	0.029439753
220	0x3e7367ce	0.23770067
221	0xbe77cd06	-0.24199304
222	0x3ea07ff0	0.3134761
223	0xbd05f4c0	-0.032704115
224	0xbe82f3cc	-0.25576627
225	0x3f46c103	0.7763826
226	0x3eb8d9ae	0.36103576
227	0x3ee46864	0.44610894
228	0x3c6a21ff	0.014290332
229	0x3d8bbce2	0.06823136
230	0xbf4010b1	-0.7502547
231	0xbea17eba	-0.31541997
232	0xbd6bcec7	-0.057570245
233	0x3f2643cb	0.64947194
234	0x3f16e585	0.5894397
235	0x3f2e3720	0.68052864
236	0x3f1d1c27	0.6137108
237	0xbed368d9	-0.4129093
238	0x3c989d01	0.018629553
239	0xbd3d2e10	-0.046186507
240	0xbda7fceb	-0.08202537
241	0x3ede88a4	0.43463624
242	0x3eadf96e	0.33979362
243	0x3f0c7454	0.54865
244	0x3e8573fa	0.26065046
245	0x3d9bc7d9	0.07606477
246	0x3e51c100	0.2048378
247	0xbf08d3eb	-0.5344836
248	0xbc86b2a1	-0.016442599
249	0xbe9609d9	-0.29304388
250	0x3e638417	0.22218357
251	0xbbb29dc2	-0.005450935
252	0x3e2fab3f	0.17155169
253	0xbf085991	-0.5326167
254	0xbf2f84c3	-0.68561953
255	0x3e36cdfe	0.17852017

network_body._body_endoder.seq_layers.0.bias f4 [128]
0	0xb9e80135	-0.00044251388
1	0xbb04771e	-0.00202126
2	0xbb34592d	-0.0027518973
3	0x3af26374	0.0018492774
4	0xbb0f5b9c	-0.0021874672
5	0x3b9f0339	0.004852679
6	0x3b5c0bb0	0.0033576302
7	0xb919bd80	-0.00014661811
8	0x388c629d	6.6940884e-05
9	0x3bc08d59	0.005876225
10	0x3abee678	0.0014564535
11	0xba957616	-0.001140299
12	0xbb970aa0	-0.004609421
13	0xbac14606	-0.00147456
14	0xbb3d00ab	-0.002883951
15	0x398157ca	0.00024670205
16	0xba182fe6	-0.0005805477
17	0xbb383af5	-0.0028111313
18	0x3ba9eeb1	0.005185925
19	0xbb41d8df	-0.0029578728
20	0xbb320509	-0.0027163646
21	0x3bdfcbcd	0.006829715
22	0xbaa8a613	-0.0012866877
23	0x3a958fdd	0.0011410672
24	0x3a8e600b	0.0010862363
25	0x3be48cc9	0.0069747907
26	0xbb9b1ba2	-0.0047335187
27	0x3b331ec4	0.002733157
28	0x3a9008f6	0.0010988999
29	0x3b3dd3e5	0.002896541
30	0xb9923e82	-0.00027893862
31	0x3a242c77	0.00062627293
32	0x3b2bba30	0.0026203506
33	0xb9e9c4ce	-0.00044587854
34	0xbab0f288	-0.0013500014
35	0x3a800932	0.0009768365
36	0xba514595	-0.0007983086
37	0xba5c336b	-0.0008399996
38	0xbb2ef48c	-0.0026696054
39	0x3a359956	0.0006927451
40	0x3b8e3340	0.0043396056
41	0xba4f408b	-0.0007906041
42	0x3b82701b	0.003980649
43	0xb99a9978	-0.00029487512
44	0x36cef880	6.1682076e-06
45	0x3a467aa1	0.0007571374
46	0xba639d56	-0.00086828077
47	0xbb2daa9d	-0.0026499399
48	0x3b777449	0.003775852
49	0x39d933bf	0.0004142802
50	0x3a125783	0.0005582498
51	0xba148459	-0.0005665473
52	0x390308a1	0.00012496348
53	0xbb446646	-0.0029968186
54	0xbabac01e	-0.0014247929
55	0x3ac6e5c6	0.0015174679
56	0x3a93be71	0.0011271966
57	0xbaca8144	-0.0015449901
58	0xb9722356	-0.00023092082
59	0xbb0cfe16	-0.0021513752
60	0x3ab016ef	0.0013434569
61	0xbb07f188	-0.002074333
62	0xbb0b56ee	-0.002126153
63	0x3ab0a442	0.0013476687
64	0x3b3351d1	0.0027361999
65	0xba41c9ac	-0.0007392417
66	0x3a278c1b	0.0006391422
67	0xbb7181f2	-0.0036851135
68	0xb8471b5e	-4.7470785e-05
69	0x3b754694	0.00374261
70	0x3b5c2720	0.0033592656
71	0x3ba07daf	0.004897795
72	0xbb9e02d3	-0.004822114
73	0x3ad405c6	0.0016176037
74	0x3ade9a38	0.0016983217
75	0x39b34f3c	0.00034200575
76	0xba157ad0	-0.00057021994
77	0x39c5dc56	0.0003773893
78	0xb947a969	-0.00019041229
79	0xbac50331	-0.0015030858
80	0x3bb91224	0.0056479145
81	0x3bac0622	0.0052497545
82	0xbb28b36d	-0.0025741712
83	0xba132892	-0.00056136504
84	0xba54d1c0	-0.00081184134
85	0x3bb0089b	0.0053721196
86	0xba8ec2e6	-0.0010891824
87	0xbb32e4fd	-0.0027297132
88	0x3b3504ce	0.0027621272
89	0x39aa7987	0.00032515472
90	0x3b3054fa	0.0026906119
91	0x3b557925	0.0032573428
92	0x3a95be3d	0.0011424493
93	0x3ae07403	0.0017124418
94	0x3a8e4df0	0.0010856967
95	0x39a875c5	0.00032131202
96	0xbbbf864d	-0.0058448673
97	0x3b5e1d6c	0.0033892049
98	0x3aeb395b	0.001794617
99	0xbb3d3116	-0.0028868369
100	0x3b0323c6	0.0020010336
101	0x3a258be0	0.00063150935
102	0x3b081125	0.0020762172
103	0xba7f59e4	-0.0009740873
104	0xbad4f832	-0.0016248284
105	0x3b8d97bd	0.004321067
106	0x3abe8f8e	0.0014538632
107	0xbb262fb0	-0.0025358014
108	0x3ba3a6ac	0.004994234
109	0xb9434a5e	-0.00018624353
110	0xbb2d8523	-0.002647706
111	0x397acb9d	0.0002391771
112	0xb98fcb14	-0.0002742639
113	0xbb58ef4b	-0.0033101614
114	0x3b1810df	0.0023203415
115	0xbb40e099	-0.0029430746
116	0x3a73f660	0.0009306427
117	0xbb110c57	-0.00221326
118	0x39a9896f	0.00032336588
119	0xbb5b966c	-0.0033506406
120	0xba220e3d	-0.0006181931
121	0x3a6ea196	0.00091030577
122	0xba98be17	-0.0011653331
123	0xbb777547	-0.0037759112
124	0xb9c5e742	-0.0003774707
125	0xba2dfe02	-0.00066372764
126	0x3a62ce12	0.00086519227
127	0x3b6c937d	0.0036098652

network_body._body_endoder.seq_layers.2.weight f4 [128, 128]
0	0x3c87a4e2	0.016558114
1	0x3dae6786	0.08515839
2	0x3cecb488	0.028894678
3	0xbbe3669f	-0.0069397236
4	0xbe118cf3	-0.14213924
5	0x3e03042c	0.1279456
6	0x3e188e18	0.14897954
7	0xbd829210	-0.063755155
8	0x39ad8370	0.0003309506
9	0x3d59a1b2	0.05313272
10	0x3e25022b	0.16114108
11	0xbb8cfe74	-0.004302794
12	0xbb739f9d	-0.0037173994
13	0xbdab23c8	-0.08356434
14	0x3db35b5a	0.08757658
15	0x3e4559bb	0.1927251
16	0xbc0eaaf8	-0.008707754
17	0xbc90fc75	-0.017698506
18	0xbcbb4253	-0.022858774
19	0x3d31bb56	0.043391548
20	0x3d6bd3a9	0.0575749
21	0x3c31b65f	0.010846703
22	0xbde776d0	-0.113019586
23	0xbcf9b6f4	-0.030482747
24	0xbc7b1820	-0.015325576
25	0x3b1ca90f	0.0023904478
26	0x3e189a1b	0.14902537
27	0xbdc56bd9	-0.09639711
28	0x3c8e4424	0.017366476
29	0x3d2cb865	0.04216804
30	0xbccff1a0	-0.02538377
31	0xbd2ed502	-0.04268361
32	0x3de6bd89	0.1126662
33	0x3ddbcc5f	0.1073234
34	0x3d2c0ca5	0.042004246
35	0x3daccac2	0.084371105
36	0xbdf7b6c3	-0.12095406
37	0x3d126aee	0.035746507
38	0xbd9f1b59	-0.07768888
39	0x3dc97149	0.098360606
40	0x3cd7606d	0.026291097
41	0xbe0f8913	-0.14017133
42	0xbd19b8fc	-0.03752993
43	0xbdd33529	-0.10312874
44	0x3d67f3ff	0.056629177
45	0xbdbf19fe	-0.093311295
46	0xbc88025c	-0.016602688
47	0xbcb9ef7d	-0.022697205
48	0x3dbf7afa	0.09349628
49	0xbd394b81	-0.04523802
50	0x3dd66ae2	0.10469605
51	0x3bde3cef	0.006782166
52	0x3c90c411	0.017671617
53	0xbcbfe499	-0.023424434
54	0xbdd235c0	-0.10264158
55	0xbdb6781c	-0.08909628
56	0xbdf247bb	-0.11830088
57	0xbd1bd5f8	-0.038045853
58	0x3d812779	0.06306357
59	0x3dcc15c4	0.09965089
60	0x3dbea013	0.093078755
61	0xbdd9bdfb	-0.10631939
62	0xbdcc29ef	-0.09968936
63	0xbe4ee578	-0.20204723
64	0xbd0b4a79	-0.03400657
65	0xbe005014	-0.12530547
66	0xbd2f04a1	-0.042729024
67	0x3d4202e5	0.04736604
68	0xbd9bc0af	-0.07605111
69	0xbd73aaa8	-0.059488922
70	0xbca627e9	-0.020282703
71	0xbdeec006	-0.11657719
72	0x3c8c6a33	0.017140483
73	0xbdc169fc	-0.09444043
74	0xbd95d276	-0.07315533
75	0x3aef12c0	0.0018239841
76	0x3b19706c	0.0023412956
77	0xbd7e3017	-0.06205758
78	0xbcc4bb0c	-0.024014972
79	0xbd118d93	-0.035535406
80	0x3d9a398a	0.07530506
81	0x3cacc37a	0.021089304
82	0xbd6f12db	-0.05836759
83	0x3cc145c7	0.023592843
84	0xbe12946a	-0.14314428
85	0x3bcceac3	0.0062535717
86	0xbe3955e5	-0.18099172
87	0xbd9c67aa	-0.0763696
88	0x3dbe5818	0.09294146
89	0xbe43cab3	-0.19120292
90	0xbe23cd6e	-0.15996334
91	0x3d01a11b	0.031647783
92	0xbd0c5d02	-0.034268387
93	0x3d158242	0.036501177
94	0xbd09af2a	-0.033614315
95	0xbc4f6355	-0.01265796
96	0x3c9489c1	0.018132092
97	0xbc10654d	-0.0088132145
98	0xbdbbd4b8	-0.09171432
99	0x3dbee1b4	0.09320393
100	0x3dac1bf2	0.08403768
101	0xbd1ceb5f	-0.038310405
102	0xbd83a6e8	-0.06428319
103	0x3bee9bf2	0.0072817737
104	0x3d9ee3aa	0.07758267
105	0xbd486de2	-0.048932917
106	0xbd0281c8	-0.03186205
107	0x3d32da5a	0.043665268
108	0x3d8e8302	0.069585815
109	0xbd44c505	-0.048039455
110	0x3d8f17b2	0.069869414
111	0xbe216073	-0.15759449
112	0xbd6d7eeb	-0.057982367
113	0x3da75f8f	0.08172523
114	0xbd591461	-0.05299795
115	0x3dee9f0d	0.1165143
116	0x3d0d8be8	0.034557253
117	0xbc86b2b7	-0.01644264
118	0x3ddb9ce1	0.10723282
119	0xbc9efe83	-0.01940847
120	0xbd90b36c	-0.07065472
121	0xbca4a78e	-0.020099428
122	0x3d5c0cd7	0.053723183
123	0x3cc0b7d8	0.023525164
124	0xbe04d6ce	-0.12972566
125	0xbe572a43	-0.21012215
126	0xbd941e80	-0.0723238
127	0x3ca992cc	0.020699881
128	0x3d5446df	0.0518254
129	0x3c9de7f6	0.019275647
130	0xbb9c2bfe	-0.0047659865
131	0xbe0252b2	-0.12726858
132	0x3e2940d8	0.16528642
133	0x3dd5da31	0.10442007
134	0xbe349981	-0.17636682
135	0x3c96db96	0.018415254
136	0xbd8d2344	-0.06891492
137	0xbda766ba	-0.081738904
138	0xbd8ddce3	-0.069268964
139	0xbcf4295e	-0.029804882
140	0x3d1e8ec6	0.038710378
141	0xbe297444	-0.16548258
142	0xbd6031fc	-0.05473517
143	0xbcde690c	-0.0271497
144	0x3d175b69	0.03695241
145	0x3b82f4cb	0.0039964668
146	0x3d858366	0.06519203
147	0xbdf3f442	-0.11911823
148	0xb7ae94ae	-2.081165e-05
149	0xbdaf8a5b	-0.08571311
150	0x3da34267	0.079716496
151	0x3c0e5c8c	0.008689057
152	0x3d8d9b3d	0.06914375
153	0x3e1f9a8f	0.15586303
154	0x3cb4eead	0.022086466
155	0xbdf47d0f	-0.119379155
156	0xbd01882c	-0.031624004
157	0xbd4ea585	-0.05045082
158	0xbe17c992	-0.14822987
159	0xbd2c696c	-0.042092726
160	0x3beaf935	0.007170821
161	0xbe015d78	-0.12633312
162	0xbd8b4db1	-0.06801928
163	0xbd38ec3d	-0.04514717
164	0x3e28ec2e	0.16496345
165	0x3caba031	0.020950409
166	0xbd9ff6c3	-0.07810738
167	0xbd84a381	-0.064764984
168	0x3d9c16b7	0.0762152
169	0xbd412ebd	-0.047163714
170	0x3dccf86b	0.100083195
171	0xbd8e9db2	-0.06963672
172	0xbdd92e80	-0.10604572
173	0x3c9833ff	0.018579481
174	0x3cedf6d9	0.02904837
175	0xbd4930fd	-0.049118984
176	0x3c2c179b	0.010503675
177	0x3cd6762e	0.0261794
178	0xbd05fa3c	-0.032709345
179	0x3d49fe4b	0.04931478
180	0xbc911d34	-0.01771412
181	0xbde302d2	-0.11084522
182	0xbdd367f3	-0.10322561
183	0x3e104cc6	0.14091787
184	0xbe06fa20	-0.13181353
185	0x3d1a0434	0.037601665
186	0x3d0aed75	0.033917863
187	0x3d8393f0	0.06424701
188	0x3be46073	0.0069695055
189	0xbd85d370	-0.06534469
190	0x3d1ff2f9	0.039050076
191	0x3ccacb7b	0.02475523
192	0xbdbcf8ac	-0.09227118
193	0x3dbd115e	0.09231828
194	0xbd0fb947	-0.035088804
195	0xbdc7e296	-0.09760015
196	0xbdae3260	-0.08505702
197	0xbd27ba80	-0.040949345
198	0xbd58a7d3	-0.052894425
199	0x3d0b3394	0.033984736
200	0xbd424537	-0.04742929
201	0x3cc5b954	0.024136223
202	0xbcea434f	-0.028596548
203	0x3e0f3b64	0.139875
204	0xbcbcf8cc	-0.023067854
205	0x3ce4585a	0.02787416
206	0xbb086bd3	-0.0020816221
207	0xbe28f4ca	-0.1649963
208	0x3ddaf22a	0.106907204
209	0x3afd31c0	0.0019317195
210	0xbdd2f007	-0.10299688
211	0xbcd963b8	-0.026536807
212	0xbdd59e70	-0.1043061
213	0x3ca1ad30	0.019735903
214	0xbdb356d9	-0.08756799
215	0x3dc6dcab	0.09710058
216	0xbdf23675	-0.11826793
217	0x3d0a6da3	0.033795964
218	0xbd5b3de4	-0.05352582
219	0x39f3324d	0.0004638605
220	0x3d61dfdc	0.05514513
221	0xbea24c3c	-0.31698787
222	0x3c541c3a	0.012946183
223	0x3d569f32	0.052397914
224	0xbd6dc049	-0.058044706
225	0xbe07ff58	-0.13281
226	0xbc1125bd	-0.008859095
227	0xbb2084dd	-0.0024493255
228	0x3d25c672	0.040472455
229	0xbd5680c9	-0.052368913
230	0x3e09ecac	0.1346919
231	0x3db9adb1	0.09066332
232	0x3d3153af	0.043292698
233	0x3def7baa	0.11693509
234	0xbd63c153	-0.05560429
235	0xbaa7abbe	-0.0012792272
236	0x3df6ea2a	0.12056382
237	0xbe0d2de4	-0.13787037
238	0xbd2b6e7b	-0.04185341
239	0x3af07a37	0.001834697
240	0xbdfc6262	-0.123234525
241	0xbda7fbf9	-0.08202357
242	0x3c9a1d4c	0.018812798
243	0xbd0b4a75	-0.034006555
244	0x3dc3bfec	0.095580906
245	0xbca0b543	-0.019617682
246	0xbbf4bb44	-0.007468613
247	0x3cad50d3	0.021156704
248	0x3c020cb6	0.007937601
249	0xbddcaf6b	-0.10775646
250	0x3dc3ff69	0.095702
251	0xbd747b02	-0.059687622
252	0x3daf3c9d	0.08556483
253	0x3df0c9b5	0.117572226
254	0x3e18be06	0.14916238
255	0x3bede30f	0.0072597335

network_body._body_endoder.seq_layers.2.bias f4 [128]
0	0xbafe03a6	-0.001937975
1	0x3a3fbe42	0.00073144224
2	0x395d72e0	0.00021118997
3	0xbb323102	-0.0027189855
4	0x3a2bd82b	0.0006555344
5	0xbaeada28	-0.0017917799
6	0xbb23ea4d	-0.002501148
7	0x373ba892	1.1185317e-05
8	0xb934f9bf	-0.00017259175
9	0x3a7fd03e	0.00097585085
10	0x3b97e2ae	0.0046351766
11	0x3a5ce747	0.0008426797
12	0x3bbcf112	0.0057660425
13	0xbb3ff725	-0.0029291597
14	0xb97aa542	-0.00023903421
15	0x399c99f0	0.0002986933
16	0x3b006756	0.0019592843
17	0x3aa178fc	0.0012319381
18	0x3a2c81eb	0.00065806386
19	0x3a15341d	0.00056916644
20	0xbafa23f6	-0.0019084204
21	0x38605674	5.3486277e-05
22	0x3a1f8911	0.0006085793
23	0xba069773	-0.0005134262
24	0xba857daf	-0.0010184551
25	0x3ab84fbf	0.0014061852
26	0xbb2ef96a	-0.0026698955
27	0xbac0de1e	-0.0014714634
28	0xbad8cd3b	-0.0016540656
29	0x3b126c18	0.002234226
30	0x3b2b034f	0.0026094501
31	0xba74bac4	-0.00093356916
32	0x3b95bc00	0.0045695305
33	0xbabb69f0	-0.001429854
34	0x3a92f828	0.0011212872
35	0x3a496fd4	0.0007684205
36	0x3ac5a803	0.0015079979
37	0x3903d1de	0.00012571315
38	0x3b346b19	0.0027529655
39	0xbacfd8f0	-0.0015857499
40	0x3abf22ef	0.0014582555
41	0xbb0e4e1d	-0.002171404
42	0x3ac2d423	0.0014864247
43	0xba033a29	-0.000500592
44	0x3aef8edd	0.001827683
45	0x3af15774	0.0018412904
46	0xb9c702a1	-0.00037958196
47	0xba963709	-0.0011460494
48	0x3a2e0aff	0.0006639212
49	0xbaa27dd5	-0.001239712
50	0x3ad01e6a	0.0015878205
51	0x3b606460	0.0034239516
52	0x3b24e7b9	0.0025162532
53	0x3a69db41	0.0008920916
54	0x3a741821	0.0009311457
55	0xba06f22a	-0.00051477796
56	0x3b34cc5f	0.0027587635
57	0x39607c20	0.00021408545
58	0x3acd0e98	0.0015644608
59	0xba7806e0	-0.00094614737
60	0x3ab4f057	0.0013804537
61	0x39e758ee	0.0004412601
62	0xbad74b1f	-0.0016425586
63	0x3a939dbd	0.001126222
64	0xbac9730a	-0.0015369367
65	0x3a5485c1	0.0008107089
66	0xbab559c8	-0.0013835961
67	0xbadc0a75	-0.0016787784
68	0xbad49b36	-0.0016220573
69	0xba0a4e35	-0.0005275936
70	0xbaad5e40	-0.0013226941
71	0x39321ba6	0.00016985703
72	0x3a0c24ea	0.0005346077
73	0xbafbbe66	-0.0019206523
74	0xbb7dc45d	-0.0038721778
75	0xb80b9f02	-3.328827e-05
76	0xba211fd6	-0.00061464065
77	0xba1e3c43	-0.00060362014
78	0xbace0f2a	-0.0015721072
79	0xbb532f74	-0.003222433
80	0xbad6d7e1	-0.0016391241
81	0x3ac9e903	0.0015404526
82	0x3a9d7251	0.0012012218
83	0xbb8e96cb	-0.004351472
84	0xbafd1bce	-0.0019310655
85	0xb983e211	-0.000251547
86	0x3b2c2132	0.0026264903
87	0xbb11997c	-0.0022216728
88	0x3ac84032	0.0015277921
89	0x3a8f1b9e	0.0010918265
90	0x394673ba	0.00018925863
91	0xbb22211e	-0.0024738978
92	0xbae34e2a	-0.001734202
93	0xba93a089	-0.0011263053
94	0xbafb3640	-0.0019165948
95	0x39cabaa4	0.000386675
96	0xbba8c3dc	-0.0051503014
97	0xba36b445	-0.0006969611
98	0xb9a9d372	-0.0003239173
99	0xb9d937bf	-0.00041431
100	0x3a155d1f	0.0005697775
101	0x39e10506	0.00042919087
102	0x3a8cfd11	0.0010756572
103	0xbb7e14bf	-0.003876969
104	0x3a9b61ba	0.0011854686
105	0x3b59f3c0	0.0033256859
106	0x3a06f510	0.00051482115
107	0x3990408f	0.0002751392
108	0x39e4b373	0.0004362125
109	0x3ab38d09	0.0013698648
110	0x3b3c94fe	0.002877533
111	0xbabb1c02	-0.0014275315
112	0xbaab9719	-0.0013091295
113	0xbb2c31aa	-0.002627472
114	0xba90d498	-0.0011049686
115	0xbade9643	-0.0016982037
116	0x3a242a74	0.00062624295
117	0xbae0985f	-0.0017135254
118	0xb9212a47	-0.00015369906
119	0xba07a433	-0.0005174309
120	0xba63f40f	-0.00086957304
121	0xbbb5507b	-0.0055332757
122	0x3a1e6ef5	0.00060437556
123	0xbaa58c7e	-0.0012630371
124	0x393cdb30	0.00018010731
125	0x39eba9a7	0.00044949094
126	0xbad4a8f5	-0.001622467
127	0x387608c2	5.8659127e-05

action_model._continuous_distribution.log_sigma f4 [1, 2]
0	0xbb7f28f4	-0.0038934322
1	0x3bf84a8c	0.007577246

action_model._continuous_distribution.mu.weight f4 [2, 128]
0	0x3b6f56b5	0.0036520187
1	0x3b89749e	0.00419481
2	0xbc3e2cec	-0.01160739
3	0xbc618f9e	-0.013767151
4	0x39fb58c0	0.00047940575
5	0xbbcef93f	-0.0063163335
6	0xba41f73b	-0.0007399206
7	0xbc9d84db	-0.01922839
8	0x3b8874e1	0.0041643237
9	0x3bb26d64	0.0054451693
10	0xbc12ef67	-0.008968211
11	0x3c798761	0.015230031
12	0x3bc7998f	0.0060913037
13	0x3c135fb2	0.0089949835
14	0x3c1043b8	0.008805208
15	0x3b58c820	0.0033078268
16	0x3b96821f	0.0045931484
17	0x3c6c50f2	0.014423596
18	0xbb420b9e	-0.0029608975
19	0x3ca11bf2	0.019666646
20	0xbb1d2912	-0.0023980779
21	0xbc6605b3	-0.014039445
22	0x3c830d6f	0.015997617
23	0x3d5da4ef	0.05411237
24	0xbc810ed0	-0.015754133
25	0xbce0d4af	-0.027445165
26	0xbc2fb49c	-0.010724213
27	0xbc9fe580	-0.019518614
28	0xbc6fbbe8	-0.014632203
29	0x396c9ad0	0.00022564386
30	0xba5c2187	-0.000839733
31	0x3b1ead00	0.0024212003
32	0xbc9e3e0f	-0.019316701
33	0xbcfa4486	-0.030550253
34	0xbcc30956	-0.023808163
35	0x3cbb09a0	0.022831738
36	0x3c50069d	0.012696889
37	0x3c1de64d	0.0096374275
38	0x3ba1faee	0.004943243
39	0xbc8b878b	-0.017032405
40	0xbc8eaf70	-0.01741764
41	0xbc884625	-0.01663501
42	0x3c198f79	0.009372585
43	0xbb7c0142	-0.0038452898
44	0x3caffe24	0.021483488
45	0x3c401aec	0.011725169
46	0xbb8e9347	-0.004351053
47	0xbce03a38	-0.02737151
48	0x3ca2a0ce	0.019852068
49	0xbb35759a	-0.0027688504
50	0xbc7de1d6	-0.015495738
51	0xba3a79b3	-0.00071134715
52	0xbb951690	-0.004549809
53	0x3cc6e313	0.0242782
54	0x3d208671	0.039190713
55	0xbb5a373c	-0.0033297082
56	0x3c06c9d2	0.008226829
57	0xbc14e7dc	-0.009088483
58	0xbc9bd82f	-0.019023983
59	0xbd1429ab	-0.03617255
60	0x3855838e	5.0905677e-05
61	0x3cc6bf99	0.024261283
62	0x3c7e4b98	0.015520953
63	0xbcb9fd7a	-0.022703875
64	0xbbdb1d5e	-0.0066868505
65	0x3cdb5432	0.026773546
66	0xbcc546ac	-0.02408155
67	0xbd210b8e	-0.03931766
68	0x3aa901b3	0.0012894183
69	0xbcf9084a	-0.03039946
70	0x3d0c9c72	0.034328885
71	0xbb4bdb84	-0.0031106183
72	0x3c41cab3	0.011828112
73	0xbd125d82	-0.035733707
74	0x3b4b6ed0	0.0031041391
75	0xbba75a71	-0.005107217
76	0xbc40c644	-0.01176602
77	0xbc93f654	-0.018061794
78	0x3c674ef1	0.014117942
79	0x3bf6efe2	0.0075359205
80	0xbbe6d71d	-0.0070446865
81	0x3c276c2e	0.010218663
82	0x3ca3173c	0.01990854
83	0xbcbc0f6d	-0.022956574
84	0xbc682d76	-0.014170995
85	0x3bb42b9c	0.0054983627
86	0x3c89ddd8	0.016829416
87	0xbcca39f7	-0.024685843
88	0xbc39e42b	-0.011345903
89	0x3cf8d4b5	0.030374864
90	0x3b25b01e	0.0025281976
91	0xbbcb1b12	-0.0061982954
92	0x3ce1ce63	0.027564233
93	0xbb5411e8	-0.0032359306
94	0xbd4d67c7	-0.050147798
95	0x3c194cf7	0.009356729
96	0x3c04f868	0.008115865
97	0x3cb198cf	0.02167931
98	0x3c417031	0.011806534
99	0xbaf204e2	-0.001846459
100	0xbb81d497	-0.0039621103
101	0x3cb7fea7	0.022460295
102	0x3b9ffc72	0.0048823887
103	0xbbbb1a85	-0.0057099485
104	0xbaf8996c	-0.0018966622
105	0xbc943045	-0.018089423
106	0x3c0b101e	0.008487729
107	0x3c104e12	0.008807676
108	0x3c230d1b	0.009951855
109	0x3cb5f410	0.022211105
110	0xbceb8fc2	-0.028755073
111	0x3b7a4110	0.0038185753
112	0xbbeb23e9	-0.0071759117
113	0x3b41a0b8	0.0029545259
114	0xbccf8fc3	-0.025337106
115	0xbca136be	-0.019679423
116	0x3b3e0a0a	0.0028997683
117	0x3cbd5e52	0.023116264
118	0x3b3aec83	0.002852232
119	0x3b27ce63	0.0025605194
120	0xbc0ee761	-0.008722157
121	0x3b2885a0	0.0025714412
122	0xbc16f5c7	-0.009213871
123	0xbcae991a	-0.021313239
124	0x3cd7f0bc	0.026359908
125	0x3c802318	0.015641734
126	0x3c01a2d5	0.007912357
127	0x3b9b713a	0.0047437223
128	0xbcdfe462	-0.027330581
129	0x3c356064	0.011070345
130	0x3cd58e77	0.02606891
131	0x3addf0ee	0.0016932765
132	0x3c4ff77e	0.012693284
133	0x3c4f141e	0.012639074
134	0xba81b615	-0.0009896184
135	0xbc7397a1	-0.014867694
136	0x3ceca30d	0.028886342
137	0x3a18b7f7	0.0005825753
138	0x3ba0d80d	0.0049085678
139	0xbc298fe7	-0.01034925
140	0x3cfdba8e	0.030972745
141	0x3cbebb22	0.023282591
142	0xbce6d26b	-0.028176507
143	0xbbfd5349	-0.0077308756
144	0xbbaff76b	-0.0053700707
145	0x3caf2179	0.021378266
146	0x3cd103ac	0.025514446
147	0xbcc35efd	-0.023849005
148	0xbce249dc	-0.02762311
149	0x3d074de2	0.03303326
150	0x3a17bcc9	0.0005788324
151	0xbcb8558e	-0.022501733
152	0xbcb43832	-0.021999452
153	0x3d082dcf	0.03324681
154	0xbc751998	-0.014959715
155	0x3b1986d0	0.0023426302
156	0xbb1ce949	-0.002394276
157	0x3cc2ec7a	0.023794401
158	0x3c0a575a	0.008443678
159	0xbc8f9054	-0.017524876
160	0xbab8f3f6	-0.0014110792
161	0x3c54339c	0.012951758
162	0x3c46b2b4	0.012127567
163	0x3c57d9c6	0.01317448
164	0x3a3f4e24	0.00072977156
165	0xbb8971c2	-0.004194469
166	0xbce2eef0	-0.027701825
167	0x3bb2612a	0.0054437118
168	0xbc47b52c	-0.012189191
169	0xbb92a56e	-0.004475287
170	0x3bfbc5ff	0.007683515
171	0x3ca3b093	0.019981658
172	0x3bc9b5a7	0.006155688
173	0x3c215ab7	0.009848288
174	0x3c4dba38	0.012556605
175	0x3c6423ee	0.013924582
176	0xbc35c4f1	-0.011094318
177	0x3c39fdba	0.011351997
178	0xbba2faf3	-0.004973763
179	0xbc6ecc32	-0.014575051
180	0x3bc412fd	0.005983709
181	0x3cc2909c	0.023750596
182	0xbbb759a5	-0.0055954033
183	0x3c19c00c	0.009384166
184	0x3d43d604	0.047811523
185	0x3c197e5e	0.009368507
186	0x3b412174	0.0029469403
187	0xbcbcd02e	-0.023048487
188	0xbd02519d	-0.031816114
189	0xba23ed2e	-0.0006253299
190	0xbc00af59	-0.007854306
191	0x3c4e3362	0.012585493
192	0xb94853df	-0.00019104731
193	0x3d171703	0.03688718
194	0x3ca3f063	0.020012086
195	0x3cdbb831	0.026821228
196	0x3ca6299e	0.020283516
197	0x3b24933c	0.0025112173
198	0xbb923757	-0.0044621634
199	0xbc6a6865	-0.014307116
200	0x3cb9526d	0.022622311
201	0xbc63b4ba	-0.013898069
202	0xbc56497f	-0.013079046
203	0x3d0d49c8	0.03449419
204	0xbcaa3c06	-0.020780575
205	0xbae41a78	-0.0017402908
206	0x3c8907c9	0.016727345
207	0x3d11e031	0.035614196
208	0x3bf48e37	0.0074632424
209	0x3d0cdd89	0.03439096
210	0x3c6e49d7	0.014543972
211	0x3d072d6a	0.033002295
212	0xbc70d74c	-0.014699768
213	0xbbacd8de	-0.005274876
214	0xba400fd0	-0.0007326575
215	0x3a4e090a	0.00078596233
216	0x3c8b546e	0.017008033
217	0x3a3db460	0.0007236656
218	0xbcdba543	-0.026812201
219	0x3a025a66	0.0004972577
220	0x3c9e47f7	0.019321425
221	0xbd059fda	-0.03262315
222	0x3c856d37	0.01628743
223	0x3c804322	0.015657011
224	0x3c32a0db	0.010902609
225	0xbd47688d	-0.04868369
226	0x3b3625e2	0.0027793576
227	0x3bef6d9e	0.0073067686
228	0x3c49489c	0.012285378
229	0x3acc7a0e	0.001560034
230	0xbbd06669	-0.0063598645
231	0xbb13dafd	-0.0022560947
232	0xbc1e74d5	-0.00967141
233	0xbcc9e97a	-0.024647463
234	0xbbc970e2	-0.00614749
235	0x3c833970	0.0160186
236	0x3c8a65c6	0.016894232
237	0x39b41be8	0.00034353067
238	0xbc50390e	-0.012708915
239	0x3bc13a97	0.005896877
240	0xbcabdb35	-0.02097855
241	0xbd21b31d	-0.039477456
242	0x3d117719	0.03551397
243	0x3be0b47e	0.006857454
244	0xba2675ee	-0.00063499704
245	0x3b03842c	0.0020067794
246	0xbba3d655	-0.0049999156
247	0x3c624f55	0.01381286
248	0x3cace1eb	0.02110382
249	0x3c4435ec	0.011975747
250	0x3cc1f9b2	0.023678634
251	0xbd1370c7	-0.035996225
252	0xbd1b352f	-0.037892517
253	0xbcae14af	-0.021250097
254	0x3c25f9c1	0.010130347
255	0xbaaa0e47	-0.0012974226

action_model._continuous_distribution.mu.bias f4 [2]
0	0x3a828743	0.0009958524
1	0x3a25811f	0.0006313491

action_model._discrete_distribution.branches.0.weight f4 [5, 128]
0	0x3bfd0d6d	0.0077225477
1	0xbc09f57f	-0.008420347
2	0x3c052c7c	0.008128282
3	0xb9f7e49b	-0.00047281836
4	0x3c455c79	0.012045973
5	0xbc3c1430	-0.011479422
6	0xba087c50	-0.0005206512
7	0x3b293d4f	0.0025823896
8	0xbc72d8f8	-0.014822237
9	0xbbf7f530	-0.0075670704
10	0xbc251127	-0.01007489
11	0x3b15be61	0.002284907
12	0xbc4aa2b6	-0.012367895
13	0xbba87206	-0.005140546
14	0x3ba499a3	0.0050231977
15	0x3b857cf2	0.0040737325
16	0x3be91bbc	0.007113902
17	0xb958a1a7	-0.00020659585
18	0x3b8f3cce	0.004371262
19	0xbc9061f1	-0.017624827
20	0x39b2b5f3	0.00034086368
21	0xbbbbcaa0	-0.005730942
22	0x3c0c611d	0.0085680755
23	0x3bf43252	0.0074522877
24	0x3c0cee49	0.0086017335
25	0x3c41800a	0.011810312
26	0xba1fa157	-0.000608941
27	0x3ca7745e	0.02044123
28	0xbbbc3618	-0.005743753
29	0xbbf7336b	-0.0075439713
30	0x3b0e76b2	0.0021738228
31	0xbc030159	-0.007995927
32	0xba2bb79d	-0.0006550493
33	0xbbbefd52	-0.005828538
34	0xb95d00de	-0.00021076525
35	0x3c238a43	0.009981695
36	0xb9c74418	-0.00038006972
37	0xbc60b5a8	-0.013715185
38	0xbc7a7a93	-0.015288013
39	0x3c264f67	0.010150767
40	0xba28ee91	-0.00064442406
41	0xbb4588ad	-0.003014128
42	0x3c76269d	0.015023855
43	0xbc31bf97	-0.010848901
44	0xbc6ca72a	-0.014444152
45	0x3b0ae9e4	0.0021196539
46	0xbb5f6631	-0.003408801
47	0xbad1404f	-0.00159646
48	0x3baa5bfb	0.005198953
49	0xbc84822e	-0.016175356
50	0x3bae160d	0.0053126873
51	0x3bd0693d	0.0063602016
52	0xbb4d8084	-0.003135712
53	0xba820de0	-0.0009922348
54	0x3c2993c8	0.010350175
55	0xbb471e87	-0.0030383186
56	0x3c0dec7d	0.00866234
57	0x3bb6e62c	0.005581638
58	0x3b87283c	0.0041246694
59	0xbb30fa09	-0.0027004501
60	0xbbdead56	-0.0067955656
61	0x3b87fc07	0.004149917
62	0xbbe2dfb8	-0.006923642
63	0xbc95b527	-0.018274857
64	0x3c724b2d	0.014788431
65	0x3b1141f0	0.0022164546
66	0xbb020b48	-0.001984315
67	0xbbbbecd7	-0.0057350206
68	0x3b656a02	0.0035005813
69	0x3c0081b1	0.007843421
70	0xbbecd3f9	-0.0072274175
71	0x3c6a3243	0.01429421
72	0x3b726bda	0.0036990554
73	0x3c47de3d	0.012198982
74	0x3c3e8c60	0.011630148
75	0x389d0e8a	7.4890515e-05
76	0xbb3023dc	-0.0026876843
77	0x3c3249dd	0.010881868
78	0xbc7c1261	-0.015385241
79	0x3ca1e227	0.019761158
80	0xbc1d31f1	-0.0095944265
81	0xbbafd156	-0.005365531
82	0x3c0b332e	0.008496089
83	0xbb43bbc1	-0.0029866549
84	0xbad6b4e1	-0.001638081
85	0xbb8b4714	-0.0042504165
86	0xbbce0435	-0.0062871226
87	0xbba62e0b	-0.0050714067
88	0xbbc0c191	-0.00588245
89	0x3b50f338	0.003188325
90	0xbc020656	-0.007936081
91	0x3c914774	0.017734267
92	0x3ba5b82b	0.005057355
93	0x3b87ae78	0.0041406713
94	0xbc7384c2	-0.014863195
95	0xbab9aa7e	-0.001416519
96	0x3b9e096b	0.0048229
97	0xba826ede	-0.0009951254
98	0xba41453d	-0.0007372683
99	0xb9d05e6b	-0.00039743198
100	0xbb67a6b8	-0.0035347175
101	0x3c09ed25	0.008418356
102	0xbc532dc6	-0.012889331
103	0x3b7790ac	0.003777544
104	0xbc4513db	-0.01202866
105	0x3b952696	0.004551719
106	0x3bdd0021	0.0067444
107	0x3bc37b3a	0.0059656175
108	0xbbb87efc	-0.005630372
109	0xbbb57af2	-0.005538338
110	0xbc0ac4f2	-0.008469807
111	0xbbf709a5	-0.0075389915
112	0x3a13301a	0.00056147727
113	0xbb2a68bd	-0.002600237
114	0x3b386c35	0.0028140668
115	0x3c7fc0f1	0.015609966
116	0x3bd7307d	0.0065670596
117	0x3c028384	0.007965926
118	0xbb49e7b4	-0.0030808272
119	0x3c231257	0.009953103
120	0xb9c7537b	-0.00038018436
121	0xbb9a0592	-0.004700371
122	0x3c464561	0.012101502
123	0x3c84c27e	0.016206022
124	0x3c29850a	0.01034666
125	0xbc08691a	-0.008325839
126	0x3c701a27	0.014654673
127	0x3be35f61	0.0069388603
128	0xbbd1e58a	-0.006405537
129	0xbba6b402	-0.0050873766
130	0x3c13bfe4	0.009017918
131	0x3c6bfeb2	0.014403986
132	0x38c1bda5	9.238281e-05
133	0xbaff8675	-0.0019495027
134	0xbb954b54	-0.004556099
135	0xbc8d1478	-0.017221674
136	0x3be8d870	0.0071058795
137	0xbac454ee	-0.0014978924
138	0x3ccf5eb5	0.025313715
139	0x3aa2043f	0.0012360885
140	0x3c46b761	0.012128682
141	0xba9b203b	-0.0011835167
142	0x3b95433c	0.004555134
143	0xbb93d2e1	-0.0045112227
144	0xbc88474e	-0.016635563
145	0x3b97984e	0.0046263104
146	0xbb91a268	-0.004444409
147	0xbc4a97f3	-0.012365329
148	0x3c95169d	0.01819926
149	0x3b1fa555	0.002436002
150	0xbc01b1fa	-0.007915968
151	0xbbd79b29	-0.006579776
152	0xbc57b1fa	-0.0131649915
153	0xbc3e25b3	-0.011605668
154	0x3c16f282	0.009213092
155	0xbc3c454e	-0.011491133
156	0x3c88f8ed	0.01672026
157	0x3c620c25	0.013796841
158	0x3b3adb90	0.0028512217
159	0xba7dbb36	-0.00096790807
160	0xbc3bed23	-0.011470112
161	0x3c6844c3	0.01417655
162	0xbb887e5c	-0.004165454
163	0x3bc2c5a5	0.005943971
164	0xbc69a7d6	-0.014261207
165	0xbba8112c	-0.005129
166	0xbccb6322	-0.024827544
167	0xbcafb495	-0.021448413
168	0xbc6e2f55	-0.014537652
169	0x3bb713e7	0.0055870893
170	0xbc742d40	-0.014903367
171	0xbbd81014	-0.0065937135
172	0x3b8e0224	0.0043337513
173	0xbbda49c9	-0.006661628
174	0xbc8798b8	-0.016552314
175	0x3b9ebf49	0.0048445803
176	0xbbb8917f	-0.005632579
177	0xbaf4e30d	-0.0018683389
178	0xbc329f9b	-0.010902311
179	0xbc93eabe	-0.01805627
180	0x3c589619	0.01321938
181	0xbbd65ad9	-0.0065415916
182	0x3b94d585	0.004542055
183	0xbb7ebb40	-0.0038868934
184	0xbbbe6b6c	-0.0058111455
185	0x3bdfb3ed	0.0068268687
186	0x3b14cbcb	0.0022704478
187	0xbb486f7e	-0.0030584033
188	0xbc226395	-0.0099114375
189	0x3c41b370	0.011822566
190	0xbb6537d8	-0.0034975912
191	0x3a7eff39	0.0009727362
192	0x3c147c1d	0.009062794
193	0xbc8523da	-0.016252447
194	0xbbedcc5d	-0.007257028
195	0xbaa03879	-0.0012223861
196	0xbc6610ab	-0.01404206
197	0x3a1829cd	0.00058045686
198	0xbb99a82e	-0.004689238
199	0xbbf1a76e	-0.0073746955
200	0xbbb2f825	-0.00546171
201	0xbb838ec5	-0.004014822
202	0x3b06ed02	0.0020588045
203	0xbbf93d84	-0.00760621
204	0x3c23b752	0.009992437
205	0xbbac52e7	-0.005258906
206	0xbb2d06bc	-0.002640172
207	0x3ac6262c	0.0015117577
208	0x3c103239	0.0088010365
209	0x3b6eaf80	0.0036420524
210	0x3bc27690	0.005934544
211	0x3c1ab2b6	0.009442022
212	0x3a8597c9	0.001019233
213	0xba83a350	-0.0010043178
214	0x3c21996e	0.009863241
215	0x39a27a1d	0.0003099003
216	0xb949235c	-0.00019182026
217	0xbc7335f6	-0.014844408
218	0x3bc1413f	0.0058976705
219	0x3c39aa1e	0.011332063
220	0x3aa12e88	0.0012297193
221	0x3a758db6	0.0009367125
222	0xbb15e9c7	-0.0022874938
223	0xbb04804f	-0.002021808
224	0x3bc17ce9	0.005904783
225	0xbc75e0cc	-0.015007209
226	0xbc2b14dc	-0.010441985
227	0xbbd8bda1	-0.0066144024
228	0x3c491352	0.012272673
229	0x3bbb820c	0.00572229
230	0x3b3baaa0	0.0028635636
231	0x3c0a8a97	0.008455894
232	0x3cc2542a	0.023721773
233	0x3c00fb9c	0.007872488
234	0x3c6d288c	0.014474999
235	0x3b1b8331	0.002372932
236	0xbcc8cdfa	-0.02451228
237	0x39382e28	0.00017564802
238	0x3bdbb0ac	0.0067044105
239	0x3c214782	0.009843709
240	0xbb8adb9e	-0.004237606
241	0x3b955cd3	0.0045581846
242	0x3bf73cc1	0.007545084
243	0x3b7dd476	0.0038731373
244	0x3c8feff1	0.017570468
245	0xbb164d0f	-0.0022934114
246	0xbb3eeb38	-0.00291319
247	0x3a5398eb	0.0008071798
248	0x3c1cabf0	0.0095624775
249	0x3a43fc36	0.0007476242
250	0xbaae37f1	-0.0013291818
251	0xbbb8437e	-0.00562328
252	0xbbfa8594	-0.0076453183
253	0xbb2fa8d5	-0.0026803513
254	0xbbd43310	-0.0064758137
255	0xbc327fb9	-0.010894709

action_model._discrete_distribution.branches.0.bias f4 [5]
0	0x3a5fdac3	0.0008539373
1	0xbad19981	-0.0015991182
2	0x3b47b523	0.0030472956
3	0x3a4bb12e	0.0007770237
4	0xbabac391	-0.0014248957

exp_avg f4 [128, 6]
0	0xb84eb28c	-4.9280512e-05
1	0xb233b1d6	-1.04596065e-08
2	0x37928608	1.746697e-05
3	0x38de7117	0.000106068495
4	0x00000000	0.0
5	0x39201b08	0.00015268859
6	0xb855d3d0	-5.0980423e-05
7	0x31a91858	4.921315e-09
8	0xb79d306e	-1.873841e-05
9	0x37b3ff79	2.1457427e-05
10	0x00000000	0.0
11	0x38018e55	3.0888554e-05
12	0x39211eb9	0.00015365602
13	0x329e8331	1.845328e-08
14	0x381fc6b4	3.809361e-05
15	0x3769226c	1.3895897e-05
16	0x00000000	0.0
17	0x37a7cd40	2.0003528e-05
18	0xb981a262	-0.00024725782
19	0xb29fe6ae	-1.8614937e-08
20	0xb7530990	-1.25788065e-05
21	0xb6ce5a10	-6.149763e-06
22	0x00000000	0.0
23	0xb7148660	-8.852774e-06
24	0xb8084143	-3.2485706e-05
25	0x32a06796	1.8673557e-08
26	0xb82a31c4	-4.0577506e-05
27	0x381c0b06	3.7203565e-05
28	0x00000000	0.0
29	0x3860a0e2	5.3555596e-05
30	0xb82e1b1b	-4.1510077e-05
31	0x3106ee70	1.9635102e-09
32	0xb7fb5bb4	-2.9964234e-05
33	0x371194fc	8.677362e-06
34	0x00000000	0.0
35	0x375191c8	1.2491313e-05
36	0xb6bb88ce	-5.5889604e-06
37	0xaf858087	-2.4283883e-10
38	0xb64870d9	-2.9868008e-06
39	0x36816172	3.8558437e-06
40	0x00000000	0.0
41	0x36ba3f40	5.5505952e-06
42	0x39b3d22c	0.0003429813
43	0xb32c3a1f	-4.009973e-08
44	0x39317226	0.00016922559
45	0xb9543bd5	-0.00020240185
46	0x00000000	0.0
47	0xb998c218	-0.0002913631
48	0xb6061036	-1.9976992e-06
49	0x2d849918	1.507465e-11
50	0xb5a0ed4c	-1.1989991e-06
51	0x367ba7b0	3.7499522e-06
52	0x00000000	0.0
53	0x36b521d9	5.3981607e-06
54	0xb8e0397e	-0.00010691861
55	0xb2059abc	-7.776801e-09
56	0xb922bd0f	-0.00015519954
57	0x38ccf126	9.7723954e-05
58	0x00000000	0.0
59	0x39138288	0.00014067639
60	0x399ab3ef	0.0002950723
61	0xb292d509	-1.7093514e-08
62	0x391a3af5	0.00014708548
63	0xb966405c	-0.00021958485
64	0x00000000	0.0
65	0xb9a5ba06	-0.0003160985
66	0xb8aeb357	-8.330371e-05
67	0xb15cf362	-3.215256e-09
68	0x379b96ee	1.8547722e-05
69	0x37ed9c4a	2.832538e-05
70	0x00000000	0.0
71	0x382b05f9	4.077514e-05
72	0xb5152423	-5.555941e-07
73	0x306f3f29	8.703745e-10
74	0x36a89ada	5.0248173e-06
75	0xb6c9968c	-6.0077928e-06
76	0x00000000	0.0
77	0xb711188a	-8.648387e-06
78	0xb96cbe91	-0.00022577705
79	0x33a11dce	7.502568e-08
80	0xb933befe	-0.0001714192
81	0x3914f25a	0.00014204663
82	0x00000000	0.0
83	0x395669b4	0.00020448008
84	0xb5847b49	-9.870647e-07
85	0x2fba7969	3.391947e-10
86	0x34f30c4a	4.527122e-07
87	0x34a988de	3.1578287e-07
88	0x00000000	0.0
89	0x34f40cd5	4.5457878e-07
90	0x381c9776	3.7334357e-05
91	0xb232ce4a	-1.0407868e-08
92	0xb899cd6e	-7.333873e-05
93	0x398c3090	0.00026739063
94	0x00000000	0.0
95	0x39c9ce98	0.00038491632
96	0xb77985ae	-1.4872681e-05
97	0x30b84bb3	1.3409277e-09
98	0xb6d86a90	-6.449707e-06
99	0x369f457e	4.746659e-06
100	0x00000000	0.0
101	0x36e54690	6.8329464e-06
102	0xb6ae4480	-5.1935785e-06
103	0xaea33f7c	-7.423659e-11
104	0xb7944bdc	-1.76783e-05
105	0x36d6ee53	6.4054416e-06
106	0x00000000	0.0
107	0x371ab314	9.22081e-06
108	0xb8df0772	-0.000106348554
109	0x31e9d038	6.8048642e-09
110	0xb81e4607	-3.7735354e-05
111	0x389f1cc6	7.58707e-05
112	0x00000000	0.0
113	0x38e50bf0	0.000109217945
114	0x386f2749	5.7018628e-05
115	0x321b0088	9.022308e-09
116	0x385261c7	5.0158964e-05
117	0xb7ca101a	-2.4087774e-05
118	0x00000000	0.0
119	0xb8117007	-3.4675028e-05
120	0x35530884	7.861602e-07
121	0xaf0239e0	-1.1843992e-10
122	0x3633f850	2.6817615e-06
123	0xb7e1a456	-2.6898615e-05
124	0x00000000	0.0
125	0xb82268b2	-3.8721315e-05
126	0xb63f801a	-2.8535783e-06
127	0x2f3dae0d	1.7251285e-10
128	0xb657743f	-3.210516e-06
129	0x3682bdff	3.8964204e-06
130	0x00000000	0.0
131	0x36bc34ff	5.609006e-06
132	0xb599b20d	-1.1451208e-06
133	0x3038005a	6.693931e-10
134	0xb634b9b1	-2.6930177e-06
135	0xb57018a2	-8.944281e-07
136	0x00000000	0.0
137	0xb5acd010	-1.2875553e-06
138	0x34889a8e	2.5444427e-07
139	0xae04fe62	-3.0239262e-11
140	0xb579feb6	-9.313038e-07
141	0x34215efc	1.5028849e-07
142	0x00000000	0.0
143	0x34684c6a	2.1634483e-07
144	0xb67c64c0	-3.760957e-06
145	0xb3393f11	-4.3131028e-08
146	0xb8235124	-3.8937796e-05
147	0x368684b8	4.0089617e-06
148	0x00000000	0.0
149	0x36c1a4a0	5.771013e-06
150	0xb64add8e	-3.0229307e-06
151	0x2f3cdfb0	1.717797e-10
152	0xb64966ec	-3.0011242e-06
153	0x3575522c	9.138919e-07
154	0x00000000	0.0
155	0x35b092b4	1.3155718e-06
156	0x383f22d8	4.55704e-05
157	0xb2ea8458	-2.7301368e-08
158	0x391dbb28	0.00015042408
159	0xb91f409e	-0.00015187493
160	0x00000000	0.0
161	0xb9653f92	-0.00021862824
162	0xb5e7effc	-1.7280686e-06
163	0xb0c5b5b4	-1.438528e-09
164	0xb7739aa5	-1.4519935e-05
165	0x37aca2f8	2.0579886e-05
166	0x00000000	0.0
167	0x37f883e3	2.9625318e-05
168	0xb7ddca5e	-2.6439488e-05
169	0x300f97f6	5.2239046e-10
170	0xb72f4464	-1.0446736e-05
171	0x36915026	4.3306673e-06
172	0x00000000	0.0
173	0x36d12eae	6.2341196e-06
174	0x37338ff6	1.070275e-05
175	0x31ec3af0	6.8752044e-09
176	0x3832f3c8	4.2665546e-05
177	0xb5c0e368	-1.4371299e-06
178	0x00000000	0.0
179	0xb60ad560	-2.0687803e-06
180	0x39ec2438	0.00045040413
181	0xb318dee8	-3.559299e-08
182	0x39968d0e	0.00028715323
183	0xb98715a3	-0.00025765327
184	0x00000000	0.0
185	0xb9c2753a	-0.00037089904
186	0x397ba104	0.00023997208
187	0xb295836e	-1.740565e-08
188	0x3816ac52	3.5923273e-05
189	0xb8d18aa6	-9.991722e-05
190	0x00000000	0.0
191	0xb916d20e	-0.00014383366
192	0x388c5612	6.691752e-05
193	0xb0cc32fe	-1.4857446e-09
194	0x3820b008	3.8310915e-05
195	0x38c12b54	9.211028e-05
196	0x00000000	0.0
197	0x390b0949	0.00013259532
198	0xb6514048	-3.1180844e-06
199	0xb150ac6c	-3.0365994e-09
200	0x37705b54	1.4326379e-05
201	0xb753cb76	-1.2623952e-05
202	0x00000000	0.0
203	0xb7987132	-1.8172523e-05
204	0xb7c9e25a	-2.406647e-05
205	0x3009c504	5.0120286e-10
206	0xb78827d2	-1.6231006e-05
207	0x3682a478	3.8934486e-06
208	0x00000000	0.0
209	0x36bc103f	5.604728e-06
210	0x3903e1b4	0.00012577215
211	0xb213098c	-8.558697e-09
212	0x3881f18f	6.196193e-05
213	0xb86f2efe	-5.7025805e-05
214	0x00000000	0.0
215	0xb8ac27e0	-8.2090264e-05
216	0xb9ac77a0	-0.00032895524
217	0x337b8030	5.8557077e-08
218	0xb95c6de2	-0.0002102177
219	0x396e376d	0.00022718096
220	0x00000000	0.0
221	0x39ab75ad	0.00032703337
222	0xb769e92b	-1.3942171e-05
223	0x3187fe6e	3.9579424e-09
224	0xb70b9cfc	-8.321596e-06
225	0x36ea95cc	6.991182e-06
226	0x00000000	0.0
227	0x3728d892	1.00640045e-05
228	0x369632ed	4.476277e-06
229	0x2fc666fb	3.6089162e-10
230	0x348aeab9	2.5875286e-07
231	0x374a6730	1.20641635e-05
232	0x00000000	0.0
233	0x3791aeb6	1.7366703e-05
234	0x39b96acb	0.00035365517
235	0xb31ba2bd	-3.623676e-08
236	0x3951430a	0.00019956767
237	0xb91098fc	-0.00013789901
238	0x00000000	0.0
239	0xb9502700	-0.00019850954
240	0xb8101657	-3.435308e-05
241	0xb144a542	-2.8615692e-09
242	0xb8364ea0	-4.3465407e-05
243	0x37a0cb62	1.9168194e-05
244	0x00000000	0.0
245	0x37e777d4	2.7593145e-05
246	0x39d6d502	0.00040975964
247	0xb3072900	-3.1469426e-08
248	0x3931ee35	0.00016968774
249	0xb9153f52	-0.00014233336
250	0x00000000	0.0
251	0xb956d87e	-0.0002048928
252	0xb7c5d0c8	-2.3581451e-05
253	0x30e45060	1.6612027e-09
254	0xb6ebf1be	-7.0316883e-06
255	0xb66dd214	-3.5438034e-06

exp_avg_sq f4 [128, 6]
0	0x33963e17	6.9962134e-08
1	0x25df9b45	3.8789548e-16
2	0x338b51f8	6.487602e-08
3	0x32db70cc	2.554625e-08
4	0x00000000	0.0
5	0x33635df2	5.2938e-08
6	0x328bf635	1.6293692e-08
7	0x2551c679	1.8195105e-16
8	0x326c4512	1.3752713e-08
9	0x31d9d50c	6.339752e-09
10	0x00000000	0.0
11	0x3261b34d	1.3137492e-08
12	0x330deb40	3.304308e-08
13	0x25bdcd5b	3.2925428e-16
14	0x32fec9df	2.9661292e-08
15	0x3275d2fe	1.4308851e-08
16	0x00000000	0.0
17	0x32feb41a	2.9651392e-08
18	0x343e799c	1.773937e-07
19	0x26bfafeb	1.330097e-15
20	0x34299479	1.5793366e-07
21	0x3395c715	6.974566e-08
22	0x00000000	0.0
23	0x341b300c	1.4452979e-07
24	0x3367c090	5.3959013e-08
25	0x25c9991e	3.4971698e-16
26	0x332ac503	3.976039e-08
27	0x32a6bb7d	1.9410203e-08
28	0x00000000	0.0
29	0x332cc13e	4.0222623e-08
30	0x2ff961fe	4.5362464e-10
31	0x222561dc	2.2413476e-18
32	0x308e5fc3	1.0359077e-09
33	0x3107399b	1.967783e-09
34	0x00000000	0.0
35	0x318c1c01	4.07772e-09
36	0x2d8c654f	1.5961147e-11
37	0x1fd19082	8.875401e-20
38	0x2d52e6c6	1.198836e-11
39	0x2d1f7ac1	9.0653604e-12
40	0x00000000	0.0
41	0x2da53d6f	1.878561e-11
42	0x33c06433	8.958923e-08
43	0x261a4df5	5.3535135e-16
44	0x33a67a1f	7.752191e-08
45	0x3303d44c	3.0693897e-08
46	0x00000000	0.0
47	0x3388974d	6.360515e-08
48	0x2cbf78aa	5.441943e-12
49	0x1f71a8ea	5.1173458e-20
50	0x2cf6cc71	7.014438e-12
51	0x2cb1a54f	5.0489955e-12
52	0x00000000	0.0
53	0x2d380ffb	1.04627374e-11
54	0x315e7a07	3.2374616e-09
55	0x244b3ca7	4.4069983e-17
56	0x32629da0	1.3190771e-08
57	0x31961561	4.368005e-09
58	0x00000000	0.0
59	0x321b8130	9.051561e-09
60	0x33ad6753	8.074735e-08
61	0x260f722a	4.976781e-16
62	0x33947b25	6.914187e-08
63	0x3302032c	3.027087e-08
64	0x00000000	0.0
65	0x3386b55d	6.272851e-08
66	0x3344932a	4.576865e-08
67	0x25702195	2.082806e-16
68	0x331d45e5	3.661798e-08
69	0x326f229e	1.3919502e-08
70	0x00000000	0.0
71	0x32f7c5dc	2.884456e-08
72	0x2f3ec30e	1.7349697e-10
73	0x2204ffa5	1.8024673e-18
74	0x2f85c0a6	2.4329444e-10
75	0x2f000b93	1.1645644e-10
76	0x00000000	0.0
77	0x2f84ab94	2.4132574e-10
78	0x34917448	2.709296e-07
79	0x273c8054	2.6159808e-15
80	0x3488e563	2.5498875e-07
81	0x33f4cc84	1.13993366e-07
82	0x00000000	0.0
83	0x347da426	2.3622178e-07
84	0x2ce86224	6.6047324e-12
85	0x1f4c5c50	4.327504e-20
86	0x2cb044f5	5.0098766e-12
87	0x2c411f3f	2.7444295e-12
88	0x00000000	0.0
89	0x2cc81906	5.68712e-12
90	0x32216acc	9.395716e-09
91	0x2528e0f7	1.4647898e-16
92	0x333d94c7	4.4140304e-08
93	0x32f2c010	2.8259848e-08
94	0x00000000	0.0
95	0x337b84bd	5.8561216e-08
96	0x2f94c678	2.7062064e-10
97	0x21ec5a54	1.6015892e-18
98	0x2f6c2e19	2.1480452e-10
99	0x2eb6329d	8.2853925e-11
100	0x00000000	0.0
101	0x2f3cc75d	1.7169328e-10
102	0x2f765ba0	2.2406121e-10
103	0x22334298	2.4294278e-18
104	0x301a8c63	5.6224375e-10
105	0x2f84e7da	2.41754e-10
106	0x00000000	0.0
107	0x3009b4cf	5.0097254e-10
108	0x328b3a4e	1.6208244e-08
109	0x2514a96f	1.289436e-16
110	0x330f4c38	3.3364103e-08
111	0x32bf2bbf	2.225522e-08
112	0x00000000	0.0
113	0x33461376	4.6118167e-08
114	0x325bb37f	1.278829e-08
115	0x2502e5e2	1.135359e-16
116	0x32488fc2	1.1674219e-08
117	0x31a016ea	4.659218e-09
118	0x00000000	0.0
119	0x3225df3a	9.65502e-09
120	0x2c030c7a	1.8623146e-12
121	0x1ee1f1e8	2.3922852e-20
122	0x2d2e3ce1	9.904273e-12
123	0x2f425eb6	1.7677845e-10
124	0x00000000	0.0
125	0x2fc963fe	3.6632736e-10
126	0x2b2d1fd1	6.15061e-13
127	0x1de1ff0f	5.982073e-21
128	0x2bf6e615	1.7543212e-12
129	0x2c8ecb8c	4.058481e-12
130	0x00000000	0.0
131	0x2d13f3f2	8.410149e-12
132	0x2d95c083	1.7024831e-11
133	0x204f33da	1.7550738e-19
134	0x2df207da	2.7515702e-11
135	0x2d9002de	1.6372178e-11
136	0x00000000	0.0
137	0x2e153683	3.3927094e-11
138	0x2c7f98f9	3.6322596e-12
139	0x1efd8a72	2.6844677e-20
140	0x2cbbdbcc	5.339262e-12
141	0x2c16957c	2.1399263e-12
142	0x00000000	0.0
143	0x2c9c05e9	4.434443e-12
144	0x33ca1710	9.410553e-08
145	0x265267a8	7.2998866e-16
146	0x3375bc63	5.7214844e-08
147	0x32db0db5	2.5501189e-08
148	0x00000000	0.0
149	0x3362f740	5.2844598e-08
150	0x2c681c41	3.2984867e-12
151	0x1f2e7b77	3.694806e-20
152	0x2d3141b1	1.00758716e-11
153	0x2e298906	3.8547852e-11
154	0x00000000	0.0
155	0x2eafa8b1	7.988044e-11
156	0x3283323c	1.5273251e-08
157	0x2593f5e5	2.566706e-16
158	0x32805491	1.4939618e-08
159	0x3201b47c	7.549826e-09
160	0x00000000	0.0
161	0x328663d9	1.5645059e-08
162	0x30f060e0	1.7489832e-09
163	0x23a13681	1.7478738e-17
164	0x310e2168	2.0682709e-09
165	0x306a0315	8.5133084e-10
166	0x00000000	0.0
167	0x30f276f4	1.7641626e-09
168	0x306df53b	8.656859e-10
169	0x22878187	3.6728966e-18
170	0x30108aee	5.2584326e-10
171	0x2f886c40	2.4815172e-10
172	0x00000000	0.0
173	0x300d59bd	5.1423027e-10
174	0x3174819e	3.5580352e-09
175	0x248e00db	6.158413e-17
176	0x328269d0	1.518211e-08
177	0x31f44389	7.1090125e-09
178	0x00000000	0.0
179	0x327d1632	1.4731585e-08
180	0x341f4115	1.4831706e-07
181	0x265bc1a9	7.6243347e-16
182	0x33d28d67	9.804608e-08
183	0x332b38a2	3.9865547e-08
184	0x00000000	0.0
185	0x33b167e2	8.261101e-08
186	0x33e9d93e	1.0889424e-07
187	0x263a454e	6.462564e-16
188	0x33fdfb7c	1.1826975e-07
189	0x334927fd	4.683533e-08
190	0x00000000	0.0
191	0x33d06c0b	9.705408e-08
192	0x311b03e2	2.2557676e-09
193	0x2422ed55	3.532918e-17
194	0x3244287a	1.1417905e-08
195	0x31f74dde	7.1974986e-09
196	0x00000000	0.0
197	0x32801e4d	1.491494e-08
198	0x309903d5	1.1133304e-09
199	0x23168c00	8.1611624e-18
200	0x307cd8dd	9.1985247e-10
201	0x2fe9d737	4.2535372e-10
202	0x00000000	0.0
203	0x30724981	8.814354e-10
204	0x2ec8c55c	9.130005e-11
205	0x21447d06	6.657285e-19
206	0x2ebfc00e	8.71979e-11
207	0x2e7ed228	5.793957e-11
208	0x00000000	0.0
209	0x2f04033d	1.200648e-10
210	0x32e413e8	2.6551746e-08
211	0x258e7836	2.4714531e-16
212	0x3302260b	3.0302584e-08
213	0x32529778	1.2258049e-08
214	0x00000000	0.0
215	0x32da32cb	2.5401638e-08
216	0x33f418bf	1.1366637e-07
217	0x26cc7b88	1.4188827e-15
218	0x34160a2a	1.3973536e-07
219	0x337fbfe4	5.9546338e-08
220	0x00000000	0.0
221	0x34047e63	1.2339437e-07
222	0x2f8a212c	2.5125624e-10
223	0x22814c00	3.504599e-18
224	0x2f2abc13	1.5528227e-10
225	0x2e980ec9	6.914786e-11
226	0x00000000	0.0
227	0x2f1d8cd4	1.4329099e-10
228	0x2e4a45ad	4.5991367e-11
229	0x20cc1081	3.4569866e-19
230	0x2e709d0b	5.4709164e-11
231	0x2ef471d8	1.1116058e-10
232	0x00000000	0.0
233	0x2f7d462e	2.3035149e-10
234	0x34511aed	1.9474437e-07
235	0x270025b9	1.7784018e-15
236	0x343b5c7a	1.7449375e-07
237	0x33ab6701	7.981544e-08
238	0x00000000	0.0
239	0x343197e8	1.6539673e-07
240	0x30514a28	7.613914e-10
241	0x2328c9c6	9.1500254e-18
242	0x30da3d9c	1.5879098e-09
243	0x300e368d	5.173682e-10
244	0x00000000	0.0
245	0x30935996	1.072112e-09
246	0x34403b5a	1.7902985e-07
247	0x2680a193	8.925579e-16
248	0x34187915	1.4200153e-07
249	0x33744c51	5.6880086e-08
250	0x00000000	0.0
251	0x33fd1f50	1.1786926e-07
252	0x3084195e	9.611474e-10
253	0x22c5cbff	5.3612946e-18
254	0x30696151	8.49032e-10
255	0x3051e80b	7.636351e-10
