Project/Assets/ML-Agents/Examples/MyTest/Scripts/TFModels/MyTest1Models/Test12/MoveToGoal/checkpoint.pt (torch, 451554 bytes, 42 tensors)

network_body._body_endoder.seq_layers.0.weight f4 [128, 6]
0	0xbdf264a9	-0.11835606
1	0xbeca5868	-0.39520574
2	0x3f225aa8	0.6341958
3	0x3e6aea62	0.22940972
4	0x3c228441	0.009919227
5	0x3eceb99e	0.4037599
6	0xbea5012e	-0.32227463
7	0x3f393702	0.7234956
8	0xbed62820	-0.41827488
9	0xbf1c4f78	-0.6105876
10	0xbf189294	-0.5959866
11	0x3d715a84	0.058924213
12	0x3f483509	0.78205925
13	0x3e4ab7f2	0.19796732
14	0x3e301397	0.17194973
15	0x3f4bb749	0.79576546
16	0x3dd199df	0.10234427
17	0xbeb73539	-0.35782793
18	0xbe706b44	-0.23478419
19	0xbdb9825e	-0.09058069
20	0x3e81eae6	0.25374526
21	0x3e8e0904	0.27741253
22	0x3d08758b	0.033315223
23	0xbef6b1ad	-0.4818243
24	0xbec5c4f0	-0.38626814
25	0xbe1b24c8	-0.1515075
26	0x3f14dee4	0.58152604
27	0x3f3fd8f3	0.74940413
28	0xbe4fb125	-0.20282419
29	0x3e83392b	0.25629553
30	0xbe11060a	-0.1416246
31	0xbe691f2e	-0.227658
32	0x3f11acb4	0.5690415
33	0x3f321b37	0.69572777
34	0xbef1eeea	-0.4725259
35	0x3f238920	0.6388111
36	0x3c880c8b	0.016607543
37	0xbea0429a	-0.31300813
38	0xbe3b3e30	-0.18285441
39	0x3ecb61f2	0.39723164
40	0x3e81ceda	0.25353128
41	0xbf5a2d27	-0.85225147
42	0xbec08ac3	-0.37605867
43	0x3f8e3fdd	1.111324
44	0xbe0e5693	-0.13900213
45	0x3edddaf5	0.43331113
46	0xbed4da26	-0.41572684
47	0x3ecea97c	0.4036368
48	0x3df9d412	0.12198652
49	0xbf02df66	-0.5112213
50	0x3dbe4347	0.09290176
51	0xbefc6b7b	-0.4930075
52	0x3e81636e	0.2527117
53	0x3e7ac74e	0.24490091
54	0xbe16419a	-0.14673463
55	0xbf321b07	-0.6957249
56	0x3e862ea5	0.26207462
57	0x3ec37153	0.38172397
58	0x3ef45107	0.4771807
59	0xbe9b9ae6	-0.30391616
60	0xbe57c97d	-0.21072955
61	0xbea56588	-0.32304025
62	0xbf1fe711	-0.62461954
63	0xbf779247	-0.96707577
64	0x3d9513dd	0.07279179
65	0xbe7e6700	-0.24843979
66	0xbe2ff97e	-0.17185017
67	0xbee4df61	-0.44701675
68	0x3e80b2c0	0.25136375
69	0x3eb4a1ee	0.35279793
70	0x3e778384	0.24171263
71	0x3f3407db	0.70324486
72	0xbcaa56df	-0.020793376
73	0xbde512ad	-0.11185203
74	0x3dd97fab	0.10620054
75	0xbe33d285	-0.17560776
76	0x3e193c42	0.14964393
77	0x3d26c8e3	0.040718924
78	0xbf22b419	-0.6355606
79	0x3dc6f37b	0.09714409
80	0xbe8b0556	-0.27152508
81	0x3e967cb5	0.2939202
82	0x3d253788	0.04033616
83	0x3f04025c	0.515661
84	0xbd9b0ba4	-0.0757058
85	0xbd0c9fa4	-0.034331933
86	0x3eed5a4c	0.46357954
87	0xbe86a3ff	-0.26296994
88	0x3f2de907	0.67933697
89	0xbeb1d293	-0.34730968
90	0x3f28eda8	0.65987635
91	0xbe29ae45	-0.16570385
92	0xbe65ed95	-0.22453912
93	0xbed53e0c	-0.416489
94	0xbeb976a6	-0.36223334
95	0xbede0d51	-0.43369535
96	0xbe29ee50	-0.16594815
97	0x3f15b8da	0.58485186
98	0x3f3347ef	0.70031637
99	0xbe86e0b5	-0.26343313
100	0x3f09bf6f	0.5380773
101	0xbda9c3c5	-0.08289293
102	0x3f0caa63	0.5494749
103	0xbcd56e37	-0.026053531
104	0x3f381c23	0.71917933
105	0xbd60680d	-0.05478673
106	0xbf460499	-0.77350765
107	0x3e857a41	0.26069835
108	0xbe46dea2	-0.19420865
109	0x3d6d6229	0.05795494
110	0x3d705622	0.058675893
111	0x3f40d6a1	0.753275
112	0xbe6102de	-0.2197375
113	0xbe870b89	-0.26375988
114	0x3e6c3e5c	0.23070663
115	0x3e39589a	0.18100205
116	0xbcc1add2	-0.023642454
117	0xbdfaef89	-0.12252719
118	0xbf2a8f8f	-0.66625303
119	0x3f294773	0.6612465
120	0xbf3d58af	-0.73963445
121	0x3d8e07d4	0.06935087
122	0x3f083d15	0.53218204
123	0x3f1781c1	0.59182364
124	0x3f0558c8	0.52088594
125	0xbe9e1332	-0.3087402
126	0xbed728dd	-0.42023364
127	0x3f65221d	0.8950518
128	0xbb2dadba	-0.0026501254
129	0x3e878b96	0.26473683
130	0xbf14fdd5	-0.58199817
131	0x3f03d378	0.5149455
132	0xbebf54bc	-0.37369335
133	0xbe69f730	-0.22848201
134	0xbec68259	-0.38771322
135	0x3ec09147	0.37610838
136	0xbe8aacd5	-0.27084985
137	0xbd2304fc	-0.039799675
138	0xbd87da17	-0.06633394
139	0xbef33f87	-0.47509405
140	0xbedfb702	-0.4369431
141	0xbcf3fef8	-0.029784665
142	0xbe5ef5c9	-0.21773447
143	0x3f108d88	0.5646596
144	0xbe9a0615	-0.30082765
145	0xbde4499c	-0.111468524
146	0xbe8959e0	-0.26826382
147	0x3f31bfb3	0.69433135
148	0x3e17d408	0.14826977
149	0x3d67d440	0.0565989
150	0x3ec79770	0.38982725
151	0xbe5fe395	-0.2186416
152	0x3e808b02	0.25106055
153	0xbd7c7230	-0.061632335
154	0x3eb61f32	0.35570675
155	0xbd6328e4	-0.05545892
156	0xbe295ed4	-0.1654008
157	0x3e348208	0.17627728
158	0xbf244ba4	-0.6417792
159	0xbe792170	-0.24329162
160	0xbd620029	-0.055175934
161	0x3f0f31f3	0.5593559
162	0x3db045c0	0.08607054
163	0x3d49b0bc	0.049240813
164	0x3eecf6b4	0.4628197
165	0x3f5ab01e	0.85424984
166	0xbea101c7	-0.31446669
167	0xbdc253d1	-0.09488643
168	0xbe97633f	-0.29567906
169	0x3ebe15cc	0.37126005
170	0x3eb8e396	0.36111134
171	0x3ec34764	0.38140404
172	0xbe76647c	-0.24061769
173	0xbe1161e9	-0.14197506
174	0xbe5b1bd5	-0.21397336
175	0xbe1ed5d5	-0.15511258
176	0xbe70e6e8	-0.23525584
177	0xbd9c9a89	-0.07646663
178	0xbdaf7eb1	-0.08569086
179	0x3f06f0aa	0.52710974
180	0x3e688553	0.22707109
181	0xbdf872bf	-0.12131261
182	0xbeb2e1b6	-0.3493783
183	0x3ed7363a	0.4203356
184	0xbf0fdcbe	-0.561962
185	0x3d8c6085	0.06854347
186	0xbf6d4891	-0.9268885
187	0xbd6cf055	-0.057846386
188	0xbf34be0c	-0.7060249
189	0xbe8dd20e	-0.27699322
190	0xbc1f42c2	-0.009720506
191	0xbebd6fb0	-0.36999273
192	0x3dd7cab6	0.10536711
193	0xbe525a14	-0.20542175
194	0x3e32191b	0.1739239
195	0x3c68fb53	0.014220077
196	0xbedc4c8e	-0.43027157
197	0xbd8c536d	-0.0685185
198	0x3f0220a5	0.5083106
199	0xbed87692	-0.42277962
200	0xbdd2d9f4	-0.102954775
201	0xbf21d34d	-0.63213044
202	0x3e24d213	0.16095762
203	0xbee5782c	-0.44818246
204	0x3d891c2a	0.06694825
205	0x3fb67bb0	1.4256496
206	0x3e317a34	0.17331773
207	0xbe455d9c	-0.1927399
208	0xbef13d9d	-0.4711732
209	0x3e8ce479	0.2751806
210	0xbf4bbc71	-0.79584414
211	0x3e54235b	0.20716612
212	0x3ec5cbea	0.38632137
213	0xbdd33618	-0.10313052
214	0xbe8d21c8	-0.27564836
215	0xbe8664a7	-0.26248667
216	0xbe1ea928	-0.15494215
217	0x3de3622f	0.111027114
218	0x3e8c51f4	0.27406275
219	0x3f146ea0	0.579813
220	0xbed945cc	-0.42436063
221	0x3e421c10	0.18956017
222	0xbf3d0349	-0.7383314
223	0x3e629710	0.22127938
224	0x3d70dbc7	0.058803346
225	0xbf2b70d0	-0.66969013
226	0x3ea410a2	0.3204394
227	0xbe672cbe	-0.22575662
228	0xbe96063b	-0.29301628
229	0x3cace378	0.02110456
230	0x3f04e544	0.5191233
231	0xbea5deb0	-0.3239646
232	0xbdf92225	-0.12164716
233	0xbecce9fe	-0.40022272
234	0xbf1068f7	-0.56410164
235	0x3e940535	0.28910223
236	0x3ca592f0	0.020211667
237	0xbe8b0d59	-0.2715862
238	0xbc2d9d79	-0.010596626
239	0xbe96857f	-0.29398724
240	0xbd93c8ff	-0.07216071
241	0xbe68b90b	-0.22726838
242	0x3e7b7392	0.24555805
243	0x3f23fe0e	0.6405953
244	0xbf0aae3e	-0.5417212
245	0x3f04a0d1	0.51807886
246	0x3ebde88f	0.3709149
247	0x3f1c69b0	0.61098766
248	0xbec32878	-0.38116813
249	0x3e147891	0.14499117
250	0xbe71e914	-0.23624068
251	0x3ea119ef	0.31465098
252	0xbcf2f32a	-0.029656965
253	0xbbd8d84b	-0.006617581
254	0x3f7eadc8	0.9948392
255	0x3bb31fb8	0.0054664277

network_body._body_endoder.seq_layers.0.bias f4 [128]
0	0xba87c986	-0.0010359741
1	0xba983d3e	-0.0011614931
2	0xba4be1d1	-0.0007777485
3	0xba9fb06d	-0.0012183316
4	0x3a015530	0.00049336534
5	0x3b151d78	0.002275316
6	0xbaa18229	-0.0012322116
7	0xba844785	-0.0010092115
8	0xba609acc	-0.00085679884
9	0xbb0d6426	-0.0021574586
10	0xba5722be	-0.0008206776
11	0x3b055683	0.0020345754
12	0x39bdca0f	0.00036199435
13	0x39459528	0.00018842949
14	0x3a636a90	0.0008675242
15	0x3b1f8af7	0.0024344304
16	0xb8a4ceb0	-7.858628e-05
17	0x3b1c1d48	0.0023821164
18	0xba8a8f68	-0.0010571303
19	0x3889b768	6.566831e-05
20	0xb99500a7	-0.0002841998
21	0x3b587d5d	0.0033033707
22	0x3a3244cc	0.00068004127
23	0xbb2ca513	-0.002634351
24	0x3af64a1a	0.0018790395
25	0xbb4792dc	-0.0030452525
26	0x3ad4fdeb	0.001624999
27	0x3b38558b	0.002812716
28	0xb9ba20ea	-0.00035501207
29	0xbb065c85	-0.0020501923
30	0xba0f7b8b	-0.00054734264
31	0xb9d9b7d7	-0.00041526437
32	0xb9d02f40	-0.00039708056
33	0xba89eced	-0.001052288
34	0xba9853ba	-0.0011621632
35	0x3b4c5538	0.0031178724
36	0x3965d38b	0.00021917948
37	0xbb5add06	-0.00333959
38	0x3a97e6d4	0.0011589178
39	0xbb1be72d	-0.0023788915
40	0xbb0d5c82	-0.0021570032
41	0x38fac4cd	0.00011957586
42	0xb9e9bcc5	-0.00044581867
43	0xb993d745	-0.00028198413
44	0x3aced0d4	0.0015778788
45	0x3ac79042	0.0015225487
46	0xb93a4318	-0.00017763337
47	0x37160d90	8.9438545e-06
48	0xba123b5a	-0.0005578302
49	0xba40f2e2	-0.0007360411
50	0xbaf0016b	-0.001831097
51	0x394ea46e	0.00019706946
52	0xb9a684a6	-0.00031760818
53	0x39bc7edc	0.00035952672
54	0xbb3c0f64	-0.0028695697
55	0x3b4ec7a2	0.0031552096
56	0x3735c90c	1.0835251e-05
57	0xbaff1b6d	-0.001946313
58	0xb9b4fc18	-0.000345201
59	0x39064500	0.0001280494
60	0x3b2f6943	0.0026765622
61	0x39ab5d62	0.00032685237
62	0xbb364e60	-0.0027817711
63	0x3ab32e55	0.0013670424
64	0x3acf8a24	0.0015834016
65	0x3b171ebd	0.0023059093
66	0xbb272aeb	-0.002550776
67	0x3af62118	0.0018778173
68	0x3a222f69	0.0006186874
69	0x3b1ed36f	0.002423491
70	0xbb147df8	-0.002265809
71	0x3a26a4d7	0.00063569605
72	0x38c59152	9.42076e-05
73	0xbb7f1a81	-0.003892571
74	0x3b5e432c	0.003391455
75	0x3adce6d9	0.0016853466
76	0xb871e713	-5.7674082e-05
77	0x3b41383f	0.0029482988
78	0xba0895aa	-0.000521029
79	0x3a05923e	0.0005095339
80	0xb8fba371	-0.00011999056
81	0x3a8751e7	0.0010324091
82	0xba373aac	-0.0006989639
83	0x3aa63ab4	0.001268229
84	0x3a164461	0.0005732235
85	0xbaeb8891	-0.0017969777
86	0xbaf9d674	-0.0019061104
87	0xbaae6c0e	-0.0013307349
88	0xbaa446fd	-0.0012533363
89	0xba32119c	-0.0006792785
90	0x3997795a	0.00028891378
91	0xb9ec3c03	-0.0004505814
92	0x3aa951a7	0.0012918011
93	0xba1da5dc	-0.00060137897
94	0xb9edd69b	-0.00045364056
95	0xbb3528e4	-0.002764278
96	0x3ac119c9	0.0014732416
97	0xba86a543	-0.001027264
98	0xbb01a370	-0.0019781254
99	0x3acd98dc	0.0015685814
100	0xb9970f13	-0.00028812196
101	0xbaed418d	-0.0018101201
102	0x39b596ab	0.00034635267
103	0x3b8f2d52	0.0043694163
104	0x398c3800	0.00026744604
105	0xbb1ae3ee	-0.0023634392
106	0x3a159521	0.0005706121
107	0xbb1ffc74	-0.0024411948
108	0xbb109c75	-0.0022065912
109	0xba75047b	-0.0009346676
110	0xb873b525	-5.810442e-05
111	0xb8a40d0e	-7.822561e-05
112	0xba833765	-0.0010011016
113	0x39126628	0.00013961701
114	0x3b187478	0.002326278
115	0x39b49d97	0.0003444969
116	0x39d6145d	0.00040832433
117	0x3aae9245	0.0013318738
118	0xbaceb7eb	-0.0015771365
119	0xb9d5fb87	-0.00040813928
120	0xb9c16b09	-0.00036891576
121	0xbb3e1b91	-0.002900813
122	0xba2c623e	-0.00065759185
123	0xbaadf89d	-0.0013272945
124	0x3b4383c5	0.002983318
125	0x39e4e3e7	0.0004365735
126	0xbb33a839	-0.00274135
127	0x3a17b0e2	0.00057865505

network_body._body_endoder.seq_layers.2.weight f4 [128, 128]
0	0xbdd1dae3	-0.102468275
1	0xbd12af2e	-0.035811596
2	0xbe260194	-0.1621154
3	0xbe261ba8	-0.16221488
4	0x3d8fc1d5	0.070193924
5	0xbe3437b5	-0.17599376
6	0x3d834e6f	0.064114444
7	0x3d8becd6	0.06832282
8	0x3cdbda24	0.026837416
9	0x3e095a2e	0.13413307
10	0xbcd5363f	-0.026026843
11	0x3d09325a	0.033495285
12	0x3dfdede0	0.12398887
13	0xbe09a175	-0.13440497
14	0xbd2da2d6	-0.04239162
15	0xbda4f5a1	-0.080546625
16	0xbe50f9f7	-0.20407854
17	0x3d297f56	0.041381203
18	0x3df42578	0.11921209
19	0x3c859cce	0.016310122
20	0xbd6213bc	-0.0551946
21	0x3da7632e	0.08173214
22	0xbc3d60c9	-0.01155872
23	0x3c63fa6e	0.013914688
24	0xbc106995	-0.008814235
25	0xbbde4c4d	-0.006783998
26	0xbe2e7059	-0.17035045
27	0x3d64db48	0.055873185
28	0xbe132b6d	-0.14372034
29	0x3db36080	0.0875864
30	0x3d9e4975	0.077288546
31	0xbdb5e032	-0.088806525
32	0xbd4bac05	-0.049724597
33	0xbdc83c57	-0.09777134
34	0xbcf52bcd	-0.029928112
35	0x3d99764a	0.07493265
36	0xbdaa5b3f	-0.08318185
37	0xbd414dfb	-0.04719351
38	0xbcb285ab	-0.021792253
39	0xbc918e8c	-0.017768167
40	0xbca4d777	-0.020122273
41	0xbe269d1a	-0.16270867
42	0x3ba57e27	0.005050439
43	0xbd51e706	-0.05124571
44	0x3d02e64b	0.031957906
45	0xbd693823	-0.0569383
46	0x3e0d7c37	0.13816915
47	0x3d4e4b7f	0.050364967
48	0x3e306d44	0.17229182
49	0x3cccc8d4	0.024998106
50	0x3e2523e6	0.16126975
51	0xbd150fed	-0.03639214
52	0x3d0e8e6c	0.034803793
53	0xbdb3174c	-0.08744678
54	0x3d12ceb5	0.035841662
55	0xbd0959a2	-0.033532746
56	0xbd6c68c3	-0.057717096
57	0x3d90d10d	0.07071123
58	0x3bb20d3c	0.0054337066
59	0xbdb6cb72	-0.08925523
60	0xbdc41999	-0.09575195
61	0xbd9dd98d	-0.0770751
62	0x3d3443ee	0.044010095
63	0xbe6db54c	-0.2321369
64	0xbe8a0748	-0.2695868
65	0xbd96b052	-0.07357849
66	0x3d0638fc	0.03276919
67	0x3db7de2b	0.08977922
68	0x3dc63863	0.09678724
69	0x3da0c8b1	0.07850779
70	0x3e1febaf	0.1561725
71	0x3c92c964	0.017918296
72	0xbd47a0da	-0.048737384
73	0xbc090e67	-0.00836525
74	0xbddb6c6b	-0.107140385
75	0xbc954bb9	-0.018224584
76	0x3d4a5470	0.049396932
77	0xbca9b436	-0.020715814
78	0x3d11f511	0.035634104
79	0xbdbea02f	-0.09307896
80	0x3e0fa793	0.14028768
81	0xbcb13411	-0.021631273
82	0x3e252381	0.16126825
83	0xbd0db450	-0.034595788
84	0x3d1580e4	0.036499873
85	0xbcdc70a7	-0.026909186
86	0x3c882349	0.016618388
87	0x3dfbfb6a	0.12303813
88	0xbb4901ad	-0.0030671165
89	0x3d6c921d	0.057756532
90	0xbd83724c	-0.06418285
91	0x3bb610b1	0.005556189
92	0x3cb68a9f	0.022282897
93	0xbd0a30da	-0.033737995
94	0x3dfd1d99	0.12359161
95	0x3c8a8469	0.016908841
96	0xbcec011c	-0.028809123
97	0xbbfac54a	-0.007652913
98	0x3d754f0a	0.05988983
99	0xbd471bd7	-0.048610535
100	0xbc6c9151	-0.014438943
101	0x3d5d309b	0.054001432
102	0xbddd4fc9	-0.108062334
103	0x3c06c8c3	0.008226576
104	0xbce42f4f	-0.02785459
105	0x3d11e71c	0.035620794
106	0xbc1223d7	-0.008919678
107	0x3d0c7683	0.03429271
108	0x3d5d240f	0.053989466
109	0x3d8c713b	0.068575345
110	0x3ce3f07e	0.027824637
111	0xbdd39c78	-0.103325784
112	0x3ce376e8	0.02776666
113	0xbdd4af50	-0.10385001
114	0x3b2a8442	0.0026018773
115	0xbd5c34bf	-0.05376124
116	0x3dc4f4f6	0.09617035
117	0x3d84c9ef	0.06483828
118	0xbbc31841	-0.005953819
119	0xbd060a13	-0.03272445
120	0xbd2f66d8	-0.04282269
121	0x3d0dfea4	0.034666672
122	0xbd9008b9	-0.07032914
123	0x3dc7fca8	0.09764987
124	0x3c4c8d60	0.012484878
125	0x3e2bcffd	0.1677856
126	0xbd4bf025	-0.049789567
127	0xbda0cac3	-0.07851174
128	0x3c2b4ddb	0.010455574
129	0xbe025b09	-0.1273004
130	0x3c84a861	0.01619357
131	0xbbf5018e	-0.007476992
132	0xbd9bca7b	-0.076069795
133	0xbe047b17	-0.1293758
134	0x3cdc4c66	0.026891898
135	0x3d7b9448	0.06142071
136	0xbdaa1ba9	-0.08306057
137	0x3dfb8d81	0.12282849
138	0x3d3fbd12	0.04681117
139	0xbe31d344	-0.17365748
140	0x3a971294	0.0011525922
141	0xbd9a1c7d	-0.07524965
142	0x3dc11333	0.0942749
143	0x3c992eba	0.018699039
144	0x3e106526	0.14101085
145	0xbe35e336	-0.17762455
146	0xbd9015db	-0.070354186
147	0x3a83927a	0.001003816
148	0xbd95a6bd	-0.073071934
149	0x3db60e76	0.08889477
150	0x3e2dc6cc	0.16970366
151	0x3d21b613	0.03948028
152	0x3dbfb1fe	0.09360121
153	0xbd4bd777	-0.04976603
154	0xbc65234e	-0.013985468
155	0x3de8499d	0.113421656
156	0xbdce9250	-0.10086501
157	0xbdc109da	-0.09425707
158	0x3ca9396d	0.020657266
159	0x3d7278d7	0.059197273
160	0x3d9319c9	0.071826525
161	0xbd96031a	-0.0732481
162	0xbd402a30	-0.046915233
163	0x3ccf905f	0.025337396
164	0x3c90cb15	0.017674962
165	0xbcb77bda	-0.022397924
166	0xbb0ce42c	-0.0021498306
167	0x3caa7536	0.020807844
168	0x3da04507	0.07825666
169	0x3d637a6d	0.055536676
170	0xbdaeaf65	-0.085295476
171	0x3dad7139	0.08468861
172	0xbcc3f284	-0.023919351
173	0xbe0b2b7b	-0.13590805
174	0x3cf641ca	0.030060668
175	0x3dbc1bfd	0.09185026
176	0xbdaf053b	-0.085459195
177	0x3d393adf	0.04522216
178	0xbcf6d19c	-0.030129246
179	0x3b988d7f	0.0046555395
180	0x3dfd6849	0.123734064
181	0x3c71fdd7	0.014769993
182	0xbd330919	-0.043709848
183	0xbcf29029	-0.029609757
184	0x3cc9afaf	0.024619905
185	0xbcd34026	-0.025787424
186	0xbc30f364	-0.010800216
187	0xbcf1739d	-0.029474074
188	0xbe59f414	-0.21284515
189	0xbd92bebd	-0.07165287
190	0xbc7066a5	-0.01467291
191	0xbb43f9b1	-0.0029903466
192	0xbd74e9b8	-0.059793204
193	0xbd4a53aa	-0.049396195
194	0x3dfc5df7	0.1232261
195	0x3d87c28f	0.06628906
196	0x3b8cbffd	0.0042953477
197	0xbc16e1f6	-0.009209147
198	0xbba75a97	-0.0051072347
199	0x3d453f29	0.048155937
200	0x3e02ef25	0.12786539
201	0xbc93254f	-0.017962126
202	0xbdf19a8c	-0.117970556
203	0x3d850d88	0.064967215
204	0xbab2902a	-0.0013623287
205	0x3c4bfe62	0.012450786
206	0x3d3cf063	0.04612769
207	0x3d685313	0.05671985
208	0xbd6b7f5c	-0.057494506
209	0xbd4394ac	-0.047749206
210	0xbcd3b9a0	-0.025845349
211	0x3df440b6	0.11926405
212	0x3e4ef739	0.20211495
213	0xbe160b6f	-0.14652799
214	0xbd62f85e	-0.055412643
215	0x3d6c4770	0.057685316
216	0x3d8eadcd	0.069667436
217	0xbd9e9dcf	-0.07744943
218	0x3e04cb35	0.12968142
219	0xbc2145c2	-0.009843292
220	0xbc0b63b4	-0.008507658
221	0x3cbec84f	0.023288874
222	0xbcc26284	-0.023728617
223	0x3d4c92fc	0.049944863
224	0xbaef1067	-0.0018239141
225	0x3d6d4bd2	0.057933636
226	0x3cb3b625	0.02193744
227	0x3e3ca5e6	0.1842266
228	0x3d56e333	0.052462768
229	0x3d523a05	0.051324863
230	0x3d2e6f39	0.04258654
231	0xbd9bd0a2	-0.07608153
232	0x3bb30f9a	0.0054645063
233	0xbdffeab0	-0.12495935
234	0x3e01ee61	0.1268859
235	0xbd223389	-0.03959993
236	0x3d96f9a5	0.07371835
237	0xbc719e43	-0.014747205
238	0x3dc1588b	0.09440716
239	0x3d68892b	0.05677144
240	0x3d3fe615	0.046850283
241	0x3d113301	0.03544903
242	0xbd077c91	-0.03307778
243	0x3d530b79	0.051524613
244	0xbd8798fd	-0.06620977
245	0xbe927f26	-0.28612632
246	0xb9f65dd5	-0.00046990687
247	0x3b2ee20a	0.0026685023
248	0x3ddaa597	0.10676115
249	0x3cb977f8	0.022640213
250	0x3dddb8e9	0.108262844
251	0xbd6c5b33	-0.05770416
252	0xbd9f647e	-0.07782839
253	0xbe45b424	-0.19307
254	0x3e0d173e	0.13778397
255	0x3c245c90	0.010031834

network_body._body_endoder.seq_layers.2.bias f4 [128]
0	0xbbb97c10	-0.0056605414
1	0xba682781	-0.0008855984
2	0x3af3c697	0.0018598613
3	0x3a8c81f9	0.0010719887
4	0x39810d32	0.0002461463
5	0x39012639	0.00012316638
6	0xbacebe26	-0.0015773221
7	0x3a2fd11f	0.00067068817
8	0xba06b93d	-0.0005139297
9	0x3a0fb172	0.00054814585
10	0xba9449b5	-0.001131347
11	0xbb2ddf19	-0.0026530682
12	0xb9c67a49	-0.00037856612
13	0x3b454108	0.0030098576
14	0xba60a293	-0.00085691473
15	0xb993a69f	-0.00028162167
16	0x3b2917ca	0.0025801533
17	0x3b2ac67a	0.0026058243
18	0xbaab93ae	-0.0013090277
19	0x3a00d7b4	0.0004914955
20	0x3aa2c9f4	0.0012419806
21	0x3b15e1e7	0.0022870244
22	0x3a8fc00f	0.0010967272
23	0x381eaede	3.7832993e-05
24	0xba2cd21c	-0.0006592588
25	0xbaadf77e	-0.0013272611
26	0x386d9d9a	5.665198e-05
27	0xbad79ad3	-0.001644934
28	0x3aab6d1a	0.001307878
29	0xbb04530d	-0.0020191104
30	0x39a4e78f	0.00031453042
31	0x3afe661a	0.0019409091
32	0x3b0dc205	0.0021630537
33	0x3aa48b35	0.0012553694
34	0x39ab6d98	0.00032697315
35	0xb9ca18f1	-0.00038547025
36	0xb934dbf1	-0.00017248072
37	0xba8e38a2	-0.0010850618
38	0x39a19b9e	0.00030824257
39	0xba86e686	-0.001029209
40	0xbb3c7d3e	-0.0028761174
41	0xb929e9de	-0.00016204218
42	0xba987490	-0.0011631418
43	0x3a1c14b3	0.0005954012
44	0x3a367ac9	0.00069610454
45	0x3b1074b2	0.0022042212
46	0x3a471856	0.0007594874
47	0xba1eb08b	-0.00060535286
48	0x3b2f9de8	0.0026797
49	0x3a152644	0.0005689601
50	0xbb43892f	-0.0029836406
51	0x3b3ad4af	0.0028508117
52	0x3a9ba716	0.0011875357
53	0x3a92bfbe	0.001119606
54	0xba0f146f	-0.0005458062
55	0x3852e60e	5.0282157e-05
56	0xba64396e	-0.00087060675
57	0xb791118e	-1.7293522e-05
58	0xb9b840b4	-0.00035143422
59	0x39acb962	0.00032944517
60	0x3b30a7ec	0.0026955558
61	0xb8e1bdaf	-0.000107641674
62	0x3998b609	0.00029127326
63	0x3a925f54	0.0011167326
64	0x3b6048b8	0.0034223031
65	0x3b2ef745	0.0026697677
66	0x39399f33	0.00017702281
67	0xba959baa	-0.0011414189
68	0xbb1c54e6	-0.0023854314
69	0xbaad5c3c	-0.001322634
70	0x3ae910ac	0.0017781458
71	0x3b31f97c	0.002715676
72	0xb9c22fc4	-0.00037038152
73	0xb8a5924b	-7.895062e-05
74	0xbb19b431	-0.002345335
75	0x3aa5c8c9	0.001264834
76	0xbaa7cb7f	-0.0012801735
77	0xb706a282	-8.024859e-06
78	0xb95065cc	-0.00019874348
79	0x393365ae	0.00017108649
80	0x3a3fa977	0.0007311324
81	0xba0e3e02	-0.000542611
82	0xba6a2da5	-0.0008933193
83	0x384a86df	4.828616e-05
84	0x39ed4dcc	0.00045262126
85	0x399ba1ec	0.00029684545
86	0xbb0f776f	-0.0021891256
87	0x3a1ea61c	0.0006051974
88	0x3ac4f795	0.0015027398
89	0xba6d5c24	-0.00090545625
90	0x3ad5f25f	0.0016322843
91	0xba62f422	-0.00086575944
92	0xbaf88e09	-0.0018963228
93	0xba634f65	-0.00086711935
94	0xbb1af88a	-0.0023646676
95	0xb9e5a74f	-0.00043802938
96	0x3955b850	0.00020381925
97	0xb7181c0e	-9.066438e-06
98	0x39f5f62a	0.00046913448
99	0x3b55cf66	0.003262484
100	0xb9f3dac8	-0.00046511577
101	0x3acca135	0.0015612008
102	0xb79fc8f9	-1.9047862e-05
103	0x3abda616	0.0014469053
104	0x39973c90	0.00028846087
105	0xb99d02a7	-0.0002994735
106	0xbae7b7c9	-0.0017678674
107	0x3b3fcbf7	0.002926586
108	0xb9092108	-0.00013077643
109	0x3b496de1	0.003073566
110	0x3a236899	0.0006233543
111	0x3b21c4ab	0.0024683874
112	0xbac7835e	-0.0015221646
113	0xbb265a6a	-0.002538348
114	0x3a476567	0.00076063577
115	0x3b13df2f	0.0022563448
116	0x3b105ad9	0.0022026806
117	0x3a7d5a3c	0.000966463
118	0xb9c182b7	-0.0003690922
119	0x3b4d203c	0.003129973
120	0xbb8bdbe1	-0.004268155
121	0xbb2e3258	-0.00265803
122	0x398fa34a	0.00027396745
123	0x3a87a9fd	0.0010350343
124	0xba5e3cbe	-0.0008477679
125	0xba81b7d8	-0.0009896709
126	0x3a979a11	0.0011566301
127	0xb9ed4578	-0.0004525592

action_model._continuous_distribution.log_sigma f4 [1, 2]
0	0xbaa95c76	-0.0012921232
1	0xba8984e1	-0.0010491872

action_model._continuous_distribution.mu.weight f4 [2, 128]
0	0xbc8d98cd	-0.017284775
1	0x3bdc58b9	0.0067244438
2	0xbcc6d906	-0.024273407
3	0x3c5b90d9	0.013401234
4	0xbb4ce1ce	-0.003126252
5	0x3cd9a6fe	0.026568886
6	0xbc082775	-0.008310189
7	0xbc055970	-0.008138999
8	0x3c8564fd	0.016283507
9	0x3c0da25b	0.008644666
10	0x3d02ee63	0.031965625
11	0x3b1e8a8a	0.0024191462
12	0x3c9499b6	0.018139701
13	0x3c311c1e	0.010809926
14	0x3c5ba635	0.013406326
15	0x3be6fc18	0.007049095
16	0xbcc8116c	-0.02442237
17	0x3d29ff8e	0.04150348
18	0x3bc91650	0.006136693
19	0xbb9d9620	-0.004809156
20	0x3c75df73	0.015006888
21	0xbcdade58	-0.02671735
22	0xbb737f25	-0.0037154641
23	0xb82b3c20	-4.0825573e-05
24	0xbb20a3d9	-0.0024511723
25	0x3c1dd3e6	0.00963304
26	0x3bd42397	0.006473969
27	0xbca11cd5	-0.019667068
28	0xba3b6004	-0.00071477913
29	0x3bf44c95	0.0074554184
30	0xb9be42ca	-0.00036289386
31	0xbd3b9bb4	-0.045802787
32	0x3b82416e	0.003975085
33	0xbc3f8f56	-0.011691889
34	0x3c6e7a44	0.014555518
35	0x3b6b8b14	0.0035941051
36	0x3cf9192b	0.030407509
37	0x3b944311	0.0045245965
38	0xbb9c7f38	-0.004775908
39	0xbb3fe5d5	-0.0029281278
40	0x3ad27927	0.0016057835
41	0x3b2018ff	0.0024428961
42	0x3c2d41b3	0.010574746
43	0xbceb2178	-0.028702483
44	0xbcfbba96	-0.03072862
45	0xbc39c897	-0.011339328
46	0x3cf9a012	0.030471835
47	0x3ccc250f	0.024920015
48	0xbabc35e2	-0.001435932
49	0x3cf977d9	0.030452656
50	0x3cd72a04	0.026265152
51	0xbcf0a680	-0.029376268
52	0x3cca3a0f	0.024685888
53	0xbc38d033	-0.011280107
54	0x3b2dce80	0.0026520789
55	0xb9f2edb2	-0.00046334934
56	0x3d09f6f5	0.033682782
57	0xbb15ab3e	-0.0022837664
58	0x3c051ea5	0.008124982
59	0xbcae8c8c	-0.021307252
60	0xbd01f8db	-0.031731468
61	0xbc2c2b20	-0.010508329
62	0xbc2cd7f2	-0.010549532
63	0xbc9a4723	-0.018832749
64	0xbcd84b99	-0.026403235
65	0xbcfaccb3	-0.030615186
66	0x3c11b5d9	0.0088934535
67	0x3c900dc0	0.017584682
68	0x3d7bb826	0.061454915
69	0x3b96f0ea	0.004606356
70	0x3bb0342b	0.0053773127
71	0xbc8ba625	-0.017046997
72	0x3d1c2bd9	0.038127754
73	0x3be4506b	0.0069675944
74	0xbb7aaed5	-0.003825118
75	0xbcdf8694	-0.027285852
76	0xb9c235f6	-0.00037042768
77	0xbd0db4b8	-0.034596175
78	0x3c308580	0.010774016
79	0x3cf8b677	0.030360444
80	0xbbbcaafe	-0.0057576885
81	0xbb286af4	-0.0025698515
82	0x3bec3bff	0.0072093005
83	0xbb406977	-0.0029359737
84	0x3cce8cc5	0.025213609
85	0x3b98adc4	0.0046593864
86	0x3c619134	0.013767529
87	0xbcf8a502	-0.03035212
88	0xbcf406f5	-0.029788474
89	0x3cbbeea3	0.02294094
90	0xbd35ff19	-0.044432733
91	0xbc3611db	-0.0111126555
92	0x3c137719	0.009000563
93	0x3c161f0d	0.0091626765
94	0xbb72b26b	-0.0037032615
95	0xbc1c8f12	-0.009555595
96	0xbc0faac6	-0.008768743
97	0x3ba45d4d	0.005016005
98	0x3b9ab114	0.0047208164
99	0xbb430e5f	-0.0029763205
100	0x3c92e85c	0.017933063
101	0xbb99cc87	-0.004693571
102	0xbcb1cf56	-0.02170531
103	0xbcc05569	-0.023478227
104	0x3be9e2fa	0.0071376534
105	0xbcbb7ba7	-0.02288611
106	0x3cce002e	0.02514657
107	0xbd56f081	-0.052475456
108	0xbc7adc4a	-0.01531131
109	0xbcdb3274	-0.026757456
110	0xbc9b9a3a	-0.01899444
111	0xbd28c6ad	-0.041205097
112	0xbc62838d	-0.013825309
113	0x3beb5c1f	0.0071826125
114	0x3c0ca7e5	0.008584951
115	0xbcb2ab5f	-0.021810232
116	0xbce39e26	-0.027785372
117	0x3c2703eb	0.010193805
118	0x3c460cb2	0.012087988
119	0xb90670fe	-0.00012821329
120	0x3cc8ef1d	0.02452808
121	0xbcd42a2d	-0.025899017
122	0x3c5eaeba	0.013591463
123	0xbb575727	-0.0032858343
124	0x3ca184ed	0.019716704
125	0x3c9006b6	0.017581325
126	0x3979b11b	0.00023812467
127	0x3a01cb65	0.00049512676
128	0xbc424559	-0.011857354
129	0x3d2c227c	0.042025074
130	0x3c97b431	0.01851854
131	0x3819984e	3.6619887e-05
132	0x3c4b0ef3	0.012393701
133	0x3d0d8b8d	0.034556914
134	0xbc09da45	-0.008413856
135	0xbc874e46	-0.016516816
136	0xbc228182	-0.009918572
137	0x3c190da1	0.009341628
138	0xbca461f7	-0.020066245
139	0xbbaa685e	-0.00520043
140	0x3c9a9842	0.01887143
141	0x3b92baab	0.004477819
142	0x3d101e7a	0.035185315
143	0xbb7662f0	-0.0037595592
144	0x3bd2aaae	0.006429038
145	0xbbb9aacf	-0.005666114
146	0x3b54658f	0.0032409166
147	0x3cd002ce	0.025391962
148	0x3ce0dda0	0.027449429
149	0xbc216dff	-0.009852885
150	0x3b2bd511	0.0026219527
151	0xbcd98bde	-0.026555952
152	0xbc1b1e1a	-0.009467626
153	0x3c379b83	0.0112065105
154	0xbd075475	-0.03303953
155	0xbc5f778c	-0.013639342
156	0xba903d29	-0.0011004555
157	0xbbf9ce30	-0.0076234564
158	0x3d0c2e9e	0.034224145
159	0xbc31eae0	-0.010859221
160	0x3c05a093	0.00815596
161	0x3d0b5517	0.034016695
162	0x3c84423a	0.01614486
163	0xbb5e8b2b	-0.0033957462
164	0x3ca10792	0.01965693
165	0xbcc57a8a	-0.024106283
166	0xbc6cc46e	-0.014451129
167	0xbd0935a1	-0.03349841
168	0xb9f7c34f	-0.00047257027
169	0x3c116153	0.008873302
170	0x3cc2a01d	0.023757989
171	0x3c39297f	0.011301397
172	0x3c21bad8	0.009871207
173	0xbc3a1cae	-0.011359377
174	0x3cbc16de	0.022960123
175	0xbd1a15db	-0.0376185
176	0x3c4931e5	0.012279962
177	0xba416d81	-0.0007378683
178	0x3bddec40	0.006772548
179	0xb9044ed2	-0.00012617864
180	0xbc2ea9bb	-0.010660584
181	0x3c14ef94	0.009090323
182	0xbc93b171	-0.018028947
183	0xbbe665e0	-0.0070311874
184	0x3b64bd20	0.0034902766
185	0x3cc0207e	0.023452993
186	0x3cfcc6e7	0.030856563
187	0x3d2c7ff1	0.042114202
188	0x3cc86b46	0.024465214
189	0xbca3f8ec	-0.020016156
190	0x3c4a0488	0.012330182
191	0x3c8e36dd	0.017360145
192	0x3bbf8719	0.0058449623
193	0x3c3d04ad	0.011536759
194	0x3caa468a	0.020785589
195	0xbcc61efb	-0.024184695
196	0x3b2ff0f6	0.0026846505
197	0x3bd43429	0.0064759445
198	0xbd61ff5e	-0.055175178
199	0xbcdad2af	-0.02671179
200	0x3c16dc9f	0.009207874
201	0xbc18202a	-0.009285012
202	0xbc2e2879	-0.010629767
203	0x3cb8b0a8	0.022545174
204	0xbb38ce3d	-0.00281991
205	0x3aa6dc5c	0.0012730467
206	0xbce83188	-0.02834393
207	0xbbbd16e8	-0.005770553
208	0xbc9e6287	-0.01933409
209	0xbc94fb7d	-0.018186325
210	0xbb674a6b	-0.003529216
211	0x3c1f492a	0.0097220335
212	0xbc7c23c2	-0.015389385
213	0x3d082fc3	0.033248674
214	0x3c89b45c	0.016809635
215	0x3d0cd9cf	0.034387406
216	0xbc275396	-0.0102127995
217	0xbcdcb07b	-0.026939621
218	0xbc87dedd	-0.016585762
219	0x3c82da08	0.015973106
220	0x3b8b0308	0.0042423047
221	0xbcbd34bd	-0.023096437
222	0x3cc98bd4	0.024602808
223	0xbd2477c5	-0.040153284
224	0x3c6d1bcd	0.01447196
225	0x3bc1abcb	0.005910372
226	0x3cec3035	0.02883158
227	0xbaaba4e9	-0.0013095412
228	0xbcad18c1	-0.021129968
229	0x3b2d3991	0.0026432017
230	0xbc28217c	-0.01026189
231	0x3c824f55	0.01590697
232	0x3c97b9b5	0.01852117
233	0xbb4c878f	-0.003120873
234	0xbc2fbb59	-0.0107258195
235	0xbc1bb203	-0.0095028905
236	0xbc50c7bb	-0.012742932
237	0xbc0aeaa9	-0.008478799
238	0xbc3ace0e	-0.011401666
239	0x3c5003fe	0.012696264
240	0x3c112888	0.008859761
241	0x3bbe58b2	0.005808913
242	0x3bd0a6c0	0.0063675344
243	0xbbc7b1d8	-0.0060941987
244	0x3c975bf9	0.018476473
245	0x3bcbfda6	0.0062253056
246	0x3ce3b62c	0.027796827
247	0x3c560798	0.013063334
248	0xbcbb606e	-0.02287313
249	0xbcac0e2c	-0.021002851
250	0x3c491d24	0.012275014
251	0xbca0e237	-0.019639118
252	0xbd2fbe17	-0.042905893
253	0x3c7a1f42	0.0152662415
254	0x3d301609	0.042989764
255	0xbc93a546	-0.018023144

action_model._continuous_distribution.mu.bias f4 [2]
0	0xbaf41568	-0.0018622102
1	0x3a176655	0.00057754415

action_model._discrete_distribution.branches.0.weight f4 [5, 128]
0	0xbbdd194c	-0.0067474004
1	0xbb78320a	-0.0037871622
2	0xbb97efd3	-0.0046367436
3	0xba8de599	-0.0010825872
4	0xbbdf2438	-0.0068097375
5	0x3c50f896	0.01275458
6	0xbbbe13d4	-0.0058007035
7	0xbc920ea6	-0.01782925
8	0x3c8eccf3	0.017431712
9	0xbc56b991	-0.013105766
10	0x3b2eb3fc	0.0026657572
11	0x3c441996	0.011968991
12	0x3b05e572	0.002043095
13	0xbc035cce	-0.008017732
14	0xbaca3c62	-0.0015429372
15	0x3c2a5047	0.010395116
16	0x3ad2623a	0.0016051002
17	0xbbf27d3f	-0.0074001844
18	0xbb29ea0f	-0.0025926863
19	0xbbccc27b	-0.00624877
20	0xbbf4cf81	-0.0074710255
21	0xbc120215	-0.008911629
22	0x3b64a87b	0.0034890461
23	0x3c207f41	0.009795965
24	0xbb61b3be	-0.003443941
25	0x3c084584	0.008317355
26	0xbc3316fe	-0.010930775
27	0xbb1e894f	-0.002419073
28	0xbc20ebd0	-0.009821847
29	0x3a81803f	0.0009880139
30	0xbc1cf066	-0.0095788
31	0x3adb90a8	0.0016751485
32	0x3c251347	0.010075397
33	0x3b25ae13	0.0025280758
34	0xbc26ec29	-0.010188141
35	0xbc558ed9	-0.013034546
36	0xbb470ff2	-0.0030374494
37	0xbc7d7f9d	-0.01547232
38	0xbab1b5d3	-0.0013558216
39	0xbbb030c8	-0.005376909
40	0x3aeb6801	0.0017960073
41	0xbb676dc4	-0.0035313228
42	0x3c95b22b	0.018273434
43	0x3c812104	0.015762813
44	0x3b8b5bb9	0.0042528776
45	0x3c70fbd0	0.014708474
46	0x3c83ee7c	0.01610493
47	0xbc846838	-0.016162977
48	0xbc7bfa5f	-0.015379517
49	0xbb5fe268	-0.0034162048
50	0x3b1b2a6d	0.002367641
51	0x3ba3074d	0.0049752356
52	0x3b1910af	0.0023355891
53	0xbc08afbf	-0.008342682
54	0xbbaf2e2d	-0.0053460808
55	0xbbd58441	-0.00651601
56	0x3baacc98	0.0052123778
57	0x3b0fe313	0.0021955415
58	0x3b347b3a	0.002753927
59	0x3be0f207	0.0068647894
60	0x3c98d4ec	0.018656217
61	0xbb3c53ad	-0.0028736398
62	0xbaee9211	-0.001820149
63	0xbb9629c8	-0.0045826174
64	0xbb7d159d	-0.003861762
65	0x3bc6efda	0.006071073
66	0xbc1072c1	-0.008816422
67	0xbb46ec97	-0.003035342
68	0x3b1c8800	0.0023884773
69	0xbc8ccb7a	-0.017186869
70	0x3c2f8491	0.010712759
71	0x3c524789	0.012834438
72	0xbb4f08e2	-0.0031590988
73	0x3bb9f2e6	0.0056747077
74	0x3a216f3e	0.0006158239
75	0xbc594159	-0.013260209
76	0x3c7b0a89	0.015322336
77	0xbbf87293	-0.0075820177
78	0x39f46ad0	0.00046618888
79	0xbbb46177	-0.005504783
80	0xbc0ded04	-0.008662466
81	0xbb4363d6	-0.0029814146
82	0xb8fa9440	-0.00011948543
83	0x3b812701	0.003941417
84	0xbc461f3d	-0.012092409
85	0xbbf05350	-0.0073341504
86	0xbba91fd7	-0.0051612663
87	0xbbd9012d	-0.0066224546
88	0xbb38536c	-0.0028125895
89	0x3b95add2	0.00456784
90	0xb95495e7	-0.00020273738
91	0xbbe696ee	-0.007037035
92	0x3c1ed185	0.009693508
93	0x3c810dc2	0.01575363
94	0x3b72a6a1	0.0037025588
95	0x3b4b3750	0.003100831
96	0x3a176a52	0.0005776036
97	0x3be3e9d3	0.0069553643
98	0x3be124d8	0.006870847
99	0x3c9f3b1b	0.019437363
100	0xbc5e7462	-0.0135775525
101	0x3baf4891	0.0053492268
102	0x3af9302c	0.0019011549
103	0xba19294a	-0.00058426394
104	0xbb1b2fc1	-0.0023679587
105	0x3a299384	0.000646882
106	0x3c0dbb98	0.008650683
107	0x3c6a82cd	0.014313412
108	0x3acaed40	0.0015482083
109	0xbbc31135	-0.005952979
110	0xbb35255a	-0.0027640671
111	0xbaf1e9cd	-0.0018456519
112	0x3bd4a6b7	0.0064896005
113	0xbbd6b608	-0.0065524615
114	0xbadacf36	-0.0016693834
115	0xb9f1e122	-0.0004613484
116	0x39998cf4	0.00029287452
117	0x3c41e975	0.011835446
118	0x3c2614fc	0.010136839
119	0xbbeb348e	-0.007177896
120	0xbb967ae8	-0.0045922883
121	0x3b6bfbce	0.0036008242
122	0x39bec817	0.00036388703
123	0x3b0887c0	0.0020832866
124	0xbc73fa71	-0.014891253
125	0x3c2cfb70	0.010557994
126	0xbb73bbb3	-0.0037190735
127	0xbb04fa71	-0.0020290876
128	0xbc1744e8	-0.009232737
129	0x3cc3a31d	0.02388149
130	0x3baed4a7	0.0053354087
131	0x3c48d9e0	0.012258977
132	0x3c2441fb	0.010025497
133	0xbb3669f9	-0.002783416
134	0x3afe1aff	0.0019386708
135	0xbbb56e85	-0.0055368566
136	0xbcb6f8ae	-0.022335377
137	0xbc025986	-0.007955914
138	0x3c08a992	0.00834121
139	0xbaba3563	-0.0014206584
140	0xbb4bd6a0	-0.0031103268
141	0xbb01e236	-0.001981867
142	0xbb76733b	-0.0037605304
143	0x3c96bc42	0.018400315
144	0xbb53dee1	-0.003232889
145	0x3d1aacc5	0.037762422
146	0x3a511813	0.00079763046
147	0x3a907eb6	0.0011024091
148	0x381c7ac4	3.7307633e-05
149	0xbbeb1fbe	-0.007175415
150	0x3b52be2b	0.0032156806
151	0x3b26f4bb	0.002547546
152	0x3b97b111	0.0046292623
153	0x3be01ce2	0.0068393806
154	0x3b036ae4	0.0020052725
155	0x3c662538	0.01404696
156	0xbbbfaf22	-0.005849735
157	0x3bb0ad4a	0.0053917514
158	0x3bc1f2ac	0.0059188213
159	0x3c068c04	0.008212093
160	0x3b6330f0	0.003466662
161	0x3a901f66	0.0010995686
162	0x3b403cc3	0.0029333092
163	0x3b795339	0.003804399
164	0x3ca788d3	0.020450985
165	0x3c1b79df	0.009489506
166	0xbb73983c	-0.0037169596
167	0xbb9cd682	-0.0047863135
168	0x3be0b0ea	0.0068570273
169	0x3c470fb5	0.012149741
170	0xbb7383a2	-0.0037157317
171	0xbb81203f	-0.0039406116
172	0x3b897bf3	0.004195684
173	0x3bfef984	0.0077812094
174	0xbbb0726a	-0.005384733
175	0x3bd6c88d	0.0065546692
176	0x3b21d544	0.0024693767
177	0x3a12ae43	0.0005595425
178	0x3c1674d1	0.009183125
179	0x3c29017c	0.010315295
180	0xba4c4e48	-0.0007793647
181	0xbb902e29	-0.004400034
182	0xbbaad793	-0.0052136867
183	0xbc5fbb5b	-0.013655509
184	0x3c8df0b8	0.017326698
185	0x3ad838dc	0.0016496438
186	0x3c8c72a2	0.017144505
187	0x3ca0538b	0.019571086
188	0xbc03a21d	-0.008034256
189	0xbb8b6575	-0.004254038
190	0xbaadc6b3	-0.001325807
191	0x3bd16011	0.006389626
192	0x3caaa71a	0.020831633
193	0x3c170125	0.0092165815
194	0xbbca7767	-0.0061787846
195	0xbb0cfa65	-0.0021511551
196	0x3c1aebe7	0.009455658
197	0x3aef3d56	0.0018252532
198	0x3c7dca86	0.01549018
199	0x3a8784d3	0.0010339267
200	0x3c3254a0	0.010884434
201	0xbbd953c4	-0.0066323
202	0x3bfa2231	0.0076334705
203	0x3bb8f865	0.0056448453
204	0x3b9d7495	0.0048051574
205	0x3c054689	0.008134493
206	0x3950933c	0.00019891275
207	0xba28dea1	-0.00064418657
208	0xbbc33301	-0.005957008
209	0xbc93fecc	-0.018065833
210	0xbc151154	-0.00909837
211	0xbc6c6807	-0.014429099
212	0xbc282652	-0.0102630425
213	0x3adc56c0	0.0016810521
214	0x3b18f78e	0.0023340913
215	0x3b75f18f	0.0037528013
216	0x3ba6302b	0.00507166
217	0x3b12fb46	0.0022427603
218	0x3c51bd7f	0.012801527
219	0xbcbbb6dc	-0.022914343
220	0xbc3d2c2d	-0.011546177
221	0xbbddcbf1	-0.0067686965
222	0xbadf1bda	-0.001702185
223	0x3c06cb88	0.008227237
224	0x3b433863	0.0029788248
225	0xb83fd6fc	-4.573817e-05
226	0x3c0d5862	0.008627029
227	0xbbcc1dc7	-0.0062291357
228	0xbc9285d6	-0.017886084
229	0xbba5cb27	-0.005059618
230	0x3c9e7384	0.019342192
231	0xbbc6a97d	-0.006062685
232	0x3c05fc26	0.008177793
233	0x3c6cc0a9	0.014450231
234	0x3b9458e6	0.004527199
235	0xbc512670	-0.012765512
236	0x394ba606	0.00019421437
237	0xbc2a5a7a	-0.010397548
238	0x3b91f5a0	0.0044543296
239	0xbb848d9f	-0.004045203
240	0xbb8c7fcf	-0.004287697
241	0xbb110496	-0.0022127978
242	0x3c57ba8e	0.013167037
243	0x3c38f07e	0.011287807
244	0xbc287d82	-0.01028383
245	0xbcae4bf7	-0.021276457
246	0x3bdbfd8d	0.006713575
247	0x3c3046b5	0.010759045
248	0x3c8a0acf	0.016850857
249	0xbacb059c	-0.0015489343
250	0xbbaf7029	-0.0053539467
251	0xbb64f4be	-0.0034935917
252	0xbc6d01bc	-0.014465746
253	0x3c600bc7	0.013674683
254	0x3c00d9bf	0.007864415
255	0xbbbf8e07	-0.0058457884

action_model._discrete_distribution.branches.0.bias f4 [5]
0	0x38a37705	7.794615e-05
1	0xba3bc7dc	-0.0007163265
2	0x3a2f0274	0.0006676086
3	0x3aa04b96	0.0012229558
4	0xb967ed16	-0.00022118198

exp_avg f4 [128, 6]
0	0x385706ff	5.126651e-05
1	0xb88eece0	-6.815209e-05
2	0xb8b63f75	-8.690256e-05
3	0xb8e13dac	-0.00010740323
4	0xb7db4ca4	-2.6142523e-05
5	0xb8b61482	-8.682256e-05
6	0x3829f27c	4.051857e-05
7	0xb9012c6c	-0.00012318947
8	0xb997bf5f	-0.00028943547
9	0x3979e5ae	0.00023832053
10	0xb8059756	-3.1850614e-05
11	0x38455517	4.7047706e-05
12	0x390e81b7	0.00013590498
13	0x3912659a	0.00013961495
14	0x393c5a1b	0.00017962644
15	0xb8a7dea8	-8.0046535e-05
16	0x383aad9a	4.4507535e-05
17	0xb795571b	-1.7802746e-05
18	0xb98a88a2	-0.0002642321
19	0xb905ed32	-0.0001277223
20	0xb96ec000	-0.00022768974
21	0x399d8e77	0.00030051518
22	0x371144b1	8.658667e-06
23	0x388f8299	6.843097e-05
24	0xb986730c	-0.00025644188
25	0xb849dab1	-4.8125807e-05
26	0xb9032ce4	-0.00012509857
27	0x398a13f2	0.00026336272
28	0x3819c1de	3.6658595e-05
29	0x385c53ce	5.2530137e-05
30	0x38e483f4	0.000108964654
31	0x37c4b78c	2.3450491e-05
32	0xb859162a	-5.1757474e-05
33	0xb95f701a	-0.00021308698
34	0xb8ac329d	-8.2110266e-05
35	0xb922c0ad	-0.00015521301
36	0xb8c76a2b	-9.508835e-05
37	0x3602a5ee	1.9468093e-06
38	0x37ed380c	2.82787e-05
39	0x38853704	6.352182e-05
40	0x37c74c75	2.3758252e-05
41	0xb82fd6fd	-4.1923475e-05
42	0x389d324c	7.495712e-05
43	0x37d64dec	2.5547073e-05
44	0x38b4f5be	8.628842e-05
45	0x36d57130	6.3610714e-06
46	0x386024bc	5.3439973e-05
47	0x3904680c	0.00012627261
48	0xb7fee62e	-3.0386345e-05
49	0xb831f7ea	-4.2430976e-05
50	0xb84a9637	-4.830045e-05
51	0x390020b0	0.00012219208
52	0xb8219c44	-3.8530925e-05
53	0x38a43627	7.830216e-05
54	0xb9074238	-0.00012899272
55	0x387449c2	5.8242826e-05
56	0x390adf2c	0.00013243844
57	0x3956efce	0.00020497965
58	0x38957e7c	7.128433e-05
59	0xb6e5ebc8	-6.8521804e-06
60	0xb88148a7	-6.164732e-05
61	0xb8339a82	-4.2820822e-05
62	0x38a106ee	7.678369e-05
63	0x371a6ee8	9.204938e-06
64	0xb860f3bd	-5.363276e-05
65	0x39127a59	0.00013969223
66	0xb8065ed2	-3.2036398e-05
67	0x382e0558	4.148981e-05
68	0xb62d5840	-2.5830377e-06
69	0x388b3815	6.6384826e-05
70	0x3807f225	3.2412023e-05
71	0x394207a6	0.00018504131
72	0x39e2022e	0.00043107703
73	0x38057a9d	3.1823864e-05
74	0xb80f06b8	-3.4100114e-05
75	0xb92b5747	-0.00016340344
76	0x37962574	1.7898834e-05
77	0xb92fec08	-0.00016777229
78	0xb94fda54	-0.00019822392
79	0x3814ddd9	3.549256e-05
80	0x3903a142	0.00012553207
81	0x39053720	0.00012704404
82	0x3891c082	6.949996e-05
83	0x398ee9ac	0.0002725845
84	0x38d66422	0.000102229664
85	0xb89972e4	-7.3170086e-05
86	0x39370712	0.00017454874
87	0x38baa1bd	8.899297e-05
88	0xb70972a0	-8.192525e-06
89	0xb82c601b	-4.10975e-05
90	0xb792c6d9	-1.7497152e-05
91	0xb8f08043	-0.000114679824
92	0xb967acb9	-0.00022094221
93	0xb9654a99	-0.00021866932
94	0xb8873b4f	-6.448349e-05
95	0x3959444b	0.00020720174
96	0xb948fe28	-0.00019168167
97	0xb8f893e6	-0.0001185311
98	0xb9b14364	-0.0003381028
99	0x3908c091	0.00013041707
100	0xb83e5d2e	-4.538631e-05
101	0xb7efc026	-2.8580496e-05
102	0x3633acc0	2.6773632e-06
103	0xb91f6ac0	-0.00015203189
104	0xb97d80b5	-0.00024175907
105	0xb7a5e11f	-1.9774363e-05
106	0xb905a234	-0.00012744294
107	0xb5f49480	-1.8222636e-06
108	0xb9a7cfd6	-0.00032007572
109	0x37ffa83f	3.0476715e-05
110	0x36873990	4.0300147e-06
111	0x3927ff71	0.0001602152
112	0x3898f1ca	7.2929615e-05
113	0x394a5b94	0.00019298337
114	0xb8994ec3	-7.310279e-05
115	0xb6d1d308	-6.2532526e-06
116	0xb8396f44	-4.421106e-05
117	0xb782a303	-1.5573116e-05
118	0x37aca975	2.0582907e-05
119	0x384c0603	4.864299e-05
120	0xb9efe02e	-0.0004575266
121	0x38852cef	6.350304e-05
122	0xb99c3fc5	-0.0002980215
123	0x395ede79	0.00021254447
124	0x38204c0b	3.8217793e-05
125	0x39018b56	0.00012354305
126	0xb8b946d8	-8.834683e-05
127	0xb9b24e72	-0.00034009252
128	0xb9f93b13	-0.00047536995
129	0x36ef26d2	7.1272743e-06
130	0xb91aa006	-0.00014746198
131	0x3839a9a0	4.4265413e-05
132	0x3903d5fa	0.00012572846
133	0x35fbbf70	1.8756673e-06
134	0x37f0ca82	2.870453e-05
135	0xb7af3b34	-2.0889194e-05
136	0xb7b55580	-2.1616695e-05
137	0xb7a8425c	-2.0058062e-05
138	0xb97a08f4	-0.00023845193
139	0x391a26c2	0.00014701023
140	0x384f3170	4.9398688e-05
141	0x3959185c	0.00020703807
142	0x3923dcb6	0.00015627113
143	0x39930adf	0.00028046124
144	0x38dd2f82	0.0001054695
145	0xb84e3ff9	-4.9173806e-05
146	0x38feb58e	0.00012145481
147	0x37f5be92	2.9295017e-05
148	0xb86396bc	-5.42614e-05
149	0xb8914a9a	-6.9280344e-05
150	0x393b4f6e	0.000178633
151	0x39aa35ed	0.00032465105
152	0x39f8ff7f	0.00047492606
153	0x3906ff37	0.00012874311
154	0x39528abf	0.00020078848
155	0xb8cf9dbf	-9.899912e-05
156	0x3797950c	1.8070008e-05
157	0xb7a98ef9	-2.0212947e-05
158	0x381d62f1	3.7523863e-05
159	0xb81f9bd5	-3.8053684e-05
160	0xb8622c50	-5.3923868e-05
161	0xb908f73c	-0.00013062073
162	0xb9a42b04	-0.00031312567
163	0xb9633c6b	-0.00021670914
164	0xb9d63276	-0.00040854857
165	0xb91b7f8b	-0.00014829465
166	0xb9189ee4	-0.00014555041
167	0xb8aff018	-8.389371e-05
168	0x3a20a98e	0.0006128781
169	0x391516e1	0.0001421827
170	0x39d4e9c6	0.00040609966
171	0xb892fd1c	-7.008968e-05
172	0x383e2066	4.5329703e-05
173	0x39867b0f	0.00025650157
174	0x3842565a	4.6333626e-05
175	0xb752941c	-1.255146e-05
176	0x38f5a582	0.000117133386
177	0xb70f2de8	-8.534153e-06
178	0x3703d518	7.857823e-06
179	0x3800140c	3.053625e-05
180	0xb91a22e5	-0.00014699584
181	0x37fd6006	3.0204665e-05
182	0xb8893976	-6.543372e-05
183	0x3899dc04	7.3365896e-05
184	0x372fe9d6	1.0485257e-05
185	0x3812919a	3.4944715e-05
186	0x37a2ff92	1.9430914e-05
187	0xb7965893	-1.7922639e-05
188	0x37c6f4f7	2.371751e-05
189	0x37a54cb2	1.9705247e-05
190	0xb7430f14	-1.1626416e-05
191	0x395557a0	0.00020345906
192	0x350cf780	5.2514224e-07
193	0xb820c704	-3.833232e-05
194	0x37df3ac0	2.661103e-05
195	0x38f4c0a2	0.00011670707
196	0x372b0786	1.0194146e-05
197	0xb7c6a3d4	-2.3679728e-05
198	0x38f70234	0.00011778288
199	0x3904088d	0.00012591686
200	0x376f47c8	1.4262223e-05
201	0x389f2c40	7.589953e-05
202	0x37c3ce56	2.3341894e-05
203	0x389cb4c1	7.472328e-05
204	0x39633e31	0.00021671575
205	0x38493778	4.7973794e-05
206	0x3968d14e	0.00022203216
207	0x38aa1b4e	8.1113176e-05
208	0x384ebb87	4.9288876e-05
209	0x390ced88	0.00013439928
210	0xb8f4aee6	-0.00011667404
211	0xb883e060	-6.28836e-05
212	0xb8f23255	-0.00011548834
213	0x3925eab9	0.00015823067
214	0xb83a239a	-4.4379012e-05
215	0xb8a9348a	-8.068334e-05
216	0xb926e01f	-0.00015914485
217	0xb73e80b0	-1.1354845e-05
218	0xb883427d	-6.258951e-05
219	0x3857dfe0	5.1468494e-05
220	0x37d762d5	2.567602e-05
221	0x3903d314	0.00012571766
222	0xb88ed567	-6.810837e-05
223	0x38f1b092	0.00011524664
224	0x38b74431	8.7388216e-05
225	0xb81b8f4f	-3.7088346e-05
226	0x38d8fa00	0.00010346249
227	0x38d9e582	0.000103901155
228	0xb7eaf7e8	-2.8010414e-05
229	0x38bd3bc2	9.023353e-05
230	0x38f88f44	0.00011852247
231	0xb931617b	-0.0001691635
232	0x3764cc74	1.3637462e-05
233	0x382bc00a	4.0948427e-05
234	0xb9310a58	-0.00016883889
235	0x393ea388	0.00018180732
236	0x3964de67	0.00021826626
237	0xb7a01e58	-1.9087616e-05
238	0x39199b89	0.00014649158
239	0x38404e5a	4.5849338e-05
240	0x3896be27	7.187976e-05
241	0xb6ce3dc5	-6.1464693e-06
242	0x3938c49a	0.00017620847
243	0x397e0879	0.00024226484
244	0x38eda757	0.0001133221
245	0x38fc3675	0.0001202644
246	0x389c53ef	7.4542935e-05
247	0x368fa830	4.2813117e-06
248	0x389556d4	7.121047e-05
249	0xb91c5239	-0.0001490795
250	0xb7d09634	-2.4865476e-05
251	0x3826202a	3.960744e-05
252	0x393ff7a7	0.00018307437
253	0x38dde636	0.00010580981
254	0x3948dc17	0.00019155476
255	0xb93ea5ca	-0.00018181573

exp_avg_sq f4 [128, 6]
0	0x327e1471	1.4789394e-08
1	0x31099f2b	2.00266e-09
2	0x32116694	8.463434e-09
3	0x3226297a	9.671902e-09
4	0x30f9bc6e	1.8170689e-09
5	0x320224dc	7.575377e-09
6	0x3259a82a	1.26692985e-08
7	0x316af839	3.419258e-09
8	0x31f85fe0	7.2286497e-09
9	0x319a2fa0	4.4874042e-09
10	0x30ea1e37	1.7034328e-09
11	0x31c4234e	5.7083644e-09
12	0x332f63ef	4.083625e-08
13	0x31d820ca	6.290155e-09
14	0x32f1d69c	2.8153686e-08
15	0x32c8fcab	2.3397964e-08
16	0x316a5cee	3.4104306e-09
17	0x3130a147	2.5703046e-09
18	0x3299c083	1.7899088e-08
19	0x31b6070b	5.297698e-09
20	0x330120ff	3.0065163e-08
21	0x32925584	1.7035525e-08
22	0x315698c4	3.1227936e-09
23	0x31c94329	5.857505e-09
24	0x3339322b	4.3119297e-08
25	0x323961b6	1.0790634e-08
26	0x33132d7f	3.4267483e-08
27	0x32fc30ed	2.935891e-08
28	0x31e69d40	6.7117583e-09
29	0x32b2c99c	2.0813609e-08
30	0x3282354f	1.5158234e-08
31	0x31cebbdc	6.016746e-09
32	0x33183cce	3.544556e-08
33	0x32b4e9a2	2.1061002e-08
34	0x318f1e58	4.1652974e-09
35	0x32283b0c	9.792313e-09
36	0x328303e7	1.5252182e-08
37	0x308d397a	1.0275436e-09
38	0x3195983a	4.353777e-09
39	0x31c1afdf	5.6370335e-09
40	0x308c6a17	1.0216493e-09
41	0x3112cef4	2.1363435e-09
42	0x32d0f359	2.4325049e-08
43	0x31382801	2.6798264e-09
44	0x321fe985	9.308114e-09
45	0x323bc7a3	1.0930225e-08
46	0x310ac3a3	2.019285e-09
47	0x319adba2	4.5069593e-09
48	0x320e1069	8.269219e-09
49	0x3034fc1c	6.584189e-10
50	0x310a6265	2.0137574e-09
51	0x31851905	3.873654e-09
52	0x30395164	6.741827e-10
53	0x318b7047	4.058197e-09
54	0x321fc462	9.29967e-09
55	0x30c5e9ad	1.4400051e-09
56	0x3223df01	9.538554e-09
57	0x323076e2	1.0271579e-08
58	0x30b33b2d	1.3040783e-09
59	0x3159a534	3.1671563e-09
60	0x329dd427	1.8373681e-08
61	0x31017cfb	1.8843014e-09
62	0x318ed742	4.157216e-09
63	0x32969ac2	1.7532674e-08
64	0x310bb59d	2.0330397e-09
65	0x3126a40f	2.4249436e-09
66	0x3281b4cc	1.5099793e-08
67	0x31195787	2.2314184e-09
68	0x320f9d72	8.359494e-09
69	0x3246f0ce	1.15798695e-08
70	0x3121ac62	2.3526572e-09
71	0x32126552	8.521356e-09
72	0x3282d64f	1.5231448e-08
73	0x30b2218d	1.296074e-09
74	0x31db9531	6.3907e-09
75	0x31f0cc3d	7.0081385e-09
76	0x30bf2646	1.3907957e-09
77	0x31ab70de	4.9895865e-09
78	0x333758cf	4.268878e-08
79	0x31b7cc11	5.3492006e-09
80	0x32b55e4a	2.1114051e-08
81	0x335b44cd	5.1052485e-08
82	0x31df9493	6.507045e-09
83	0x328cd796	1.6396182e-08
84	0x333fcf58	4.465923e-08
85	0x3286a967	1.5676688e-08
86	0x33b1183c	8.246613e-08
87	0x3386373c	6.249908e-08
88	0x3216c01d	8.774831e-09
89	0x327f72b7	1.4869037e-08
90	0x326c0542	1.37382035e-08
91	0x310329fc	1.9086874e-09
92	0x321eb911	9.23889e-09
93	0x32103734	8.394455e-09
94	0x30a8cc54	1.2281682e-09
95	0x318a9254	4.032964e-09
96	0x33a124f3	7.503868e-08
97	0x3270fad9	1.4026875e-08
98	0x3385da3b	6.232991e-08
99	0x330f9d68	3.3437942e-08
100	0x3211f329	8.495399e-09
101	0x32932a1f	1.7132207e-08
102	0x32f1c22f	2.8144397e-08
103	0x31e1cef8	6.5718915e-09
104	0x333a8051	4.3423203e-08
105	0x323e4b8c	1.1076633e-08
106	0x3173ca82	3.5476266e-09
107	0x31f325a2	7.076509e-09
108	0x32d1edfc	2.4439025e-08
109	0x317edf8b	3.7088934e-09
110	0x3292d172	1.7091882e-08
111	0x32c75f29	2.3209923e-08
112	0x315960c4	3.163266e-09
113	0x321437a5	8.627386e-09
114	0x31862a7d	3.9047436e-09
115	0x309261dc	1.0650711e-09
116	0x310de88d	2.065039e-09
117	0x3102c07c	1.9026904e-09
118	0x3051a3ca	7.6266515e-10
119	0x31b8764c	5.3685536e-09
120	0x33e4a03a	1.06462224e-07
121	0x3280c9a0	1.499285e-08
122	0x338c8348	6.543138e-08
123	0x334aebfc	4.7246417e-08
124	0x324534c9	1.1478911e-08
125	0x32d99b41	2.5332726e-08
126	0x3210c7ce	8.4273335e-09
127	0x32081575	7.921121e-09
128	0x32b45278	2.099226e-08
129	0x31c9334b	5.8557013e-09
130	0x3124c690	2.397801e-09
131	0x31a1d31e	4.709718e-09
132	0x3307bd30	3.1604202e-08
133	0x31699351	3.3989702e-09
134	0x31ed15b5	6.9000756e-09
135	0x33070484	3.1436244e-08
136	0x317029e3	3.4948406e-09
137	0x321b4125	9.037e-09
138	0x3262caaf	1.3201016e-08
139	0x3108bb49	1.9897064e-09
140	0x313012a7	2.5621973e-09
141	0x322b0d0b	9.956476e-09
142	0x3124a809	2.3960658e-09
143	0x329cbd29	1.824681e-08
144	0x321b082e	9.024047e-09
145	0x30ac9c9c	1.2559158e-09
146	0x313f713e	2.7858529e-09
147	0x31ebec7b	6.866285e-09
148	0x30a0c1c8	1.1696608e-09
149	0x319cbfe1	4.5620117e-09
150	0x335ef948	5.1915123e-08
151	0x32512388	1.217348e-08
152	0x336607e1	5.3558214e-08
153	0x33010c66	3.004643e-08
154	0x31f6711b	7.172401e-09
155	0x31f04601	6.992878e-09
156	0x320d0068	8.207373e-09
157	0x30e878d5	1.6914564e-09
158	0x30a7a9cf	1.2199112e-09
159	0x3179a4ad	3.6327876e-09
160	0x30c6e9c6	1.4472838e-09
161	0x31c68d4c	5.778622e-09
162	0x3349fa22	4.7026454e-08
163	0x32401b8b	1.1182133e-08
164	0x33564c9e	4.989544e-08
165	0x33482119	4.659623e-08
166	0x3202529d	7.58578e-09
167	0x3294ecc6	1.733714e-08
168	0x33436190	4.5490708e-08
169	0x3290a586	1.6839078e-08
170	0x339a7884	7.1931055e-08
171	0x32c99539	2.3467338e-08
172	0x31ff4272	7.4290307e-09
173	0x3264c2af	1.3315613e-08
174	0x327297f3	1.4120803e-08
175	0x3107308c	1.9672681e-09
176	0x3191a053	4.238282e-09
177	0x31a736ee	4.8665845e-09
178	0x310c1236	2.0383033e-09
179	0x324bac8b	1.1855387e-08
180	0x321532ba	8.684475e-09
181	0x30a6ebb0	1.2145076e-09
182	0x31d7ce7e	6.280799e-09
183	0x32347466	1.0503845e-08
184	0x30b567fa	1.3199035e-09
185	0x3140b9f7	2.8045386e-09
186	0x31e17a91	6.562296e-09
187	0x304592b0	7.187664e-10
188	0x30eea328	1.7363151e-09
189	0x312a2de9	2.4764353e-09
190	0x3049f3ac	7.346965e-10
191	0x3149a7b5	2.934468e-09
192	0x322a398c	9.908387e-09
193	0x31372861	2.6652958e-09
194	0x32d34f0c	2.459958e-08
195	0x3236224c	1.06015925e-08
196	0x30f06b15	1.7492733e-09
197	0x3186813a	3.9146046e-09
198	0x3277e648	1.4429652e-08
199	0x311ece94	2.3109452e-09
200	0x32361364	1.0598203e-08
201	0x32080bb7	7.9189055e-09
202	0x30c85119	1.4574965e-09
203	0x30ee6dec	1.7348021e-09
204	0x336fc59f	5.582626e-08
205	0x320bb74f	8.132544e-09
206	0x33374614	4.2671743e-08
207	0x32d0eff2	2.4323501e-08
208	0x31dc28bb	6.407473e-09
209	0x327d8f9e	1.4759193e-08
210	0x318eb519	4.1533323e-09
211	0x3090c19f	1.0532409e-09
212	0x3207c2d9	7.9023375e-09
213	0x31c218e7	5.648974e-09
214	0x308096b1	9.356055e-10
215	0x31279931	2.4388778e-09
216	0x32b67d54	2.1244581e-08
217	0x3188927f	3.9747756e-09
218	0x321dbe18	9.181825e-09
219	0x320363a0	7.647856e-09
220	0x314275eb	2.8297744e-09
221	0x32446479	1.1431546e-08
222	0x320e503a	8.283729e-09
223	0x30a62cd2	1.2090828e-09
224	0x312f2a83	2.5490017e-09
225	0x31c6e8b8	5.7890155e-09
226	0x308e99e6	1.03756e-09
227	0x30fe3c09	1.8497995e-09
228	0x32d17d60	2.4387816e-08
229	0x319e2ce3	4.6035082e-09
230	0x32d8364a	2.5170397e-08
231	0x32090eed	7.977843e-09
232	0x31597985	3.1646732e-09
233	0x31870dc0	3.9305803e-09
234	0x32eb8e6c	2.7422367e-08
235	0x314ac39e	2.9506064e-09
236	0x319dd79b	4.593813e-09
237	0x32bcb852	2.19699e-08
238	0x3139458e	2.696058e-09
239	0x3186bfa3	3.9217e-09
240	0x330414c9	3.075255e-08
241	0x31ee50f7	6.9359163e-09
242	0x3347bfaa	4.6507616e-08
243	0x33532897	4.9164182e-08
244	0x31ed22f6	6.9015824e-09
245	0x3279313f	1.4504905e-08
246	0x32088d13	7.9483184e-09
247	0x313ef25a	2.77864e-09
248	0x31b36f78	5.222258e-09
249	0x3219ebb0	8.959361e-09
250	0x30ce2d76	1.5001393e-09
251	0x31f3d325	7.096235e-09
252	0x32c905fa	2.3402198e-08
253	0x31c6c454	5.7848784e-09
254	0x32ec89e9	2.753673e-08
255	0x321bfe51	9.080012e-09
