Project/Assets/ML-Agents/Examples/MyTest/Scripts/TFModels/MyTest1Models/Test14/MoveToGoal/checkpoint.pt (torch, 451554 bytes, 42 tensors)

network_body._body_endoder.seq_layers.0.weight f4 [128, 6]
000000 06 80 a3 be 14 e8 56 be 35 02 5d be b2 b6 35 3f
       -0.31933612 -0.20986968 -0.21582873 0.70981896
000010 a7 6f 20 3f b8 67 ef be fd e2 8d 3d 8c 18 0c bf
       0.6267037 -0.4675882 0.0692806 -0.54724956
000020 dc 95 81 3e cb 32 0b 3f 83 7f ec 3d 50 92 0a bd
       0.25309646 0.5437438 0.115477584 -0.03383094
000030 11 88 2d 3e d2 1d 41 3f 1d fa 97 3c 82 4d d7 be
       0.16946436 0.7543613 0.01855188 -0.4205132
000040 b2 9b 36 be c4 6c ba 3d b8 0c fa bc a1 3c 13 3f
       -0.1783283 0.09102777 -0.030523643 0.5751439
000050 11 a3 77 3f ee b6 d6 be db 49 9b bd e3 a1 06 be
       0.96733195 -0.4193644 -0.07582446 -0.13147692
000060 ba a6 d7 3d 9a c3 59 3e 6f 5a 8c be 03 38 01 3f
       0.105298474 0.21266022 -0.27412745 0.5047609
000070 a8 03 a6 3e cf d7 d0 be fe 95 00 be 7b f0 c5 3e
       0.32424664 -0.4078965 -0.12557217 0.38660035
000080 84 5e 72 3e 1e b9 9f be 60 b3 bf be 15 80 97 be
       0.23668867 -0.3119592 -0.3744154 -0.29589906
000090 c8 a0 aa bd 23 23 20 be 56 4f 8e 3e 55 7c 88 3e
       -0.08331448 -0.15638404 0.27794904 0.26657358
0000a0 19 4c 50 3e 74 a6 f9 bd 6f 57 c8 be 97 8c 2e bf
       0.20341529 -0.121899515 -0.39129207 -0.68183273
0000b0 aa e8 40 3f 1b 80 bf 3e 33 90 5a 3e af 94 10 3f
       0.7535502 0.37402424 0.2134407 0.56476873
0000c0 be 7e 14 be 8f f7 f5 be 47 af c1 3e 8b 8f 62 3f
       -0.14501473 -0.48040435 0.37829039 0.8850028
0000d0 87 bd 91 be 57 5f cf bc 4f 1c 1d bf f0 bf b4 be
       -0.2846491 -0.025314016 -0.6137132 -0.35302687
0000e0 ea fd 3b 3f 26 2c ac be d6 09 e3 bc 2b 7f 8e 3d
       0.7343432 -0.33627433 -0.027714651 0.06957849
0000f0 c0 d4 3f 3e 77 62 91 bc df a9 ef 3e 6f 95 eb 3e
       0.18733501 -0.017747147 0.4680929 0.46012446
000100 72 f9 47 3e 48 29 53 3e 86 8c a7 bd c6 ec 36 bf
       0.1952875 0.20621216 -0.081810996 -0.7145504
000110 48 9b 96 be be 62 0d 3f c2 74 29 bf 4c 02 f2 3e
       -0.29415345 0.55228794 -0.66193783 0.47267377
000120 f0 ba 02 3f 72 92 59 bf 7a 42 bb 3e 29 49 c1 be
       0.51066494 -0.8498908 0.36574155 -0.3775113
000130 5b 0e d8 3d 0f 7d 9a 3d 4b 0c aa bd 07 48 81 3d
       0.10549613 0.07543384 -0.08303126 0.06312566
000140 41 ba a2 be 69 dd df 3e ea a3 cd 3e 5e 13 75 be
       -0.31782725 0.4372361 0.4016412 -0.23933169
000150 ee e8 54 be 32 49 63 3d f9 8c a0 be c6 fb 62 3e
       -0.2079198 0.055489726 -0.31357554 0.22166356
000160 43 5e 01 bf ad 58 20 bc 83 3c 9d be d7 52 a4 3d
       -0.50534457 -0.009786767 -0.3071023 0.08023613
000170 e1 48 25 be 78 a4 dd 3e f0 de 88 bd 17 1a 76 3f
       -0.16141082 0.43289542 -0.06683147 0.9613356
000180 d4 8f 51 3f 39 c1 81 be 94 38 28 3f 54 f6 60 3e
       0.8186009 -0.2534273 0.6571133 0.21968967
000190 83 d5 66 3e ae 9d 21 3f 87 d1 ef be 54 86 bc 3e
       0.22542386 0.63131225 -0.46839544 0.36821234
0001a0 23 af 2a 3f a0 06 93 3e 81 0b ac 3e 2d 55 b0 3e
       0.6667349 0.28715992 0.33602527 0.34439984
0001b0 e5 52 e5 bd ea f4 0b 3f 35 fa 9e 3e 2a ba 5e 3d
       -0.111974515 0.54670584 0.31050268 0.05437676
0001c0 4e 17 cf 3e db 46 8c 3e f0 f8 b1 bd a3 df 43 bd
       0.40447468 0.27397808 -0.08690059 -0.0478207
0001d0 a3 b3 1a bf 9a f6 ad 3e d0 91 36 3e e3 c4 c3 bd
       -0.60430354 0.33977205 0.1782906 -0.095590375
0001e0 da 96 b9 be d4 21 a1 bd 8e f9 9f bd 74 2f 22 3c
       -0.36247903 -0.0786778 -0.07811271 0.009899009
0001f0 be f8 17 bf 4f 38 2d 3c be 85 2d 3d 43 72 89 bd
       -0.59363925 0.010572507 0.042363875 -0.06711247
000200 8c 7b 60 bd f4 09 11 3f 16 2b f5 bc ad df 8f 3e
       -0.054805323 0.5665581 -0.029927772 0.2810034
000210 5f 4f c2 3e 34 9c 92 3e 9b 8f 3d bd cc 02 7e be
       0.3795118 0.286348 -0.04627953 -0.24805754
000220 32 3c b5 3d 32 1a 9c bd 15 94 09 bf 75 38 d6 3e
       0.08849372 -0.07622184 -0.5374158 0.41839948
000230 45 be f6 be 53 80 2d 3f 81 66 60 3e cf c1 2e bf
       -0.4819204 0.6777393 0.21914102 -0.6826448
000240 46 af 1d bf 8f 7f 13 3e 79 d5 b0 be f2 53 88 3e
       -0.6159557 0.14404128 -0.34537867 0.26626545
000250 d7 a2 b6 3d 5c 34 32 be 97 f4 5f bf d9 0a 9e bf
       0.08917778 -0.17402786 -0.8748259 -1.234706
000260 99 7f f6 3e f0 23 1e 3e cf ca 96 bd 2f b8 ae bc
       0.48144224 0.15443397 -0.073629014 -0.02132806
000270 a2 e7 1f be d3 30 86 3e 46 bc 84 3c 45 63 da 3e
       -0.15615705 0.26209125 0.016203057 0.42653862
000280 00 3c 12 3e 06 91 8e be 42 28 db 3e 57 87 f2 3d
       0.142807 -0.2784502 0.42804152 0.1184222
000290 8c dc 16 bf f8 7d c9 be e1 ee 89 3f 39 92 de bd
       -0.5893028 -0.3935392 1.0776025 -0.108677335
0002a0 77 e1 ce be 90 1d 3b 3f 8b 1d 6e be 27 da a7 be
       -0.4040639 0.73091984 -0.23253457 -0.32783625
0002b0 a1 3d 52 be a6 31 b1 be 66 c4 10 be 87 ef a4 be
       -0.20531322 -0.3460819 -0.1413742 -0.32213995
0002c0 30 25 0a 3f 5d 64 79 bd cd b0 0d bf b1 62 4c 3d
       0.53962994 -0.06088673 -0.553479 0.049898807
0002d0 3e aa ae be 68 4f 4d be b3 e4 3b bf ef d4 02 bf
       -0.3411426 -0.20049822 -0.7339584 -0.5110616
0002e0 a8 35 f3 3e 59 53 23 3f 1f 49 9d be 04 db 1b be
       0.47501874 0.63799053 -0.3071985 -0.15220267
0002f0 59 6b b1 bd 78 af 04 3c 93 4b 0d 3e 66 16 f8 bd
       -0.08663053 0.008098476 0.1379836 -0.12113647
000300 b1 90 d3 be c3 83 f1 3d 0d ed 0d 3f 56 6c 35 bf
       -0.41321328 0.1179271 0.55439836 -0.7086843
000310 26 5b 4c be ca 90 39 be 96 f3 c6 3c 13 88 c0 bd
       -0.19956645 -0.18121639 0.024286073 -0.09400954
000320 a3 18 15 3f 1d 0a ce be 46 9d fb 3d 7b 38 85 be
       0.5824072 -0.4024209 0.12285857 -0.26019654
000330 3d 9d 4f 3e 1f c6 ae 3d 86 5d fc be 25 ae 17 3e
       0.20274825 0.08533882 -0.49290103 0.14812525
000340 ed be 5d 3f 86 26 00 be 94 03 2c 3f e6 46 8e 3d
       0.86619455 -0.12514696 0.6719296 0.069471166
000350 ef b3 c5 be 59 f4 e0 3e 39 c6 34 3f 42 35 13 3f
       -0.3861384 0.43936422 0.70614964 0.5750314
000360 ae d4 40 be 4f fd f0 be 61 e4 24 be 5d 5c 3e be
       -0.18831131 -0.4706826 -0.16102745 -0.18589921
000370 71 a2 67 be dc 12 0e 3f a7 de f2 bc 3d cf 45 3e
       -0.2262056 0.5549753 -0.029647185 0.19317336
000380 cb c0 81 3f 6f 7d 14 bf 5f 02 06 bf 87 84 6c 3f
       1.0136961 -0.58003896 -0.5234737 0.9238972
000390 10 43 0d 3e f2 1f 84 3f 93 66 09 3f 6f 74 62 3e
       0.13795114 1.0322249 0.5367214 0.22114728
0003a0 46 c6 51 be a0 de 23 bd 82 4a 3d be da 4d 11 bf
       -0.20485792 -0.040007234 -0.18485454 -0.5675942
0003b0 5f 0a a6 bd 9a 5b 0a 3e 30 c2 e7 3d 70 4c 7c bc
       -0.08107447 0.13511506 0.11316335 -0.0153990835
0003c0 6e 0c 36 be 7e 73 85 be 8b b9 d7 3c f3 0f a2 be
       -0.17778179 -0.26064676 0.026333591 -0.31652793
0003d0 e6 82 76 be 4b 60 c0 3c 7f 3c df 3e bc 5b 63 be
       -0.24073371 0.023483416 0.43600842 -0.22202963
0003e0 b5 38 d7 3e 2a 37 34 3e 26 d7 39 3f 44 3a 1f be
       0.42035452 0.17599168 0.72593915 -0.1554957
0003f0 bf 9a 1d 3e 66 ec 68 3e b8 48 87 be e7 6e 6a be
       0.15391062 0.22746429 -0.26422668 -0.22893868

network_body._body_endoder.seq_layers.0.bias f4 [128]
000000 11 b2 1d 3c b0 3f c3 b9 c4 56 51 b7 c0 ac bb bb
       0.009624974 -0.0003724075 -1.2477572e-05 -0.0057273805
000010 d5 8c 86 3a be 6c 53 bc 2e 92 9f 3a a1 b1 1a 3a
       0.001026536 -0.012904344 0.0012174302 0.00059011026
000020 92 9b 5a bb d5 12 9d 3a cd 65 9a 3b f9 0c 27 bb
       -0.0033356887 0.0011983762 0.0047118426 -0.002548991
000030 04 55 76 36 e7 b7 1d bb b3 c3 33 b9 f2 6b 3d bc
       3.6706342e-06 -0.0024065913 -0.00017143674 -0.011561381
000040 48 32 b5 bb d6 44 35 3c cf 43 18 ba c2 97 18 39
       -0.0055296756 0.011063775 -0.0005808444 0.00014552384
000050 05 39 88 3a ee 08 a3 bb 66 08 bb ba 6d ff e7 bb
       0.001039297 -0.0049754297 -0.0014269471 -0.0070800097
000060 05 e8 0b 3b ae b4 73 3c ea bd 1d 3b 61 e4 93 3c
       0.0021348011 0.01487462 0.0024069496 0.018053235
000070 ad 91 cc 3b c3 96 31 3c ba b4 49 bb 26 e4 6d bb
       0.006242952 0.010839167 -0.0030777887 -0.0036299317
000080 7a 09 1f bc 1d f8 09 3c 29 d2 17 3c a0 2c bc bb
       -0.009706849 0.008420971 0.009266415 -0.0057426244
000090 c2 41 18 bc 17 0f 1f 3a f5 9a 15 3a bf f6 10 bb
       -0.009293022 0.0006067617 0.00057069893 -0.0022119728
0000a0 df 0a d7 bb 72 85 0d 3c c6 18 28 3c a9 aa a5 3c
       -0.006562575 0.008637773 0.010259813 0.020222979
0000b0 9e 6e 89 bc 65 56 78 bb fe 18 e5 bb a3 e3 8e 3b
       -0.01677638 -0.0037893292 -0.0069915047 0.0043606325
0000c0 b3 93 e8 ba ff c8 4a bb d2 16 e2 bb 97 43 a7 3c
       -0.0017744213 -0.0030942557 -0.006899693 0.020417972
0000d0 3f c7 29 bb 2c 39 8b bb 75 7b 63 bc 1c e9 bf 3a
       -0.0025906113 -0.004248759 -0.013884415 0.0014641616
0000e0 db f8 c3 3b 5f 38 27 3c ad 82 d3 3c 0f 6b 43 3a
       0.0059805936 0.010206311 0.025819147 0.00074546126
0000f0 c0 3c 81 3b f4 ac 37 bc 09 23 80 ba 90 f7 dd b9
       0.0039440095 -0.011210669 -0.0009776066 -0.00042336853
000100 02 00 67 3c f0 3b 44 3c fa 4f 5c bc 85 c3 8b bb
       0.014099123 0.011977181 -0.013446802 -0.004265251
000110 7b d5 2c bc b7 a4 2c bb ca 5c b6 3b 3f e9 45 bc
       -0.010548945 -0.0026343295 0.0055652605 -0.012079536
000120 b4 bc 34 bc fb 33 f8 ba 46 9e c0 3b c8 75 5b bc
       -0.011031318 -0.001893639 0.0058782427 -0.01339478
000130 03 eb 25 3c ff c8 3a bc 78 ec 8f 3b a1 a3 06 39
       0.010126832 -0.01140046 0.004392203 0.00012840192
000140 2b fb 5d 3c f5 38 0f bc 1c 47 28 3c 63 ba 57 3b
       0.013548653 -0.008741607 0.01027086 0.0032917492
000150 c3 2a 86 3c 2e 8e 99 3a 5d 65 0d 3b 64 40 40 3b
       0.016377812 0.0011715346 0.002157531 0.0029335255
000160 23 eb e6 bb 2a e1 2a 3c 73 21 08 3b 9b 28 9d 39
       -0.0070470734 0.01042966 0.002077189 0.00029975627
000170 66 c9 66 ba f7 bf 78 3b cd d7 cc 3b 19 c8 0f bc
       -0.00088038144 0.0037956217 0.0062513114 -0.008775734
000180 ab 2c c5 b8 c7 90 4b 3c 0f ad 36 bb b4 a3 95 3c
       -9.402012e-05 0.012424654 -0.0027874147 0.018266536
000190 9d 30 3b bc fa a8 c8 bb 79 7e 01 3c f6 ff 5b bb
       -0.0114251645 -0.006123659 0.007903689 -0.0033569313
0001a0 8f 60 15 3c 06 16 91 bc c2 9c 69 b9 ac 48 b4 3b
       0.00911726 -0.017710697 -0.00022279008 0.005501827
0001b0 63 5e c9 3b e0 9a 6e 3c ef 79 9e 3b 6e d3 6c 3b
       0.006145285 0.014563292 0.004836313 0.0036136764
0001c0 28 9a 00 bc 24 05 24 3c 4e 41 bc 3b a9 33 0c ba
       -0.007849254 0.010010991 0.0057450896 -0.0005348274
0001d0 dc dd 07 3c f6 d2 c6 3b 73 9a fc bb e4 f1 5c 3b
       0.0082926415 0.006067629 -0.0077088415 0.0033713514
0001e0 a1 fe 3b bc 47 e1 16 bc 6d 0d 74 3b 93 7f 51 3c
       -0.0114742825 -0.009208984 0.0037239448 0.012786764
0001f0 dd 01 84 3c 5f e6 f6 3b 85 12 10 bb 09 01 0d bc
       0.01611417 0.0075347866 -0.0021983695 -0.008606204

network_body._body_endoder.seq_layers.2.weight f4 [128, 128]
000000 50 70 f3 3d a0 f5 08 bd 6a eb 83 bc 5c 02 1b 3e
       0.11886656 -0.03343737 -0.016103465 0.15137619
000010 52 d5 3e bd 46 98 12 3d 72 e9 2a 3d 8b 23 d3 bc
       -0.046590157 0.03578975 0.041726537 -0.025773784
000020 76 e1 ee bc a4 6d 19 3c 79 39 fd 3c f0 c9 0f 3d
       -0.029160243 0.009364519 0.030911194 0.035104692
000030 cb 6c d7 3d 70 5f 97 bb 03 88 1c 3e 37 74 8f 3c
       0.105187975 -0.0046195313 0.1528626 0.01751147
000040 25 e8 80 3b ff 12 bb bd 1e 33 20 3d 27 ef 29 3e
       0.003933924 -0.091344826 0.03911125 0.16595136
000050 5e fe a8 3c 2d 15 0d bd fa 94 72 bd f2 b4 c1 bd
       0.020629104 -0.034444023 -0.059224106 -0.09458341
000060 79 75 c5 bc 04 99 fd bd 87 c0 a2 ba 32 51 a9 bd
       -0.024103867 -0.12382701 -0.0012416997 -0.0826744
000070 bf d5 54 bd 31 41 df 3b 5f 7c 92 bd 08 ff c4 bc
       -0.051961657 0.0068131913 -0.07152628 -0.02404739
000080 99 59 bf bb 2a 35 28 bd 10 2a da 3d 15 9f 1b bc
       -0.0058395383 -0.041066326 0.10652554 -0.009498377
000090 2e 90 58 3d ce 78 59 bd 6c bf 1e be cc b4 0b 3d
       0.052871875 -0.053093724 -0.15502709 0.03410797
0000a0 70 d3 14 3e fa e6 bf 3d bb 24 8a bd d6 7d 12 3e
       0.14533782 0.09370227 -0.06745287 0.14305815
0000b0 be 15 8a bd 0a dc 4f bc 43 fc a5 3d 6d 7d 2c 3d
       -0.06742428 -0.012686739 0.08104756 0.042111803
0000c0 d1 f7 76 3b 9c 10 b4 3b 99 e8 6a bd 08 11 88 bc
       0.0037684331 0.005495144 -0.05735073 -0.016609684
0000d0 44 30 c5 bb 21 69 02 bd 54 da 9a bc 20 51 c6 bd
       -0.0060177166 -0.03183854 -0.018902935 -0.09683442
0000e0 d3 da 06 3c c4 33 ae bd 03 9d a9 3d 6d 3e 1d 3e
       0.008230883 -0.08505967 0.08281901 0.15355845
0000f0 b4 fe 6b 3d 70 c6 94 3d 84 8c 99 bc ee 5c 2a be
       0.05761595 0.072644114 -0.01874376 -0.16637012
000100 58 24 d2 bd c9 12 b6 3d 38 ea 93 ba 27 01 06 3d
       -0.10260838 0.08890302 -0.0011285013 0.032715943
000110 6f 27 9a 3c 97 6b 7e 3d 3b b6 49 3d dc 84 b3 3d
       0.018817632 0.062114324 0.049246054 0.08765575
000120 21 d2 8e bd 2b 99 4d 3d 3b 91 69 bd 94 93 2c 3e
       -0.06973673 0.0501949 -0.05702327 0.16853172
000130 2c 9b 92 3d 96 77 ba bc 20 3b 05 3e a0 c2 f4 bd
       0.07158503 -0.022762101 0.13010836 -0.11951184
000140 e1 ad c3 bd d3 ea 4d bd ee 8a 46 3d 9b c2 c6 3d
       -0.09554649 -0.050272774 0.048472337 0.09705087
000150 16 ea 96 bd d8 d7 6a bd 95 ac 0a 3d 64 4e e1 bc
       -0.07368867 -0.05733475 0.033855993 -0.0275032
000160 15 bb bc 3d 46 1e bd 3d 63 09 9f bd 38 d5 a3 3d
       0.092153706 0.0923429 -0.07765462 0.079996526
000170 08 42 d0 3c ad f4 5a 3d 0a 01 c8 3d 5b 84 cc bd
       0.025422111 0.053455997 0.09765823 -0.09986182
000180 44 67 d3 bd d3 91 3e bb 66 bf a3 bd f3 b2 ff 3d
       -0.10322431 -0.0029078617 -0.07995491 0.12485304
000190 2e 89 8e 3d 29 62 ac bd ae 2e e2 3d b9 b0 05 3d
       0.06959759 -0.0841716 0.1104406 0.03263924
0001a0 c7 b1 9b bd d2 90 83 3d 9b 17 3e be 35 67 2e be
       -0.07602268 0.06424107 -0.18563692 -0.17031558
0001b0 be 2f c7 3d 4a f8 0d 3e 19 4a 36 bd b5 10 32 3c
       0.09725903 0.13864246 -0.04450426 0.010868241
0001c0 04 c7 b7 3c e0 b7 61 3d de e4 bc bd cc 8b d5 ba
       0.022433765 0.055106997 -0.092233405 -0.0016292273
0001d0 25 d7 9f bd 3c 29 58 3b d7 7f 38 3e 7b 40 50 be
       -0.078047074 0.0032983562 0.18017517 -0.20337097
0001e0 e9 ec e7 bc 44 1c 07 be 00 23 19 bd 28 5f 2f 3b
       -0.02831121 -0.13194376 -0.037386894 0.0026759598
0001f0 19 dd fb 3d a3 a4 bd bd 51 fb a6 3d 2d 0c ad 3d
       0.122980304 -0.092599176 0.081534036 0.08449588
000200 76 b9 c3 3d 7e f7 b8 bd e6 ac 02 be cf 91 5f bd
       0.09556858 -0.090315804 -0.12761268 -0.054582413
000210 d5 7d af bd a6 b3 ad bb c4 b2 b6 bd b6 ba 0a 3e
       -0.085689224 -0.005300957 -0.089208156 0.13547787
000220 9e e6 ea bc 37 d1 09 3d e9 9f fe bc 18 79 e7 3c
       -0.02867442 0.03364679 -0.03108211 0.028255984
000230 d4 b0 ac 3d 1a e5 0a bd ad 3c da 3b 00 16 ea bd
       0.08432165 -0.033909895 0.006660065 -0.114299774
000240 39 1b a2 3c 25 35 a9 3c 66 e4 9c 3d be 34 3b 3c
       0.019788371 0.020655224 0.07660751 0.011426149
000250 19 41 20 3d c0 05 16 3d 51 30 d6 bc 32 5e 0e 3c
       0.039124582 0.036626577 -0.026146086 0.00868945
000260 ab c5 ab bb 4f bc 82 bd af 00 a5 bd b2 f2 24 3e
       -0.0052420697 -0.06383573 -0.08056771 0.16108206
000270 fb db 91 bd 00 7e 29 bc 5a fa 84 3c 94 b9 9c 3d
       -0.07122036 -0.010344982 0.016232658 0.07652584
000280 35 61 61 bd d9 a7 ec 3d 27 49 34 bd c6 d5 90 3d
       -0.055024344 0.11555452 -0.044015076 0.07072024
000290 e4 19 14 3d 0c fb 4c 3d 63 c6 03 3e 2f fb 8a bd
       0.036157504 0.050044104 0.12868647 -0.06786191
0002a0 e1 e4 c3 bd 32 4f dc 3d 27 39 a1 3d 54 ec 4f bd
       -0.095651396 0.10757293 0.07872229 -0.05076249
0002b0 de 6f 20 3d 27 af d2 3d 07 92 b0 bd f5 bc 9f bc
       0.039169185 0.10287314 -0.086216025 -0.019499281
0002c0 e8 ea 8d 3d d7 4f bd bd de 43 46 bd 49 cf e9 bc
       0.069295704 -0.09243744 -0.048404567 -0.028541224
0002d0 0b aa 8d bd 33 7b 28 3e 25 30 fc bd 6f bb 1e 3d
       -0.06917199 0.16453247 -0.1231387 0.03875297
0002e0 f7 46 2b 3d 2c 7e 14 bc 46 b8 08 be a0 79 a3 bd
       0.041815724 -0.009063285 -0.13351545 -0.079821825
0002f0 21 78 47 3d 50 43 67 bd ef e5 3f 3d 05 30 9c 3c
       0.04869855 -0.05646068 0.04685014 0.019065866
000300 5d 9e 09 3d 27 89 4f bd 45 f3 30 3d 51 85 7a bd
       0.033598293 -0.050667908 0.04320075 -0.061162297
000310 24 64 f2 3d 04 ba f8 bd 76 df 78 bd 8f 86 81 3d
       0.118355066 -0.12144855 -0.060759984 0.06324493
000320 38 56 89 bd 4e 9f 12 be 1f 5e d4 bd d2 42 c8 bd
       -0.06705898 -0.14318582 -0.10369515 -0.0977837
000330 d2 a2 0f 3d 57 79 37 3e 1a ae 0d 3d c5 8a 21 bd
       0.035067387 0.17917381 0.034589864 -0.03943898
000340 eb 0b 0c 3d ed ea 82 3c 7f 33 f6 3d 42 9f 27 3e
       0.034191053 0.015981162 0.12021541 0.16369346
000350 b0 f7 6b bd 7c 5f 0f be ce bb 20 3e 47 18 0d 3e
       -0.05760926 -0.14001268 0.15696642 0.13778792
000360 02 a1 21 be c7 25 81 bd 78 20 76 bd 1c ae 0b 3d
       -0.15784076 -0.063060336 -0.06008956 0.03410159
000370 3c 93 b8 3d 32 4e 62 3d 9a 56 23 3d 23 eb cb bd
       0.09012458 0.055250354 0.03987751 -0.09956958
000380 00 a5 12 3e 7b 1b dd 3d ec ca 3a 3d 47 67 02 3c
       0.14320755 0.10796257 0.045603678 0.007959194
000390 2f 38 3c be d1 9b 91 bd 71 9a 83 3d 8a 26 74 3d
       -0.18380807 -0.07109798 0.06425942 0.059607066
0003a0 9e 43 e9 3c e1 a6 b4 3c 8d 06 39 bd 5c 99 74 bd
       0.028474625 0.02205223 -0.045172263 -0.059716567
0003b0 7f 5b dc 3c e6 dd 07 3e e9 ff 89 3d 45 dd 17 3d
       0.026899097 0.13268241 0.06738264 0.037076253
0003c0 0d 66 7d 3d a4 bd f0 bd 66 bb 79 ba de cf 88 bc
       0.0618649 -0.11754921 -0.0009526521 -0.016700681
0003d0 71 21 57 3d 9e d2 b5 bd 1c ef 04 bd 4f 7e 1a 3e
       0.052522127 -0.08878063 -0.032454595 0.15087245
0003e0 80 d0 d5 3d d3 59 89 bd 73 0f 96 3c 46 d9 4c bd
       0.10440159 -0.06706586 0.018317914 -0.050011896
0003f0 a5 87 98 3c b4 43 14 be fe 22 cc 3d bc 0b 42 bd
       0.018619368 -0.14478952 0.09967612 -0.047374472

network_body._body_endoder.seq_layers.2.bias f4 [128]
000000 29 88 c7 ba 49 42 36 3b 17 91 0c 3c e8 ee 8d 3c
       -0.0015223074 0.0027810505 0.008579514 0.017325833
000010 eb 9c 1e 3c e3 74 96 bc 35 e5 5a bc b8 24 c7 b8
       0.009680967 -0.018366283 -0.013360311 -9.495899e-05
000020 db c1 d0 39 b5 6d f5 bb 19 bd d6 3b 26 c3 e2 bb
       0.00039817285 -0.0074898847 0.006553304 -0.006920236
000030 4f 55 bc ba 3e 31 2f bc f6 26 d6 3b 7b 24 25 bc
       -0.0014368686 -0.010692893 0.006535406 -0.010079498
000040 da 0f 93 3b f9 8e e3 3b af 0a 12 bb a4 e3 94 3c
       0.0044879736 0.006944534 -0.00222842 0.018174954
000050 10 0f 8d 3c 1d f2 e2 bb f1 30 29 bc 99 dc 03 bc
       0.017219096 -0.006925835 -0.01032661 -0.0080482
000060 6c 0f be ba e6 e1 45 bb 57 0f 46 bb 50 28 06 bc
       -0.0014500446 -0.003019446 -0.0030221546 -0.008188322
000070 70 56 c6 ba b0 21 d6 3b ca 88 9a 3b 86 c5 fb 3b
       -0.0015131962 0.0065347776 0.0047160136 0.0076834587
000080 01 30 a3 bb 2a 61 f2 3a 80 e1 f4 3b a5 ec d6 bb
       -0.0049800877 0.0018492092 0.0074731708 -0.006558972
000090 ba 22 4f bb 2a f6 f9 bb 28 41 01 bb bb 4e ac ba
       -0.0031606392 -0.007628222 -0.0019722674 -0.0013146022
0000a0 d2 ba 95 3b b8 d4 8e bb a0 d5 ed bb d4 8f 3f 3a
       0.00456939 -0.004358854 -0.007258132 0.0007307504
0000b0 d7 70 35 3c 4a 69 52 bb 14 30 26 bb 63 dd 78 3c
       0.011074266 -0.0032106214 -0.0025358247 0.015189501
0000c0 1e 24 a7 ba e8 2c 89 bb ce c0 c0 bb 6c b1 cf 3c
       -0.0012751853 -0.0041862614 -0.005882359 0.025353156
0000d0 49 7e 0a bb 50 56 97 3c e5 2b 2e bc 8f 10 b0 bb
       -0.00211324 0.018473774 -0.010630582 -0.0053730677
0000e0 fe a9 ad 38 9e 15 e5 3b fc c1 75 bb e5 2c f8 3b
       8.280946e-05 0.0069911024 -0.0037499657 0.007573711
0000f0 0c 96 e9 3b 57 87 5c bc b3 c3 6d 3b e6 af 02 bb
       0.0071284827 -0.013460002 0.0036279976 -0.001994127
000100 ea c2 91 bb 25 f2 3d 39 f2 0f 8d b9 36 7a 00 bc
       -0.0044482844 0.0001811465 -0.00026905496 -0.007841637
000110 48 13 bf bb 3c 4f 89 3c 21 3c 87 bb 4e 08 88 bb
       -0.005831156 0.016761415 -0.004127041 -0.0041513806
000120 bd b0 25 3c 42 82 c1 bb 8f e5 d9 3b 90 21 4c bb
       0.0101129385 -0.0059054205 0.00664968 -0.0031147934
000130 a9 7c 27 3b 25 ed 4b bc fd 9c c0 ba c0 20 ab bb
       0.002555648 -0.012446676 -0.0014695224 -0.00522241
000140 83 e9 2b 3b bc 2a 58 bb 3b 93 4a bc f2 ee 38 3b
       0.0026231713 -0.0032984456 -0.012364204 0.0028218594
000150 15 47 8a 3c b7 90 d1 3a ca cc 1f 3c 1c aa bc 3b
       0.016879598 0.0015988563 0.009753415 0.0057575833
000160 26 86 09 bc 53 49 0f bc 91 7a 93 bc 4d e5 a5 3b
       -0.0083938 -0.008745509 -0.01800278 0.005062735
000170 6b ed 8c 3b 8d dc 41 bb 95 2a 20 3d 0b d5 41 39
       0.0043007634 -0.0029580921 0.03910311 0.00018485279
000180 cd d0 9f bb 56 be 62 3a 0b 21 97 bb 9a 5c 2f bb
       -0.004877186 0.0008649578 -0.0046120933 -0.0026758076
000190 72 a9 0e bc 8c d5 25 bc 2d 9a 22 3c cf 33 07 38
       -0.008707391 -0.010121714 0.009924454 3.223476e-05
0001a0 8a 79 34 3b 09 b3 ae 3c 8e 0a 23 bc 58 a3 46 3b
       0.0027538263 0.021325605 -0.009951247 0.0030309763
0001b0 65 ba b3 ba f4 33 09 3c 74 bc 6a ba ab 75 10 3b
       -0.0013712166 0.008374203 -0.00089544733 0.0022042792
0001c0 a3 39 c4 3b 90 ee d1 bb e0 e8 4f ba 59 17 9b 3c
       0.005988316 -0.0064066127 -0.00079311244 0.018932031
0001d0 c5 d4 92 3b 8e 59 a5 bb ad 7e c5 3b b2 bd df bb
       0.0044809305 -0.005046076 0.006027064 -0.0068280334
0001e0 55 a0 c1 3a 53 32 ea 3a e4 58 46 bb 5f 3d b5 bb
       0.0014772514 0.0017867781 -0.0030265385 -0.0055309976
0001f0 9d 27 ae 3b 37 1b 9a bc 0a 37 2d bb 50 a0 46 bb
       0.005314781 -0.018811805 -0.002643051 -0.0030307956

action_model._continuous_distribution.log_sigma f4 [1, 2]
000000 37 b2 47 bc d4 e0 7c b9
       -0.012188486 -0.00024116348

action_model._continuous_distribution.mu.weight f4 [2, 128]
000000 cf d3 51 bc 16 db fb bc c2 80 81 bc 2d 54 8c 3b
       -0.012806847 -0.030744117 -0.015808467 0.0042824955
000010 ed 9a eb bc ee 7f 48 bb 11 fc bc bc e5 8d 01 3d
       -0.028760398 -0.003059383 -0.023069413 0.03162946
000020 99 9b 2f bc 79 a4 a2 bc bf a0 74 3d 2f fe 9c bb
       -0.01071825 -0.019853817 0.059723612 -0.0047910432
000030 1a 00 03 3a 25 55 77 3c ed 96 a7 3c b7 3e e2 3b
       0.00049972686 0.015095984 0.02045771 0.006904449
000040 34 2b c7 3b 76 62 5f 3b 46 ef 7a ba fb 8a 10 bc
       0.0060781483 0.0034085787 -0.00095723977 -0.008822198
000050 03 7c f4 bc 6f 62 15 3b 0b 76 05 3c 81 3e 65 bc
       -0.02984429 0.0022794267 0.008145819 -0.013991953
000060 ef f7 23 bc 31 9c 9c 3c dd 68 7d 3c 1c af 32 3d
       -0.010007842 0.019117447 0.015466896 0.04362403
000070 28 2c 7a 3c 30 23 bd 3b 27 1a f5 bb c3 df e8 bc
       0.015269317 0.005772017 -0.0074799242 -0.02842701
000080 4f da cb bc cb b5 30 3c 75 a3 a6 bb 49 88 8a bc
       -0.024884371 0.01078553 -0.0050854036 -0.016910689
000090 ad 00 0e 3b e2 01 e1 bb c0 de d3 38 cc ad ae bc
       0.0021667883 -0.0068666795 0.000101027545 -0.021323107
0000a0 2f 24 9c bb dd 90 a1 bc 6b 32 87 3c 76 13 9e bc
       -0.0047650556 -0.019722397 0.016503533 -0.01929639
0000b0 c0 47 4c bc 12 ce 19 3d a1 e3 2a 3c e7 db f9 bc
       -0.012468278 0.03755004 0.0104302475 -0.030500365
0000c0 7a 70 f9 3c 7c 6a 1a bd 38 b2 b7 3b dd cc 4e bd
       0.03044914 -0.037699208 0.005605962 -0.05048834
0000d0 cd 34 c4 3c 63 9b 36 bc b2 3a 1a 3d 7c 73 08 39
       0.023950959 -0.0111454455 0.037653632 0.00013012992
0000e0 d7 b9 8e 3c bd d7 8a 3c 6a 38 9c bc f3 8c d2 3c
       0.0174226 0.016948575 -0.01906987 0.025701975
0000f0 07 4e 99 3c 71 ab cf 3c 74 12 2b ba a5 ff 80 3b
       0.018713964 0.025350304 -0.0006525882 0.003936725
000100 c0 93 3d bc 74 2b a4 bc 89 dc 96 3c 24 ef 31 3c
       -0.011570871 -0.020040251 0.018415706 0.010860238
000110 ea dc b8 bb 54 dc 02 bd 97 4e 5c bb 7b 97 c4 bc
       -0.0056415694 -0.031948403 -0.003361618 -0.023998013
000120 dd 18 17 bd 6a 4e 31 bb 87 f5 0e bc 89 56 63 3c
       -0.036888946 -0.0027054795 -0.0087255305 0.013875612
000130 9c 84 4a 3b 8a 1c 17 3c 8e a7 db 3c f5 09 35 bc
       0.0030901795 0.009223113 0.026813295 -0.011049737
000140 68 b1 19 3d f7 e6 69 3b a7 8e 8d bb 6e c6 04 bc
       0.037522703 0.0035690644 -0.004319984 -0.00810395
000150 8e b7 8d bc 60 3f 48 bc 50 8c 57 3c cf 1a cd bc
       -0.01729944 -0.012222141 0.013156012 -0.025037197
000160 f6 d4 a8 3b e4 97 50 3c 2e e2 da 3c 4b ee 9d 3c
       0.00515234 0.012731526 0.026719179 0.019278666
000170 b3 07 3f 3c 3a 06 99 38 60 7d b1 bc a7 1f 18 bc
       0.0116595505 7.296768e-05 -0.021666229 -0.00928489
000180 b6 3e 52 3c 2f bc 83 bc 77 46 5f bb 13 25 af 3c
       0.012832334 -0.016080944 -0.00340691 0.021379983
000190 bd e4 bc bc 14 34 38 bc da a0 ba bc bc ab 20 3d
       -0.02305829 -0.011242885 -0.022781778 0.03922628
0001a0 58 fe 04 3d e9 ec 45 bc 25 c4 c2 bb 75 eb 0c 3c
       0.032469124 -0.01208041 -0.0059437924 0.008601059
0001b0 a2 ad af 3c 00 84 8a bb 0f 08 18 3b 23 ad 03 bd
       0.0214451 -0.0042271614 0.0023198163 -0.032147538
0001c0 9a 1b c5 bb 3a 01 eb 3b ec a7 b3 3c ce fb 8b bc
       -0.0060152533 0.007171777 0.021930657 -0.017087843
0001d0 ff 5e 4d bd 0a 7f 37 3c c5 d0 7d bc be 74 ee bb
       -0.050139423 0.011199722 -0.015491669 -0.0072771003
0001e0 40 9c 8a bc 10 01 c4 bc d2 08 f8 bc 15 05 20 bc
       -0.016920209 -0.023926288 -0.030277643 -0.009766837
0001f0 e0 f4 d4 bc 63 a4 da 3c 48 75 9c 3b 32 a0 71 bc
       -0.025995672 0.026689714 0.004774723 -0.014747666
000200 94 7a a5 3a 19 28 b5 3a 86 b7 2e bd 17 18 9f bc
       0.0012625032 0.0013821154 -0.04265549 -0.019420667
000210 ff 2e dc bc fc de c9 3a ef f0 65 bc c4 10 ad ba
       -0.026877878 0.0015401538 -0.014034494 -0.0013203849
000220 37 21 c0 bb 94 7a 46 3d a9 5e 8b bb 01 c9 8d 3b
       -0.0058633345 0.048456743 -0.0042532277 0.00432694
000230 18 c8 dd 3b 76 1e c6 3a 8d 35 5d bc eb cf 41 3a
       0.006768238 0.0015115279 -0.013501537 0.0007393348
000240 e0 86 0a 3c 04 7c 19 bd 84 a9 ff bb 8e 93 25 bc
       0.008455008 -0.037471786 -0.0078021903 -0.010105981
000250 5f 95 4c 3c d8 eb 51 ba b3 c5 85 3c 09 5e 13 3c
       0.012486785 -0.0008007861 0.016329622 0.008994588
000260 21 8a 7a 3c 69 cc bb bb e2 98 9e 3c 18 53 8d 3c
       0.015291722 -0.0057311547 0.01936001 0.017251536
000270 d2 25 b6 3b f8 dd 27 bc 02 1e d9 bb 21 b5 97 bc
       0.0055587078 -0.010245793 -0.0066258917 -0.018518986
000280 39 c2 00 3d 2f 2d 38 bc 63 9a 9a 3c 69 68 77 3b
       0.031435225 -0.011241241 0.018872445 0.0037751442
000290 82 d3 dd 3b be ab 85 3c e7 71 4f 3c 05 3a 11 3c
       0.0067695985 0.016317245 0.012661434 0.008863931
0002a0 ce 34 54 bc 88 f8 bd 3c b3 9e c4 3c 3c 49 04 3d
       -0.012952043 0.023189798 0.024001455 0.032296404
0002b0 24 5d b6 3b 2c f2 72 bc 61 19 ad 3c 0c b9 39 3c
       0.0055653024 -0.014828246 0.021130266 0.0113356225
0002c0 6b fa 01 3d 65 d4 a9 3c f5 07 4a 3c 09 33 a9 3c
       0.031732958 0.02073116 0.012330999 0.020654218
0002d0 e5 8a 8b 3c 62 11 2e 3d 6a 4b d4 bc 90 63 13 bc
       0.017034004 0.042497046 -0.025914866 -0.0089959055
0002e0 16 2e e7 ba c6 07 86 3c 8d 32 f4 3b b5 2b eb 3c
       -0.0017637636 0.016361129 0.007452315 0.028707365
0002f0 6f bb 20 bc fe 54 35 3d 61 27 4d bd 7c ae 47 bc
       -0.009810313 0.044270508 -0.050086383 -0.012187596
000300 f3 08 0b 3c 39 12 ed 3a d6 5c 07 bc 3b c4 85 3c
       0.00848602 0.0018087096 -0.00826188 0.016328922
000310 a0 b5 ed 3a 39 ab 8a 3c 46 f2 83 3c 05 c7 39 3d
       0.0018135794 0.016927348 0.016106736 0.045355815
000320 b2 cb fb 3b 45 70 5f bc e1 ab 21 bc e0 9e ca bc
       0.0076841945 -0.013637607 -0.009867639 -0.02473396
000330 1b cb 0e 3d 71 80 8e bc 51 5c 0d 3c dc 7d f3 3c
       0.034861665 -0.01739523 0.008627967 0.0297231
000340 d1 e5 29 bc 0b 13 d8 3b fd 4a 24 bc 90 44 2b 3d
       -0.010369734 0.006594067 -0.010027644 0.041813433
000350 44 3b aa bc 7e 1e 73 3c 92 22 3b bc 4c d1 86 bb
       -0.020780213 0.014838813 -0.011421816 -0.0041143056
000360 b0 2d b7 3c 21 84 21 3d aa e9 24 3c 04 cb 81 bb
       0.022360653 0.03943265 0.0100654755 -0.003960969
000370 41 8d 2f bc 35 a2 6d 3c 21 7b 98 3d 84 51 b2 ba
       -0.01071483 0.014504005 0.0744536 -0.0013604616
000380 8f 0c 4d 3c 87 95 08 bc 92 81 d9 3c c1 0b 7e bc
       0.012515201 -0.008336431 0.026551042 -0.015505732
000390 2c dd 8d 3c 05 74 d6 3c b5 f9 18 3b 89 8d 73 bc
       0.017317377 0.02617837 0.0023342196 -0.014865288
0003a0 27 54 0e 3d 2a e1 94 bc f2 a3 04 3c 88 34 9e bc
       0.034748223 -0.018173773 0.008095728 -0.019312158
0003b0 c2 af 31 bd ee 06 2d bc 9a c1 8e bc b6 3c 94 bc
       -0.043380506 -0.010560734 -0.0174263 -0.018095355
0003c0 7f 43 ca bc 65 ff 16 3c e3 d0 8c bb 4e 13 c3 bc
       -0.024690388 0.009216164 -0.004297362 -0.023812916
0003d0 d8 8d 0a 3c 86 ff a2 3b 4f b8 03 bd e0 e8 52 3d
       0.00845667 0.0049743084 -0.032158192 0.05149162
0003e0 c6 94 ba 3c 5b 0d c4 3b ca 75 5e 3c 18 67 aa 3c
       0.022776019 0.0059830374 0.013577888 0.020801112
0003f0 72 64 e5 bc c6 92 5a bc 96 14 b8 3c cb 95 5f 3c
       -0.028001998 -0.013340658 0.022470754 0.013646553

action_model._continuous_distribution.mu.bias f4 [2]
000000 79 25 b4 bb 1e a8 ef bb
       -0.005497631 -0.0073137423

action_model._discrete_distribution.branches.0.weight f4 [5, 128]
000000 6a c2 83 3c 50 5f 84 3b 70 e1 44 bc 2f ff 58 3c
       0.016083915 0.0040396824 -0.012016639 0.013244434
000010 83 b0 45 ba 29 30 68 3b 50 fe bd 3c 24 86 58 bc
       -0.0007541256 0.0035429096 0.023192555 -0.013215575
000020 6a a5 07 bc ee 50 57 bb c6 ba 0f bc 43 79 13 b9
       -0.008279184 -0.0032854634 -0.008772558 -0.00014064186
000030 80 41 0b bc a4 8b 15 3c 68 a1 2f bc cd ee 84 3c
       -0.008499503 0.009127531 -0.010719635 0.01622715
000040 65 86 77 3b 39 d4 81 bb ad 4e cc 39 d8 d2 a3 3b
       0.0037769314 -0.0039620665 0.0003896853 0.0049995
000050 af b7 c1 3b 18 41 56 bc 08 80 62 3c 44 48 16 bc
       0.0059117894 -0.013077043 0.01382447 -0.009172503
000060 fd a7 b7 bc f8 49 56 3c fc dc 8e bc 61 24 a0 bb
       -0.02241897 0.013079159 -0.017439358 -0.004887149
000070 5c d0 a5 bc e3 0b cc bb 20 84 45 3c 52 54 11 ba
       -0.020240955 -0.006227003 0.012055427 -0.0005543876
000080 df 62 6b bc fe eb 8d 3c 80 e7 bc bc 82 b3 b4 3c
       -0.014366834 0.017324444 -0.023059607 0.022058252
000090 c7 89 20 3b 75 ec 0d 3b ee 81 84 bc 37 a3 06 bc
       0.0024496184 0.0021655832 -0.016175237 -0.008217624
0000a0 1c 93 25 bb 86 80 d8 bb 93 da 48 3b 8c c3 4d bc
       -0.0025264686 -0.006607118 0.0030647859 -0.012558829
0000b0 75 e9 b3 3a 5c 84 00 38 65 d0 c3 3b 90 83 13 bc
       0.0013726192 3.0640847e-05 0.0059757703 -0.009003535
0000c0 5e f5 a5 bb 94 73 5e bb 8d 07 4a bc 51 ed 5f bc
       -0.0050646504 -0.0033943402 -0.012330902 -0.0136674205
0000d0 51 1a b3 bb ee c6 0d bc 6e b9 38 bc c1 92 0f 3c
       -0.0054657836 -0.008653386 -0.011274679 0.008763016
0000e0 8f 13 a7 bb 33 ed 73 bc 22 7e bb bb 45 6a 4f 3c
       -0.005098767 -0.014888096 -0.0057218233 0.012659614
0000f0 79 67 4c bc cc a0 8a 3c ae b7 5d bc f6 a1 1c 3a
       -0.012475842 0.016922377 -0.013532562 0.0005975062
000100 04 f1 f5 3b c5 e9 c3 3b 5b ce 20 3c 61 fd da bc
       0.007505538 0.0059787952 0.009814824 -0.026732149
000110 41 47 5b 3a 60 9f ea 3b 10 23 75 bc 34 a1 6d bb
       0.00083648047 0.0071601123 -0.014961973 -0.0036259415
000120 a4 36 1c 3c ae f5 8e 3c 85 9d be 3b 12 be d3 3b
       0.009534512 0.017451134 0.0058171176 0.006461867
000130 1a 7b e9 3c 44 69 86 3a d8 3e a1 3a 05 64 e3 ba
       0.028501082 0.001025476 0.0012302054 -0.0017348534
000140 21 4c 7a 3c 12 b6 cc bb a9 46 97 3c a8 a5 74 bc
       0.01527694 -0.0062472904 0.01846631 -0.014932074
000150 e6 e7 1a 3b d0 5b e6 ba 0b 43 64 3c f4 47 6b 3b
       0.0023636757 -0.001757497 0.013932 0.0035901042
000160 55 06 07 bc cb fa a3 bb 6b c2 24 ba 35 1d 93 3b
       -0.008241256 -0.005004262 -0.0006285074 0.0044895657
000170 9f 1b 8b 3b ba 30 8b bc ec 76 43 bc ba dd ca ba
       0.004245236 -0.016991008 -0.011930209 -0.0015477457
000180 93 73 d1 3c 75 de b5 3b b3 7d 61 ba 33 eb 6e bb
       0.025567805 0.0055502006 -0.00086017995 -0.0036456108
000190 b8 aa bb 3b bb f5 7c 3b f2 15 60 bb 90 a5 73 bb
       0.0057271384 0.0038598615 -0.0034192768 -0.003717754
0001a0 57 f7 43 3c 2f 46 8b bb f5 bd 04 3c b2 ed f4 bb
       0.011960826 -0.00425031 0.00810193 -0.0074746246
0001b0 06 6f 71 bc 56 5e 8f 3c 05 00 88 3b 1d 8e bb bb
       -0.014735943 0.017501038 0.004150393 -0.0057237283
0001c0 da f9 8a 3a bf d5 4d bc 85 60 ce bc 42 b0 7c 3b
       0.0010603026 -0.012563168 -0.025192508 0.0038557206
0001d0 1f 7f 11 ba 52 4e 0e bc 17 88 5d 3c 1d a0 99 3c
       -0.00055502536 -0.008685665 0.013521216 0.018753106
0001e0 15 2b a7 3b 6e 13 b3 3c f6 89 2b 3b 90 7d 51 bc
       0.0051015713 0.02185985 0.002617476 -0.012786284
0001f0 07 27 8b bc 31 b6 34 3a fe ed 8a 3c e8 01 b9 3b
       -0.016986383 0.0006893604 0.016959187 0.005645979
000200 e6 06 b6 bb e8 80 4d bc 28 a5 a1 3b cc c4 59 3c
       -0.0055550216 -0.012542941 0.0049330182 0.013291549
000210 33 ac e4 3b 3d 43 9f bb 5e b0 c4 3b 12 b2 1f bc
       0.0069785356 -0.0048603103 0.00600247 -0.009747045
000220 a2 fd 90 bc 88 87 ae bc 92 15 a4 bb 12 32 8f bc
       -0.017699067 -0.02130486 -0.005007454 -0.01747993
000230 6d 65 88 3c 2a b5 a9 bc 4e 59 d2 b8 e2 92 11 bc
       0.016649926 -0.020716269 -0.000100302146 -0.008885117
000240 d9 9e 6a bc 37 47 79 bc 13 40 84 3c af d8 19 3c
       -0.014320099 -0.015214733 0.016143834 0.00939004
000250 83 07 19 3b db 6e 6e bb d0 00 64 3c 04 7d 5f b9
       0.0023350425 -0.0036381993 0.013916209 -0.00021313509
000260 93 1c 9b ba 3a ac b4 bb bb 3d 72 ba c9 9f a2 bb
       -0.0011834077 -0.005513695 -0.0009240766 -0.0049628955
000270 d4 6b 07 3c b8 de e8 3a 8e 14 4a 3c 6b 12 c2 3b
       0.008265454 0.0017766571 0.012334002 0.0059226057
000280 27 56 da 3b 60 65 4e bb 32 4f 88 bb 63 66 12 bc
       0.006663102 -0.003149353 -0.0041598314 -0.008935544
000290 0a 84 43 bc da da 81 ba fc 84 ec 3b df 84 13 bc
       -0.011933336 -0.0009907142 0.0072180014 -0.009003847
0002a0 a1 0a 54 3b a6 b1 07 bc 4a ff fe 3a d1 16 a4 3b
       0.0032354968 -0.008282101 0.0019454744 0.0050076027
0002b0 36 6b 3a 3c f7 15 f5 3b 75 7f c3 bc 81 17 0a bc
       0.0113781 0.007479425 -0.023864487 -0.008428455
0002c0 d3 f0 e5 bb 63 bb 33 3b 4c 7a 36 3c 0d 89 0a bc
       -0.007017234 0.0027424924 0.011137556 -0.008455527
0002d0 e8 25 9b 38 66 a4 05 bc e9 57 19 3c 0c d3 f4 bb
       7.3980365e-05 -0.008156871 0.009359338 -0.007471448
0002e0 c9 c5 c9 3b 35 5f 45 3b 97 3d a7 ba 67 d4 2b bc
       0.006157611 0.0030116562 -0.0012759444 -0.010487652
0002f0 8a de 5f bc 71 93 5f bc eb 8e 48 3c c4 5c a7 bb
       -0.013663897 -0.013645993 0.012241106 -0.005107494
000300 08 a2 98 39 9f 19 b9 ba cf 6a 1b bc 83 8a be b9
       0.00029112422 -0.0014122016 -0.009485914 -0.00036342823
000310 f4 0f d0 bb 16 51 9d 3c e3 6d d7 3b a6 82 3f 3c
       -0.006349558 0.019203704 0.006574379 0.011688864
000320 36 8f 99 3b b2 a6 9b ba eb 6c 50 bb 68 7a cc bb
       0.0046862615 -0.0011875241 -0.0031803201 -0.006240178
000330 ed ed 1b bc 06 6a 91 bc 61 b9 9c 3c d8 da 13 bb
       -0.009517175 -0.017750751 0.019131364 -0.002256086
000340 b4 84 08 bb 6e 1e e4 ba 14 ae 67 3c 62 38 ad bb
       -0.002083105 -0.0017404088 0.014140625 -0.0052862624
000350 1a 18 44 3c bb 7f 35 3c 92 ac 4a bc 18 1d 87 3c
       0.011968637 0.011077817 -0.0123702455 0.016493365
000360 59 ae d9 bc 7f 7f fc bb 0b 49 05 bd 58 05 36 bb
       -0.026572393 -0.0077056284 -0.032540362 -0.0027774181
000370 b9 1f 9c bb 45 34 a9 bb 76 61 9d bb 40 ca 7b 3a
       -0.004764524 -0.0051637017 -0.004802878 0.0009605028
000380 95 16 d1 bc 06 12 57 bb 60 ce f8 3b 1c c4 d7 3b
       -0.025523463 -0.003281714 0.007592961 0.0065846574
000390 ec 82 9d ba 35 b9 2c bb 9a 76 5f bc e1 bb 93 bc
       -0.0012017167 -0.002635551 -0.013639117 -0.018033924
0003a0 ed b8 69 bc c4 3f ae 3c 85 e9 12 3c f9 06 2a bc
       -0.014265281 0.02127064 0.008966808 -0.010377639
0003b0 b7 76 29 3b 65 9b 34 bb 1c c5 4d bc 5b 68 b7 bc
       0.0025858113 -0.0027558443 -0.012559202 -0.022388628
0003c0 b7 44 6a 3c cd 91 e3 bb 63 ee a5 bb d9 b7 c0 bb
       0.014298609 -0.006944871 -0.0050638183 -0.0058812913
0003d0 7b 48 10 ba 40 dc 65 3c 3f 7e e1 ba cc c8 d0 bb
       -0.00055039645 0.0140295625 -0.0017203762 -0.006371593
0003e0 af 1e 75 bc 0a 93 98 bc fd 8b d0 ba 33 e2 b8 3a
       -0.014960929 -0.018624801 -0.001591086 0.0014105499
0003f0 12 35 95 bc b1 f6 97 ba 57 ae fb bc c5 60 93 bb
       -0.018213782 -0.0011593906 -0.03072278 -0.00449762

action_model._discrete_distribution.branches.0.bias f4 [5]
000000 28 e8 bb bb e2 6d 55 3b c0 55 0b 3b ad 3e 8c 3b
       -0.0057344623 0.0032566716 0.0021260828 0.0042799325
000010 e7 eb 76 bb
       -0.003767723

exp_avg f4 [128, 6]
000000 c7 7c 09 b9 f9 c6 a8 38 25 32 82 b8 90 be 93 b8
       -0.00013111821 8.047926e-05 -6.208223e-05 -7.045001e-05
000010 b8 8f c6 38 b4 52 e3 b8 00 26 3b 33 2d 63 34 b8
       9.4681454e-05 -0.00010839608 4.357389e-08 -4.300771e-05
000020 0a 49 a7 38 b0 b8 97 b8 70 38 54 b8 68 1e 57 38
       7.976785e-05 -7.234642e-05 -5.05973e-05 5.1288313e-05
000030 fe a9 74 b8 20 e7 b1 38 50 ef d2 b8 ed 12 3c b9
       -5.833245e-05 8.483068e-05 -0.00010058156 -0.00017936128
000040 2a 4c d1 38 d2 d3 d6 38 d8 43 3d b9 31 db 04 b7
       9.980083e-05 0.0001024377 -0.00018049718 -7.918848e-06
000050 a0 e4 20 b9 86 69 74 b9 19 4d 1c b7 95 6d 8c b9
       -0.00015343959 -0.00023308964 -9.316275e-06 -0.00026784526
000060 00 99 a6 37 bb fd 4a 38 93 a5 d1 b8 40 1f a5 b9
       1.9859988e-05 4.8396858e-05 -9.996737e-05 -0.00031494536
000070 32 d0 6e 38 e1 4d 5d b9 57 b1 b5 37 0b c9 b7 37
       5.693752e-05 -0.00021105215 2.1659462e-05 2.1908918e-05
000080 61 c9 6a b8 fc 0c 71 b8 ca 37 d8 37 12 36 f1 b8
       -5.5977496e-05 -5.747097e-05 2.5775185e-05 -0.00011501847
000090 8a 7f 22 b8 31 8b e0 36 14 72 28 b8 bd 5f 19 38
       -3.874259e-05 6.691924e-06 -4.0160565e-05 3.6567206e-05
0000a0 b0 15 04 37 77 3a 62 b8 f4 24 95 b8 f9 5a 1a b7
       7.872863e-06 -5.393705e-05 -7.111757e-05 -9.2002965e-06
0000b0 38 f1 6c b9 20 43 a3 b8 2f 98 35 b7 44 51 1c b9
       -0.00022596575 -7.784949e-05 -1.0823874e-05 -0.00014907593
0000c0 8a 64 f5 b7 96 04 92 b7 ba 02 d2 37 dd 0a d4 b8
       -2.9253093e-05 -1.7406692e-05 2.503522e-05 -0.00010110971
0000d0 25 c9 ab b7 30 f1 bb b5 52 26 38 b8 58 aa 54 b6
       -2.0478454e-05 -1.400278e-06 -4.3904707e-05 -3.1689615e-06
0000e0 a1 a1 87 b8 30 b6 53 37 f8 31 7a b6 bb 18 c3 38
       -6.4674074e-05 1.2618999e-05 -3.7281989e-06 9.302931e-05
0000f0 25 7e 46 b9 d4 28 d6 b7 ed 79 a8 b9 c8 77 be b8
       -0.00018929744 -2.55298e-05 -0.000321343 -9.082217e-05
000100 cc f3 fb b7 af 3c 9d b9 3d 0f 1a 38 1e 15 2f b7
       -3.0035058e-05 -0.00029990586 3.6730653e-05 -1.043573e-05
000110 c1 97 f8 38 24 88 90 b8 b7 fa 4d b7 f0 4d ff 38
       0.00011853828 -6.891813e-05 -1.2277326e-05 0.000121738645
000120 d0 14 03 39 73 bb 59 37 3e 51 5b b7 24 35 a0 37
       0.00012500887 1.2977852e-05 -1.3072333e-05 1.9098232e-05
000130 eb 13 80 37 70 24 ab b8 12 f9 fa 37 a3 99 8b b7
       1.5268064e-05 -8.1607024e-05 2.9918305e-05 -1.6641634e-05
000140 0e 22 5c b8 ad 3f f1 b8 4e 3c a4 b7 17 1c ce b7
       -5.2483803e-05 -0.00011503636 -1.9578405e-05 -2.4570194e-05
000150 24 f9 07 38 b5 07 07 b7 be 9b 3e b8 5f 60 b6 38
       3.241854e-05 -8.0484215e-06 -4.5444576e-05 8.696387e-05
000160 ef db 1e b7 2c 47 98 b8 b1 eb 91 38 94 60 dc b7
       -9.468741e-06 -7.2611816e-05 6.95804e-05 -2.6271016e-05
000170 89 46 ad b8 11 d1 62 b9 36 a2 01 b8 37 10 13 38
       -8.262421e-05 -0.00021630923 -3.0907067e-05 3.5062632e-05
000180 54 35 c7 38 c8 75 15 b7 ac ad f0 b6 54 84 01 36
       9.4989926e-05 -8.908515e-06 -7.1727754e-06 1.9299523e-06
000190 e0 d5 2f b7 c3 06 e7 b8 04 35 69 36 00 85 a0 b8
       -1.04806095e-05 -0.00011016198 3.4750565e-06 -7.654168e-05
0001a0 aa fc 96 37 24 39 19 39 b3 d8 bc b8 80 e2 27 b7
       1.799905e-05 0.00014612504 -9.004902e-05 -1.0006712e-05
0001b0 08 ec 23 b8 77 87 c6 b7 6a 5c d2 38 42 c6 5d 39
       -3.908205e-05 -2.366652e-05 0.00010030794 0.00021150059
0001c0 52 90 e9 b7 e2 5e 1d 39 21 89 0e 38 46 d9 04 b8
       -2.7842969e-05 0.00015008033 3.398315e-05 -3.1673604e-05
0001d0 b4 05 c5 38 d4 31 00 b8 e7 4a 1c b8 58 28 03 38
       9.394754e-05 -3.0563984e-05 -3.7263057e-05 3.1270407e-05
0001e0 4a 8a 39 b8 8e a6 b0 35 b0 6a 82 b6 a0 98 6d 36
       -4.423623e-05 1.3161496e-06 -3.886722e-06 3.5404591e-06
0001f0 e4 d2 cf 35 f9 00 5b 38 04 b3 d6 38 dc 36 06 37
       1.5484079e-06 5.2214575e-05 0.000102376594 7.999795e-06
000200 78 f9 a4 39 f0 ec 97 38 14 e6 1d 37 a0 8f b2 39
       0.00031466386 7.244374e-05 9.4114985e-06 0.00034057815
000210 d2 06 d7 b8 e4 51 d4 b6 0d 40 a0 b8 d5 a1 39 b9
       -0.00010253269 -6.3276257e-06 -7.641325e-05 -0.00017703262
000220 9c c9 f9 b6 8e 47 e5 b8 83 67 8d b8 d0 61 60 37
       -7.4442487e-06 -0.00010932899 -6.7426845e-05 1.3374214e-05
000230 ea 34 88 39 5e 4e d2 38 52 fd 83 37 20 7d 93 38
       0.00025979365 0.00010028177 1.5734378e-05 7.0328126e-05
000240 20 0f 3f 39 0e 5d 32 37 06 ad df b7 1d 1d 06 39
       0.00018220814 1.0631293e-05 -2.6664242e-05 0.00012790081
000250 fa d6 51 37 59 76 40 39 ac db d8 b7 56 eb 5b 37
       1.2507424e-05 0.00018354635 -2.58515e-05 1.3108211e-05
000260 26 92 a5 38 49 72 a9 38 49 5d 81 37 c4 30 74 39
       7.8950354e-05 8.079835e-05 1.5421438e-05 0.0002328782
000270 cf 9b 49 38 53 95 d5 b8 da 9e ac b8 e7 22 a0 37
       4.8067242e-05 -0.00010184445 -8.2311875e-05 1.9089739e-05
000280 43 46 fb b8 cd 6e 24 39 52 19 ab b9 71 80 a9 38
       -0.000119817 0.00015681535 -0.00032634527 8.082472e-05
000290 b8 aa e2 b8 30 11 c2 b9 ee 69 c7 38 80 65 79 36
       -0.000108083186 -0.0003701537 9.5087904e-05 3.7162972e-06
0002a0 48 fa dd b7 be 31 61 b8 24 a3 07 38 2e 44 04 b9
       -2.64618e-05 -5.3690506e-05 3.2338445e-05 -0.000126139
0002b0 9b 77 84 b8 91 e7 b6 38 23 85 09 38 85 8c d3 b7
       -6.316529e-05 8.721569e-05 3.278734e-05 -2.5218595e-05
0002c0 b2 5c b0 b8 0d c1 94 b8 92 e1 f8 b7 1d a8 37 b8
       -8.4096e-05 -7.0931485e-05 -2.9668943e-05 -4.3787168e-05
0002d0 78 11 62 b5 1d cd f5 b7 2b 26 3a 38 f5 73 56 b7
       -8.421698e-07 -2.930179e-05 4.4381402e-05 -1.2782392e-05
0002e0 c9 96 10 b8 28 3a 80 38 75 5d 50 39 df f9 a2 b8
       -3.4472705e-05 6.114348e-05 0.00019871241 -7.771304e-05
0002f0 10 f0 e6 b7 fe f8 00 39 8c bc bf b8 f7 53 08 39
       -2.7529924e-05 0.00012299788 -9.142709e-05 0.0001300125
000300 22 a3 18 b8 9b b8 97 b7 80 4a e2 36 8c c6 0a 39
       -3.6391553e-05 -1.8086566e-05 6.743998e-06 0.0001323467
000310 d0 7e b2 b7 20 21 4c 38 18 80 91 b8 4a 95 19 b8
       -2.1278305e-05 4.866824e-05 -6.937998e-05 -3.661708e-05
000320 9a c3 93 b8 1a 02 b4 b8 9e af 34 b8 68 19 84 b7
       -7.04594e-05 -8.58346e-05 -4.30789e-05 -1.5747457e-05
000330 b0 0e cd b7 db 34 9f 38 af 6b a0 b8 1d b7 30 b9
       -2.4444744e-05 7.591556e-05 -7.649452e-05 -0.00016852883
000340 42 4d bb 38 3e 54 19 b9 54 66 b4 b8 d9 54 02 38
       8.931245e-05 -0.000146226 -8.602129e-05 3.1073436e-05
000350 79 08 e7 38 ca 58 e9 39 c3 54 19 38 56 21 72 b8
       0.000110165165 0.00044507376 3.6556983e-05 -5.7728343e-05
000360 61 9d 54 37 70 77 26 36 40 84 15 38 32 8d ef 37
       1.2672827e-05 2.480545e-06 3.5647536e-05 2.855677e-05
000370 b0 d7 43 36 68 76 05 b8 b8 01 d0 b7 f0 30 12 b7
       2.918281e-06 -3.1819945e-05 -2.4796333e-05 -8.713672e-06
000380 74 cc 17 b9 d8 b3 46 b9 28 fd 2b b7 f0 4d 5e b9
       -0.00014476647 -0.00018949748 -1.0251337e-05 -0.00021200604
000390 c3 e3 b7 b8 c8 60 55 b7 ca c9 14 b9 fb e2 73 b8
       -8.768544e-05 -1.2718323e-05 -0.00014189552 -5.8147107e-05
0003a0 70 08 7b b7 c0 7e f9 36 bb 03 1c 39 2a df 88 b8
       -1.496273e-05 7.435534e-06 0.00014878709 -6.526553e-05
0003b0 7d 12 11 b8 bc b5 03 b8 8e 06 a1 b8 64 a0 75 b7
       -3.4587913e-05 -3.1402087e-05 -7.678299e-05 -1.4640482e-05
0003c0 f0 c6 24 b7 9f dd 8e 38 36 9b 1c 38 70 52 84 b9
       -9.8214805e-06 6.812368e-05 3.733785e-05 -0.00025238423
0003d0 c9 13 a8 38 76 20 d2 38 4b 19 8a b9 b0 78 7a b7
       8.0145495e-05 0.00010019627 -0.00026340256 -1.4929261e-05
0003e0 22 92 58 b9 30 27 a9 b9 06 56 93 b7 49 49 e7 b8
       -0.00020653804 -0.0003226339 -1.7563823e-05 -0.00011028589
0003f0 29 44 54 b9 8c 4e 13 38 1c 04 a5 b6 d0 73 26 b7
       -0.00020243287 3.5120684e-05 -4.9178616e-06 -9.921336e-06
