Project/Assets/ML-Agents/Examples/MyTest/Scripts/TFModels/MyTest1Models/Test6/MoveToGoal.onnx (onnx, 77273 bytes, 8 tensors)

network_body._body_endoder.seq_layers.0.weight f4 [128, 1]
-0.38172367 0.05890628 0.106639534 0.5912904 -0.057779294 -0.6238381 -0.37990847 1.9992772
-0.7982474 0.48994502 0.684297 0.7380572 -0.5711801 0.43512228 0.6589078 -1.954414
0.095595896 2.7630782 -1.0415484 -0.008963604 -0.10040074 -1.724805 0.6216058 -0.44320077
0.0727265 -1.0099723 -0.8551393 -0.21292916 0.3294461 -0.60371816 0.72450227 -0.6105132
-2.1433063 0.8377414 0.1949503 0.7421176 0.8606376 -0.08231127 1.932443 0.45275924
0.30658615 0.49844712 0.97599864 -0.40866256 -0.22866172 0.84733564 -0.2800351 -0.11753191
0.09774947 -1.2937087 -0.03782485 -0.71842176 0.89965355 -0.7289492 0.6759145 -2.1355839
0.8360351 -0.8511022 -1.3061622 -0.62910694 0.19878986 -0.17049283 -0.36330462 -0.47660515
-1.480756 -1.1393237 1.0796818 0.8321906 -0.6701675 -0.14301275 -1.1466855 -1.0191157
-0.14317639 0.13643047 1.2005785 1.1444381 0.51866895 -0.5938579 1.6938673 1.8083144
-0.33185083 1.5065137 0.560555 0.42770895 -1.0247186 0.96670634 -0.04533986 -0.7292635
-1.2005208 1.0487684 -0.6637533 0.81773 -0.37663093 -0.8815963 -0.10795311 -0.35589966
-0.54506797 0.3179133 1.8614825 -2.3569295 -0.19361989 -0.6149973 -0.36893523 2.1191318
-0.018037139 2.8469713 0.8765449 -1.2885652 -0.039791368 -0.4294854 -0.74304193 0.5707113
0.53738934 0.15459493 0.25063932 -0.5825759 -1.5099599 0.7323988 -0.0531844 1.1269675
-0.816399 -0.23912576 -1.9534277 -0.9696294 -0.051469084 -0.5864383 0.6113382 -0.5430533
00000000: 4971 c3be b647 713d d465 da3d cf5e 173f
00000010: fba9 6cbd dbb3 1fbf 5d83 c2be 51e8 ff3f
00000020: f159 4cbf 13da fa3e 172e 2f3f 51f1 3c3f
00000030: dc38 12bf 59c8 de3e 2eae 283f 3d2a fabf
00000040: c8c7 c33d 46d6 3040 7551 85bf 15dc 12bc
00000050: e79e cdbd 69c6 dcbf 8f21 1f3f 36eb e2be
00000060: a2f1 943d c646 81bf 69ea 5abf 1a0a 5abe
00000070: 29ad a83e 468d 1abf fb78 393f 984a 1cbf
00000080: ee2b 09c0 3876 563f 0da1 473e 6bfb 3d3f
00000090: bf52 5c3f d092 a8bd 4b5a f73f 0fd0 e73e
000000a0: dcf8 9c3e 7634 ff3e 0cdb 793f 383c d1be
000000b0: 4c26 6abe fdea 583f c360 8fbe 92b4 f0bd
000000c0: e030 c83d 3f98 a5bf 3bee 1abd 7dea 37bf
000000d0: b24f 663f 6a9c 3abf bc08 2d3f 68ad 08c0
000000e0: 6506 563f d5e1 59bf 5330 a7bf 270d 21bf
000000f0: 928f 4b3e ac95 2ebe 1003 babe 9705 f4be
00000100: 6a89 bdbf 5cd5 91bf 0333 8a3f 710a 553f
00000110: 1990 2bbf ef71 12be 97c6 92bf 6272 82bf
00000120: d59c 12be 6eb4 0b3e 8eac 993f f37c 923f
00000130: 7dc7 043f 1207 18bf a5d0 d83f d976 e73f
00000140: 5ae8 a9be 71d5 c03f 8880 0f3f abfc da3e
00000150: fb29 83bf 117a 773f 4ab6 39bd 03b1 3abf
00000160: aaaa 99bf 0b3e 863f bceb 29bf c156 513f
00000170: c5d5 c0be 4cb0 61bf 8516 ddbd 7b38 b6be
00000180: 9389 0bbf 88c5 a23e 0f45 ee3f efd7 16c0
00000190: 4b44 46be 7770 1dbf 14e5 bcbe db9f 0740
000001a0: 9fc2 93bc c734 3640 3f65 603f b4ef a4bf
000001b0: 46fc 22bd 83e5 dbbe ff37 3ebf 231a 123f
000001c0: 5992 093f 224e 1e3e cc53 803e b223 15bf
000001d0: 5e46 c1bf 7d7e 3b3f e3d7 59bd 7940 903f
000001e0: 86ff 50bf 62dd 74be eb09 fabf a239 78bf
000001f0: 3fd1 52bd d220 16bf a980 1c3f 8b05 0bbf

network_body._body_endoder.seq_layers.0.bias f4 [128]
0.0 0.0 0.0 0.0 0.0 0.0 0.0 0.0
0.0 0.0 0.0 0.0 0.0 0.0 0.0 0.0
0.0 0.0 0.0 0.0 0.0 0.0 0.0 0.0
0.0 0.0 0.0 0.0 0.0 0.0 0.0 0.0
0.0 0.0 0.0 0.0 0.0 0.0 0.0 0.0
0.0 0.0 0.0 0.0 0.0 0.0 0.0 0.0
0.0 0.0 0.0 0.0 0.0 0.0 0.0 0.0
0.0 0.0 0.0 0.0 0.0 0.0 0.0 0.0
0.0 0.0 0.0 0.0 0.0 0.0 0.0 0.0
0.0 0.0 0.0 0.0 0.0 0.0 0.0 0.0
0.0 0.0 0.0 0.0 0.0 0.0 0.0 0.0
0.0 0.0 0.0 0.0 0.0 0.0 0.0 0.0
0.0 0.0 0.0 0.0 0.0 0.0 0.0 0.0
0.0 0.0 0.0 0.0 0.0 0.0 0.0 0.0
0.0 0.0 0.0 0.0 0.0 0.0 0.0 0.0
0.0 0.0 0.0 0.0 0.0 0.0 0.0 0.0
00000000: 0000 0000 0000 0000 0000 0000 0000 0000
00000010: 0000 0000 0000 0000 0000 0000 0000 0000
00000020: 0000 0000 0000 0000 0000 0000 0000 0000
00000030: 0000 0000 0000 0000 0000 0000 0000 0000
00000040: 0000 0000 0000 0000 0000 0000 0000 0000
00000050: 0000 0000 0000 0000 0000 0000 0000 0000
00000060: 0000 0000 0000 0000 0000 0000 0000 0000
00000070: 0000 0000 0000 0000 0000 0000 0000 0000
00000080: 0000 0000 0000 0000 0000 0000 0000 0000
00000090: 0000 0000 0000 0000 0000 0000 0000 0000
000000a0: 0000 0000 0000 0000 0000 0000 0000 0000
000000b0: 0000 0000 0000 0000 0000 0000 0000 0000
000000c0: 0000 0000 0000 0000 0000 0000 0000 0000
000000d0: 0000 0000 0000 0000 0000 0000 0000 0000
000000e0: 0000 0000 0000 0000 0000 0000 0000 0000
000000f0: 0000 0000 0000 0000 0000 0000 0000 0000
00000100: 0000 0000 0000 0000 0000 0000 0000 0000
00000110: 0000 0000 0000 0000 0000 0000 0000 0000
00000120: 0000 0000 0000 0000 0000 0000 0000 0000
00000130: 0000 0000 0000 0000 0000 0000 0000 0000
00000140: 0000 0000 0000 0000 0000 0000 0000 0000
00000150: 0000 0000 0000 0000 0000 0000 0000 0000
00000160: 0000 0000 0000 0000 0000 0000 0000 0000
00000170: 0000 0000 0000 0000 0000 0000 0000 0000
00000180: 0000 0000 0000 0000 0000 0000 0000 0000
00000190: 0000 0000 0000 0000 0000 0000 0000 0000
000001a0: 0000 0000 0000 0000 0000 0000 0000 0000
000001b0: 0000 0000 0000 0000 0000 0000 0000 0000
000001c0: 0000 0000 0000 0000 0000 0000 0000 0000
000001d0: 0000 0000 0000 0000 0000 0000 0000 0000
000001e0: 0000 0000 0000 0000 0000 0000 0000 0000
000001f0: 0000 0000 0000 0000 0000 0000 0000 0000

network_body._body_endoder.seq_layers.2.weight f4 [128, 128]
-0.014792668 -0.007885555 -0.03305233 -0.06608163 -0.08867302 -0.014925567 0.010922311 0.00096543174
-0.15962788 -0.08012544 -0.05818193 0.120915785 -0.053685486 -0.13976328 -0.12350825 0.031294007
0.16155027 0.014105869 0.08697116 0.08563578 -0.039361037 -0.10508823 0.060052384 -0.0020698572
-0.0495224 0.004664286 -0.14004071 -0.023740213 -0.13095185 -0.020645106 -0.038461555 -0.007602799
-0.040331967 -0.0038323721 0.09868479 0.0048084273 0.0014490308 0.040338688 -0.017074445 0.27330938
0.044633407 0.09278126 -0.05808874 0.057678167 0.16135354 -0.08561783 0.075163886 -0.02588251
0.026136689 -0.0023747955 -0.018101405 -0.113507584 -0.049014624 0.065878175 -0.13651657 0.04805545
0.17909674 -0.08311417 -0.12488987 -0.1370973 0.008758086 -0.09131022 -0.035563063 -0.06819594
0.05029181 0.019314203 0.1605579 0.0774883 0.044558287 0.100866765 -0.21508428 0.00054945704
-0.047025397 -0.22954014 -0.007245313 -0.049941946 0.17221749 -0.043614287 0.06190641 0.05848993
-0.041046247 0.080899134 0.029632824 -0.02318265 -0.054991066 -0.025415953 -0.031438887 -0.10900951
-0.059271045 -0.111092746 -0.07787156 -0.024239834 -0.0136500215 -0.05858816 0.013942238 -0.027596552
0.05768482 -0.12302692 0.08297053 0.06488015 0.0041117487 0.024842296 0.09810688 0.12914744
-0.06634304 0.01234485 -0.039705694 0.0019777222 -0.016481845 0.037607092 -0.124492474 -0.08488251
0.04279489 0.11974749 -0.03761567 0.007191465 -0.08607952 0.059222955 -0.033135835 -0.12086707
-0.053739138 0.08073046 0.038049467 0.10769625 0.040918525 0.053304955 -0.02189742 0.095836654
0.09539275 0.045946095 0.003252265 0.0035126265 -0.015766345 0.0068161865 0.1074404 -0.072795294
0.052635364 0.04862779 -0.045247704 -0.13326342 -0.056523897 0.028439632 -0.0066763437 0.08410985
0.17270957 -0.020540886 0.018408772 -0.12680812 0.024294907 0.076158114 -0.079506695 0.11924871
0.03782257 -0.045416467 -0.0050629214 -0.029392503 -0.054397605 -0.097681776 -0.036081053 -0.15957752
-0.096198685 0.003059317 0.115555555 -0.009834743 -0.00071394787 0.06716815 -0.09303068 -0.121799104
-0.13693774 0.043919906 0.07973382 0.07708539 0.15937755 0.00728626 0.041250367 0.07430234
-0.04425432 0.03465633 0.1564476 0.16855285 0.0066491864 -0.07151282 -0.046038736 0.028672492
-0.19872113 -0.22016735 0.12934609 -0.013095802 -0.1407958 -0.0033044426 0.034609567 -0.023847861
-0.077387206 0.032383073 -0.017872263 -0.11430984 0.041462783 -0.023519946 -0.06773169 -0.026291963
-0.06517549 0.081219226 0.012801017 0.1129291 0.025714522 0.12625708 0.028441 0.051405896
-0.075112835 0.070881486 -0.00544988 0.085741155 -0.034415286 -0.036574762 -0.0066408133 -0.00014798659
-0.0011284036 0.0028022863 -0.068849355 0.05774732 0.16426784 0.04338178 0.022371149 0.034060832
0.071420565 -0.045833774 -0.012505822 -0.010918072 0.057184078 -0.14889072 -0.14166242 -0.042640254
-0.0990411 0.1717644 0.15994687 0.105791464 0.13460772 0.06080117 -0.14427532 -0.07646008
0.036420815 0.035870437 -0.046936274 0.076740615 0.098702386 0.04860697 -0.021655343 -0.08793325
0.00323041 -0.0058227037 -0.02168748 -0.08340593 0.046880707 0.26112083 -0.107728615 -0.0128326295
00000000: f25c 72bc 6a32 01bc e161 07bd ce55 87bd
00000010: 339a b5bd 5e8a 74bc 7ef3 323c 0715 7d3a
00000020: 7e75 23be cf18 a4bd 2d50 6ebd b2a2 f73d
00000030: 50e5 5bbd 1b1e 0fbe e5f1 fcbd 252e 003d
00000040: 6f6d 253e 4e1c 673c ef1d b23d d061 af3d
00000050: 0a39 21bd 7f38 d7bd 7df9 753d 71a6 07bb
00000060: 00d8 4abd ded6 983b d566 0fbe d67a c2bc
00000070: 3e18 06be ed1f a9bc dd89 1dbd e720 f9bb
00000080: 2233 25bd 8928 7bbb 401b ca3d 0390 9d3b
00000090: 68ed bd3a 2e3a 253d b5df 8bbc 35ef 8b3e
000000a0: 85d1 363d 1a04 be3d 75ee 6dbd f13f 6c3d
000000b0: dd39 253e 6758 afbd 86ef 993d 8f07 d4bc
000000c0: 9c1c d63c 75a2 1bbb 6649 94bc aa76 e8bd
000000d0: 8fc3 48bd 23eb 863d 00cb 0bbe cbd5 443d
000000e0: 2365 373e c337 aabd 43c6 ffbd 3c63 0cbe
000000f0: 137e 0f3c da00 bbbd 93aa 11bd 50aa 8bbd
00000100: c9fe 4d3d d238 9e3c 4a69 243e 30b2 9e3d
00000110: c082 363d 3c93 ce3d 0e3f 5cbe 7009 103a
00000120: b49d 40bd 920c 6bbe 176a edbb ed8f 4cbd
00000130: c859 303e e5a4 32bd 9391 7d3d 2393 6f3d
00000140: 1c20 28bd 72ae a53d 89c0 f23c 8ae9 bdbc
00000150: 503e 61bd 1e35 d0bc 10c6 00bd 6140 dfbd
00000160: 32c6 72bd 9884 e3bd 207b 9fbd 9e92 c6bc
00000170: 57a4 5fbc 23fa 6fbd fc6d 643c 2a12 e2bc
00000180: eb46 6c3d 8af5 fbbd 74ec a93d e2df 843d
00000190: d9bb 863b 1282 cb3c 43ec c83d 3a3f 043e
000001a0: dcde 87bd 0e42 4a3c 70a2 22bd ac9c 013b
000001b0: ef04 87bc e509 1a3d e9f5 febd e2d6 adbd
000001c0: b249 2f3d 2c3e f53d e412 1abd 61a6 eb3b
000001d0: 764a b0bd c593 723d 71b9 07bd 2889 f7bd
000001e0: 921d 5cbd 0356 a53d c2d9 1b3d da8f dc3d
000001f0: 2f9a 273d 4c56 5a3d 3862 b3bc 0246 c43d
00000200: 465d c33d f931 3c3d f423 553b 1834 663b
00000210: 6c28 81bc 515a df3b b609 dc3d b315 95bd
00000220: 2e98 573d ef2d 473d a855 39bd 3576 08be
00000230: 9a85 67bd 3bfa e83c 3bc5 dabb c941 ac3d
00000240: c7da 303e 5c45 a8bc fecd 963c fdd9 01be
00000250: 1d06 c73c c9f8 9b3d 68d4 a2bd ab38 f43d
00000260: d7eb 1a3d 9e06 3abd dde6 a5bb 8cc8 f0bc
00000270: 06d0 5ebd 620d c8bd bac9 13bd 4a68 23be
00000280: d103 c5bd d27e 483b 64a8 ec3d e721 21bc
00000290: 3b28 3bba 748f 893d df86 bebd cf71 f9bd
000002a0: 6839 0cbe 5ce5 333d 7c4b a33d f2de 9d3d
000002b0: de33 233e 94c1 ee3b 25f6 283d d32b 983d
000002c0: 0544 35bd ccf3 0d3d cd33 203e 1e99 2c3e
000002d0: 6be1 d93b 5075 92bd 1d93 3cbd 93e2 ea3c
000002e0: 8d7d 4bbe 8d73 61be 4d73 043e c68f 56bc
000002f0: c62c 10be 598f 58bb c3c2 0d3d 975c c3bc
00000300: 2f7d 9ebd 1da4 043d da68 92bc 471b eabd
00000310: e1d4 293d e7ac c0bc eab6 8abd 3e62 d7bc
00000320: ba7a 85bd 4456 a63d 5bbb 513c 5f47 e73d
00000330: 43a7 d23c 8949 013e 1afd e83c fd8e 523d
00000340: c2d4 99bd 502a 913d e894 b2bb 0f99 af3d
00000350: 0bf7 0cbd 6bcf 15bd 2e9b d9bb d92c 1bb9
00000360: f1e6 93ba 90a6 373b e400 8dbd 7488 6c3d
00000370: d435 283e 18b1 313d b343 b73c 5f83 0b3d
00000380: f244 923d 32bc 3bbd 38e5 4cbc b7e1 32bc
00000390: da39 6a3d cf76 18be f40f 11be 8ca7 2ebd
000003a0: 0fd6 cabd 02e3 2f3e 1dc9 233e 32a9 d83d
000003b0: 9bd6 093e a60a 793d e9bc 13be 1a97 9cbd
000003c0: fe2d 153d e1ec 123d 4040 40bd 2f2a 9d3d
000003d0: 7a24 ca3d 1a18 473d 8c66 b1bc 5916 b4bd
000003e0: 49b5 533b 61cc bebb f1a9 b1bc bad0 aabd
000003f0: fc05 403d a1b1 853e d2a0 dcbd f33f 52bc

action_model._continuous_distribution.log_sigma f4 [1, 2]
0.0 0.0
00000000: 0000 0000 0000 0000

action_model._continuous_distribution.mu.weight f4 [2, 128]
0.01609463 0.015352367 0.017785756 0.010044357 0.024338169 -0.00044690803 -0.030373711 0.00759499
-0.0027653035 0.015885023 0.042450186 0.016767738 -0.012349286 -0.025643447 -0.00935531 0.015924936
-0.0155108245 0.0024703075 0.0035225444 0.007164962 0.005676819 -0.018800749 -0.017115252 -0.0025472117
-0.0060970658 -0.038571976 -0.010534282 -0.023906073 0.009405364 0.0057518505 0.028581148 0.024490427
0.015605219 0.01933428 -0.031178406 0.0013048663 0.0017637758 -0.015511411 0.0045856168 0.002298819
0.013388219 -0.024879163 -0.018034661 0.018820975 -0.022891728 0.026630638 -0.002452431 0.003500779
0.01258408 -0.023518484 0.01729883 -0.015038984 0.0055454653 0.008427403 0.010889407 -0.028992692
-0.007665199 0.0062137754 0.006175622 0.012691802 -0.034602486 -0.007961941 -0.012338917 0.007861165
0.016757924 0.01969581 0.0007409725 -0.0039303666 0.018580709 0.006786477 -0.01132275 -0.01086869
-0.0132864835 0.025026364 0.0029121467 -0.0080717895 0.02126679 -0.004456137 -0.015630515 -0.0044245864
-0.04136242 0.017607559 -0.013169661 -0.0073523642 0.0044334703 0.012296032 0.009656515 -0.021188483
-0.008370067 -0.0129569 0.019394135 -0.009362172 -0.0038375675 0.011006514 -0.017053451 -0.002315822
-0.014935245 -0.019561125 0.00600138 -0.02929691 0.0010945214 -0.023400595 -0.03029546 0.0072281803
-0.017823495 -0.009950371 -0.006335839 0.0065342844 -0.017900968 -0.017301513 0.01642381 -0.00578215
0.0064223097 0.02393788 -0.03604087 -0.008116259 -0.013592257 0.008835748 0.0010012294 -0.00096049387
5.941735e-05 0.026541838 -0.0025225691 -0.017609736 0.029964715 0.022586832 -0.010721422 -0.011545407
-0.004449653 -0.024534224 -0.021437911 -0.015095318 0.0051713064 0.02338582 -0.012963404 -0.010834158
0.0416612 -0.021948632 -0.018632395 0.023965372 0.0043080375 -0.011408707 0.0052694236 -0.019514432
0.008668521 0.020261027 0.027914016 -0.0122547215 0.003072936 -0.006434817 0.029268075 -0.0055223047
0.0012263301 -0.002063817 -0.011752385 -0.010069227 -0.011116649 0.0196132 0.007822241 -0.005517164
0.007947462 -0.041382637 0.026612623 -0.023309765 -0.029668007 0.0028772417 -0.0073747276 -0.0069488804
-0.0076927105 -0.0036023115 -0.015179977 0.0023079372 0.007411378 0.00067172473 -0.037560053 -0.013038655
-0.00068804756 0.013892968 0.018585935 -0.017637251 0.00031310858 0.007356985 0.0071380674 0.014605338
-0.014130326 -0.026432006 -0.04551534 -0.017037364 -0.003521992 -0.008592771 -0.0355676 0.0052398406
-0.020803932 0.009415695 -0.012343584 -0.021454027 -0.004863703 -0.023429792 0.0006165234 -0.03846933
-0.021550447 -0.0013799312 -0.004545351 0.008444459 -0.042964537 0.022919428 0.0036061578 0.016893124
-0.00038193187 0.0062549314 0.010092273 -0.00074840634 0.010814892 0.04984648 -0.026957348 -0.0060581574
0.0103339385 0.009120518 0.017704768 0.035713747 -0.019014558 0.018599434 0.011372081 -0.021881318
0.0438164 -0.028160183 0.0077092457 -0.018489016 0.02722758 0.024443377 0.006962029 -0.03443311
-0.03298832 -0.008187106 0.009829355 0.015161494 -0.027860124 0.03398563 0.012833647 0.007613377
0.018110104 -0.023698824 -0.0021073027 0.02633508 -0.054130156 0.012593827 -0.024843981 0.018495636
0.020869814 0.014815948 0.0008806617 -0.014525783 -0.0068947277 0.025103858 -0.0054209474 -0.0008030846
00000000: e3d8 833c 7f88 7b3c 6fb3 913c 1691 243c
00000010: d760 c73c fb4e eab9 4ad2 f8bc 65df f83b
00000020: 183a 35bb 4f21 823c 3fe0 2d3d 7f5c 893c
00000030: a954 4abc 3512 d2bc 0447 19bc 0375 823c
00000040: 1d21 7ebc e2e4 213b 7dda 663b 0fc8 ea3b
00000050: 9c04 ba3b 0704 9abc 4935 8cbc 1fef 26bb
00000060: e5c9 c7bb a6fd 1dbd fb97 2cbc abd6 c3bc
00000070: f518 1a3c 057a bc3b 0323 ea3c 26a0 c83c
00000080: 08ad 7f3c ed62 9e3c db69 ffbc 0c08 ab3a
00000090: 7f2e e73a 9323 7ebc f142 963b c8a7 163b
000000a0: 435a 5b3c 63cf cbbc 6dbd 93bc 722e 9a3c
000000b0: 6f87 bbbc 7f28 da3c f7b8 20bb 536d 653b
000000c0: 752d 4e3c d6a9 c0bc 47b6 8d3c 1266 76bc
000000d0: bcb6 b53b 1713 0a3c 7c69 323c 1582 edbc
000000e0: 5a2c fbbb ed9c cb3b df5c ca3b 47f1 4f3c
000000f0: 56bb 0dbd cd72 02bc 2b29 4abc 1ecc 003c
00000100: ea47 893c 1b59 a13c d33d 423a 4eca 80bb
00000110: 9236 983c 1861 de3b 0e83 39bc 9712 32bc
00000120: 8daf 59bc 1704 cd3c b7d9 3e3b 8a3f 04bc
00000130: b137 ae3c c904 92bb 910b 80bc 1ffc 90bb
00000140: a46b 29bd ba3d 903c 90c5 57bc 1aec f0bb
00000150: a546 913b 4c75 493c 5c36 1e3c 7893 adbc
00000160: 9b22 09bc 2d49 54bc 73e0 9e3c cc63 19bc
00000170: b37f 7bbb aa54 343c aeb3 8bbc 0cc5 17bb
00000180: f5b2 74bc a73e a0bc 39a7 c43b 1300 f0bc
00000190: 0b76 8f3a 9bb2 bfbc 2f2e f8bc 5fda ec3b
000001a0: 9402 92bc e206 23bc df9c cfbb 8d1d d63b
000001b0: 0da5 92bc e7bb 8dbc 3a8b 863c 3178 bdbb
000001c0: 3d72 d23b 5f19 c43c 979f 13bd 0ffa 04bc
000001d0: 0fb2 5ebc d0c3 103c af3b 833a a7c9 7bba
000001e0: e536 7938 456e d93c b051 25bb 4b42 90bc
000001f0: 9078 f53c 0508 b93c e7a8 2fbc f228 3dbc
00000200: 65ce 91bb fffb c8bc 8f9e afbc 5a52 77bc
00000210: 1074 a93b 9f93 bf3c 7564 54bc c181 31bc
00000220: efa4 2a3d 9ecd b3bc f7a2 98bc 0753 c43c
00000230: 702a 8d3b 96eb 3abc 21ab ac3b bbdc 9fbc
00000240: 6a06 0e3c 74fa a53c efab e43c 07c8 48bc
00000250: 5063 493b 28db d2bb 9ac3 ef3c 73f4 b4bb
00000260: cfbc a03a 1b41 07bb 138d 40bc 66f9 24bc
00000270: 9b22 36bc ddab a03c db28 003c 53c9 b4bb
00000280: 1236 023c d780 29bd b702 da3c 1ff4 bebc
00000290: 520a f3bc 1b90 3c3b b3a7 f1bb 6fb3 e3bb
000002a0: 2213 fcbb c214 6cbb 70b5 78bc c340 173b
000002b0: 25db f23b af16 303a 92d8 19bd 15a0 55bc
000002c0: 175e 34ba 559f 633c 8841 983c ff7b 90bc
000002d0: b928 a439 dd12 f13b 73e6 e93b 3a4b 6f3c
000002e0: e282 67bc ef87 d8bc 4b6e 3abd f191 8bbc
000002f0: 38d1 66bb b2c8 0cbc 55af 11bd f8b2 ab3b
00000300: 026d aabc 4a44 1a3c be3c 4abc 5bc0 afbc
00000310: b35f 9fbb d6ef bfbc 2f9e 213a 0492 1dbd
00000320: 908a b0bc cfde b4ba 2bf1 94bb a15a 0a3c
00000330: 95fb 2fbd 86c1 bb3c 4a55 6c3b 7363 8a3c
00000340: 073e c8b9 2bf6 cc3b 105a 253c b330 44ba
00000350: f230 313c d32b 4c3d a8d5 dcbc 8283 c6bb
00000360: ae4f 293c 3a6e 153c 9709 913c 9448 123d
00000370: 6bc4 9bbc d75d 983c f751 3a3c 7340 b3bc
00000380: d378 333d 2fb0 e6bc d79d fc3b 4776 97bc
00000390: 600c df3c 7a3d c83c bb21 e43b bc09 0dbd
000003a0: c31e 07bd 3623 06bc 4e0b 213c ea67 783c
000003b0: ea3a e4bc 8434 0b3d 3844 523c a379 f93b
000003c0: a45b 943c 0924 c2bc ac1a 0abb aabc d73c
000003d0: 95b7 5dbd 5756 4e3c 9b85 cbbc 2984 973c
000003e0: 2cf7 aa3c 97be 723c 35dc 663a 8dfd 6dbc
000003f0: 2bed e1bb 9ba6 cd3c 34a2 b1bb 1886 52ba

action_model._continuous_distribution.mu.bias f4 [2]
0.0 0.0
00000000: 0000 0000 0000 0000

action_model._discrete_distribution.branches.0.weight f4 [5, 128]
0.008627287 0.007024992 0.00071487186 0.003752966 0.0053459513 0.016689837 -0.022645388 -0.008010699
-0.009735858 0.013612325 0.013063513 0.0050936653 0.012661836 0.0041392273 -0.017917553 -0.003016266
-0.0013776018 -0.001090012 0.01503622 0.011024533 0.0075637004 -0.0050478685 0.016443275 -0.0069288947
-0.0013073779 0.005588126 0.01315181 0.0017551034 0.022787865 -0.0006558199 0.0051780115 -0.0002827876
0.0010777588 0.005720218 0.0026848698 0.00042381563 -0.002651333 0.01682665 0.015401979 -0.020332016
-0.007921825 0.0018462023 -0.017024932 0.00050975115 -0.009199663 0.0046227793 0.0075699347 0.023480186
-0.016776908 -0.00050180603 -0.0004169993 -0.0028736615 -0.0061569675 -0.0047201067 -0.0057439446 0.0026862156
0.0077470946 -0.0061823614 0.001524339 0.0045255786 -0.0036423882 -0.0023004767 0.007981523 -0.0016416538
-0.0037696932 -0.0064064674 -0.0011704118 -0.021416752 -0.005398199 0.0014994215 0.0027183471 -0.0019778172
0.017193155 0.00089496345 -0.0033142436 0.00013138105 -0.0067684553 0.00035994267 -0.00952683 -0.00480203
-0.010137978 0.00046401934 -0.0006697374 -0.010431677 -0.0044434434 -0.008460893 -0.008564846 -0.019235529
0.000789651 0.0012215922 -0.0019435078 0.003736769 0.023088893 0.0027898594 0.0025322675 0.0031017538
0.0031795744 0.020387037 0.0015245494 0.0077034743 -0.0040209345 -0.00435367 0.0025722922 0.021849083
-0.010147957 0.0056455187 0.0063981796 0.012386278 -0.004724241 0.00034261282 -4.080955e-05 -0.0065031946
-0.005520376 0.0059639495 -0.0029193189 -0.0016516801 -0.0014981919 0.012945189 0.0075134756 0.008282714
-0.0060972236 0.013948241 0.012456785 0.010495458 0.00082552026 0.0042646276 -0.0009652024 0.00759799
0.010816843 -0.00025766838 0.010701898 -0.0057954337 0.006497855 0.007063268 -0.001954284 -0.008253771
-0.0024562485 -0.0114553245 0.0018493802 -0.0022606982 0.004375725 -0.002111807 -0.017107083 -0.0034756127
0.007202327 -0.009849328 0.0073613347 -0.020321062 0.003450973 -0.0047272085 -0.0054720314 -0.027299797
-0.007501695 -0.013925328 -0.009584029 -0.0045218337 0.0016678028 -0.0054260064 0.0013148723 0.011005959
0.007087176 0.013839747 0.004819767 0.00633138 0.011216237 -0.0018194005 -0.004860585 -0.0054457514
-0.008741881 0.0054089376 -0.012467164 0.0026411447 -0.0014100061 0.004052516 -0.006812133 0.0035029904
-0.021315042 0.022564132 0.009988322 0.01644297 -0.0015681236 -0.0022447475 0.0018516191 0.0020621985
-0.008908001 -0.0031820554 -0.021177663 -0.0125334775 0.004255021 0.0235818 -0.0013747443 -0.00091151905
-0.00019505982 -0.003121783 0.0057630143 -0.008661517 0.0043925573 -0.016600357 0.0063176937 -0.013395692
-0.0015265447 -0.0028834213 0.004439965 -0.0034862757 0.016897999 0.02249809 -0.015970793 -0.0010757799
-0.0046215467 0.0015617969 0.010310794 0.012583635 0.00010807416 0.00020835809 -0.013343512 0.0033900004
-0.0051399325 -0.015043109 0.0007292297 0.0064388453 -0.002648267 0.02135745 0.013607971 0.0013979751
-0.012385185 -0.018387744 -0.018704275 0.0023477047 9.947196e-05 -0.004027161 -0.0050857714 0.0010865662
0.011542892 0.010477669 0.0015129191 0.007431771 -0.0006748864 -0.012399611 -0.015026497 -0.0031402186
0.00033857455 -0.015047054 0.0113695515 -0.007250665 0.0015231355 -0.0062488657 0.0151699735 0.00013440046
0.004442099 0.001712407 -0.003083905 0.00787942 -0.0019105653 -0.0072270753 -0.003345333 -0.0044173067
00000000: 7759 0d3c e731 e63b 3d66 3b3a 52f4 753b
00000010: 172d af3b 20b9 883c d282 b9bc 4f3f 03bc
00000020: 2683 1fbc 3b06 5f3c 5808 563c c3e8 a63b
00000030: 9773 4f3c 5ba2 873b d5c7 92bc 8cac 45bb
00000040: a590 b4ba bcde 8eba 7a5a 763c 3ea0 343c
00000050: ebd8 f73b 9768 a5bb 0cb4 863c c80b e3bb
00000060: 535c abba 991c b73b b07a 573c 7f0b e63a
00000070: 9ead ba3c 54eb 2bba 4fac a93b 1c43 94b9
00000080: 9643 8d3a ab70 bb3b a4f4 2f3b 9233 de39
00000090: fdc1 2dbb 0bd8 893c 9558 7c3c 548f a6bc
000000a0: 8bca 01bc 45fc f13a df77 8bbc d2a0 053a
000000b0: 2fba 16bc af7a 973b 370d f83b 8559 c03c
000000c0: ba6f 89bc a28b 03ba b3a0 dab9 0a54 3cbb
000000d0: 63c0 c9bb 20ab 9abb b337 bcbb 380b 303b
000000e0: 57db fd3b 6895 cabb 54cc c73a 4e4b 943b
000000f0: 22b5 6ebb 98c3 16bb efc4 023c c32c d7ba
00000100: f50c 77bb 58ed d1bb 8168 99ba 2f72 afbc
00000110: 60e3 b0bb 3d88 c43a 4c26 323b 449e 01bb
00000120: a9d8 8c3c fb9b 6a3a c833 59bb 55c3 0939
00000130: ebc9 ddbb b0b6 bc39 6c16 1cbc 595a 9dbb
00000140: c319 26bc 9f47 f339 5191 2fba a0e9 2abc
00000150: 4e9a 91bb 8f9f 0abc 9153 0cbc d493 9dbc
00000160: 9500 4f3a d51d a03a 4dbd feba 95e4 743b
00000170: eb24 bd3c 13d6 363b 66f4 253b cb46 4b3b
00000180: 6860 503b b702 a73c 64d3 c73a 6d6d fc3b
00000190: 0bc2 83bb 3ba9 8ebb e793 283b d9fc b23c
000001a0: 9e43 26bc 0bfe b83b d2a7 d13b d1ef 4a3c
000001b0: cecd 9abb b7a0 b339 ec2a 2bb8 c018 d5bb
000001c0: 45e4 b4bb 3c6d c33b 0b52 3fbb 307d d8ba
000001d0: fa5e c4ba 0f18 543c 9a33 f63b 38b4 073c
000001e0: 38cb c7bb 2a87 643c 8b17 4c3c 24f5 2b3c
000001f0: ba67 583a 4abe 8b3b a305 7dba 8ff8 f83b
00000200: 2139 313c aa17 87b9 0357 2f3c 9fe7 bdbb
00000210: f5eb d43b fd72 e73b 7213 00bb d33a 07bc
00000220: 03f9 20bb 1daf 3bbc e766 f23a 3928 14bb
00000230: 3e62 8f3b 3e66 0abb 2724 8cbc 1bc7 63bb
00000240: 7f01 ec3b 135f 21bc 5a37 f13b 5b78 a6bc
00000250: b829 623b b3e6 9abb ba4e b3bb d3a3 dfbc
00000260: c7d0 f5bb 0f27 64bc 5506 1dbc e42b 94bb
00000270: 2d9a da3a a4cc b1bb cb57 ac3a 5652 343c
00000280: 8b3b e83b 1bc0 623c 23ef 9d3b 7777 cf3b
00000290: 4fc4 373c f378 eeba 8b45 9fbb 4672 b2bb
000002a0: 1b3a 0fbc 753d b13b 1343 4cbc 0e17 2d3b
000002b0: f4cf b8ba f8ca 843b 5038 dfbb 6d92 653b
000002c0: e29c aebc 6ad8 b83c 0fa6 233c 68b3 863c
000002d0: 7f89 cdba 9d1c 13bb 07b2 f23a f325 073b
000002e0: ddf2 11bc 088a 50bb c77c adbc 3759 4dbc
000002f0: b46d 8b3b 9e2e c13c c430 b4ba 02f3 6eba
00000300: f988 4cb9 d496 4cbb abd7 bc3b 09e9 0dbc
00000310: 71ef 8f3b 79fd 87bc a804 cf3b 9b79 5bbc
00000320: 5716 c8ba c8f7 3cbb 207d 913b 007a 64bb
00000330: ac6d 8a3c ea4d b83c 2ed5 82bc 2f01 8dba
00000340: 5870 97bb 35b5 cc3a 9bee 283c 972b 4e3c
00000350: dfa5 e238 b37a 5a39 bf9e 5abc c52a 5e3b
00000360: e16c a8bb 5f77 76bc c729 3f3a f3fc d23b
00000370: 8c8e 2dbb d2f5 ae3c f8f3 5e3c 433c b73a
00000380: 3beb 4abc e5a1 96bc b539 99bc f3db 193b
00000390: 9a9b d038 46f6 83bb 8ba6 a6bb 1d6b 8e3a
000003a0: 661e 3d3c 87aa 2b3c 244d c63a 3786 f33b
000003b0: dcea 30ba bd27 4bbc b231 76bc 20cc 4dbb
000003c0: b582 b139 eb87 76bc 5b47 3a3c fd96 edbb
000003d0: f2a3 c73a 49c3 ccbb 7b8b 783c d9ed 0c39
000003e0: 078f 913b d872 e03a 571b 4abb af18 013c
000003f0: ef6b faba 1ad1 ecbb 603d 5bbb 0ebf 90bb

action_model._discrete_distribution.branches.0.bias f4 [5]
0.0 0.0 0.0 0.0 0.0
00000000: 0000 0000 0000 0000 0000 0000 0000 0000
00000010: 0000 0000
