Project/Assets/ML-Agents/Examples/MyTest/Scripts/TFModels/MyTest1Models/Test6/MoveToGoal/MoveToGoal-3008.pt (torch, 147876 bytes, 14 tensors)

network_body._body_endoder.seq_layers.0.weight f4 [128, 1]
0	0xbec37149	-0.38172367
1	0x3d7147b6	0.05890628
2	0x3dda65d4	0.106639534
3	0x3f175ecf	0.5912904
4	0xbd6ca9fb	-0.057779294
5	0xbf1fb3db	-0.6238381
6	0xbec2835d	-0.37990847
7	0x3fffe851	1.9992772
8	0xbf4c59f1	-0.7982474
9	0x3efada13	0.48994502
10	0x3f2f2e17	0.684297
11	0x3f3cf151	0.7380572
12	0xbf1238dc	-0.5711801
13	0x3edec859	0.43512228
14	0x3f28ae2e	0.6589078
15	0xbffa2a3d	-1.954414
16	0x3dc3c7c8	0.095595896
17	0x4030d646	2.7630782
18	0xbf855175	-1.0415484
19	0xbc12dc15	-0.008963604
20	0xbdcd9ee7	-0.10040074
21	0xbfdcc669	-1.724805
22	0x3f1f218f	0.6216058
23	0xbee2eb36	-0.44320077
24	0x3d94f1a2	0.0727265
25	0xbf8146c6	-1.0099723
26	0xbf5aea69	-0.8551393
27	0xbe5a0a1a	-0.21292916
28	0x3ea8ad29	0.3294461
29	0xbf1a8d46	-0.60371816
30	0x3f3978fb	0.72450227
31	0xbf1c4a98	-0.6105132
32	0xc0092bee	-2.1433063
33	0x3f567638	0.8377414
34	0x3e47a10d	0.1949503
35	0x3f3dfb6b	0.7421176
36	0x3f5c52bf	0.8606376
37	0xbda892d0	-0.08231127
38	0x3ff75a4b	1.932443
39	0x3ee7d00f	0.45275924
40	0x3e9cf8dc	0.30658615
41	0x3eff3476	0.49844712
42	0x3f79db0c	0.97599864
43	0xbed13c38	-0.40866256
44	0xbe6a264c	-0.22866172
45	0x3f58eafd	0.84733564
46	0xbe8f60c3	-0.2800351
47	0xbdf0b492	-0.11753191
48	0x3dc830e0	0.09774947
49	0xbfa5983f	-1.2937087
50	0xbd1aee3b	-0.03782485
51	0xbf37ea7d	-0.71842176
52	0x3f664fb2	0.89965355
53	0xbf3a9c6a	-0.7289492
54	0x3f2d08bc	0.6759145
55	0xc008ad68	-2.1355839
56	0x3f560665	0.8360351
57	0xbf59e1d5	-0.8511022
58	0xbfa73053	-1.3061622
59	0xbf210d27	-0.62910694
60	0x3e4b8f92	0.19878986
61	0xbe2e95ac	-0.17049283
62	0xbeba0310	-0.36330462
63	0xbef40597	-0.47660515
64	0xbfbd896a	-1.480756
65	0xbf91d55c	-1.1393237
66	0x3f8a3303	1.0796818
67	0x3f550a71	0.8321906
68	0xbf2b9019	-0.6701675
69	0xbe1271ef	-0.14301275
70	0xbf92c697	-1.1466855
71	0xbf827262	-1.0191157
72	0xbe129cd5	-0.14317639
73	0x3e0bb46e	0.13643047
74	0x3f99ac8e	1.2005785
75	0x3f927cf3	1.1444381
76	0x3f04c77d	0.51866895
77	0xbf180712	-0.5938579
78	0x3fd8d0a5	1.6938673
79	0x3fe776d9	1.8083144
80	0xbea9e85a	-0.33185083
81	0x3fc0d571	1.5065137
82	0x3f0f8088	0.560555
83	0x3edafcab	0.42770895
84	0xbf8329fb	-1.0247186
85	0x3f777a11	0.96670634
86	0xbd39b64a	-0.04533986
87	0xbf3ab103	-0.7292635
88	0xbf99aaaa	-1.2005208
89	0x3f863e0b	1.0487684
90	0xbf29ebbc	-0.6637533
91	0x3f5156c1	0.81773
92	0xbec0d5c5	-0.37663093
93	0xbf61b04c	-0.8815963
94	0xbddd1685	-0.10795311
95	0xbeb6387b	-0.35589966
96	0xbf0b8993	-0.54506797
97	0x3ea2c588	0.3179133
98	0x3fee450f	1.8614825
99	0xc016d7ef	-2.3569295
100	0xbe46444b	-0.19361989
101	0xbf1d7077	-0.6149973
102	0xbebce514	-0.36893523
103	0x40079fdb	2.1191318
104	0xbc93c29f	-0.018037139
105	0x403634c7	2.8469713
106	0x3f60653f	0.8765449
107	0xbfa4efb4	-1.2885652
108	0xbd22fc46	-0.039791368
109	0xbedbe583	-0.4294854
110	0xbf3e37ff	-0.74304193
111	0x3f121a23	0.5707113
112	0x3f099259	0.53738934
113	0x3e1e4e22	0.15459493
114	0x3e8053cc	0.25063932
115	0xbf1523b2	-0.5825759
116	0xbfc1465e	-1.5099599
117	0x3f3b7e7d	0.7323988
118	0xbd59d7e3	-0.0531844
119	0x3f904079	1.1269675
120	0xbf50ff86	-0.816399
121	0xbe74dd62	-0.23912576
122	0xbffa09eb	-1.9534277
123	0xbf7839a2	-0.9696294
124	0xbd52d13f	-0.051469084
125	0xbf1620d2	-0.5864383
126	0x3f1c80a9	0.6113382
127	0xbf0b058b	-0.5430533

network_body._body_endoder.seq_layers.0.bias f4 [128]
0	0x00000000	0.0
1	0x00000000	0.0
2	0x00000000	0.0
3	0x00000000	0.0
4	0x00000000	0.0
5	0x00000000	0.0
6	0x00000000	0.0
7	0x00000000	0.0
8	0x00000000	0.0
9	0x00000000	0.0
10	0x00000000	0.0
11	0x00000000	0.0
12	0x00000000	0.0
13	0x00000000	0.0
14	0x00000000	0.0
15	0x00000000	0.0
16	0x00000000	0.0
17	0x00000000	0.0
18	0x00000000	0.0
19	0x00000000	0.0
20	0x00000000	0.0
21	0x00000000	0.0
22	0x00000000	0.0
23	0x00000000	0.0
24	0x00000000	0.0
25	0x00000000	0.0
26	0x00000000	0.0
27	0x00000000	0.0
28	0x00000000	0.0
29	0x00000000	0.0
30	0x00000000	0.0
31	0x00000000	0.0
32	0x00000000	0.0
33	0x00000000	0.0
34	0x00000000	0.0
35	0x00000000	0.0
36	0x00000000	0.0
37	0x00000000	0.0
38	0x00000000	0.0
39	0x00000000	0.0
40	0x00000000	0.0
41	0x00000000	0.0
42	0x00000000	0.0
43	0x00000000	0.0
44	0x00000000	0.0
45	0x00000000	0.0
46	0x00000000	0.0
47	0x00000000	0.0
48	0x00000000	0.0
49	0x00000000	0.0
50	0x00000000	0.0
51	0x00000000	0.0
52	0x00000000	0.0
53	0x00000000	0.0
54	0x00000000	0.0
55	0x00000000	0.0
56	0x00000000	0.0
57	0x00000000	0.0
58	0x00000000	0.0
59	0x00000000	0.0
60	0x00000000	0.0
61	0x00000000	0.0
62	0x00000000	0.0
63	0x00000000	0.0
64	0x00000000	0.0
65	0x00000000	0.0
66	0x00000000	0.0
67	0x00000000	0.0
68	0x00000000	0.0
69	0x00000000	0.0
70	0x00000000	0.0
71	0x00000000	0.0
72	0x00000000	0.0
73	0x00000000	0.0
74	0x00000000	0.0
75	0x00000000	0.0
76	0x00000000	0.0
77	0x00000000	0.0
78	0x00000000	0.0
79	0x00000000	0.0
80	0x00000000	0.0
81	0x00000000	0.0
82	0x00000000	0.0
83	0x00000000	0.0
84	0x00000000	0.0
85	0x00000000	0.0
86	0x00000000	0.0
87	0x00000000	0.0
88	0x00000000	0.0
89	0x00000000	0.0
90	0x00000000	0.0
91	0x00000000	0.0
92	0x00000000	0.0
93	0x00000000	0.0
94	0x00000000	0.0
95	0x00000000	0.0
96	0x00000000	0.0
97	0x00000000	0.0
98	0x00000000	0.0
99	0x00000000	0.0
100	0x00000000	0.0
101	0x00000000	0.0
102	0x00000000	0.0
103	0x00000000	0.0
104	0x00000000	0.0
105	0x00000000	0.0
106	0x00000000	0.0
107	0x00000000	0.0
108	0x00000000	0.0
109	0x00000000	0.0
110	0x00000000	0.0
111	0x00000000	0.0
112	0x00000000	0.0
113	0x00000000	0.0
114	0x00000000	0.0
115	0x00000000	0.0
116	0x00000000	0.0
117	0x00000000	0.0
118	0x00000000	0.0
119	0x00000000	0.0
120	0x00000000	0.0
121	0x00000000	0.0
122	0x00000000	0.0
123	0x00000000	0.0
124	0x00000000	0.0
125	0x00000000	0.0
126	0x00000000	0.0
127	0x00000000	0.0

network_body._body_endoder.seq_layers.2.weight f4 [128, 128]
0	0xbc725cf2	-0.014792668
1	0xbc01326a	-0.007885555
2	0xbd0761e1	-0.03305233
3	0xbd8755ce	-0.06608163
4	0xbdb59a33	-0.08867302
5	0xbc748a5e	-0.014925567
6	0x3c32f37e	0.010922311
7	0x3a7d1507	0.00096543174
8	0xbe23757e	-0.15962788
9	0xbda418cf	-0.08012544
10	0xbd6e502d	-0.05818193
11	0x3df7a2b2	0.120915785
12	0xbd5be550	-0.053685486
13	0xbe0f1e1b	-0.13976328
14	0xbdfcf1e5	-0.12350825
15	0x3d002e25	0.031294007
16	0x3e256d6f	0.16155027
17	0x3c671c4e	0.014105869
18	0x3db21def	0.08697116
19	0x3daf61d0	0.08563578
20	0xbd21390a	-0.039361037
21	0xbdd7387f	-0.10508823
22	0x3d75f97d	0.060052384
23	0xbb07a671	-0.0020698572
24	0xbd4ad800	-0.0495224
25	0x3b98d6de	0.004664286
26	0xbe0f66d5	-0.14004071
27	0xbcc27ad6	-0.023740213
28	0xbe06183e	-0.13095185
29	0xbca91fed	-0.020645106
30	0xbd1d89dd	-0.038461555
31	0xbbf920e7	-0.007602799
32	0xbd253322	-0.040331967
33	0xbb7b2889	-0.0038323721
34	0x3dca1b40	0.09868479
35	0x3b9d9003	0.0048084273
36	0x3abded68	0.0014490308
37	0x3d253a2e	0.040338688
38	0xbc8bdfb5	-0.017074445
39	0x3e8bef35	0.27330938
40	0x3d36d185	0.044633407
41	0x3dbe041a	0.09278126
42	0xbd6dee75	-0.05808874
43	0x3d6c3ff1	0.057678167
44	0x3e2539dd	0.16135354
45	0xbdaf5867	-0.08561783
46	0x3d99ef86	0.075163886
47	0xbcd4078f	-0.02588251
48	0x3cd61c9c	0.026136689
49	0xbb1ba275	-0.0023747955
50	0xbc944966	-0.018101405
51	0xbde876aa	-0.113507584
52	0xbd48c38f	-0.049014624
53	0x3d86eb23	0.065878175
54	0xbe0bcb00	-0.13651657
55	0x3d44d5cb	0.04805545
56	0x3e376523	0.17909674
57	0xbdaa37c3	-0.08311417
58	0xbdffc643	-0.12488987
59	0xbe0c633c	-0.1370973
60	0x3c0f7e13	0.008758086
61	0xbdbb00da	-0.09131022
62	0xbd11aa93	-0.035563063
63	0xbd8baa50	-0.06819594
64	0x3d4dfec9	0.05029181
65	0x3c9e38d2	0.019314203
66	0x3e24694a	0.1605579
67	0x3d9eb230	0.0774883
68	0x3d3682c0	0.044558287
69	0x3dce933c	0.100866765
70	0xbe5c3f0e	-0.21508428
71	0x3a100970	0.00054945704
72	0xbd409db4	-0.047025397
73	0xbe6b0c92	-0.22954014
74	0xbbed6a17	-0.007245313
75	0xbd4c8fed	-0.049941946
76	0x3e3059c8	0.17221749
77	0xbd32a4e5	-0.043614287
78	0x3d7d9193	0.06190641
79	0x3d6f9323	0.05848993
80	0xbd28201c	-0.041046247
81	0x3da5ae72	0.080899134
82	0x3cf2c089	0.029632824
83	0xbcbde98a	-0.02318265
84	0xbd613e50	-0.054991066
85	0xbcd0351e	-0.025415953
86	0xbd00c610	-0.031438887
87	0xbddf4061	-0.10900951
88	0xbd72c632	-0.059271045
89	0xbde38498	-0.111092746
90	0xbd9f7b20	-0.07787156
91	0xbcc6929e	-0.024239834
92	0xbc5fa457	-0.0136500215
93	0xbd6ffa23	-0.05858816
94	0x3c646dfc	0.013942238
95	0xbce2122a	-0.027596552
96	0x3d6c46eb	0.05768482
97	0xbdfbf58a	-0.12302692
98	0x3da9ec74	0.08297053
99	0x3d84dfe2	0.06488015
100	0x3b86bbd9	0.0041117487
101	0x3ccb8212	0.024842296
102	0x3dc8ec43	0.09810688
103	0x3e043f3a	0.12914744
104	0xbd87dedc	-0.06634304
105	0x3c4a420e	0.01234485
106	0xbd22a270	-0.039705694
107	0x3b019cac	0.0019777222
108	0xbc8704ef	-0.016481845
109	0x3d1a09e5	0.037607092
110	0xbdfef5e9	-0.124492474
111	0xbdadd6e2	-0.08488251
112	0x3d2f49b2	0.04279489
113	0x3df53e2c	0.11974749
114	0xbd1a12e4	-0.03761567
115	0x3beba661	0.007191465
116	0xbdb04a76	-0.08607952
117	0x3d7293c5	0.059222955
118	0xbd07b971	-0.033135835
119	0xbdf78928	-0.12086707
120	0xbd5c1d92	-0.053739138
121	0x3da55603	0.08073046
122	0x3d1bd9c2	0.038049467
123	0x3ddc8fda	0.10769625
124	0x3d279a2f	0.040918525
125	0x3d5a564c	0.053304955
126	0xbcb36238	-0.02189742
127	0x3dc44602	0.095836654
128	0x3dc35d46	0.09539275
129	0x3d3c31f9	0.045946095
130	0x3b5523f4	0.003252265
131	0x3b663418	0.0035126265
132	0xbc81286c	-0.015766345
133	0x3bdf5a51	0.0068161865
134	0x3ddc09b6	0.1074404
135	0xbd9515b3	-0.072795294
136	0x3d57982e	0.052635364
137	0x3d472def	0.04862779
138	0xbd3955a8	-0.045247704
139	0xbe087635	-0.13326342
140	0xbd67859a	-0.056523897
141	0x3ce8fa3b	0.028439632
142	0xbbdac53b	-0.0066763437
143	0x3dac41c9	0.08410985
144	0x3e30dac7	0.17270957
145	0xbca8455c	-0.020540886
146	0x3c96cdfe	0.018408772
147	0xbe01d9fd	-0.12680812
148	0x3cc7061d	0.024294907
149	0x3d9bf8c9	0.076158114
150	0xbda2d468	-0.079506695
151	0x3df438ab	0.11924871
152	0x3d1aebd7	0.03782257
153	0xbd3a069e	-0.045416467
154	0xbba5e6dd	-0.0050629214
155	0xbcf0c88c	-0.029392503
156	0xbd5ed006	-0.054397605
157	0xbdc80d62	-0.097681776
158	0xbd13c9ba	-0.036081053
159	0xbe23684a	-0.15957752
160	0xbdc503d1	-0.096198685
161	0x3b487ed2	0.003059317
162	0x3deca864	0.115555555
163	0xbc2121e7	-0.009834743
164	0xba3b283b	-0.00071394787
165	0x3d898f74	0.06716815
166	0xbdbe86df	-0.09303068
167	0xbdf971cf	-0.121799104
168	0xbe0c3968	-0.13693774
169	0x3d33e55c	0.043919906
170	0x3da34b7c	0.07973382
171	0x3d9ddef2	0.07708539
172	0x3e2333de	0.15937755
173	0x3beec194	0.00728626
174	0x3d28f625	0.041250367
175	0x3d982bd3	0.07430234
176	0xbd354405	-0.04425432
177	0x3d0df3cc	0.03465633
178	0x3e2033cd	0.1564476
179	0x3e2c991e	0.16855285
180	0x3bd9e16b	0.0066491864
181	0xbd927550	-0.07151282
182	0xbd3c931d	-0.046038736
183	0x3ceae293	0.028672492
184	0xbe4b7d8d	-0.19872113
185	0xbe61738d	-0.22016735
186	0x3e04734d	0.12934609
187	0xbc568fc6	-0.013095802
188	0xbe102cc6	-0.1407958
189	0xbb588f59	-0.0033044426
190	0x3d0dc2c3	0.034609567
191	0xbcc35c97	-0.023847861
192	0xbd9e7d2f	-0.077387206
193	0x3d04a41d	0.032383073
194	0xbc9268da	-0.017872263
195	0xbdea1b47	-0.11430984
196	0x3d29d4e1	0.041462783
197	0xbcc0ace7	-0.023519946
198	0xbd8ab6ea	-0.06773169
199	0xbcd7623e	-0.026291963
200	0xbd857aba	-0.06517549
201	0x3da65644	0.081219226
202	0x3c51bb5b	0.012801017
203	0x3de7475f	0.1129291
204	0x3cd2a743	0.025714522
205	0x3e014989	0.12625708
206	0x3ce8fd1a	0.028441
207	0x3d528efd	0.051405896
208	0xbd99d4c2	-0.075112835
209	0x3d912a50	0.070881486
210	0xbbb294e8	-0.00544988
211	0x3daf990f	0.085741155
212	0xbd0cf70b	-0.034415286
213	0xbd15cf6b	-0.036574762
214	0xbbd99b2e	-0.0066408133
215	0xb91b2cd9	-0.00014798659
216	0xba93e6f1	-0.0011284036
217	0x3b37a690	0.0028022863
218	0xbd8d00e4	-0.068849355
219	0x3d6c8874	0.05774732
220	0x3e2835d4	0.16426784
221	0x3d31b118	0.04338178
222	0x3cb743b3	0.022371149
223	0x3d0b835f	0.034060832
224	0x3d9244f2	0.071420565
225	0xbd3bbc32	-0.045833774
226	0xbc4ce538	-0.012505822
227	0xbc32e1b7	-0.010918072
228	0x3d6a39da	0.057184078
229	0xbe1876cf	-0.14889072
230	0xbe110ff4	-0.14166242
231	0xbd2ea78c	-0.042640254
232	0xbdcad60f	-0.0990411
233	0x3e2fe302	0.1717644
234	0x3e23c91d	0.15994687
235	0x3dd8a932	0.105791464
236	0x3e09d69b	0.13460772
237	0x3d790aa6	0.06080117
238	0xbe13bce9	-0.14427532
239	0xbd9c971a	-0.07646008
240	0x3d152dfe	0.036420815
241	0x3d12ece1	0.035870437
242	0xbd404040	-0.046936274
243	0x3d9d2a2f	0.076740615
244	0x3dca247a	0.098702386
245	0x3d47181a	0.04860697
246	0xbcb1668c	-0.021655343
247	0xbdb41659	-0.08793325
248	0x3b53b549	0.00323041
249	0xbbbecc61	-0.0058227037
250	0xbcb1a9f1	-0.02168748
251	0xbdaad0ba	-0.08340593
252	0x3d4005fc	0.046880707
253	0x3e85b1a1	0.26112083
254	0xbddca0d2	-0.107728615
255	0xbc523ff3	-0.0128326295

network_body._body_endoder.seq_layers.2.bias f4 [128]
0	0x00000000	0.0
1	0x00000000	0.0
2	0x00000000	0.0
3	0x00000000	0.0
4	0x00000000	0.0
5	0x00000000	0.0
6	0x00000000	0.0
7	0x00000000	0.0
8	0x00000000	0.0
9	0x00000000	0.0
10	0x00000000	0.0
11	0x00000000	0.0
12	0x00000000	0.0
13	0x00000000	0.0
14	0x00000000	0.0
15	0x00000000	0.0
16	0x00000000	0.0
17	0x00000000	0.0
18	0x00000000	0.0
19	0x00000000	0.0
20	0x00000000	0.0
21	0x00000000	0.0
22	0x00000000	0.0
23	0x00000000	0.0
24	0x00000000	0.0
25	0x00000000	0.0
26	0x00000000	0.0
27	0x00000000	0.0
28	0x00000000	0.0
29	0x00000000	0.0
30	0x00000000	0.0
31	0x00000000	0.0
32	0x00000000	0.0
33	0x00000000	0.0
34	0x00000000	0.0
35	0x00000000	0.0
36	0x00000000	0.0
37	0x00000000	0.0
38	0x00000000	0.0
39	0x00000000	0.0
40	0x00000000	0.0
41	0x00000000	0.0
42	0x00000000	0.0
43	0x00000000	0.0
44	0x00000000	0.0
45	0x00000000	0.0
46	0x00000000	0.0
47	0x00000000	0.0
48	0x00000000	0.0
49	0x00000000	0.0
50	0x00000000	0.0
51	0x00000000	0.0
52	0x00000000	0.0
53	0x00000000	0.0
54	0x00000000	0.0
55	0x00000000	0.0
56	0x00000000	0.0
57	0x00000000	0.0
58	0x00000000	0.0
59	0x00000000	0.0
60	0x00000000	0.0
61	0x00000000	0.0
62	0x00000000	0.0
63	0x00000000	0.0
64	0x00000000	0.0
65	0x00000000	0.0
66	0x00000000	0.0
67	0x00000000	0.0
68	0x00000000	0.0
69	0x00000000	0.0
70	0x00000000	0.0
71	0x00000000	0.0
72	0x00000000	0.0
73	0x00000000	0.0
74	0x00000000	0.0
75	0x00000000	0.0
76	0x00000000	0.0
77	0x00000000	0.0
78	0x00000000	0.0
79	0x00000000	0.0
80	0x00000000	0.0
81	0x00000000	0.0
82	0x00000000	0.0
83	0x00000000	0.0
84	0x00000000	0.0
85	0x00000000	0.0
86	0x00000000	0.0
87	0x00000000	0.0
88	0x00000000	0.0
89	0x00000000	0.0
90	0x00000000	0.0
91	0x00000000	0.0
92	0x00000000	0.0
93	0x00000000	0.0
94	0x00000000	0.0
95	0x00000000	0.0
96	0x00000000	0.0
97	0x00000000	0.0
98	0x00000000	0.0
99	0x00000000	0.0
100	0x00000000	0.0
101	0x00000000	0.0
102	0x00000000	0.0
103	0x00000000	0.0
104	0x00000000	0.0
105	0x00000000	0.0
106	0x00000000	0.0
107	0x00000000	0.0
108	0x00000000	0.0
109	0x00000000	0.0
110	0x00000000	0.0
111	0x00000000	0.0
112	0x00000000	0.0
113	0x00000000	0.0
114	0x00000000	0.0
115	0x00000000	0.0
116	0x00000000	0.0
117	0x00000000	0.0
118	0x00000000	0.0
119	0x00000000	0.0
120	0x00000000	0.0
121	0x00000000	0.0
122	0x00000000	0.0
123	0x00000000	0.0
124	0x00000000	0.0
125	0x00000000	0.0
126	0x00000000	0.0
127	0x00000000	0.0

action_model._continuous_distribution.log_sigma f4 [1, 2]
0	0x00000000	0.0
1	0x00000000	0.0

action_model._continuous_distribution.mu.weight f4 [2, 128]
0	0x3c83d8e3	0.01609463
1	0x3c7b887f	0.015352367
2	0x3c91b36f	0.017785756
3	0x3c249116	0.010044357
4	0x3cc760d7	0.024338169
5	0xb9ea4efb	-0.00044690803
6	0xbcf8d24a	-0.030373711
7	0x3bf8df65	0.00759499
8	0xbb353a18	-0.0027653035
9	0x3c82214f	0.015885023
10	0x3d2de03f	0.042450186
11	0x3c895c7f	0.016767738
12	0xbc4a54a9	-0.012349286
13	0xbcd21235	-0.025643447
14	0xbc194704	-0.00935531
15	0x3c827503	0.015924936
16	0xbc7e211d	-0.0155108245
17	0x3b21e4e2	0.0024703075
18	0x3b66da7d	0.0035225444
19	0x3beac80f	0.007164962
20	0x3bba049c	0.005676819
21	0xbc9a0407	-0.018800749
22	0xbc8c3549	-0.017115252
23	0xbb26ef1f	-0.0025472117
24	0xbbc7c9e5	-0.0060970658
25	0xbd1dfda6	-0.038571976
26	0xbc2c97fb	-0.010534282
27	0xbcc3d6ab	-0.023906073
28	0x3c1a18f5	0.009405364
29	0x3bbc7a05	0.0057518505
30	0x3cea2303	0.028581148
31	0x3cc8a026	0.024490427
32	0x3c7fad08	0.015605219
33	0x3c9e62ed	0.01933428
34	0xbcff69db	-0.031178406
35	0x3aab080c	0.0013048663
36	0x3ae72e7f	0.0017637758
37	0xbc7e2393	-0.015511411
38	0x3b9642f1	0.0045856168
39	0x3b16a7c8	0.002298819
40	0x3c5b5a43	0.013388219
41	0xbccbcf63	-0.024879163
42	0xbc93bd6d	-0.018034661
43	0x3c9a2e72	0.018820975
44	0xbcbb876f	-0.022891728
45	0x3cda287f	0.026630638
46	0xbb20b8f7	-0.002452431
47	0x3b656d53	0.003500779
48	0x3c4e2d75	0.01258408
49	0xbcc0a9d6	-0.023518484
50	0x3c8db647	0.01729883
51	0xbc766612	-0.015038984
52	0x3bb5b6bc	0.0055454653
53	0x3c0a1317	0.008427403
54	0x3c32697c	0.010889407
55	0xbced8215	-0.028992692
56	0xbbfb2c5a	-0.007665199
57	0x3bcb9ced	0.0062137754
58	0x3bca5cdf	0.006175622
59	0x3c4ff147	0.012691802
60	0xbd0dbb56	-0.034602486
61	0xbc0272cd	-0.007961941
62	0xbc4a292b	-0.012338917
63	0x3c00cc1e	0.007861165
64	0x3c8947ea	0.016757924
65	0x3ca1591b	0.01969581
66	0x3a423dd3	0.0007409725
67	0xbb80ca4e	-0.0039303666
68	0x3c983692	0.018580709
69	0x3bde6118	0.006786477
70	0xbc39830e	-0.01132275
71	0xbc321297	-0.01086869
72	0xbc59af8d	-0.0132864835
73	0x3ccd0417	0.025026364
74	0x3b3ed9b7	0.0029121467
75	0xbc043f8a	-0.0080717895
76	0x3cae37b1	0.02126679
77	0xbb9204c9	-0.004456137
78	0xbc800b91	-0.015630515
79	0xbb90fc1f	-0.0044245864
80	0xbd296ba4	-0.04136242
81	0x3c903dba	0.017607559
82	0xbc57c590	-0.013169661
83	0xbbf0ec1a	-0.0073523642
84	0x3b9146a5	0.0044334703
85	0x3c49754c	0.012296032
86	0x3c1e365c	0.009656515
87	0xbcad9378	-0.021188483
88	0xbc09229b	-0.008370067
89	0xbc54492d	-0.0129569
90	0x3c9ee073	0.019394135
91	0xbc1963cc	-0.009362172
92	0xbb7b7fb3	-0.0038375675
93	0x3c3454aa	0.011006514
94	0xbc8bb3ae	-0.017053451
95	0xbb17c50c	-0.002315822
96	0xbc74b2f5	-0.014935245
97	0xbca03ea7	-0.019561125
98	0x3bc4a739	0.00600138
99	0xbcf00013	-0.02929691
100	0x3a8f760b	0.0010945214
101	0xbcbfb29b	-0.023400595
102	0xbcf82e2f	-0.03029546
103	0x3becda5f	0.0072281803
104	0xbc920294	-0.017823495
105	0xbc2306e2	-0.009950371
106	0xbbcf9cdf	-0.006335839
107	0x3bd61d8d	0.0065342844
108	0xbc92a50d	-0.017900968
109	0xbc8dbbe7	-0.017301513
110	0x3c868b3a	0.01642381
111	0xbbbd7831	-0.00578215
112	0x3bd2723d	0.0064223097
113	0x3cc4195f	0.02393788
114	0xbd139f97	-0.03604087
115	0xbc04fa0f	-0.008116259
116	0xbc5eb20f	-0.013592257
117	0x3c10c3d0	0.008835748
118	0x3a833baf	0.0010012294
119	0xba7bc9a7	-0.00096049387
120	0x387936e5	5.941735e-05
121	0x3cd96e45	0.026541838
122	0xbb2551b0	-0.0025225691
123	0xbc90424b	-0.017609736
124	0x3cf57890	0.029964715
125	0x3cb90805	0.022586832
126	0xbc2fa8e7	-0.010721422
127	0xbc3d28f2	-0.011545407
128	0xbb91ce65	-0.004449653
129	0xbcc8fbff	-0.024534224
130	0xbcaf9e8f	-0.021437911
131	0xbc77525a	-0.015095318
132	0x3ba97410	0.0051713064
133	0x3cbf939f	0.02338582
134	0xbc546475	-0.012963404
135	0xbc3181c1	-0.010834158
136	0x3d2aa4ef	0.0416612
137	0xbcb3cd9e	-0.021948632
138	0xbc98a2f7	-0.018632395
139	0x3cc45307	0.023965372
140	0x3b8d2a70	0.0043080375
141	0xbc3aeb96	-0.011408707
142	0x3bacab21	0.0052694236
143	0xbc9fdcbb	-0.019514432
144	0x3c0e066a	0.008668521
145	0x3ca5fa74	0.020261027
146	0x3ce4abef	0.027914016
147	0xbc48c807	-0.0122547215
148	0x3b496350	0.003072936
149	0xbbd2db28	-0.006434817
150	0x3cefc39a	0.029268075
151	0xbbb4f473	-0.0055223047
152	0x3aa0bccf	0.0012263301
153	0xbb07411b	-0.002063817
154	0xbc408d13	-0.011752385
155	0xbc24f966	-0.010069227
156	0xbc36229b	-0.011116649
157	0x3ca0abdd	0.0196132
158	0x3c0028db	0.007822241
159	0xbbb4c953	-0.005517164
160	0x3c023612	0.007947462
161	0xbd2980d7	-0.041382637
162	0x3cda02b7	0.026612623
163	0xbcbef41f	-0.023309765
164	0xbcf30a52	-0.029668007
165	0x3b3c901b	0.0028772417
166	0xbbf1a7b3	-0.0073747276
167	0xbbe3b36f	-0.0069488804
168	0xbbfc1322	-0.0076927105
169	0xbb6c14c2	-0.0036023115
170	0xbc78b570	-0.015179977
171	0x3b1740c3	0.0023079372
172	0x3bf2db25	0.007411378
173	0x3a3016af	0.00067172473
174	0xbd19d892	-0.037560053
175	0xbc55a015	-0.013038655
176	0xba345e17	-0.00068804756
177	0x3c639f55	0.013892968
178	0x3c984188	0.018585935
179	0xbc907bff	-0.017637251
180	0x39a428b9	0.00031310858
181	0x3bf112dd	0.007356985
182	0x3be9e673	0.0071380674
183	0x3c6f4b3a	0.014605338
184	0xbc6782e2	-0.014130326
185	0xbcd887ef	-0.026432006
186	0xbd3a6e4b	-0.04551534
187	0xbc8b91f1	-0.017037364
188	0xbb66d138	-0.003521992
189	0xbc0cc8b2	-0.008592771
190	0xbd11af55	-0.0355676
191	0x3babb2f8	0.0052398406
192	0xbcaa6d02	-0.020803932
193	0x3c1a444a	0.009415695
194	0xbc4a3cbe	-0.012343584
195	0xbcafc05b	-0.021454027
196	0xbb9f5fb3	-0.004863703
197	0xbcbfefd6	-0.023429792
198	0x3a219e2f	0.0006165234
199	0xbd1d9204	-0.03846933
200	0xbcb08a90	-0.021550447
201	0xbab4decf	-0.0013799312
202	0xbb94f12b	-0.004545351
203	0x3c0a5aa1	0.008444459
204	0xbd2ffb95	-0.042964537
205	0x3cbbc186	0.022919428
206	0x3b6c554a	0.0036061578
207	0x3c8a6373	0.016893124
208	0xb9c83e07	-0.00038193187
209	0x3bccf62b	0.0062549314
210	0x3c255a10	0.010092273
211	0xba4430b3	-0.00074840634
212	0x3c3130f2	0.010814892
213	0x3d4c2bd3	0.04984648
214	0xbcdcd5a8	-0.026957348
215	0xbbc68382	-0.0060581574
216	0x3c294fae	0.0103339385
217	0x3c156e3a	0.009120518
218	0x3c910997	0.017704768
219	0x3d124894	0.035713747
220	0xbc9bc46b	-0.019014558
221	0x3c985dd7	0.018599434
222	0x3c3a51f7	0.011372081
223	0xbcb34073	-0.021881318
224	0x3d3378d3	0.0438164
225	0xbce6b02f	-0.028160183
226	0x3bfc9dd7	0.0077092457
227	0xbc977647	-0.018489016
228	0x3cdf0c60	0.02722758
229	0x3cc83d7a	0.024443377
230	0x3be421bb	0.006962029
231	0xbd0d09bc	-0.03443311
232	0xbd071ec3	-0.03298832
233	0xbc062336	-0.008187106
234	0x3c210b4e	0.009829355
235	0x3c7867ea	0.015161494
236	0xbce43aea	-0.027860124
237	0x3d0b3484	0.03398563
238	0x3c524438	0.012833647
239	0x3bf979a3	0.007613377
240	0x3c945ba4	0.018110104
241	0xbcc22409	-0.023698824
242	0xbb0a1aac	-0.0021073027
243	0x3cd7bcaa	0.02633508
244	0xbd5db795	-0.054130156
245	0x3c4e5657	0.012593827
246	0xbccb859b	-0.024843981
247	0x3c978429	0.018495636
248	0x3caaf72c	0.020869814
249	0x3c72be97	0.014815948
250	0x3a66dc35	0.0008806617
251	0xbc6dfd8d	-0.014525783
252	0xbbe1ed2b	-0.0068947277
253	0x3ccda69b	0.025103858
254	0xbbb1a234	-0.0054209474
255	0xba528618	-0.0008030846

action_model._continuous_distribution.mu.bias f4 [2]
0	0x00000000	0.0
1	0x00000000	0.0

action_model._discrete_distribution.branches.0.weight f4 [5, 128]
0	0x3c0d5977	0.008627287
1	0x3be631e7	0.007024992
2	0x3a3b663d	0.00071487186
3	0x3b75f452	0.003752966
4	0x3baf2d17	0.0053459513
5	0x3c88b920	0.016689837
6	0xbcb982d2	-0.022645388
7	0xbc033f4f	-0.008010699
8	0xbc1f8326	-0.009735858
9	0x3c5f063b	0.013612325
10	0x3c560858	0.013063513
11	0x3ba6e8c3	0.0050936653
12	0x3c4f7397	0.012661836
13	0x3b87a25b	0.0041392273
14	0xbc92c7d5	-0.017917553
15	0xbb45ac8c	-0.003016266
16	0xbab490a5	-0.0013776018
17	0xba8edebc	-0.001090012
18	0x3c765a7a	0.01503622
19	0x3c34a03e	0.011024533
20	0x3bf7d8eb	0.0075637004
21	0xbba56897	-0.0050478685
22	0x3c86b40c	0.016443275
23	0xbbe30bc8	-0.0069288947
24	0xbaab5c53	-0.0013073779
25	0x3bb71c99	0.005588126
26	0x3c577ab0	0.01315181
27	0x3ae60b7f	0.0017551034
28	0x3cbaad9e	0.022787865
29	0xba2beb54	-0.0006558199
30	0x3ba9ac4f	0.0051780115
31	0xb994431c	-0.0002827876
32	0x3a8d4396	0.0010777588
33	0x3bbb70ab	0.005720218
34	0x3b2ff4a4	0.0026848698
35	0x39de3392	0.00042381563
36	0xbb2dc1fd	-0.002651333
37	0x3c89d80b	0.01682665
38	0x3c7c5895	0.015401979
39	0xbca68f54	-0.020332016
40	0xbc01ca8b	-0.007921825
41	0x3af1fc45	0.0018462023
42	0xbc8b77df	-0.017024932
43	0x3a05a0d2	0.00050975115
44	0xbc16ba2f	-0.009199663
45	0x3b977aaf	0.0046227793
46	0x3bf80d37	0.0075699347
47	0x3cc05985	0.023480186
48	0xbc896fba	-0.016776908
49	0xba038ba2	-0.00050180603
50	0xb9daa0b3	-0.0004169993
51	0xbb3c540a	-0.0028736615
52	0xbbc9c063	-0.0061569675
53	0xbb9aab20	-0.0047201067
54	0xbbbc37b3	-0.0057439446
55	0x3b300b38	0.0026862156
56	0x3bfddb57	0.0077470946
57	0xbbca9568	-0.0061823614
58	0x3ac7cc54	0.001524339
59	0x3b944b4e	0.0045255786
60	0xbb6eb522	-0.0036423882
61	0xbb16c398	-0.0023004767
62	0x3c02c4ef	0.007981523
63	0xbad72cc3	-0.0016416538
64	0xbb770cf5	-0.0037696932
65	0xbbd1ed58	-0.0064064674
66	0xba996881	-0.0011704118
67	0xbcaf722f	-0.021416752
68	0xbbb0e360	-0.005398199
69	0x3ac4883d	0.0014994215
70	0x3b32264c	0.0027183471
71	0xbb019e44	-0.0019778172
72	0x3c8cd8a9	0.017193155
73	0x3a6a9bfb	0.00089496345
74	0xbb5933c8	-0.0033142436
75	0x3909c355	0.00013138105
76	0xbbddc9eb	-0.0067684553
77	0x39bcb6b0	0.00035994267
78	0xbc1c166c	-0.00952683
79	0xbb9d5a59	-0.00480203
80	0xbc2619c3	-0.010137978
81	0x39f3479f	0.00046401934
82	0xba2f9151	-0.0006697374
83	0xbc2ae9a0	-0.010431677
84	0xbb919a4e	-0.0044434434
85	0xbc0a9f8f	-0.008460893
86	0xbc0c5391	-0.008564846
87	0xbc9d93d4	-0.019235529
88	0x3a4f0095	0.000789651
89	0x3aa01dd5	0.0012215922
90	0xbafebd4d	-0.0019435078
91	0x3b74e495	0.003736769
92	0x3cbd24eb	0.023088893
93	0x3b36d613	0.0027898594
94	0x3b25f466	0.0025322675
95	0x3b4b46cb	0.0031017538
96	0x3b506068	0.0031795744
97	0x3ca702b7	0.020387037
98	0x3ac7d364	0.0015245494
99	0x3bfc6d6d	0.0077034743
100	0xbb83c20b	-0.0040209345
101	0xbb8ea93b	-0.00435367
102	0x3b2893e7	0.0025722922
103	0x3cb2fcd9	0.021849083
104	0xbc26439e	-0.010147957
105	0x3bb8fe0b	0.0056455187
106	0x3bd1a7d2	0.0063981796
107	0x3c4aefd1	0.012386278
108	0xbb9acdce	-0.004724241
109	0x39b3a0b7	0.00034261282
110	0xb82b2aec	-4.080955e-05
111	0xbbd518c0	-0.0065031946
112	0xbbb4e445	-0.005520376
113	0x3bc36d3c	0.0059639495
114	0xbb3f520b	-0.0029193189
115	0xbad87d30	-0.0016516801
116	0xbac45efa	-0.0014981919
117	0x3c54180f	0.012945189
118	0x3bf6339a	0.0075134756
119	0x3c07b438	0.008282714
120	0xbbc7cb38	-0.0060972236
121	0x3c64872a	0.013948241
122	0x3c4c178b	0.012456785
123	0x3c2bf524	0.010495458
124	0x3a5867ba	0.00082552026
125	0x3b8bbe4a	0.0042646276
126	0xba7d05a3	-0.0009652024
127	0x3bf8f88f	0.00759799
128	0x3c313921	0.010816843
129	0xb98717aa	-0.00025766838
130	0x3c2f5703	0.010701898
131	0xbbbde79f	-0.0057954337
132	0x3bd4ebf5	0.006497855
133	0x3be772fd	0.007063268
134	0xbb001372	-0.001954284
135	0xbc073ad3	-0.008253771
136	0xbb20f903	-0.0024562485
137	0xbc3baf1d	-0.0114553245
138	0x3af266e7	0.0018493802
139	0xbb142839	-0.0022606982
140	0x3b8f623e	0.004375725
141	0xbb0a663e	-0.002111807
142	0xbc8c2427	-0.017107083
143	0xbb63c71b	-0.0034756127
144	0x3bec017f	0.007202327
145	0xbc215f13	-0.009849328
146	0x3bf1375a	0.0073613347
147	0xbca6785b	-0.020321062
148	0x3b6229b8	0.003450973
149	0xbb9ae6b3	-0.0047272085
150	0xbbb34eba	-0.0054720314
151	0xbcdfa3d3	-0.027299797
152	0xbbf5d0c7	-0.007501695
153	0xbc64270f	-0.013925328
154	0xbc1d0655	-0.009584029
155	0xbb942be4	-0.0045218337
156	0x3ada9a2d	0.0016678028
157	0xbbb1cca4	-0.0054260064
158	0x3aac57cb	0.0013148723
159	0x3c345256	0.011005959
160	0x3be83b8b	0.007087176
161	0x3c62c01b	0.013839747
162	0x3b9def23	0.004819767
163	0x3bcf7777	0.00633138
164	0x3c37c44f	0.011216237
165	0xbaee78f3	-0.0018194005
166	0xbb9f458b	-0.004860585
167	0xbbb27246	-0.0054457514
168	0xbc0f3a1b	-0.008741881
169	0x3bb13d75	0.0054089376
170	0xbc4c4313	-0.012467164
171	0x3b2d170e	0.0026411447
172	0xbab8cff4	-0.0014100061
173	0x3b84caf8	0.004052516
174	0xbbdf3850	-0.006812133
175	0x3b65926d	0.0035029904
176	0xbcae9ce2	-0.021315042
177	0x3cb8d86a	0.022564132
178	0x3c23a60f	0.009988322
179	0x3c86b368	0.01644297
180	0xbacd897f	-0.0015681236
181	0xbb131c9d	-0.0022447475
182	0x3af2b207	0.0018516191
183	0x3b0725f3	0.0020621985
184	0xbc11f2dd	-0.008908001
185	0xbb508a08	-0.0031820554
186	0xbcad7cc7	-0.021177663
187	0xbc4d5937	-0.0125334775
188	0x3b8b6db4	0.004255021
189	0x3cc12e9e	0.0235818
190	0xbab430c4	-0.0013747443
191	0xba6ef302	-0.00091151905
192	0xb94c88f9	-0.00019505982
193	0xbb4c96d4	-0.003121783
194	0x3bbcd7ab	0.0057630143
195	0xbc0de909	-0.008661517
196	0x3b8fef71	0.0043925573
197	0xbc87fd79	-0.016600357
198	0x3bcf04a8	0.0063176937
199	0xbc5b799b	-0.013395692
200	0xbac81657	-0.0015265447
201	0xbb3cf7c8	-0.0028834213
202	0x3b917d20	0.004439965
203	0xbb647a00	-0.0034862757
204	0x3c8a6dac	0.016897999
205	0x3cb84dea	0.02249809
206	0xbc82d52e	-0.015970793
207	0xba8d012f	-0.0010757799
208	0xbb977058	-0.0046215467
209	0x3accb535	0.0015617969
210	0x3c28ee9b	0.010310794
211	0x3c4e2b97	0.012583635
212	0x38e2a5df	0.00010807416
213	0x395a7ab3	0.00020835809
214	0xbc5a9ebf	-0.013343512
215	0x3b5e2ac5	0.0033900004
216	0xbba86ce1	-0.0051399325
217	0xbc76775f	-0.015043109
218	0x3a3f29c7	0.0007292297
219	0x3bd2fcf3	0.0064388453
220	0xbb2d8e8c	-0.002648267
221	0x3caef5d2	0.02135745
222	0x3c5ef3f8	0.013607971
223	0x3ab73c43	0.0013979751
224	0xbc4aeb3b	-0.012385185
225	0xbc96a1e5	-0.018387744
226	0xbc9939b5	-0.018704275
227	0x3b19dbf3	0.0023477047
228	0x38d09b9a	9.947196e-05
229	0xbb83f646	-0.004027161
230	0xbba6a68b	-0.0050857714
231	0x3a8e6b1d	0.0010865662
232	0x3c3d1e66	0.011542892
233	0x3c2baa87	0.010477669
234	0x3ac64d24	0.0015129191
235	0x3bf38637	0.007431771
236	0xba30eadc	-0.0006748864
237	0xbc4b27bd	-0.012399611
238	0xbc7631b2	-0.015026497
239	0xbb4dcc20	-0.0031402186
240	0x39b182b5	0.00033857455
241	0xbc7687eb	-0.015047054
242	0x3c3a475b	0.0113695515
243	0xbbed96fd	-0.007250665
244	0x3ac7a3f2	0.0015231355
245	0xbbccc349	-0.0062488657
246	0x3c788b7b	0.0151699735
247	0x390cedd9	0.00013440046
248	0x3b918f07	0.004442099
249	0x3ae072d8	0.001712407
250	0xbb4a1b57	-0.003083905
251	0x3c0118af	0.00787942
252	0xbafa6bef	-0.0019105653
253	0xbbecd11a	-0.0072270753
254	0xbb5b3d60	-0.003345333
255	0xbb90bf0e	-0.0044173067

action_model._discrete_distribution.branches.0.bias f4 [5]
0	0x00000000	0.0
1	0x00000000	0.0
2	0x00000000	0.0
3	0x00000000	0.0
4	0x00000000	0.0

network_body._body_endoder.seq_layers.0.weight f4 [128, 1]
0	0xbe75f137	-0.24017797
1	0xbf9c8af2	-1.2229903
2	0xbf90bafd	-1.1307064
3	0x3eff68ab	0.49884543
4	0x3dc96d5c	0.09835312
5	0x3f554490	0.83307743
6	0xbfd0ac5b	-1.6302599
7	0xbeea7cdd	-0.45798388
8	0x3df1f1e9	0.11813719
9	0x3e98ada0	0.29819965
10	0xbf98c21f	-1.1934241
11	0xbee1118b	-0.43958697
12	0x3f4bb679	0.79575306
13	0x3ea55570	0.32291746
14	0xc021ea4f	-2.529926
15	0x3ea57b2f	0.32320544
16	0x3f4d17c1	0.8011437
17	0xbf3e7db1	-0.7441054
18	0x3e235cbc	0.15953344
19	0x3f7e7c9c	0.9940889
20	0x3f438009	0.7636724
21	0xbf907ccd	-1.1288086
22	0xbf3d2f4a	-0.7390028
23	0xbf02b23f	-0.5105323
24	0x3d990d20	0.074732065
25	0xbf7c97cc	-0.98669124
26	0xbfbda475	-1.4815813
27	0x3e0991da	0.13434544
28	0xbe824ab0	-0.25447607
29	0xbf7fb105	-0.99879485
30	0xbfde0ddb	-1.7347978
31	0x3e842145	0.25806633
32	0x3fd01c49	1.6258632
33	0xbd5c22c3	-0.05374409
34	0xbf4cc291	-0.79984385
35	0xc00178fa	-2.0230088
36	0x3ef2932b	0.47377905
37	0x3eef984f	0.4679589
38	0xbd623c08	-0.05523303
39	0xbf223986	-0.63369024
40	0x3eaa4fe7	0.33264086
41	0xbf8cd151	-1.1001378
42	0xbf47806e	-0.77930343
43	0xbf1415d3	-0.578458
44	0xbf90f838	-1.132575
45	0x3ee53232	0.44764858
46	0x3f44f08c	0.76929545
47	0x3f770e17	0.96505874
48	0xbe820193	-0.25391826
49	0xbe3f722d	-0.18695898
50	0xbe3f890a	-0.1870462
51	0x3fb75a2b	1.4324392
52	0x3e682dfd	0.22673793
53	0xbe9ab902	-0.30219275
54	0x3f918643	1.1369098
55	0xbfc5f915	-1.5466639
56	0x3ebe41cd	0.37159577
57	0x3f80666c	1.0031257
58	0x3ec349ea	0.3814233
59	0x3fe1e137	1.7646855
60	0x3fe0ca36	1.756171
61	0xbfc1bfde	-1.5136678
62	0xbeb180f0	-0.34668684
63	0xbf642f71	-0.8913489
64	0xbeb7b6ed	-0.3588175
65	0xbe30bdad	-0.17259856
66	0x3f224b0a	0.6339575
67	0x3f0c5c4a	0.5482832
68	0x3dc37c8e	0.09545241
69	0x3f159f1b	0.584459
70	0x3f0b474a	0.54405653
71	0x3fac1299	1.3443176
72	0x3ffb5dbd	1.9637982
73	0x3ee37e29	0.4443219
74	0xbda87bee	-0.08226763
75	0xbe2024d5	-0.1563905
76	0xbecef854	-0.40423834
77	0x3ef2782d	0.47357312
78	0xbed3f1d6	-0.41395444
79	0xbfc8a8c5	-1.5676504
80	0xbee783d2	-0.45217758
81	0xbf2dd00c	-0.6789558
82	0x3f882296	1.0635555
83	0xbf99d31f	-1.2017554
84	0xbf049877	-0.5179514
85	0x3f18f6d8	0.59751654
86	0xbf02cb74	-0.51091695
87	0xbfba6ac0	-1.4563828
88	0x3e9824e4	0.29715645
89	0xbf2f7960	-0.6854458
90	0x3fd18796	1.6369503
91	0xbf0012b4	-0.5002854
92	0xbeae96e8	-0.34099507
93	0x3f196ff7	0.5993647
94	0x3f2a1177	0.664329
95	0xbeb23d71	-0.348125
96	0xbf52c1df	-0.82327074
97	0xbf036569	-0.51326615
98	0x3dc2042e	0.094734535
99	0x3f29008e	0.6601647
100	0xbff07a04	-1.8787236
101	0xbe9623ef	-0.2932429
102	0xbf7f1d15	-0.9965375
103	0xbe06aa2b	-0.13150851
104	0x3f05febd	0.52341825
105	0xbfbef140	-1.4917374
106	0x3e71efdf	0.2362666
107	0x3e83132d	0.25600567
108	0x3ecf0e2d	0.40440503
109	0xbf9a4a70	-1.2053967
110	0x3f854076	1.0410297
111	0xbed554e4	-0.4166633
112	0x3ec52094	0.38501418
113	0x3f9f40d6	1.2441661
114	0xbf4ed206	-0.8078922
115	0xbf55d774	-0.8353188
116	0xbf99c3bf	-1.2012862
117	0x3f806882	1.0031893
118	0xbed25659	-0.41081503
119	0xbf86a4c0	-1.0519028
120	0x3f7da382	0.9907762
121	0x3fa50e1b	1.289493
122	0xbf7b5f0d	-0.9819191
123	0x3ee0bf2e	0.4389586
124	0x401b32bb	2.4249713
125	0x3ef5e296	0.48024434
126	0xbeff57e5	-0.49871746
127	0xbf4bc6b4	-0.7960007

network_body._body_endoder.seq_layers.0.bias f4 [128]
0	0x00000000	0.0
1	0x00000000	0.0
2	0x00000000	0.0
3	0x00000000	0.0
4	0x00000000	0.0
5	0x00000000	0.0
6	0x00000000	0.0
7	0x00000000	0.0
8	0x00000000	0.0
9	0x00000000	0.0
10	0x00000000	0.0
11	0x00000000	0.0
12	0x00000000	0.0
13	0x00000000	0.0
14	0x00000000	0.0
15	0x00000000	0.0
16	0x00000000	0.0
17	0x00000000	0.0
18	0x00000000	0.0
19	0x00000000	0.0
20	0x00000000	0.0
21	0x00000000	0.0
22	0x00000000	0.0
23	0x00000000	0.0
24	0x00000000	0.0
25	0x00000000	0.0
26	0x00000000	0.0
27	0x00000000	0.0
28	0x00000000	0.0
29	0x00000000	0.0
30	0x00000000	0.0
31	0x00000000	0.0
32	0x00000000	0.0
33	0x00000000	0.0
34	0x00000000	0.0
35	0x00000000	0.0
36	0x00000000	0.0
37	0x00000000	0.0
38	0x00000000	0.0
39	0x00000000	0.0
40	0x00000000	0.0
41	0x00000000	0.0
42	0x00000000	0.0
43	0x00000000	0.0
44	0x00000000	0.0
45	0x00000000	0.0
46	0x00000000	0.0
47	0x00000000	0.0
48	0x00000000	0.0
49	0x00000000	0.0
50	0x00000000	0.0
51	0x00000000	0.0
52	0x00000000	0.0
53	0x00000000	0.0
54	0x00000000	0.0
55	0x00000000	0.0
56	0x00000000	0.0
57	0x00000000	0.0
58	0x00000000	0.0
59	0x00000000	0.0
60	0x00000000	0.0
61	0x00000000	0.0
62	0x00000000	0.0
63	0x00000000	0.0
64	0x00000000	0.0
65	0x00000000	0.0
66	0x00000000	0.0
67	0x00000000	0.0
68	0x00000000	0.0
69	0x00000000	0.0
70	0x00000000	0.0
71	0x00000000	0.0
72	0x00000000	0.0
73	0x00000000	0.0
74	0x00000000	0.0
75	0x00000000	0.0
76	0x00000000	0.0
77	0x00000000	0.0
78	0x00000000	0.0
79	0x00000000	0.0
80	0x00000000	0.0
81	0x00000000	0.0
82	0x00000000	0.0
83	0x00000000	0.0
84	0x00000000	0.0
85	0x00000000	0.0
86	0x00000000	0.0
87	0x00000000	0.0
88	0x00000000	0.0
89	0x00000000	0.0
90	0x00000000	0.0
91	0x00000000	0.0
92	0x00000000	0.0
93	0x00000000	0.0
94	0x00000000	0.0
95	0x00000000	0.0
96	0x00000000	0.0
97	0x00000000	0.0
98	0x00000000	0.0
99	0x00000000	0.0
100	0x00000000	0.0
101	0x00000000	0.0
102	0x00000000	0.0
103	0x00000000	0.0
104	0x00000000	0.0
105	0x00000000	0.0
106	0x00000000	0.0
107	0x00000000	0.0
108	0x00000000	0.0
109	0x00000000	0.0
110	0x00000000	0.0
111	0x00000000	0.0
112	0x00000000	0.0
113	0x00000000	0.0
114	0x00000000	0.0
115	0x00000000	0.0
116	0x00000000	0.0
117	0x00000000	0.0
118	0x00000000	0.0
119	0x00000000	0.0
120	0x00000000	0.0
121	0x00000000	0.0
122	0x00000000	0.0
123	0x00000000	0.0
124	0x00000000	0.0
125	0x00000000	0.0
126	0x00000000	0.0
127	0x00000000	0.0

network_body._body_endoder.seq_layers.2.weight f4 [128, 128]
0	0x3cdca9ca	0.02693643
1	0xbd7cde21	-0.061735276
2	0xbccc0045	-0.024902472
3	0xbd9ca91c	-0.076494426
4	0xbd950226	-0.072758004
5	0xbc9f39ab	-0.019436678
6	0x3e1bb0fd	0.15204234
7	0xbd48e551	-0.04904682
8	0xbe059505	-0.13045128
9	0x3dd560fb	0.10418888
10	0x3d004c27	0.031322625
11	0x3c9d1dab	0.019179186
12	0x3b89dfda	0.0042075934
13	0xbc99c9ec	-0.018773042
14	0xbcc0442f	-0.023470012
15	0x3dd16319	0.102239795
16	0x3a87ac16	0.0010350968
17	0x3c199385	0.00937355
18	0xbcf692ac	-0.030099235
19	0xbe08f95b	-0.13376372
20	0x3d6cc366	0.057803534
21	0x3df6b9a3	0.12047126
22	0x3dfaf22e	0.12253223
23	0x3d9d505f	0.07681345
24	0xbc242a3c	-0.010019835
25	0x3de6c93f	0.112688534
26	0xbd9b3f13	-0.0758039
27	0x3ce1a2ce	0.027543452
28	0xbd908e1e	-0.07058357
29	0xbd2bcdec	-0.04194443
30	0xbdc527c7	-0.096267276
31	0xbd24ba2e	-0.040216617
32	0x3d4a1e2b	0.049345177
33	0x3d0ea2a7	0.034823086
34	0x3b85de80	0.004085362
35	0x3e326c9b	0.17424242
36	0xbdf6de0f	-0.12054073
37	0xbd7d9973	-0.06191392
38	0xbd8bfd2f	-0.068354
39	0x3df75b79	0.12077994
40	0x3d7823c0	0.06058097
41	0xbd4d9c62	-0.050197966
42	0x3c84c004	0.016204841
43	0xbd5c3af6	-0.053767167
44	0x3e1f579f	0.15560769
45	0xbddc2b94	-0.10750499
46	0xbdb34a23	-0.08754375
47	0xbe02646a	-0.12733617
48	0x3df56fb3	0.119841956
49	0xbc7b5a3c	-0.015341338
50	0xbdd647c3	-0.10462906
51	0xbd6ead3a	-0.05827067
52	0x3d93ee5d	0.072231986
53	0xbd65af0b	-0.056075137
54	0xbde28c25	-0.11061887
55	0xbdb20399	-0.086920924
56	0xbd8ac962	-0.06776692
57	0x3c1e9699	0.00967946
58	0x3da4df52	0.080504075
59	0x3e21fed3	0.15819864
60	0x3dc9b479	0.098488756
61	0xbd05b9c7	-0.032647874
62	0xbe69ca16	-0.22830996
63	0x3db43f43	0.08801129
64	0xbdc8b4d0	-0.09800112
65	0xbd4d84e0	-0.050175548
66	0x3cc919f9	0.024548518
67	0xbcae1302	-0.021249298
68	0x3d168aeb	0.036753576
69	0x3debd02f	0.11514317
70	0x3de44067	0.11145096
71	0x3c74eea0	0.014949471
72	0xbd309d70	-0.043118894
73	0x3cd00a1c	0.025395446
74	0xbd4f1a6e	-0.050562315
75	0x3a8f5a8e	0.0010937022
76	0x3dcaece6	0.09908466
77	0xbdb4fa51	-0.088368066
78	0x3daebcb3	0.08532085
79	0x3dd87ae1	0.10570312
80	0xbd92815e	-0.07153581
81	0xbd12007f	-0.035645004
82	0xbb093f5b	-0.0020942304
83	0xbe2a1cbc	-0.16612524
84	0x3e1a4954	0.15067035
85	0xbe06f7c3	-0.13180451
86	0xbd93302d	-0.07186923
87	0x3b7af57d	0.0038293295
88	0xbce9c027	-0.028534008
89	0xbbfea26c	-0.007770827
90	0x3ca677d3	0.020320809
91	0x3ca71e5a	0.020400215
92	0xbe32dfe7	-0.17468224
93	0xbe1e2db3	-0.1544712
94	0xbdd25b75	-0.1027135
95	0x3de8d699	0.11369056
96	0xbd7184bb	-0.058964472
97	0xbc2c7b79	-0.010527485
98	0xbcca0657	-0.024661226
99	0xbdd13774	-0.10215655
100	0xbd6be321	-0.057589654
101	0xbbb543d8	-0.0055317692
102	0x3c1beb15	0.009516497
103	0x3db1f37c	0.08689019
104	0x3d0c29c7	0.03421953
105	0xbd2f4314	-0.04278858
106	0x3d033143	0.0320294
107	0xbd4e5357	-0.050372448
108	0xba958b69	-0.0011409345
109	0x3d36af39	0.0446007
110	0xbe02e126	-0.127812
111	0xbdbf6ceb	-0.09346946
112	0x3c51c2c8	0.012802787
113	0x3dae9a17	0.08525484
114	0xbd6bbf7c	-0.05755566
115	0xbd26182e	-0.040550403
116	0x3df5f232	0.12009086
117	0xbd8e1fc5	-0.06939653
118	0xbde2c4d3	-0.110726975
119	0xbcb47f9f	-0.02203351
120	0x3ca57017	0.02019505
121	0xbc82a03f	-0.015945552
122	0xbda8ac88	-0.08236033
123	0x3d2bedff	0.041975018
124	0x3b08da6a	0.0020882138
125	0x3b40702b	0.0029363732
126	0x3c7371b0	0.014858648
127	0x3e6a2131	0.22864224
128	0x3c85b162	0.016319934
129	0x3bbee166	0.0058252094
130	0x3de83731	0.11338652
131	0x3dc633bd	0.09677837
132	0xbd0c62cc	-0.034273908
133	0xbe19cf44	-0.15020472
134	0x3d7a4132	0.06109733
135	0xbdb85557	-0.09000652
136	0xbdb27bcb	-0.08715018
137	0x3de808e0	0.11329818
138	0x3da0fb39	0.07860417
139	0x3e08bc17	0.13353
140	0x3dc74f21	0.097318895
141	0x3e1d1233	0.15338974
142	0xbd81cff2	-0.063384905
143	0x3d165e54	0.036711052
144	0xbdf43f4d	-0.11926136
145	0xbdd5d822	-0.10441615
146	0xbd588056	-0.052856766
147	0x3e3512fb	0.17683022
148	0xbceb4ba0	-0.028722584
149	0x3db2a1f6	0.08722298
150	0xbd7a259e	-0.06107103
151	0x3dfb952a	0.1228431
152	0x3e030918	0.12796438
153	0xbd29d06b	-0.04145853
154	0xbdb45cb7	-0.088067465
155	0xbdbe9147	-0.09305053
156	0x3cb31032	0.021858308
157	0x3c491dd5	0.012275179
158	0x3c0fc735	0.008775522
159	0xbae63e6e	-0.0017566213
160	0x3ce58bcb	0.02802076
161	0x3c7293c3	0.014805737
162	0x3e2d7e04	0.16942602
163	0x3d56ea75	0.05246969
164	0x3c9662a9	0.018357592
165	0x3dcb91db	0.09939929
166	0xbd9606f7	-0.07325547
167	0xbdd6621d	-0.104679324
168	0xbd77ad1f	-0.060467836
169	0x3d3907ff	0.04517364
170	0x3dde791d	0.10862944
171	0xbe0b8178	-0.13623607
172	0xbd80fa06	-0.06297688
173	0xbd2e4970	-0.042550504
174	0x3cc2cc9f	0.023779212
175	0x3b8f55c7	0.004374239
176	0x3d7ee877	0.062233415
177	0xbd5c78eb	-0.053826254
178	0xbc14ab1d	-0.009074
179	0x3de658fe	0.11247443
180	0x3c86594e	0.016400006
181	0x3d87795d	0.06614945
182	0xbddf4f38	-0.10903782
183	0xbd5d41ca	-0.05401782
184	0x3e63adaf	0.22234224
185	0x3e01e2da	0.12684193
186	0xbd1b833b	-0.037966948
187	0xbdab0754	-0.08351007
188	0xbe25e50a	-0.16200653
189	0x3d9a7ff7	0.075439386
190	0xbd1a7c72	-0.037716337
191	0xbe709b80	-0.23496819
192	0xbc98900c	-0.018623374
193	0xbd1938f5	-0.037407834
194	0xbc76da8d	-0.015066755
195	0xbd9c8afa	-0.07643695
196	0xbd8f0ba0	-0.06984639
197	0xbcb68a24	-0.022282667
198	0xbd941169	-0.07229883
199	0xbd919fd2	-0.071105614
200	0xbd868e26	-0.065700814
201	0xbc942bb5	-0.018087247
202	0xbd5eca2c	-0.054392025
203	0xbe0f64fe	-0.14003369
204	0x3cfb0b29	0.03064497
205	0x3d3418c7	0.043968942
206	0x3e283074	0.16424733
207	0xbcc2dfa4	-0.02378828
208	0xbccb5d84	-0.024824865
209	0x3ce5fe8f	0.028075485
210	0xbc148589	-0.00906504
211	0x3e1706c4	0.14748675
212	0xba6b08d6	-0.0008965855
213	0xbc2a7df1	-0.010406003
214	0x3d1ba501	0.037999157
215	0x3c166cce	0.0091812145
216	0xbd2f7d3c	-0.042844042
217	0x3c96e920	0.01842171
218	0xbdab9ccf	-0.08379518
219	0x3e0d5293	0.13801031
220	0xbdf3b7b8	-0.11900276
221	0x3cd631e0	0.02614683
222	0xbd8407bd	-0.064467885
223	0x3dadc4fc	0.084848374
224	0x3c99f273	0.018792367
225	0xbd745ad9	-0.05965695
226	0x3b8ba26f	0.004261307
227	0x3d87c00d	0.06628428
228	0xbc050fa5	-0.008121406
229	0xbd838dbc	-0.06423518
230	0xbc11bd8c	-0.008895289
231	0xbdb3855e	-0.08765672
232	0x3dab858a	0.0837508
233	0xba9e3cf4	-0.0012072609
234	0xbdd49ccb	-0.103814684
235	0x3da138aa	0.07872136
236	0xbd9e6086	-0.07733254
237	0xbba77c3a	-0.0051112445
238	0x3e3d7fe9	0.18505825
239	0xbe00e968	-0.12589037
240	0xbd9b5beb	-0.07585891
241	0xbd4bac50	-0.049724877
242	0x3d14e85d	0.03635441
243	0x3ce7efea	0.028312642
244	0xbd8457ba	-0.06462045
245	0xbe08cfcf	-0.13360523
246	0xbe2a01dc	-0.16602272
247	0xbc928977	-0.017887814
248	0xbd337b16	-0.043818556
249	0xbd37d333	-0.04487915
250	0xbd7aa255	-0.06118997
251	0x3d78fcd2	0.060787983
252	0x3d5e9184	0.054337993
253	0xbc1dd9d6	-0.009634456
254	0xbce60a0d	-0.028080964
255	0x3e18fb78	0.14939678

network_body._body_endoder.seq_layers.2.bias f4 [128]
0	0x00000000	0.0
1	0x00000000	0.0
2	0x00000000	0.0
3	0x00000000	0.0
4	0x00000000	0.0
5	0x00000000	0.0
6	0x00000000	0.0
7	0x00000000	0.0
8	0x00000000	0.0
9	0x00000000	0.0
10	0x00000000	0.0
11	0x00000000	0.0
12	0x00000000	0.0
13	0x00000000	0.0
14	0x00000000	0.0
15	0x00000000	0.0
16	0x00000000	0.0
17	0x00000000	0.0
18	0x00000000	0.0
19	0x00000000	0.0
20	0x00000000	0.0
21	0x00000000	0.0
22	0x00000000	0.0
23	0x00000000	0.0
24	0x00000000	0.0
25	0x00000000	0.0
26	0x00000000	0.0
27	0x00000000	0.0
28	0x00000000	0.0
29	0x00000000	0.0
30	0x00000000	0.0
31	0x00000000	0.0
32	0x00000000	0.0
33	0x00000000	0.0
34	0x00000000	0.0
35	0x00000000	0.0
36	0x00000000	0.0
37	0x00000000	0.0
38	0x00000000	0.0
39	0x00000000	0.0
40	0x00000000	0.0
41	0x00000000	0.0
42	0x00000000	0.0
43	0x00000000	0.0
44	0x00000000	0.0
45	0x00000000	0.0
46	0x00000000	0.0
47	0x00000000	0.0
48	0x00000000	0.0
49	0x00000000	0.0
50	0x00000000	0.0
51	0x00000000	0.0
52	0x00000000	0.0
53	0x00000000	0.0
54	0x00000000	0.0
55	0x00000000	0.0
56	0x00000000	0.0
57	0x00000000	0.0
58	0x00000000	0.0
59	0x00000000	0.0
60	0x00000000	0.0
61	0x00000000	0.0
62	0x00000000	0.0
63	0x00000000	0.0
64	0x00000000	0.0
65	0x00000000	0.0
66	0x00000000	0.0
67	0x00000000	0.0
68	0x00000000	0.0
69	0x00000000	0.0
70	0x00000000	0.0
71	0x00000000	0.0
72	0x00000000	0.0
73	0x00000000	0.0
74	0x00000000	0.0
75	0x00000000	0.0
76	0x00000000	0.0
77	0x00000000	0.0
78	0x00000000	0.0
79	0x00000000	0.0
80	0x00000000	0.0
81	0x00000000	0.0
82	0x00000000	0.0
83	0x00000000	0.0
84	0x00000000	0.0
85	0x00000000	0.0
86	0x00000000	0.0
87	0x00000000	0.0
88	0x00000000	0.0
89	0x00000000	0.0
90	0x00000000	0.0
91	0x00000000	0.0
92	0x00000000	0.0
93	0x00000000	0.0
94	0x00000000	0.0
95	0x00000000	0.0
96	0x00000000	0.0
97	0x00000000	0.0
98	0x00000000	0.0
99	0x00000000	0.0
100	0x00000000	0.0
101	0x00000000	0.0
102	0x00000000	0.0
103	0x00000000	0.0
104	0x00000000	0.0
105	0x00000000	0.0
106	0x00000000	0.0
107	0x00000000	0.0
108	0x00000000	0.0
109	0x00000000	0.0
110	0x00000000	0.0
111	0x00000000	0.0
112	0x00000000	0.0
113	0x00000000	0.0
114	0x00000000	0.0
115	0x00000000	0.0
116	0x00000000	0.0
117	0x00000000	0.0
118	0x00000000	0.0
119	0x00000000	0.0
120	0x00000000	0.0
121	0x00000000	0.0
122	0x00000000	0.0
123	0x00000000	0.0
124	0x00000000	0.0
125	0x00000000	0.0
126	0x00000000	0.0
127	0x00000000	0.0

value_heads.value_heads.extrinsic.weight f4 [1, 128]
0	0x3d3cccf8	0.04609391
1	0xbe45f7e8	-0.1933285
2	0xbd714d30	-0.058911502
3	0xbe148ddd	-0.14507242
4	0x3dd7f5f8	0.10544962
5	0x3e133938	0.14377296
6	0x3e5537aa	0.20822015
7	0x3de1a668	0.110180676
8	0xbe181100	-0.14850235
9	0xbd38eb88	-0.045146495
10	0x3d08e684	0.03342296
11	0x3d753100	0.059861183
12	0x3d479ca0	0.048733354
13	0xbd0bbd08	-0.03411582
14	0xbe4d8ca3	-0.2007318
15	0x3b0fdf00	0.0021952987
16	0xbd386a60	-0.045023322
17	0x3d098f24	0.033583775
18	0x3e257178	0.16156566
19	0xbe0d6bde	-0.1381068
20	0x3e1eea0a	0.15518966
21	0x3e079928	0.13242018
22	0x3bf62260	0.007511422
23	0xbd1e3214	-0.038621977
24	0xbc68bdb0	-0.014205381
25	0xbe009e30	-0.12560344
26	0xbd8eda70	-0.069752574
27	0xbd98a23a	-0.07452817
28	0xbdb1ab76	-0.08675282
29	0xbe5bb82a	-0.21456972
30	0xbe2ec12a	-0.17065874
31	0x3be27ec0	0.0069120824
32	0x3de3a0a8	0.11114627
33	0xbe3ce5ab	-0.18446986
34	0xbe313140	-0.17303944
35	0x3b318b80	0.0027091205
36	0xbdd4e3ca	-0.1039501
37	0xbb504e00	-0.0031784773
38	0xbd2b2d28	-0.04179111
39	0x3b9f7b40	0.0048669875
40	0x3d91c900	0.07118416
41	0xbb0b1040	-0.0021219403
42	0x3e0f8cb0	0.14018512
43	0xbd860f6a	-0.06545909
44	0xbd90bcac	-0.07067236
45	0x3e1e78c0	0.1547575
46	0xbdbfcddb	-0.09365436
47	0xbe38aa3d	-0.18033691
48	0xbcde9478	-0.027170405
49	0xbdb5b68c	-0.08872709
50	0xbe488b55	-0.19584401
51	0x3c885e38	0.01664649
52	0xbdb21816	-0.08696
53	0x3dbfffc0	0.09374952
54	0xbdebaf30	-0.11508024
55	0xbe333b4a	-0.17503086
56	0xbe3d4594	-0.18483573
57	0xbdf0fe5e	-0.11767267
58	0x3e1562d0	0.14588475
59	0x3c9bae30	0.019003958
60	0x3e3e8eb8	0.1860913
61	0x3dadca54	0.08485857
62	0x3df7673c	0.12080237
63	0xbd0a2f54	-0.033736542
64	0x3b10ab80	0.0022074878
65	0xbdd98ab5	-0.106221594
66	0x3d301cc0	0.042996168
67	0xbdd51f16	-0.1040632
68	0xbdded7c5	-0.108809985
69	0xbe494700	-0.1965599
70	0xbd2913a4	-0.041278496
71	0xbe2e3500	-0.17012405
72	0xbd206a34	-0.039163783
73	0xbc8ff010	-0.017570525
74	0xbd08497c	-0.033273205
75	0xbe0152bb	-0.12629215
76	0x3e158a6e	0.14603588
77	0x3e075e3e	0.13219544
78	0x3e247d0a	0.16063324
79	0xbccfc940	-0.025364518
80	0x3d8c7af4	0.06859389
81	0xbd99bfae	-0.07507263
82	0x3dfc36ac	0.12315115
83	0xbe3e96c4	-0.186122
84	0x3e176c46	0.14787397
85	0xbe38febd	-0.18065925
86	0x3db90678	0.09034437
87	0x3e16153c	0.14656538
88	0x3da20a64	0.07912138
89	0xbb7ffa80	-0.0039059222
90	0xbd8075d4	-0.06272474
91	0xbd13de7c	-0.03610085
92	0x3de0f110	0.10983479
93	0xbc8b7630	-0.01702413
94	0xbadabf80	-0.0016689152
95	0xbd6bece0	-0.05759895
96	0x3d8a3c2c	0.06749758
97	0xbe3c0539	-0.18361367
98	0xbe4850fd	-0.19562145
99	0x3e06d7b4	0.13168222
100	0x3d27f518	0.041005224
101	0x3e40a878	0.18814266
102	0x3e57546a	0.21028295
103	0xbdfb06cf	-0.12257158
104	0x3e1a2b04	0.15055472
105	0xbdb1b11c	-0.08676359
106	0xbe3f863c	-0.1870355
107	0x3d0c8ab4	0.034311965
108	0x3c3bc7c0	0.011461198
109	0x3e124626	0.14284572
110	0x3d1d0f48	0.03834465
111	0x3e12dee8	0.14342844
112	0xbdb87f06	-0.09008603
113	0x3d7b0b28	0.061289936
114	0x3c5deac0	0.013544738
115	0xbd88ab7e	-0.066733345
116	0x3e04f204	0.12982947
117	0xbe164152	-0.14673355
118	0xbe0c66b3	-0.13711052
119	0xbe5c8f40	-0.2153902
120	0x3e054d48	0.13017762
121	0x3e2caf86	0.16863832
122	0xbd658690	-0.056036532
123	0xbc9a3950	-0.018826157
124	0x3cb94198	0.022614285
125	0xbe483399	-0.19550933
126	0x3e35ddee	0.1776044
127	0xbc827a00	-0.015927315
