Project/Assets/ML-Agents/Examples/MyTest/Scripts/TFModels/MyTest1Models/Test10/MoveToGoal/checkpoint.pt (torch, 152866 bytes, 14 tensors)

network_body._body_endoder.seq_layers.0.weight f4 [128, 6]
-0.5186608 0.27552938 -0.13226649 0.09424628 0.021578887 0.06653328 -0.011985943 0.09532009
0.25965503 0.8184542 -0.18444866 0.020781754 -0.13382567 -0.32859588 0.15295422 -0.37090635
-0.019049974 -0.13821259 -0.513895 0.2763142 -0.2522669 0.10379039 0.30191237 -0.58689755
0.67406154 -0.2254943 -0.253157 -0.24622329 -0.49563885 -0.40988326 -0.43934768 -0.80593044
-0.43215284 -0.19944674 0.32210618 -0.0059358524 0.045716576 -0.1711847 0.1511626 0.31526774
0.032158006 0.03475542 0.20415474 0.5497985 0.09457029 0.19922869 0.05063178 0.34662434
-0.09140609 0.044691976 -0.043073732 0.19811502 1.1898965 -0.10216043 -0.071354605 -0.24129334
-0.25784814 -0.33434242 0.21104728 -0.16549835 -0.19546893 -0.27209848 0.006190824 0.0028634376
0.7516512 -0.20646878 0.6176268 -0.08977135 0.32236797 0.16834745 -0.28881007 0.086924605
0.10069579 0.73614854 0.3569901 -0.6321968 0.2891049 0.008035989 0.55853873 -0.08254823
0.49013665 0.31751597 0.39068735 -0.0933692 -0.71646035 0.5093469 -0.15978931 -0.043925002
0.30545393 -0.70629376 -0.2721109 -0.46485108 0.09347458 -0.10729852 0.49138558 -0.026814
-0.044384763 -0.1623343 0.05049308 -0.83601385 0.31948972 0.12183742 0.20764552 -0.14299582
0.06906005 0.04628894 0.13881682 0.1352024 -0.21424922 -0.024661936 0.572503 0.12262781
-0.21827228 0.52159166 -0.82146347 0.27569494 -0.375122 -0.9973416 0.21393885 0.5909347
0.38299862 0.050310597 0.019157937 0.4177357 0.15800142 0.13026693 0.14605089 -0.60274255
-0.49455243 -0.12891927 -0.35905614 0.031115392 0.15619352 -0.3298716 0.6974453 0.044773433
0.656171 -0.61125916 -0.12866198 0.6448307 0.74282396 0.6281566 0.12609826 0.1527621
0.42835838 -0.76397514 1.0370114 0.16216639 0.50193745 -0.5834893 0.032715615 0.0073347916
-0.020935366 -0.08044305 -0.48112112 -0.34280577 0.61002463 0.5837789 0.53048706 0.1531019
-0.6593379 -0.16985111 0.5240117 0.48875713 0.45379555 -0.61860055 0.23511414 -0.21045434
0.84042937 0.22535561 -0.2584629 0.115112774 -0.5384208 0.15748447 -0.23331098 0.11453609
0.40542287 0.022680197 -0.37755623 0.056766924 -0.1232731 -0.29034132 -0.055789106 0.1385894
0.27230716 -0.17222403 0.4156663 -0.41511258 -0.3307071 0.048309606 -0.64915806 0.3135333
0.096250676 -0.6643679 -0.7690585 0.38783872 0.30697507 -0.40483359 0.20411633 -0.26485285
0.026946824 0.17267355 0.8441963 -0.62183416 -0.0034390741 -0.25445703 -0.040448077 0.56624186
-0.32349086 0.5175123 0.58794117 0.57606936 -0.19964135 -0.024567455 -0.049003784 -0.39308026
0.31937292 -0.032053668 -0.2788389 -0.065657996 -0.113979176 0.17100367 0.25010478 0.91451716
0.20357302 0.1405651 0.18799464 -0.18421066 0.23445393 0.3665033 -0.6827801 -0.37694326
0.31548813 -0.3007608 -0.62310004 0.20465764 -0.26132637 -0.102413066 0.18962257 0.4617325
-0.5643801 0.71149117 -0.9317891 0.113213494 0.11351859 0.09830385 0.37057948 0.2661991
0.4056121 -0.548938 0.65803355 -0.23294878 0.39275348 0.4179642 0.4682238 0.11539272
00000000: f4c6 04bf 3012 8d3e de70 07be 3204 c13d
00000010: 35c6 b03c 9a42 883d b060 44bc 2e37 c33d
00000020: 81f1 843e 3786 513f 1ce0 3cbe 7f3e aa3c
00000030: 9909 09be b83d a8be 08a0 1c3e 70e7 bdbe
00000040: b10e 9cbc 9a87 0dbe 9f8e 03bf 0e79 8d3e
00000050: 2129 81be 0e90 d43d 4294 9a3e eb3e 16bf
00000060: 4c8f 2c3f fae7 66be cb9d 81be f521 7cbe
00000070: 60c4 fdbe 38dc d1be 2ef2 e0be 7551 4ebf
00000080: 2343 ddbe c43b 4cbe 1aeb a43e 8a81 c2bb
00000090: 4e41 3b3d 0b4b 2fbe 5eca 1a3e c66a a13e
000000a0: 1db8 033d b35b 0e3d f10d 513e 98bf 0c3f
000000b0: 11ae c13d 9b02 4c3e 4563 4f3d bf78 b13e
000000c0: 1e33 bbbd ef0e 373d 156e 30bd aade 4a3e
000000d0: 874e 983f 7d39 d1bd 5d22 92bd 9a15 77be
000000e0: ac04 84be ee2e abbe c71c 583e 6678 29be
000000f0: 0229 48be 7e50 8bbe 65dc ca3b 83a8 3b3b
00000100: 376c 403f 8d6c 53be ca1c 1e3f 0bda b7bd
00000110: 6a0d a53e 4663 2c3e eade 93be 8705 b23d
00000120: 9839 ce3d 3b74 3c3f 68c7 b63e a6d7 21bf
00000130: 8f05 943e 61a9 033c 65fc 0e3f 0c0f a9bd
00000140: 31f3 fa3e 7491 a23e 2c08 c83e 5a38 bfbd
00000150: f269 37bf 8f64 023f cf9f 23be b4ea 33bd
00000160: 7564 9c3e abcf 34bf 1f52 8bbe f600 eebe
00000170: 9a6f bf3d 54bf dbbd e496 fb3e 09a9 dbbc
00000180: cccc 35bd f63a 26be d5d1 4e3d 0105 56bf
00000190: 2894 a33e e685 f93d 07a1 543e 7f6d 12be
000001a0: 5b6f 8d3d 7999 3d3d ff25 0e3e 7f72 0a3e
000001b0: 2664 5bbe d407 cabc 8e8f 123f 4a24 fb3d
000001c0: c582 5fbe 0887 053f 6e4b 52bf e327 8d3e
000001d0: fe0f c0be c751 7fbf c912 5b3e 7f47 173f
000001e0: 6518 c43e 7c12 4e3d 1bf1 9c3c 74e1 d53e
000001f0: 20cb 213e b264 053e 5d8e 153e 564d 1abf
00000200: fa35 fdbe 6a03 04be 35d6 b7be b5e5 fe3c
00000210: 32f1 1f3e eee4 a8be c68b 323f 5964 373d
00000220: d3fa 273f 7b7b 1cbf f7bf 03be a013 253f
00000230: b629 3e3f dfce 203f e71f 013e ab6d 1c3e
00000240: ca51 db3e e093 43bf cabc 843f f20e 263e
00000250: f97e 003f 8e5f 15bf cf00 063d b158 f03b
00000260: a580 abbc 53bf a4bd 8255 f6be 3d84 afbe
00000270: 932a 1c3f 8972 153f 00ce 073f bfc6 1c3e
00000280: 5eca 28bf 73ed 2dbe a125 063f 603e fa3e
00000290: e457 e83e 9b5c 1ebf c3c1 703e 5881 57be
000002a0: 6126 573f 9fc3 663e 4055 84be 3fc0 eb3d
000002b0: f2d5 09bf 9c43 213e 13e9 6ebe e691 ea3d
000002c0: 9693 cf3e d2cb b93c 0d4f c1be 6f84 683d
000002d0: 9b76 fcbd 9ea7 94be 1e83 64bd 61ea 0d3e
000002e0: d86b 8b3e 7f5b 30be 37d2 d43e a389 d4be
000002f0: 7152 a9be 4be0 453d 392f 26bf 7087 a03e
00000300: 131f c53d 0414 2abf 05e1 44bf cc92 c63e
00000310: d62b 9d3e 5946 cfbe df03 513e cb9a 87be
00000320: 96bf dc3c 56d1 303e 401d 583f 8630 1fbf
00000330: 1762 61bb 3148 82be e2ac 25bd 3af5 103f
00000340: 98a0 a5be b07b 043f 5083 163f 4879 133f
00000350: c86e 4cbe b041 c9bc 31b8 48bd d141 c9be
00000360: d984 a33e b54a 03bd f9c3 8ebe b377 86bd
00000370: ea6d e9bd 961b 2f3e bc0d 803e cc1d 6a3f
00000380: 7275 503e 4cf0 0f3e ab81 403e b8a1 3cbe
00000390: b114 703e 52a6 bb3e adca 2ebf b5fe c0be
000003a0: a987 a13e 52fd 99be 7c83 1fbf c691 513e
000003b0: 92cc 85be f1bd d1bd 6b2c 423e 3468 ec3e
000003c0: 377b 10bf 4924 363f bb89 6ebf 7adc e73d
000003d0: 6f7c e83d 8753 c93d 98bc bd3e 404b 883e
000003e0: 64ac cf3e 3387 0cbf e374 283f 208a 6ebe
000003f0: fc16 c93e 67ff d53e 08bb ef3e 0553 ec3d

network_body._body_endoder.seq_layers.0.bias f4 [128]
0.0 0.0 0.0 0.0 0.0 0.0 0.0 0.0
0.0 0.0 0.0 0.0 0.0 0.0 0.0 0.0
0.0 0.0 0.0 0.0 0.0 0.0 0.0 0.0
0.0 0.0 0.0 0.0 0.0 0.0 0.0 0.0
0.0 0.0 0.0 0.0 0.0 0.0 0.0 0.0
0.0 0.0 0.0 0.0 0.0 0.0 0.0 0.0
0.0 0.0 0.0 0.0 0.0 0.0 0.0 0.0
0.0 0.0 0.0 0.0 0.0 0.0 0.0 0.0
0.0 0.0 0.0 0.0 0.0 0.0 0.0 0.0
0.0 0.0 0.0 0.0 0.0 0.0 0.0 0.0
0.0 0.0 0.0 0.0 0.0 0.0 0.0 0.0
0.0 0.0 0.0 0.0 0.0 0.0 0.0 0.0
0.0 0.0 0.0 0.0 0.0 0.0 0.0 0.0
0.0 0.0 0.0 0.0 0.0 0.0 0.0 0.0
0.0 0.0 0.0 0.0 0.0 0.0 0.0 0.0
0.0 0.0 0.0 0.0 0.0 0.0 0.0 0.0
00000000: 0000 0000 0000 0000 0000 0000 0000 0000
00000010: 0000 0000 0000 0000 0000 0000 0000 0000
00000020: 0000 0000 0000 0000 0000 0000 0000 0000
00000030: 0000 0000 0000 0000 0000 0000 0000 0000
00000040: 0000 0000 0000 0000 0000 0000 0000 0000
00000050: 0000 0000 0000 0000 0000 0000 0000 0000
00000060: 0000 0000 0000 0000 0000 0000 0000 0000
00000070: 0000 0000 0000 0000 0000 0000 0000 0000
00000080: 0000 0000 0000 0000 0000 0000 0000 0000
00000090: 0000 0000 0000 0000 0000 0000 0000 0000
000000a0: 0000 0000 0000 0000 0000 0000 0000 0000
000000b0: 0000 0000 0000 0000 0000 0000 0000 0000
000000c0: 0000 0000 0000 0000 0000 0000 0000 0000
000000d0: 0000 0000 0000 0000 0000 0000 0000 0000
000000e0: 0000 0000 0000 0000 0000 0000 0000 0000
000000f0: 0000 0000 0000 0000 0000 0000 0000 0000
00000100: 0000 0000 0000 0000 0000 0000 0000 0000
00000110: 0000 0000 0000 0000 0000 0000 0000 0000
00000120: 0000 0000 0000 0000 0000 0000 0000 0000
00000130: 0000 0000 0000 0000 0000 0000 0000 0000
00000140: 0000 0000 0000 0000 0000 0000 0000 0000
00000150: 0000 0000 0000 0000 0000 0000 0000 0000
00000160: 0000 0000 0000 0000 0000 0000 0000 0000
00000170: 0000 0000 0000 0000 0000 0000 0000 0000
00000180: 0000 0000 0000 0000 0000 0000 0000 0000
00000190: 0000 0000 0000 0000 0000 0000 0000 0000
000001a0: 0000 0000 0000 0000 0000 0000 0000 0000
000001b0: 0000 0000 0000 0000 0000 0000 0000 0000
000001c0: 0000 0000 0000 0000 0000 0000 0000 0000
000001d0: 0000 0000 0000 0000 0000 0000 0000 0000
000001e0: 0000 0000 0000 0000 0000 0000 0000 0000
000001f0: 0000 0000 0000 0000 0000 0000 0000 0000

network_body._body_endoder.seq_layers.2.weight f4 [128, 128]
-0.017903764 -0.20396152 0.08483805 -0.0024263943 -0.07603204 0.0012216584 0.037424408 0.002005628
0.057505824 -0.15735844 0.13989863 0.052896302 0.020402947 0.11747085 0.07753658 -0.061437704
0.1109716 -0.023343988 0.09366198 0.05763744 -0.07489874 -0.029268099 -0.10780996 -0.016179373
0.13123667 0.013625794 0.04263925 0.05767048 0.01100131 -0.065689676 -0.05223159 0.006186795
0.09615534 -0.09176966 -0.091755554 0.09578092 -0.08150308 0.15664145 -0.010094741 -0.022071114
0.02897562 -0.08369196 -0.07849963 0.07571519 -0.112017706 0.023913179 -0.026068695 0.23607829
-0.110892855 -0.038245995 -0.04178912 -0.01828403 0.023070797 -0.10659721 0.117585346 0.036756936
0.006621697 -0.13474756 -0.07382679 -0.22621302 0.05219255 0.040263064 0.14015144 -0.20349774
0.10531712 -0.13588357 0.115143344 0.053674728 -0.063259706 -0.03150158 0.11509614 -0.050270874
-0.030618086 0.060920186 -0.05943606 -0.14635542 0.063057326 -0.09743316 0.031394072 0.123223014
0.003147054 0.049568586 -0.10599117 0.08255639 -0.039515015 0.05493931 0.05415125 0.18623617
-0.045924995 0.064685866 0.09385872 -0.03203727 0.057864584 0.057071626 -0.017639663 -0.011097364
0.025149345 0.14342536 0.048395827 -0.074508466 0.14891061 -0.18499358 -0.0006019314 -0.1355209
0.005093089 -0.016676255 0.011980124 -0.08858195 0.035793126 0.13392548 -0.039447617 0.0077084755
-0.10332659 -0.1748844 -0.08518542 0.073590316 0.1678212 0.063410826 0.18696609 -0.09129299
-0.05228326 0.077533126 0.069720924 -0.01409833 -0.09277856 -0.016437829 -0.14167267 -0.048556022
0.043179136 0.0665213 0.07889628 0.14276241 -0.10424547 -0.014721935 -0.0004998357 -0.0030666445
-0.023079187 0.040397704 0.08046669 -0.12080901 -0.08017516 0.00068971235 -0.025164932 0.09809341
-0.007240956 -0.057788774 0.042693894 0.019866956 -0.09749098 0.11821242 -0.05895792 -0.10239452
0.034923993 -0.08381948 0.034456957 0.069406345 -0.024627604 -0.2037241 0.0019102889 -0.13088395
-0.030544242 -0.04527949 -0.03448018 0.027089512 -0.065112785 -0.08095742 0.07985369 -0.001484559
0.080136865 0.015280963 -0.110705756 -0.06775392 -0.038282394 0.12939164 0.09258076 -0.022831535
-0.004625128 -0.056028754 0.04733457 -0.029081276 -0.00040034347 -0.005525519 -0.13242231 -0.07430479
0.19829512 0.0818102 -0.079528585 -0.092657305 -0.023567582 -0.18423004 -0.04676541 -0.042541407
-0.0057787807 0.01407878 -0.0015206939 0.07443536 -0.11488727 -0.08888752 0.09432326 -0.0022152448
0.026045395 0.13991824 -0.077495776 0.14171538 -0.08882499 -0.013917678 -0.055123173 -0.05783619
-0.004434882 -0.002212502 -0.014393275 -0.0032419662 0.030169873 -0.03416698 0.031419728 -0.04232517
0.063454695 0.2390663 -0.029352749 0.07055664 0.031906232 -0.035717383 0.03076739 0.09695109
0.16977617 -0.10346644 0.09740796 -0.009543264 0.008167916 -0.029159466 0.03626239 -0.028147243
-0.08651119 0.0022451852 0.021084053 -0.015569018 0.12208471 -0.1103104 0.105808765 0.09897025
0.15095642 0.01627313 -0.02319112 0.035197392 0.04669725 -0.2033162 0.08888238 0.12332286
-0.011634431 0.06778647 -0.029838143 0.053783797 0.1274168 -0.06634881 0.10371959 0.09928781
00000000: eaaa 92bc 4adb 50be 92bf ad3d 2404 1fbb
00000010: b0b6 9bbd 0e20 a03a 564a 193d db70 033b
00000020: 3a8b 6b3d 9222 21be 9641 0f3e cba9 583d
00000030: 1524 a73c 8f94 f03d 80cb 9e3d 1aa6 7bbd
00000040: 1445 e33d e43b bfbc dad1 bf3d 3c15 6c3d
00000050: 8364 99bd a7c3 efbc 78cb dcbd 9b8a 84bc
00000060: e862 063e b93e 5f3c 7fa6 2e3d e237 6c3d
00000070: d73e 343c 4f88 86bd cbf0 55bd 99ba ca3b
00000080: 17ed c43d bbf1 bbbd 56ea bbbd c928 c43d
00000090: 16eb a6bd 9e66 203e 6a64 25bc 7bce b4bc
000000a0: 485e ed3c b166 abbd 6ac4 a0bd 9110 9b3d
000000b0: 8a69 e5bd 92e5 c33c 048e d5bc 82be 713e
000000c0: cb1b e3bd d5a7 1cbd 112b 2bbd 64c8 95bc
000000d0: f8fe bc3c a34f dabd 96d0 f03d 718e 163d
000000e0: d2fa d83b 44fb 09be 8032 97bd 63a4 67be
000000f0: dbc7 553d e2ea 243d dc83 0f3e b661 50be
00000100: 81b0 d73d 1025 0bbe 46d0 eb3d 08da 5b3d
00000110: 4e8e 81bd cd07 01bd 86b7 eb3d d5e8 4dbd
00000120: c8d2 fabc 7287 793d 3a73 73bd 32de 15be
00000130: 3324 813d 098b c7bd 1297 003d 595c fc3d
00000140: ce3e 4e3b 6e08 4b3d e611 d9bd 5313 a93d
00000150: 7fda 21bd 0b08 613d b3cd 5d3d b2b4 3e3e
00000160: d91b 3cbd 067a 843d 0039 c03d 8339 03bd
00000170: 6a03 6d3d f0c3 693d 0e81 90bc b8d1 35bc
00000180: 0006 ce3c 19de 123e b43a 463d e597 98bd
00000190: 067c 183e f56e 3dbe efca 1dba fec5 0abe
000001a0: ede3 a63b a49c 88bc 4848 443c 746a b5bd
000001b0: d09b 123d c323 093e d393 21bd 6197 fc3b
000001c0: e49c d3bd e514 33be b275 aebd 85b6 963d
000001d0: 52d9 2b3e 89dd 813d 0a74 3f3e d2f7 babd
000001e0: f926 56bd b0c9 9e3d d8c9 8e3d affc 66bc
000001f0: b002 bebd a0a8 86bc a412 11be aee2 46bd
00000200: 9bdc 303d 523c 883d 5f94 a13d 4f30 123e
00000210: a67e d5bd 4534 71bc 6807 03ba c2f9 48bb
00000220: 9010 bdbc 1078 253d b8cb a43d b76a f7bd
00000230: e032 a4bd d0cd 343a b026 cebc 33e5 c83d
00000240: 8b45 edbb ecb3 6cbd cbdf 2e3d 07c0 a23c
00000250: 5aa9 c7bd 5a19 f23d dc7d 71bd 38b4 d1bd
00000260: 760c 0f3d 8ca9 abbd bd22 0d3d ea24 8e3d
00000270: d4bf c9bc 0d9d 50be a962 fa3a 7106 06be
00000280: eb37 fabc fd76 39bd 173b 0dbd d3ea dd3c
00000290: da59 85bd 01cd a5bd 558a a33d 8995 c2ba
000002a0: cc1e a43d 015d 7a3c b3b9 e2bd 91c2 8abd
000002b0: 00ce 1cbd 3e7f 043e fb9a bd3d 3309 bbbc
000002c0: 638e 97bb 687e 65bd e5e1 413d db3b eebc
000002d0: 31e5 d1b9 6a0f b5bb b799 07be 1c2d 98bd
000002e0: e00d 4b3e 1b8c a73d e2df a2bd 1dc3 bdbd
000002f0: cd10 c1bc cda6 3cbe 168d 3fbd e63f 2ebd
00000300: ed5b bdbb afaa 663c 0552 c7ba 9171 983d
00000310: 044a ebbd a90a b6bd 8e2c c13d a42d 11bb
00000320: 275d d53c ba46 0f3e 1bb6 9ebd d61d 113e
00000330: e0e9 b5bd f906 64bc d6c8 61bd a4e5 6cbd
00000340: 7d52 91bb a0ff 10bb c5d1 6bbc 2b77 54bb
00000350: cf26 f73c adf2 0bbd f9b1 003d 285d 2dbd
00000360: 89f4 813d cccd 743e 2d75 f0bc 0080 903d
00000370: 1cb0 023d 644c 12bd e50b fc3c 4b8e c63d
00000380: ced9 2d3e 37e6 d3bd d37d c73d 5a5b 1cbc
00000390: b9d2 053c d5df eebc df87 143d 0c95 e6bc
000003a0: c72c b1bd f523 133b 77b8 ac3c 3215 7fbc
000003b0: 8c07 fa3d 6bea e1bd 44b2 d83d eab0 ca3d
000003c0: 5294 1a3e 3a4f 853c 4efb bdbc 242b 103d
000003d0: 9e45 3f3d 1f32 50be f707 b63d b290 fc3d
000003e0: 579e 3ebc a2d3 8a3d 1f6f f4bc 664c 5c3d
000003f0: 8d79 023e e3e1 87bd f06a d43d 6857 cb3d

network_body._body_endoder.seq_layers.2.bias f4 [128]
0.0 0.0 0.0 0.0 0.0 0.0 0.0 0.0
0.0 0.0 0.0 0.0 0.0 0.0 0.0 0.0
0.0 0.0 0.0 0.0 0.0 0.0 0.0 0.0
0.0 0.0 0.0 0.0 0.0 0.0 0.0 0.0
0.0 0.0 0.0 0.0 0.0 0.0 0.0 0.0
0.0 0.0 0.0 0.0 0.0 0.0 0.0 0.0
0.0 0.0 0.0 0.0 0.0 0.0 0.0 0.0
0.0 0.0 0.0 0.0 0.0 0.0 0.0 0.0
0.0 0.0 0.0 0.0 0.0 0.0 0.0 0.0
0.0 0.0 0.0 0.0 0.0 0.0 0.0 0.0
0.0 0.0 0.0 0.0 0.0 0.0 0.0 0.0
0.0 0.0 0.0 0.0 0.0 0.0 0.0 0.0
0.0 0.0 0.0 0.0 0.0 0.0 0.0 0.0
0.0 0.0 0.0 0.0 0.0 0.0 0.0 0.0
0.0 0.0 0.0 0.0 0.0 0.0 0.0 0.0
0.0 0.0 0.0 0.0 0.0 0.0 0.0 0.0
00000000: 0000 0000 0000 0000 0000 0000 0000 0000
00000010: 0000 0000 0000 0000 0000 0000 0000 0000
00000020: 0000 0000 0000 0000 0000 0000 0000 0000
00000030: 0000 0000 0000 0000 0000 0000 0000 0000
00000040: 0000 0000 0000 0000 0000 0000 0000 0000
00000050: 0000 0000 0000 0000 0000 0000 0000 0000
00000060: 0000 0000 0000 0000 0000 0000 0000 0000
00000070: 0000 0000 0000 0000 0000 0000 0000 0000
00000080: 0000 0000 0000 0000 0000 0000 0000 0000
00000090: 0000 0000 0000 0000 0000 0000 0000 0000
000000a0: 0000 0000 0000 0000 0000 0000 0000 0000
000000b0: 0000 0000 0000 0000 0000 0000 0000 0000
000000c0: 0000 0000 0000 0000 0000 0000 0000 0000
000000d0: 0000 0000 0000 0000 0000 0000 0000 0000
000000e0: 0000 0000 0000 0000 0000 0000 0000 0000
000000f0: 0000 0000 0000 0000 0000 0000 0000 0000
00000100: 0000 0000 0000 0000 0000 0000 0000 0000
00000110: 0000 0000 0000 0000 0000 0000 0000 0000
00000120: 0000 0000 0000 0000 0000 0000 0000 0000
00000130: 0000 0000 0000 0000 0000 0000 0000 0000
00000140: 0000 0000 0000 0000 0000 0000 0000 0000
00000150: 0000 0000 0000 0000 0000 0000 0000 0000
00000160: 0000 0000 0000 0000 0000 0000 0000 0000
00000170: 0000 0000 0000 0000 0000 0000 0000 0000
00000180: 0000 0000 0000 0000 0000 0000 0000 0000
00000190: 0000 0000 0000 0000 0000 0000 0000 0000
000001a0: 0000 0000 0000 0000 0000 0000 0000 0000
000001b0: 0000 0000 0000 0000 0000 0000 0000 0000
000001c0: 0000 0000 0000 0000 0000 0000 0000 0000
000001d0: 0000 0000 0000 0000 0000 0000 0000 0000
000001e0: 0000 0000 0000 0000 0000 0000 0000 0000
000001f0: 0000 0000 0000 0000 0000 0000 0000 0000

action_model._continuous_distribution.log_sigma f4 [1, 2]
0.0 0.0
00000000: 0000 0000 0000 0000

action_model._continuous_distribution.mu.weight f4 [2, 128]
0.016744217 -0.010351007 -0.012164102 -0.0074460744 0.026303245 -0.0076779216 -0.0055135093 -0.011334332
-0.012449764 0.009212497 -0.036645066 -0.01564232 -0.026140252 -0.0015267383 -0.01815576 -0.030297179
-0.008682686 -0.015965885 -0.0017902997 0.009064698 0.021378696 0.010013663 -0.018927222 -0.016866758
0.007219718 -0.00012589466 -0.010411005 -0.018038332 -0.005160728 0.01091932 -0.005933288 0.014417629
-0.013311687 0.012434156 -0.009558104 -0.012003784 -0.000645294 0.005886216 0.0041108616 0.0038384702
0.0038167727 0.0051967916 -0.008736182 -0.0078963665 0.014422001 0.020823574 0.002930164 0.028028429
0.00072434876 -0.021583507 -0.006666253 0.030290568 0.0010169962 -0.0064315917 -0.003832373 -0.0070769833
0.0037665933 0.0076845908 0.0008995384 0.013796828 -0.010104326 -0.0034184945 0.021069463 0.021143964
-0.023893576 -0.013365793 0.0042062667 0.0093357945 0.007625531 -0.022063587 0.034259863 0.0004101954
0.009443806 -0.022865502 -0.022553857 -0.018286677 -0.018573618 -0.0099208625 0.010086289 -0.0011936509
-0.013000938 0.005808938 -0.013704026 -0.003333492 -0.020310575 -0.022861054 0.0055492143 -0.016931213
-0.018727785 0.019027866 0.00020158254 -0.0104316585 0.042358715 -0.04229277 -0.013227169 -0.019499702
-0.002082116 -0.004805344 -0.015634272 -0.018099243 -0.004825925 -0.01868437 -0.025529942 -0.020974068
-0.011662015 -0.011323846 -0.009379898 0.0015919255 -0.01730266 0.008059639 0.00969804 0.046544768
0.009084291 -0.0057573947 -0.022394726 -0.0059580947 -0.025098795 -0.021315312 -0.024136698 0.0073948554
-0.0017113894 0.03361396 -0.0077629066 0.015387229 0.016371103 0.020899123 -0.01295487 0.007689049
0.012113395 -0.011486209 -0.0033605795 -0.003629022 0.01394398 -0.011186606 -0.022782844 -0.035761062
0.011412918 0.013799603 -0.03107123 -0.002272958 0.03412235 0.0032508832 -0.0026534735 0.0401369
-0.0031955254 -0.018080423 0.029256705 -0.014828562 0.03498372 -0.011204724 -0.030790756 0.0109906
0.020235656 -0.011603024 -0.0147036435 -0.013588001 0.0036994938 -0.012835852 0.002947523 0.02738952
0.012761309 0.007290111 -0.0170319 -0.004604329 0.016514601 -0.007567224 -0.015913902 0.01606412
0.015045188 -0.013363778 -0.013739849 0.002538247 0.019241288 0.049621083 0.016075984 -0.034617253
-0.030473614 -0.02712912 -0.018489568 0.042642336 -0.003332071 0.031282935 0.020128394 -0.02079621
0.023648417 0.020511918 -0.0027949966 -0.018877435 -0.011444571 -0.0027067314 -0.012143781 0.0070796274
0.044705298 0.0067801545 -0.048041794 0.0049003824 0.00042578415 0.030831402 0.008708457 0.0027147727
-0.0021170222 -0.012468257 0.0147115085 0.045505725 0.005390335 -0.027310625 -0.0123727685 0.027482305
-0.010061441 -0.03502785 0.015999805 0.023157598 0.017933387 -0.011507368 -0.025844837 -0.018448472
-0.020384397 0.0095369695 0.036502156 0.03341299 -0.019714283 -0.007983583 -0.018177418 -0.0028149735
0.029226927 0.00783497 0.011931304 -0.031793963 0.032702755 0.014193959 -0.022930343 0.027503485
-0.018159097 0.01845086 0.004923623 -0.011576907 -0.036820274 0.0078407535 0.03529095 -0.018634042
-0.0035454638 -0.018729558 0.014524992 0.021353966 -0.0049529946 0.012872693 -0.016872114 -0.0034629905
0.0004542131 0.0023430542 0.008114757 0.0043517193 0.00033264255 0.017237594 0.0035614618 0.0019489132
00000000: 2b2b 893c 4597 29bc f14b 47bc 33fe f3bb
00000010: e779 d73c 1397 fbbb abaa b4bb a2b3 39bc
00000020: 18fa 4bbc 03f0 163c 2319 16bd 5324 80bc
00000030: 1524 d6bc d61c c8ba 63bb 94bc ca31 f8bc
00000040: d341 0ebc e3ca 82bc 7da8 eaba 1984 143c
00000050: 6022 af3c 5910 243c 430d 9bbc 282c 8abc
00000060: 6293 ec3b 9702 04b9 eb92 2abc 20c5 93bc
00000070: 531b a9bb f3e6 323c 076c c2bb eb37 6c3c
00000080: 4319 5abc a1b8 4b3c 9899 1cbc 85ab 44bc
00000090: f328 29ba 29e1 c03b 68b4 863b d88e 7b3b
000000a0: d222 7a3b d949 aa3b 3422 0fbc c35f 01bc
000000b0: 424a 6c3c 3396 aa3c ff07 403b e09b e53c
000000c0: 39e2 3d3a e5cf b0bc 9570 dabb ed23 f83c
000000d0: bb4c 853a 1ac0 d2bb 8d28 7bbb 0ae6 e7bb
000000e0: f3d8 763b 05cf fb3b 00cf 6b3a 170c 623c
000000f0: 9d8c 25bc d208 60bb de99 ac3c 1b36 ad3c
00000100: 76bc c3bc 33fc 5abc b9d4 893b 29f5 183c
00000110: 97df f93b b2be b4bc 1254 0c3d 7f0f d739
00000120: 31ba 1a3c 6f50 bbbc dec2 b8bc f1cd 95bc
00000130: b327 98bc 1d8b 22bc f640 253c 4774 9cba
00000140: e301 55bc e758 be3b da86 60bc b776 5abb
00000150: 5d62 a6bc 1b47 bbbc 2fd6 b53b 54b3 8abc
00000160: 036b 99bc 54e0 9b3c e75f 5339 8ce9 2abc
00000170: 5580 2d3d 2f3b 2dbd c5b6 58bc d7bd 9fbc
00000180: 1c74 08bb 2676 9dbb 7213 80bc dd44 94bc
00000190: cb22 9ebb f70f 99bc 2b24 d1bc cfd1 abbc
000001a0: 0912 3fbc a787 39bc 25ae 19bc 28a8 d03a
000001b0: 4fbe 8dbc 930c 043c 87e4 1e3c baa5 3e3d
000001c0: 47d6 143c 87a8 bcbb 2575 b7bc 1f3c c3bb
000001d0: fd9b cdbc 739d aebc 53ba c5bc 8b50 f23b
000001e0: b350 e0ba cbae 093d fb5f febb b71a 7c3c
000001f0: b11c 863c a334 ab3c aa40 54bc 6bf4 fb3b
00000200: 4377 463c a730 3cbc 2b3d 5cbb e3d4 6dbb
00000210: 4b75 643c 0748 37bc 16a3 babc 317a 12bd
00000220: 3ffd 3a3c bb17 623c 1889 febc e8f5 14bb
00000230: e1c3 0b3d c50c 553b e6e5 2dbb 9766 243d
00000240: 056c 51bb 651d 94bc c2ab ef3c 7ff3 72bc
00000250: 174b 0f3d 0594 37bc e53c fcbc eb11 343c
00000260: 3fc5 a53c 9c1a 3ebc 8de7 70bc 35a0 5ebc
00000270: 3573 723b 774d 52bc 3b2b 413b fd5f e03c
00000280: cf14 513c e2e1 ee3b 7c86 8bbc e9df 96bb
00000290: a149 873c 7af6 f7bb df5d 82bc e798 833c
000002a0: 1880 763c bff3 5abc 1b1d 61bc b858 263b
000002b0: e89f 9d3c 7a3f 4b3d c8b1 833c d2ca 0dbd
000002c0: cda3 f9bc e33d debc 6f77 97bc bba9 2e3d
000002d0: e05e 5abb 8922 003d 4de4 a43c d05c aabc
000002e0: 53ba c13c 9c08 a83c 432c 37bb daa4 9abc
000002f0: 0382 3bbc 6b63 31bb b6f6 46bc 38fc e73b
00000300: e71c 373d 0f2c de3b 79c7 44bd 6393 a03b
00000310: c83b df39 2392 fc3c ebad 0e3c 54ea 313b
00000320: bdbd 0abb a947 4cbc 8a08 713c 3664 3a3d
00000330: 68a1 b03b 88ba dfbc 27b7 4abc 9222 e13c
00000340: bed8 24bc 5d79 0fbd 0612 833c 01b5 bd3c
00000350: 0ae9 923c 6689 3cbc 8db8 d3bc 4021 97bc
00000360: 2efd a6bc f340 1c3c 4983 153d 0fdc 083d
00000370: d97f a1bc 93cd 02bc cfe8 94bc 6b7b 38bb
00000380: 4f6d ef3c 3f5e 003c 847b 433c 633a 02bd
00000390: 53f3 053d c78d 683c 6ad8 bbbc fd4e e13c
000003a0: 63c2 94bc 4226 973c 5856 a13b 11ad 3dbc
000003b0: dbd0 16bd 8176 003c 3e8d 103d 6ba6 98bc
000003c0: 035b 68bb bb6e 99bc 3bfa 6d3c 83ee ae3c
000003d0: bb4c a2bb fde7 523c 6337 8abc 57f3 62bb
000003e0: 7323 ee39 ed8d 193b c2f3 043c de98 8e3b
000003f0: 8766 ae39 db35 8d3c 6a67 693b ad72 ff3a

action_model._continuous_distribution.mu.bias f4 [2]
0.0 0.0
00000000: 0000 0000 0000 0000

action_model._discrete_distribution.branches.0.weight f4 [5, 128]
0.0060856952 0.011454214 0.001920815 -0.0091681555 -0.008363719 -0.007706303 0.0009328546 -0.0060483175
-0.0006114516 0.0043125814 -0.003141793 -0.007161869 0.004513005 0.018356523 -0.013941789 0.008106935
0.011941446 0.0019738139 -0.0015689848 0.010048664 0.0025020924 0.0037720583 -0.009264359 -0.0023915197
-0.0068875453 0.0074782195 -0.0056323116 0.0028075331 0.0026024035 0.0005183667 -0.0065589226 -5.1289167e-05
0.0039189816 -0.0036054857 0.0029147107 0.00043277253 0.00499795 0.007552133 -0.0089318985 0.01073154
0.0113054775 0.0053546815 -0.0065515074 0.00839459 0.009016636 0.003017526 -0.0026812037 -0.010468843
-0.010106986 -0.0034130346 0.012018688 -0.0017586198 0.009545539 -0.0012834399 -0.007891937 -0.0034981798
0.003550778 0.009040173 0.01837521 -0.005714173 0.00744216 0.009174197 -0.005681594 0.00018392513
1.5214859e-05 0.0056700194 0.015214776 0.01563928 -0.0048373616 0.0057221446 -0.0026243436 -0.0039302404
-0.008012967 0.023022605 -0.0141162025 0.004878886 0.01484593 0.0047637206 0.003277133 0.010202419
0.014540006 -0.0021692787 -0.01239854 0.00090997026 -0.0004158047 -0.00043334227 0.0042672185 -0.0007731023
-0.0012093204 0.0007670491 0.015506427 -0.0010730736 -0.002662555 -0.010818238 -0.0029074652 -0.0076520517
0.0058886744 0.01439093 -0.008412463 0.01517497 0.0039032728 0.014044168 0.00033707116 -0.0070294687
0.0086832475 -0.01803645 0.0049299737 0.011842782 0.00523182 0.0023877877 -0.008738346 -0.0027219995
0.001281035 0.001695008 0.010184598 0.0054704165 0.0022517452 -0.0074677276 -0.006011361 -0.0043574907
-0.0022197568 -0.0031556003 -0.014654653 -9.341322e-05 -0.005889356 -0.003558468 0.005553622 -0.0033493065
0.0065622167 0.011247374 -0.011429372 -0.010458593 0.005556656 0.0068648383 0.012974486 0.0045406944
-0.013211894 0.0007494578 0.016368119 0.0036898472 0.00876539 -0.0040354636 0.008264724 0.004499744
0.015717901 -0.003845333 -0.010993425 -0.013742096 0.0073765456 0.0013454028 -0.0032763768 0.010826838
-0.0095104845 -5.128544e-05 0.0051409793 -0.0041275783 0.0024943934 -0.0082750935 0.008526585 0.0015345777
0.008120381 -0.010553245 -0.009392004 0.0054130172 0.0060539073 -0.0010489002 0.00827702 -0.0018595274
-0.016577413 -0.011931215 0.022309992 -0.006449636 -0.020411534 -9.688333e-05 0.00511639 0.01717828
-0.012296799 -0.009258498 0.0021888327 -0.009962512 -0.012283311 -0.029301116 -0.007586428 -0.00011019003
0.00028504003 0.007638048 -0.00091320276 -0.0129659 0.009560441 0.015755773 -0.0009423957 -0.012061126
0.0061947103 0.0040799812 -0.004123254 -0.008527269 -0.0042137303 -0.011885653 -0.002958468 -0.0028835891
0.003769749 -0.001476296 -0.003091682 0.004118636 -0.008103336 -0.007394442 0.012409857 0.011388172
0.006033587 -0.0084596155 0.0002838428 0.007688125 -0.0042107934 0.0062933685 0.034048554 -0.012896373
0.007747748 -0.0007113979 0.015674753 0.0024393734 -0.003346823 0.0011953772 0.01513602 -0.014135055
0.018935857 -0.0032727818 0.010685386 0.0009351408 0.0033291855 -0.0073715965 0.009196861 0.0010210413
0.0020997964 0.005386991 -0.0019107193 0.011915598 0.009969071 -0.004914717 -0.00512827 -0.0009235395
0.006582204 -0.02236417 -0.0057657347 0.013688887 0.0019906263 0.009138587 -0.002526346 0.0011396455
0.0040151956 0.0036271082 0.008698606 0.0026918582 0.0054130997 0.0025459633 -0.003555482 0.0024161392
00000000: 836a c73b 75aa 3b3c dbc3 fb3a 0836 16bc
00000010: fb07 09bc 2885 fcbb d08a 743a f730 c6bb
00000020: d349 20ba 8e50 8d3b 8ae6 4dbb 1dae eabb
00000030: d4e1 933b 6b60 963c 1a6c 64bc f3d2 043c
00000040: 0ea6 433c 1a5b 013b 65a6 cdba 27a3 243c
00000050: 25fa 233b a334 773b 8ac9 17bc 0bbb 1cbb
00000060: ebb0 e1bb da0b f53b 418f b8bb 97fe 373b
00000070: 168d 2a3b 00e3 073a 3bec d6bb 531f 57b8
00000080: cd6a 803b 034a 6cbb bb04 3f3b bfe5 e239
00000090: d8c5 a33b e277 f73b 1957 12bc 57d3 2f3c
000000a0: 9c3a 393c 5376 af3b 07ae d6bb 7689 093c
000000b0: 83ba 133c afc1 453b 22b7 2fbb 8385 2bbc
000000c0: c697 25bc 38ad 5fbb 08ea 443c 7d81 e6ba
000000d0: e464 1c3c 1939 a8ba 2f4d 01bc b841 65bb
000000e0: 2bb4 683b 3c1d 143c 9c87 963c f53d bbbb
000000f0: 5ddd f33b 5f4f 163c aa2c babb 07dc 4039
00000100: 5243 7f37 92cb b93b 6547 793c f31d 803c
00000110: bb82 9ebb d480 bb3b 2efd 2bbb 3fc9 80bb
00000120: d248 03bc e799 bc3c a547 67bc 10df 9f3b
00000130: 583c 733c fc18 9c3b 2bc5 563b 0c28 273c
00000140: 3539 6e3c 752a 0ebb 3f23 4bbc 128b 6e3a
00000150: 5d00 dab9 3732 e3b9 06d4 8b3b 04aa 4aba
00000160: 0f82 9eba cb13 493a ab0e 7e3c 60a6 8cba
00000170: 437e 2ebb fb3e 31bc 2c8b 3ebb 10be fabb
00000180: c8f5 c03b efc7 6b3c 6dd4 09bc 70a0 783c
00000190: 0dce 7f3b 8319 663c edb8 b039 7557 e6bb
000001a0: 2e44 0e3c 2dc1 93bc 9e8b a13b 3a08 423c
000001b0: b06f ab3b 6e7c 1c3b 482b 0fbc 9363 32bb
000001c0: 67e8 a73a 082b de3a 4ddd 263c 2e41 b33b
000001d0: 0492 133b d7b3 f4bb f3fa c4bb 48c9 8ebb
000001e0: 5779 11bb 30ce 4ebb 121a 70bc d7e6 c3b8
000001f0: 80fb c0bb 3035 69bb 28fb b53b 0a80 5bbb
00000200: dd07 d73b e846 383c 4342 3bbc 855a 2bbc
00000210: 9c14 b63b 70f2 e03b f092 543c 1bca 943b
00000220: b376 58bc 4377 443a 6f16 863c 5dd1 713b
00000230: b69c 0f3c ec3b 84bb c468 073c 9772 933b
00000240: d4c2 803c fb01 7cbb c41d 34bc 8726 61bc
00000250: f3b6 f13b 3a58 b03a 7bb8 56bb 0d63 313c
00000260: ddd1 1bbc 521b 57b8 a975 a83b a340 87bb
00000270: fa78 233b 4294 07bc 17b3 0b3c e223 c93a
00000280: 590b 053c 85e7 2cbc ece0 19bc ae5f b13b
00000290: db5f c63b 407b 89ba 579c 073c 63bb f3ba
000002a0: 5bcd 87bc 257b 43bc 72c3 b63c 7857 d3bb
000002b0: 1736 a7bc d72d cbb8 64a7 a73b 77b9 8c3c
000002c0: 8378 49bc f5b0 17bc 8572 0f3b ce39 23bc
000002d0: f13f 49bc e508 f0bc 9297 f8bb d215 e7b8
000002e0: 6d71 9539 9748 fa3b 0064 6fba ed6e 54bc
000002f0: 65a3 1c3c 4012 813c 1b0b 77ba 079c 45bc
00000300: fffc ca3b 5db1 853b 5d1c 87bb f5b5 0bbc
00000310: 5513 8abb 0bbc 42bc dbe2 41bb 99fa 3cbb
00000320: e50d 773b 4680 c1ba d19d 4abb 9ff5 863b
00000330: dbc3 04bc 134d f2bb b652 4b3c 7595 3a3c
00000340: 65b5 c53b 339a 0abc bcd0 9439 abec fb3b
00000350: b2fa 89bb 9a38 ce3b 7f76 0b3d 4f4b 53bc
00000360: d2e0 fd3b 1b7d 3aba 5768 803c e5dd 1f3b
00000370: 5f56 5bbb 34ae 9c3a 12fd 773c b896 67bc
00000380: 5f1f 9b3c 2b7c 56bb c211 2f3c 3d24 753a
00000390: 772e 5a3b 6f8d f1bb 6eae 163c 76d4 853a
000003a0: bd9c 093b 5b85 b03b 1a71 faba a439 433c
000003b0: 5055 233c a20b a1bb 0c0b a8bb b019 72ba
000003c0: 87af d73b 1035 b7bc 7dee bcbb 5a47 603c
000003d0: 2b75 023b 03ba 153c 0d91 25bb 2860 953a
000003e0: e791 833b c7b4 6d3b 9984 0e3c e369 303b
000003f0: 5f60 b13b 2dda 263b 1703 69bb 1758 1e3b

action_model._discrete_distribution.branches.0.bias f4 [5]
0.0 0.0 0.0 0.0 0.0
00000000: 0000 0000 0000 0000 0000 0000 0000 0000
00000010: 0000 0000

network_body._body_endoder.seq_layers.0.weight f4 [128, 6]
0.21145009 0.5528103 0.06995617 -1.056334 0.18521886 0.30133006 0.86802316 -0.22178335
0.30911854 0.2142475 0.17107268 0.2222681 -0.2891042 0.22386543 0.1666217 0.51953506
-0.1299424 -0.1393524 -0.6273571 -0.1777138 0.46718037 -0.09631408 0.22847337 0.17457686
-0.3316783 -0.046119004 0.19296883 0.16625965 0.16037105 -0.07927971 -0.11469572 0.50546473
0.3525733 0.39522654 0.19646205 0.02318369 -0.60128105 0.24378464 0.4548158 -0.124786094
0.024981357 0.6208194 -0.0041007656 -0.646167 -0.4609067 0.09814898 0.3437999 -0.07529664
0.05256616 -0.5721024 -0.6896163 -0.69646734 0.58877975 0.43011722 0.38068533 -0.43049487
0.43691218 -0.110755496 -0.0487274 -0.076059446 -0.63056684 -0.13337137 -0.07569015 0.2908106
-0.85592437 -0.00440023 0.30018255 0.6380895 0.45327988 -0.6302841 0.2341244 -0.51423126
0.645834 0.10271341 0.37710115 0.07896771 -0.7464523 0.2835591 0.41426146 0.30148935
0.20639941 0.2432694 -0.39843136 -0.18531375 0.24786259 -0.44491693 -0.12104004 -1.019924
0.19289541 0.3057204 0.27548963 0.005652954 0.32221746 -0.07590002 -0.016498405 -0.03532378
-0.2520447 -0.17207688 -0.050000038 -0.1922528 0.40336534 0.7113828 -0.7088318 0.15165883
0.33751932 0.009231668 -0.30334496 0.6332841 -0.005296689 0.03447211 0.13857111 -0.79256505
-0.61144674 -0.26683062 0.45319864 -0.4590958 0.48683774 0.09990425 0.61466086 0.6981333
0.6987303 -0.2934189 -0.22493725 -0.24505702 0.42578885 0.24326168 0.5890512 -0.11338769
0.13520779 -0.59970593 0.41385692 -0.09355548 0.21898313 0.28637576 -0.16719458 0.06429631
-0.4375656 0.13149434 -0.018105984 -0.6970927 -0.501318 -0.8897259 0.41560677 0.120038204
0.29990664 0.28656998 -0.055407763 0.30777717 0.3767694 -0.8138931 -0.92888546 0.19331117
0.35788527 -0.13967147 0.36527658 -0.2397715 0.006986941 0.12102343 0.28784648 0.42653477
-0.29821414 -0.08173082 -0.8108218 0.19987306 0.6121234 -0.5701428 -0.1965298 0.2816339
-0.23549862 -0.077380694 -0.038754206 0.22042008 -0.21123135 -0.032145 0.44900623 0.21773387
0.07813605 -0.18889919 -0.07547008 -0.29747865 0.09425829 0.22758383 -0.68660307 0.14091359
-0.56364185 -0.7360485 0.006913414 0.5076281 -0.5643264 -0.14857006 -0.056780756 0.26965305
0.4069492 -0.43806335 -0.12776622 -0.12749669 -0.5802368 0.2853297 0.5362382 0.11604358
0.33870387 0.059374165 0.07159281 0.2568035 0.11380527 0.3379282 -0.65283465 -0.50436527
-0.45960677 0.3106897 -0.51123023 0.6293044 0.57086974 0.25350675 -0.42445475 0.12791958
0.23746644 0.4587751 0.2419502 -0.06603316 0.4461875 -0.39165768 -0.17007263 -0.37653002
-0.024367535 0.22523098 0.2444421 0.4190971 -0.7481051 0.34072518 -0.7217487 0.60567284
-0.63398075 -0.536782 0.5621889 -0.30758044 -0.57013583 0.036849875 -0.16256547 -0.51609904
-0.025966521 0.38056955 -0.048941746 -0.7529799 -0.20097367 0.054047924 -0.3119665 0.3186494
-0.31882733 0.031965178 0.8959987 0.34313846 0.97249955 0.03949409 -0.85181296 0.03308277
00000000: 5f86 583e fa84 0d3f 2e45 8f3d f435 87bf
00000010: 03aa 3d3e ef47 9a3e c436 5e3f 2d1b 63be
00000020: c944 9e3e b263 5b3e ad2d 2f3e 409a 633e
00000030: 7705 94be fb3c 653e e19e 2a3e 4000 053f
00000040: 9f0f 05be 65b2 0ebe 7a9a 20bf 9bfa 35be
00000050: 4432 ef3e 5140 c5bd ecf4 693e 47c4 323e
00000060: bdd1 a9be 48e7 3cbd 9f99 453e f83f 2a3e
00000070: 4f38 243e 675d a2bd 97e5 eabd 2366 013f
00000080: 7d84 b43e 225b ca3e 592d 493e b9eb bd3c
00000090: 8eed 19bf aea2 793e 9edd e83e da8f ffbd
000000a0: b4a5 cc3c 05ee 1e3f b75f 86bb 336b 25bf
000000b0: f7fb ebbe 5502 c93d 8a06 b03e 2035 9abd
000000c0: 9d4f 573d 4e75 12bf b28a 30bf af4b 32bf
000000d0: 45ba 163f 5338 dc3e 30e9 c23e d369 dcbe
000000e0: f4b2 df3e c7d3 e2bd 6296 47bd 0ec5 9bbd
000000f0: d46c 21bf 8192 08be 7003 9bbd 21e5 943e
00000100: dc1d 5bbf ce2f 90bb 87b1 993e d559 233f
00000110: 4d14 e83e 4c5a 21bf 4fbe 6f3e a9a4 03bf
00000120: 6155 253f 695b d23d 6713 c13e d3b9 a13d
00000130: 7f17 3fbf a92e 913e 141a d43e d05c 9a3e
00000140: 5e5a 533e 9d1b 793e 32ff cbbe e3c2 3dbe
00000150: b1cf 7d3e 27cc e3be d7e3 f7bd df8c 82bf
00000160: 6086 453e 6287 9c3e fa0c 8d3e 6a3c b93b
00000170: b0f9 a43e 7871 9bbd aa27 87bc abaf 10bd
00000180: 010c 81be ec34 30be d7cc 4cbd ebdd 44be
00000190: e785 ce3e 2f1d 363f 0076 35bf 744c 1b3e
000001a0: 55cf ac3e 6c40 173c 0850 9bbe e81e 223f
000001b0: d98f adbb a132 0d3d 96e5 0d3e 8be5 4abf
000001c0: c687 1cbf 069e 88be a709 e83e 9b0e ebbe
000001d0: cc42 f93e 999a cc3d 6a5a 1d3f ddb8 323f
000001e0: fddf 323f 013b 96be f355 66be 3af0 7abe
000001f0: ff00 da3e 9719 793e 0fcc 163f ce37 e8bd
00000200: e973 0a3e 5486 19bf 0ee5 d33e 049a bfbd
00000210: 1d3d 603e d89f 923e 0e35 2bbe c9ad 833d
00000220: 9908 e0be 74a6 063e 0053 94bc ab74 32bf
00000230: 6056 00bf 14c5 63bf 69ca d43e 97d6 f53d
00000240: 5d8d 993e 4db9 923e 40f3 62bd f894 9d3e
00000250: ebe7 c03e 4c5b 50bf 70cb 6dbf 5df3 453e
00000260: bd3c b73e 0a06 0fbe 8805 bb3e a986 75be
00000270: b6f2 e43b 22db f73d 9d60 933e c462 da3e
00000280: 86af 98be 7d62 a7bd 0492 4fbf 86ab 4c3e
00000290: 1fb4 1c3f e1f4 11bf 1c3f 49be 5232 903e
000002a0: 8d26 71be c579 9ebd bbbc 1ebd cdb5 613e
000002b0: 084d 58be 7aaa 03bd 25e4 e53e a1f5 5e3e
000002c0: cb05 a03d ca6e 41be 0f90 9abd 1f4f 98be
000002d0: 7e0a c13d bc0b 693e 38c5 2fbf a74b 103e
000002e0: d54a 10bf ad6d 3cbf ec89 e23b eaf3 013f
000002f0: b277 10bf c022 18be f092 68bd f70f 8a3e
00000300: a55b d03e d749 e0be 26d5 02be 7e8e 02be
00000310: 668a 14bf bc16 923e e846 093f 42a8 ed3d
00000320: 986a ad3e 5332 733d 409f 923d c07b 833e
00000330: bd12 e93d ed04 ad3e 2c20 27bf 151e 01bf
00000340: 9451 ebbe b812 9f3e fcdf 02bf 181a 213f
00000350: 8524 123f a3cb 813e 2252 d9be 5afd 023e
00000360: 672a 733e 92e4 ea3e cbc1 773e 653c 87bd
00000370: b072 e43e 5b87 c8be 8527 2ebe 8bc8 c0be
00000380: 6d9e c7bc f3a2 663e 084f 7a3e e593 d63e
00000390: d183 3fbf 8873 ae3e 86c4 38bf 600d 1b3f
000003a0: 904c 22bf 8c6a 09bf 9deb 0f3f 2f7b 9dbe
000003b0: 6cf4 11bf e5ef 163d 9077 26be 111f 04bf
000003c0: beb7 d4bc 03da c23e 2477 48bd 4ac3 40bf
000003d0: 0bcc 4dbe 5b61 5d3d 13ba 9fbe 0426 a33e
000003e0: 563d a3be ebed 023d 2c60 653f d8af af3e
000003f0: bbf5 783f 8ec4 213d 6a10 5abf cc81 073d

network_body._body_endoder.seq_layers.0.bias f4 [128]
0.0 0.0 0.0 0.0 0.0 0.0 0.0 0.0
0.0 0.0 0.0 0.0 0.0 0.0 0.0 0.0
0.0 0.0 0.0 0.0 0.0 0.0 0.0 0.0
0.0 0.0 0.0 0.0 0.0 0.0 0.0 0.0
0.0 0.0 0.0 0.0 0.0 0.0 0.0 0.0
0.0 0.0 0.0 0.0 0.0 0.0 0.0 0.0
0.0 0.0 0.0 0.0 0.0 0.0 0.0 0.0
0.0 0.0 0.0 0.0 0.0 0.0 0.0 0.0
0.0 0.0 0.0 0.0 0.0 0.0 0.0 0.0
0.0 0.0 0.0 0.0 0.0 0.0 0.0 0.0
0.0 0.0 0.0 0.0 0.0 0.0 0.0 0.0
0.0 0.0 0.0 0.0 0.0 0.0 0.0 0.0
0.0 0.0 0.0 0.0 0.0 0.0 0.0 0.0
0.0 0.0 0.0 0.0 0.0 0.0 0.0 0.0
0.0 0.0 0.0 0.0 0.0 0.0 0.0 0.0
0.0 0.0 0.0 0.0 0.0 0.0 0.0 0.0
00000000: 0000 0000 0000 0000 0000 0000 0000 0000
00000010: 0000 0000 0000 0000 0000 0000 0000 0000
00000020: 0000 0000 0000 0000 0000 0000 0000 0000
00000030: 0000 0000 0000 0000 0000 0000 0000 0000
00000040: 0000 0000 0000 0000 0000 0000 0000 0000
00000050: 0000 0000 0000 0000 0000 0000 0000 0000
00000060: 0000 0000 0000 0000 0000 0000 0000 0000
00000070: 0000 0000 0000 0000 0000 0000 0000 0000
00000080: 0000 0000 0000 0000 0000 0000 0000 0000
00000090: 0000 0000 0000 0000 0000 0000 0000 0000
000000a0: 0000 0000 0000 0000 0000 0000 0000 0000
000000b0: 0000 0000 0000 0000 0000 0000 0000 0000
000000c0: 0000 0000 0000 0000 0000 0000 0000 0000
000000d0: 0000 0000 0000 0000 0000 0000 0000 0000
000000e0: 0000 0000 0000 0000 0000 0000 0000 0000
000000f0: 0000 0000 0000 0000 0000 0000 0000 0000
00000100: 0000 0000 0000 0000 0000 0000 0000 0000
00000110: 0000 0000 0000 0000 0000 0000 0000 0000
00000120: 0000 0000 0000 0000 0000 0000 0000 0000
00000130: 0000 0000 0000 0000 0000 0000 0000 0000
00000140: 0000 0000 0000 0000 0000 0000 0000 0000
00000150: 0000 0000 0000 0000 0000 0000 0000 0000
00000160: 0000 0000 0000 0000 0000 0000 0000 0000
00000170: 0000 0000 0000 0000 0000 0000 0000 0000
00000180: 0000 0000 0000 0000 0000 0000 0000 0000
00000190: 0000 0000 0000 0000 0000 0000 0000 0000
000001a0: 0000 0000 0000 0000 0000 0000 0000 0000
000001b0: 0000 0000 0000 0000 0000 0000 0000 0000
000001c0: 0000 0000 0000 0000 0000 0000 0000 0000
000001d0: 0000 0000 0000 0000 0000 0000 0000 0000
000001e0: 0000 0000 0000 0000 0000 0000 0000 0000
000001f0: 0000 0000 0000 0000 0000 0000 0000 0000

network_body._body_endoder.seq_layers.2.weight f4 [128, 128]
0.044962857 -0.06785921 0.041912034 0.039416477 -0.08263833 -0.038742382 -0.058992483 0.07721008
0.022423783 -0.17354305 -0.058403887 0.0071225446 0.082447916 0.07714853 -0.0988611 -0.040324744
0.07306605 -0.02636301 -0.01647295 -0.10041931 -0.19574505 -0.04940772 0.055560004 -0.0941414
-0.10180759 -0.0043561663 0.030681983 0.03825065 0.0037300542 -0.14010353 0.0844589 -0.07844012
-0.06350173 0.0057476643 -0.05326294 -0.05783687 0.08749021 -0.11419655 0.042182002 -0.036196273
0.11932876 0.009140825 -0.11085541 -0.042493857 -0.045408223 -0.16221175 -0.057668895 0.1093202
0.064727195 0.019203845 -0.028054683 -0.047087297 0.038366813 0.035422266 -0.2204668 -0.03503218
0.043005187 0.19910641 -0.045212004 0.02775597 0.18595271 -0.047704995 0.03671048 -0.08241925
-0.09295399 0.021593744 0.013082401 0.07281634 0.010469969 -0.014305921 0.07454468 -0.029410636
0.04498857 0.14242487 -0.010766222 -0.0884446 0.006875338 -0.011841228 0.038605608 -0.077869676
0.09316762 0.14689982 -0.04991181 0.059176937 -0.07200409 -0.2100182 -0.027198114 -0.11598271
-0.08400763 0.10267107 -0.18225454 -0.026912056 -0.043365505 -0.0070918896 0.04351284 -0.055890344
0.05191565 0.1403006 0.09521505 -0.22099854 0.13742651 -0.09499599 -0.10494032 -0.0983208
0.05661634 -0.06436102 0.043939173 -0.11576603 -0.025782244 0.014054623 0.14196953 0.0068346495
-0.1401425 -0.045599505 0.008254167 0.15857144 0.16692838 0.056935646 -0.061160672 0.1358962
0.05901427 0.068976104 -0.00049870706 -0.037466276 -0.13295841 -0.06408062 0.009361961 0.13378912
0.103999704 0.012809054 0.03239708 0.061482653 0.055066165 0.0792246 0.030406674 -0.06921071
0.0957606 -0.07988643 0.06417118 -0.0806915 0.022666972 0.08006401 -0.054638363 -0.12645292
-0.029451303 0.10936927 -0.07146348 0.09365991 0.04903267 0.022876509 -0.022846939 0.03354577
-0.05375437 -0.15120386 0.08171838 0.06363032 0.048066363 0.058423188 0.0604229 0.15166336
0.02915672 -0.016522588 -0.0058319997 -0.1579252 -0.080054395 -0.012272484 -0.021724397 -0.0046150875
-0.1641815 0.08320877 0.06332693 -0.057679668 -0.038949884 -0.1147115 0.08618561 -0.046230208
7.1550334e-05 -0.09129162 0.113751456 -0.027575675 0.0038861234 0.10402595 0.016110351 0.048579928
-0.010873152 -0.18075843 -0.12294049 -0.062369533 0.020963464 0.009069024 0.05935538 -0.05639555
0.12473726 0.048375472 -0.06119216 0.07628089 0.0108942855 -0.017649403 -0.08374341 0.029555384
-0.029047128 -0.10784895 0.036238283 0.15914863 -0.031476162 -0.023814531 0.084277 -0.032252308
-0.07898107 -0.039437626 -0.07797633 -0.08109238 0.054455467 0.011558201 0.075634964 0.14625746
0.01069428 -0.13150778 0.06852882 -0.026859082 -0.27884212 0.0031288886 -0.057125874 0.046481915
-0.06200069 -0.06728592 -0.17802387 -0.090725586 0.0057025594 0.08655427 0.11861001 -0.08708778
0.08264828 0.044137523 0.06718971 0.023735875 -0.013398949 0.11381844 0.03877328 -0.073865175
0.015184109 -0.046464834 0.08555754 -0.14414442 0.1386117 -0.058596548 -0.09951396 -0.18298726
-0.05042748 -0.09252226 -0.054021664 -0.07861283 -0.050897524 -0.08338692 -0.0933029 -0.05893211
00000000: f92a 383d c5f9 8abd f4ab 2b3d 2c73 213d
00000010: 493e a9bd 55b0 1ebd 1aa2 71bd 5220 9e3d
00000020: 15b2 b73c 45b5 31be ea38 6fbd 3c64 e93b
00000030: 74da a83d 0c00 9e3d b077 cabd 8f2b 25bd
00000040: a7a3 953d 3df7 d7bc 48f2 86bc a4a8 cdbd
00000050: 6471 48be c05f 4abd e392 633d 35cd c0bd
00000060: 7f80 d0bd 2cbe 8ebb c858 fb3c b7ac 1c3d
00000070: ed73 743b 4d77 0fbe caf8 ac3d 37a5 a0bd
00000080: 320d 82bd e756 bc3b 3e2a 5abd 5be6 6cbd
00000090: 112e b33d e1df e9bd 09c7 2c3d 8b42 14bd
000000a0: a362 f43d 66c3 153c 2908 e3bd 0a0e 2ebd
000000b0: f9fd 39bd d61a 26be 3836 6cbd 45e3 df3d
000000c0: b18f 843d 6251 9d3c efd2 e5bc 9cde 40bd
000000d0: 8526 1d3d f016 113d 0cc2 61be e77d 0fbd
000000e0: 3526 303d 8de2 4b3e 3930 39bd 7d60 e33c
000000f0: 636a 3e3e 5066 43bd ba5d 163d 6ccb a8bd
00000100: a95e bebd 5de5 b03c 9157 563c bc20 953d
00000110: 3c8a 2b3c 6263 6abc e2aa 983d 93ee f0bc
00000120: ef45 383d d3d7 113e cf64 30bc 7122 b5bd
00000130: 844a e13b b601 42bc ea20 1e3d 237a 9fbd
00000140: aace be3d e86c 163e 5370 4cbd 8463 723d
00000150: e176 93bd 030f 57be 94ce debc 5888 edbd
00000160: 310c acbd 3645 d23d efa0 3abe ac76 dcbc
00000170: 07a0 31bd 1563 e8bb 853a 323d 46ed 64bd
00000180: 81a5 543d f6aa 0f3e 1c00 c33d 714d 62be
00000190: 89b9 0c3e 428d c2bd f3ea d6bd 6a5c c9bd
000001a0: 89e6 673d b6cf 83bd 90f9 333d be16 edbd
000001b0: 4935 d3bc 5d45 663c 7660 113e 32f5 df3b
000001c0: 8481 0fbe 8cc6 3abd 7c3c 073c 8d60 223e
000001d0: 46ef 2a3e 5a35 693d 9d83 7abd 6028 0b3e
000001e0: f2b8 713d 5843 8d3d aabb 02ba 3d76 19bd
000001f0: 4026 08be b33c 83bd e962 193c 0400 093e
00000200: ccfd d43d 11dd 513c cdb2 043d 3cd5 7b3d
00000210: 0f8d 613d 8240 a23d 6b17 f93c 58be 8dbd
00000220: 221e c43d 7f9b a3bd 2e6c 833d 9641 a5bd
00000230: 16b0 b93c 9af8 a33d 7acc 5fbd e07c 01be
00000240: dc43 f1bc fffc df3d 725b 92bd c4d0 bf3d
00000250: 7bd6 483d 8467 bb3c 8129 bbbc 4a67 093d
00000260: 8b2d 5cbd 2fd5 1abe f75b a73d 9d50 823d
00000270: 3ce1 443d 274d 6f3d 017e 773d a44d 1b3e
00000280: 13da ee3c 615a 87bc 5c1a bfbb 25b7 21be
00000290: 8ff3 a3bd 8712 49bc 5df7 b1bc 293a 97bb
000002a0: 321f 28be 5c69 aa3d 8db1 813d 8441 6cbd
000002b0: ea89 1fbd dded eabd 1582 b03d e35b 3dbd
000002c0: 4b0d 9638 1af7 babd 86f6 e83d 62e6 e1bc
000002d0: 55ae 7e3b 8f0b d53d dbf9 833c bffb 463d
000002e0: 4e25 32bc bd18 39be 39c8 fbbd 3277 7fbd
000002f0: 92bb ab3c 3e96 143c a01e 733d 05ff 66bd
00000300: 4076 ff3d 5c25 463d a1a4 7abd 2839 9c3d
00000310: f27d 323c 7b95 90bc aa81 abbd 221e f23c
00000320: 3ef4 edbc e9df dcbd 986e 143d dcf7 223e
00000330: 26ed 00bd b116 c3bc 6b99 ac3d ff1a 04bd
00000340: d4c0 a1bd 5989 21bd 0eb2 9fbd c313 a6bd
00000350: b20c 5f3d 9c5e 3d3c 81e6 9a3d 84c4 153e
00000360: 1037 2f3c faa9 06be d758 8c3d 9407 dcbc
00000370: 65c4 8ebe 0a0e 4d3b d2fc 69bd d263 3e3d
00000380: 6ff4 7dbd 33cd 89bd e44b 36be 56ce b9bd
00000390: 89dc ba3b 5d43 b13d cee9 f23d 145b b2bd
000003a0: 8043 a93d 8cc9 343d c29a 893d bd71 c23c
000003b0: 4487 5bbc a419 e93d bbd0 1e3d a046 97bd
000003c0: c5c6 783c e951 3ebd cb38 af3d 989a 13be
000003d0: 3af0 0d3e ef02 70bd facd cbbd 0361 3bbe
000003e0: 0c8d 4ebd 507c bdbd d245 5dbd c3ff a0bd
000003f0: ec79 50bd c3c6 aabd 9715 bfbd cc62 71bd

network_body._body_endoder.seq_layers.2.bias f4 [128]
0.0 0.0 0.0 0.0 0.0 0.0 0.0 0.0
0.0 0.0 0.0 0.0 0.0 0.0 0.0 0.0
0.0 0.0 0.0 0.0 0.0 0.0 0.0 0.0
0.0 0.0 0.0 0.0 0.0 0.0 0.0 0.0
0.0 0.0 0.0 0.0 0.0 0.0 0.0 0.0
0.0 0.0 0.0 0.0 0.0 0.0 0.0 0.0
0.0 0.0 0.0 0.0 0.0 0.0 0.0 0.0
0.0 0.0 0.0 0.0 0.0 0.0 0.0 0.0
0.0 0.0 0.0 0.0 0.0 0.0 0.0 0.0
0.0 0.0 0.0 0.0 0.0 0.0 0.0 0.0
0.0 0.0 0.0 0.0 0.0 0.0 0.0 0.0
0.0 0.0 0.0 0.0 0.0 0.0 0.0 0.0
0.0 0.0 0.0 0.0 0.0 0.0 0.0 0.0
0.0 0.0 0.0 0.0 0.0 0.0 0.0 0.0
0.0 0.0 0.0 0.0 0.0 0.0 0.0 0.0
0.0 0.0 0.0 0.0 0.0 0.0 0.0 0.0
00000000: 0000 0000 0000 0000 0000 0000 0000 0000
00000010: 0000 0000 0000 0000 0000 0000 0000 0000
00000020: 0000 0000 0000 0000 0000 0000 0000 0000
00000030: 0000 0000 0000 0000 0000 0000 0000 0000
00000040: 0000 0000 0000 0000 0000 0000 0000 0000
00000050: 0000 0000 0000 0000 0000 0000 0000 0000
00000060: 0000 0000 0000 0000 0000 0000 0000 0000
00000070: 0000 0000 0000 0000 0000 0000 0000 0000
00000080: 0000 0000 0000 0000 0000 0000 0000 0000
00000090: 0000 0000 0000 0000 0000 0000 0000 0000
000000a0: 0000 0000 0000 0000 0000 0000 0000 0000
000000b0: 0000 0000 0000 0000 0000 0000 0000 0000
000000c0: 0000 0000 0000 0000 0000 0000 0000 0000
000000d0: 0000 0000 0000 0000 0000 0000 0000 0000
000000e0: 0000 0000 0000 0000 0000 0000 0000 0000
000000f0: 0000 0000 0000 0000 0000 0000 0000 0000
00000100: 0000 0000 0000 0000 0000 0000 0000 0000
00000110: 0000 0000 0000 0000 0000 0000 0000 0000
00000120: 0000 0000 0000 0000 0000 0000 0000 0000
00000130: 0000 0000 0000 0000 0000 0000 0000 0000
00000140: 0000 0000 0000 0000 0000 0000 0000 0000
00000150: 0000 0000 0000 0000 0000 0000 0000 0000
00000160: 0000 0000 0000 0000 0000 0000 0000 0000
00000170: 0000 0000 0000 0000 0000 0000 0000 0000
00000180: 0000 0000 0000 0000 0000 0000 0000 0000
00000190: 0000 0000 0000 0000 0000 0000 0000 0000
000001a0: 0000 0000 0000 0000 0000 0000 0000 0000
000001b0: 0000 0000 0000 0000 0000 0000 0000 0000
000001c0: 0000 0000 0000 0000 0000 0000 0000 0000
000001d0: 0000 0000 0000 0000 0000 0000 0000 0000
000001e0: 0000 0000 0000 0000 0000 0000 0000 0000
000001f0: 0000 0000 0000 0000 0000 0000 0000 0000

value_heads.value_heads.extrinsic.weight f4 [1, 128]
0.20972702 -0.104582936 0.19294623 0.036014497 -0.01278618 0.11901131 -0.03660761 -0.006141886
-0.02349487 0.15460199 -0.064135 -0.034222618 0.16695097 0.13732964 0.086841166 -0.0015397519
-0.043249846 -0.0036714673 0.0038451701 -0.008962408 0.0073089004 -0.18729208 -0.15339036 -0.05741276
-0.056886747 0.058132917 -0.13491131 0.17636955 0.17799601 -0.21486527 -0.09764213 0.1536704
-0.15695573 0.058697283 -0.19907722 0.004384339 -0.0547895 0.10235405 0.03912154 -0.091197394
0.16596177 -0.063615486 0.051994473 -0.11559396 -0.13097668 -0.19697492 0.0029630065 -0.08924243
0.20152348 -0.08971062 0.180323 0.09471905 0.14272004 0.07797885 -0.07290828 -0.16109613
0.098808974 -0.15231988 -0.06771104 0.033992082 -0.11944304 -0.063742876 0.21400502 0.07454282
-0.08737747 0.18461135 -0.05557397 -0.118929 0.085032076 0.054186374 -0.18421218 0.002934277
0.028014392 -0.1774255 -0.067122325 -0.16857438 0.12509465 -0.21383108 -0.18801518 -0.004179597
0.20246178 0.11567581 -0.10376872 0.19922242 0.15629685 -0.13145585 0.049551696 0.15651044
-0.1217978 0.14354554 -0.17104183 -0.06940745 0.069099665 0.033695355 0.049461454 -0.003168553
-0.046867684 0.09612489 -0.11935526 -0.15527943 0.18334636 -0.05224119 0.006454557 -0.05284366
-0.19067903 -0.15345094 -0.018880934 0.05633843 -0.12734726 0.050497085 -0.1540829 0.11504114
-0.15374656 0.0011597276 0.19031483 -0.026827231 -0.16792455 0.15202656 -0.20560865 0.1125049
-0.004320562 0.20700887 0.06735438 0.16350156 -0.15652865 0.026791364 0.08002597 0.20231763
00000000: aec2 563e 942f d6bd b293 453e f083 133d
00000010: 207d 51bc 34bc f33d dcf1 15bd e041 c9bb
00000020: 5078 c0bc fc4f 1e3e 3659 83bd 042d 0cbd
00000030: 32f5 2a3e 24a0 0c3e c8d9 b13d 80d1 c9ba
00000040: c026 31bd 009d 70bb 40ff 7b3b 10d7 12bc
00000050: 807f ef3b 7fc9 3fbe 5d12 1dbe a429 6bbd
00000060: 1402 69bd c81c 6e3d 3126 0abe 389a 343e
00000070: 9644 363e a405 5cbe 99f8 c7bd c65b 1d3e
00000080: 01b9 20be 906c 703d e6da 4bbe 80aa 8f3b
00000090: f46a 60bd 009f d13d e83d 203d b3c5 babd
000000a0: e2f1 293e d648 82bd 28f8 543d 87bc ecbd
000000b0: c01e 06be cbb3 49be 002f 423b bcc4 b6bd
000000c0: 2c5c 4e3e 34ba b7bd 98a6 383e 10fc c13d
000000d0: 3425 123e 60b3 9f3d f050 95bd 62f6 24be
000000e0: 5c5c ca3d bef9 1bbe 16ac 8abd 483b 0b3d
000000f0: 8d9e f4bd a08b 82bd 2224 5b3e e8a9 983d
00000100: f6f2 b2bd c20a 3d3e 88a1 63bd 0c91 f3bd
00000110: 4c25 ae3d 88f2 5d3d 1ea2 3cbe 004d 403b
00000120: 707e e53c 08af 35be 6e77 89bd c39e 2cbe
00000130: d018 003e 89f6 5abe 0d87 40be 00f5 88bb
00000140: 2452 4f3e 70e7 ec3d b284 d4bd f600 4c3e
00000150: 480c 203e 5d9c 06be b8f6 4a3d 4644 203e
00000160: 2071 f9bd 9afd 123e 9725 2fbe 7e25 8ebd
00000170: 2084 8d3d 2404 0a3d 1898 4a3d 80a7 4fbb
00000180: 54f8 3fbd 20dd c43d 8870 f4bd 9201 1fbe
00000190: 26bf 3b3e dcfa 55bd c080 d33b 9872 58bd
000001a0: 5d41 43be 3e22 1dbe 30ac 9abc 20c3 663d
000001b0: 5267 02be 08d6 4e3d e8c7 1dbe b09a eb3d
000001c0: bd6f 1dbe 0002 983a e4e1 423e c8c4 dbbc
000001d0: 6af4 2bbe daac 1b3e 138b 52be f868 e63d
000001e0: 8093 8dbb 22fa 533e 18f1 893d f46c 273e
000001f0: 0c49 20be 9079 db3c a8e4 a33d 5a2c 4f3e
