Project/Assets/ML-Agents/Examples/MyTest/Scripts/TFModels/MyTest1Models/RealBetterModel/MoveToGoal.onnx (onnx, 80286 bytes, 9 tensors)

network_body._body_endoder.seq_layers.0.weight f4 [128, 6]
1.0202554 0.22281061 -0.06252069 0.5354018 0.17121795 -0.018039122 0.11506507 -0.2769576
0.025083447 -0.7050647 -0.1521744 -0.278939 -0.22302788 0.438656 -0.20906103 -0.10327585
0.83959526 0.42877442 0.39758742 -0.1069127 -0.75846475 0.6673113 -0.40495664 0.28277776
-0.021605825 0.41512963 0.5480468 -0.279531 -0.56731963 0.43183613 0.2381176 0.25684598
-0.18687053 -1.0881233 -0.07210736 -0.22634852 -0.11476002 0.41413185 0.093286395 0.10976093
-0.0321607 -0.12484709 0.1360183 -0.18967302 -0.50785714 0.41773635 0.64872867 -0.1776509
-0.096597806 -0.032530386 -0.47728264 0.09592902 -0.30657837 0.17156155 0.7003364 0.8160651
-0.091691 0.00093091454 0.15170017 -0.5729072 0.07568012 0.18711498 0.16143714 0.33590743
0.32196382 -0.034394726 -0.4568378 0.613337 0.13982502 0.55137736 0.4462802 -0.52278715
0.3176992 -0.15884459 -1.0245563 1.0435569 -0.18979715 -0.046806775 -0.124030106 -0.37419918
0.7047985 -0.1380478 -0.46074873 0.14983946 -0.1493114 0.03490271 0.4264535 0.25825134
0.22515817 0.47707203 -0.007346754 0.16778848 -0.16002066 0.101688884 0.02289533 0.6635488
0.023889426 -0.30377942 0.09908965 0.61072505 -0.21426168 -0.54666626 -0.3037053 -0.5147948
0.13544 -0.18824302 0.16660962 0.31353834 -0.009692698 -0.31740984 -0.37778968 0.48101288
-0.5997417 -0.0690428 -0.060990997 -0.02336369 0.6799751 0.50655055 -0.6002796 0.20126724
0.5978012 -0.2664189 0.00881817 0.21747643 -0.31073442 -0.26016802 0.16124646 0.32789344
-0.3283816 0.16343002 -0.59376365 0.59154665 0.06827061 0.5124854 -0.57368547 -0.37353638
-0.67734265 -0.21703114 0.5688335 -0.14843434 0.07125833 -0.28755578 0.3814824 0.22771662
-0.2377556 0.16930236 0.14224681 0.26733372 -0.021917291 0.7299974 -0.03733691 -0.122390755
-0.035380922 0.01105027 0.8846187 -1.0295842 -0.17983635 -0.69194794 0.28512555 0.3175453
0.050183874 0.39322418 0.050023858 -0.5520655 0.2926981 -0.4382009 0.029921224 0.7028076
0.18223798 0.22898144 -0.13490666 0.5899243 -0.7468401 -0.6390338 -0.20272253 -0.7336206
-0.07432058 0.10825051 0.19455187 0.12281376 -0.027818806 0.6031199 0.83703405 -0.28418872
0.60616726 0.40378788 0.15905075 -0.13296145 0.038562343 -0.06714149 -0.37905726 -0.32413596
-1.3946193 0.12969792 -0.5530213 0.68020004 -0.40919194 0.64284945 0.6373208 0.27780914
-0.32892552 0.43177596 0.3738313 -0.90227157 -0.32614484 0.2586737 -0.39920282 -0.37798455
-0.33358535 0.35589474 -0.49348092 -0.10129247 -0.36854923 0.40281853 0.34494305 -0.2277893
-0.5223457 0.54282135 0.105226964 0.013353742 0.5922 -0.014719151 0.49323225 0.30688736
-0.349859 0.41134533 0.6434208 0.25849 -0.43644124 -0.021133533 0.10194603 -0.19195706
-0.25698608 -0.55853057 0.37185055 -0.08256506 0.24545729 0.117391326 0.6556494 0.45537814
0.35030824 -0.10381599 -0.06442296 0.51084346 -0.14232409 0.7363767 -0.083130665 -0.28193298
0.14734012 -0.11076637 -0.17120908 -0.19481264 -0.22660483 -0.42260486 -0.13026924 0.8973465
00000000: bb97 823f 7728 643e d90a 80bd 1810 093f
00000010: c253 2f3e c8c6 93bc 3ca7 eb3d 63cd 8dbe
00000020: cd7b cd3c 1f7f 34bf 9bd3 1bbe 18d1 8ebe
00000030: 6c61 64be 8597 e03e 1814 56be 4a82 d3bd
00000040: b7ef 563f 5288 db3e 9490 cb3e 0cf5 dabd
00000050: bf2a 42bf ead4 2a3f 7a56 cfbe 3fc8 903e
00000060: b3fe b0bc df8b d43e cc4c 0c3f b01e 8fbe
00000070: dc3b 11bf a019 dd3e 1ad5 733e 5181 833e
00000080: fd5a 3fbe a047 8bbf 06ad 93bd e8c7 67be
00000090: 4d07 ebbd 1709 d43e f00c bf3d 57ca e03d
000000a0: f0ba 03bd d5af ffbd 6248 0b3e a539 42be
000000b0: ed02 02bf 8ae1 d53e 1513 263f 1eea 35be
000000c0: 12d5 c5bd 953e 05bd 645e f4be 6f76 c43d
000000d0: d7f7 9cbe d5ad 2f3e 3f49 333f a4e9 503f
000000e0: 7ec8 bbbd 9e08 743a 4a57 1b3e 0caa 12bf
000000f0: 2efe 9a3d 129b 3f3e c74f 253e 0ffc ab3e
00000100: 71d8 a43e 7ce1 0cbd a5e6 e9be a703 1d3f
00000110: 4a2e 0f3e 1127 0d3f d77e e43e 61d5 05bf
00000120: 78a9 a23e 28a8 22be a924 83bf 4693 853f
00000130: 2f5a 42be 76b8 3fbd 7f03 febd 0997 bfbe
00000140: ad6d 343f 675c 0dbe 42e7 ebbe 846f 193e
00000150: 16e5 18be 25f6 0e3d 1d58 da3e 8539 843e
00000160: dd8f 663e c942 f43e 0abd f0bb bed0 2b3e
00000170: 75dc 23be 4342 d03d fd8e bb3c 56de 293f
00000180: c2b3 c33c fa88 9bbe 84ef ca3d 7a58 1c3f
00000190: 6a67 5bbe 52f2 0bbf 437f 9bbe 98c9 03bf
000001a0: c9b0 0a3e c7c2 40be b69b 2a3e 1988 a03e
000001b0: 1fce 1ebc 8b83 a2be a66d c1be 5247 f63e
000001c0: ac88 19bf 5066 8dbd b2d1 79bd 3665 bfbc
000001d0: d912 2e3f 4cad 013f edab 19bf 0019 4e3e
000001e0: 8009 193f 0f68 88be 167a 103c 24b2 5e3e
000001f0: 9518 9fbe be34 85be cb1d 253e a6e1 a73e
00000200: a221 a8be 335a 273e e500 18bf 9a6f 173f
00000210: 76d1 8b3d 3e32 033f 0ddd 12bf 2940 bfbe
00000220: 5466 2dbf 693d 5ebe 129f 113f 2cff 17be
00000230: e3ef 913d 833a 93be a951 c33e 8c2e 693e
00000240: 3476 73be 995d 2d3e 26a9 113e f7df 883e
00000250: e48b b3bc 1ce1 3a3f 96ee 18bd 01a8 fabd
00000260: 96eb 10bd 310c 353c 5f76 623f 6ac9 83bf
00000270: 0527 38be 8023 31bf fafb 913e 4c95 a23e
00000280: 9b8d 4d3d ae54 c93e d1e5 4c3d 2a54 0dbf
00000290: 86dc 953e de5b e0be 5b1d f53c 33eb 333f
000002a0: 989c 3a3e 1c7a 6a3e f924 0abe 4705 173f
000002b0: ea30 3fbf b897 23bf 7f96 4fbe 8fce 3bbf
000002c0: 6335 98bd 72b2 dd3d 9b38 473e c885 fb3d
000002d0: 44e4 e3bc 1166 1a3f dd47 563f 2f81 91be
000002e0: c72d 1b3f 49bd ce3e 33de 223e 0c27 08be
000002f0: 8cf3 1d3d 7a81 89bd cb13 c2be 26f5 a5be
00000300: e382 b2bf 88cf 043e ce92 0dbf 9721 2e3f
00000310: 9b81 d1be c891 243f 7527 233f 003d 8e3e
00000320: ed68 a8be bd11 dd3e d166 bf3e 45fb 66bf
00000330: 75fc a6be e170 843e 5064 ccbe 3187 c1be
00000340: b3cb aabe d637 b63e 88a9 fcbe 6d72 cfbd
00000350: 7cb2 bcbe 3b3e ce3e 609c b03e 9941 69be
00000360: 73b8 05bf 57f6 0a3f 3c81 d73d a7c9 5a3c
00000370: 6b9a 173f 9828 71bc f088 fc3e 5720 9d3e
00000380: b820 b3be db9b d23e 3ab7 243f cd58 843e
00000390: 3a75 dfbe 3b20 adbc 15c9 d03d 6490 44be
000003a0: ae93 83be dcfb 0ebf 3263 be3e df17 a9bd
000003b0: 2859 7b3e dd6a f03d a4d8 273f 5327 e93e
000003c0: 9a5b b33e 7a9d d4bd 2ff0 83bd a3c6 023f
000003d0: 68bd 11be 2f83 3c3f 6940 aabd 8559 90be
000003e0: 54e0 163e 7bd9 e2bd 6f51 2fbe f77c 47be
000003f0: 190b 68be aa5f d8be 4d65 05be 80b8 653f

network_body._body_endoder.seq_layers.0.bias f4 [128]
-0.010800385 -0.020879282 0.018701494 -0.005632205 -0.0035138158 -0.00082884094 0.006124594 -0.018299608
-0.008322196 0.0048372517 0.0034366555 -0.005051592 -0.0064489827 -0.005630078 -0.01781653 0.004808619
-0.018332457 -0.03761347 0.0067565464 0.024086438 -0.017226972 -0.0056748213 0.013481068 -0.018230693
0.004146471 -0.0020113816 -0.006436115 -0.023594188 -0.00017843324 0.01371675 -0.007575695 0.0033992594
0.029759087 -0.0031824945 0.006771205 0.016664168 -0.00041160823 0.007894685 0.01849984 -0.009213636
0.0109316055 -0.012449987 0.011323401 -0.0075725387 0.01622064 0.013177924 -0.0058502583 0.010399368
-0.011361807 0.012830456 -0.00032160705 -0.020509722 0.0035028998 0.014895591 0.0028833065 0.0077065863
-0.004112645 -0.03704427 -0.009756707 0.02207441 0.0012391143 0.00077090797 0.001269218 -0.026455311
-0.0084598875 -0.004577036 -0.006770747 0.033756252 -0.012991122 -0.0018655075 0.014626319 0.035885237
-0.021830263 0.016527392 0.0013479943 0.021394907 0.0006702636 0.017181166 -0.024488507 0.013022458
0.033954173 0.016070515 -0.004319332 0.016550498 0.00053878484 0.0020126812 0.0034088602 0.018373828
-0.005687341 -0.003474598 0.0050123115 0.037070896 0.025459437 0.0105259055 0.0063744606 -0.016259316
-0.010076967 0.012967364 -0.008194413 -0.030476531 -0.0039910623 0.008369564 0.0030976739 -0.009091808
0.021326765 8.474961e-05 0.012921645 -0.0027091405 0.02122973 -0.00448745 0.033328235 0.002731
0.024627334 0.004920943 -0.021005908 -0.016552256 0.014827825 -0.02287737 -0.010893436 -0.006633287
0.0287679 0.026575387 0.014501502 0.008774144 -0.0075532063 -0.0025266628 -0.020802863 -0.010907467
00000000: 19f4 30bc 070b abbc e033 993c 5c8e b8bb
00000010: 0c48 66bb 9346 59ba d1b0 c83b 0fe9 95bc
00000020: d259 08bc cf81 9e3b 8339 613b d387 a5bb
00000030: fd51 d3bb 847c b8bb f9f3 91bc 9f91 9d3b
00000040: f32d 96bc 9510 1abd 0566 dd3b ec50 c53c
00000050: 941f 8dbc daf3 b9bb b3df 5c3c 8958 95bc
00000060: 1fdf 873b 62d1 03bb 0ce6 d2bb 9948 c1bc
00000070: cf19 3bb9 38bc 603c 893d f8bb 1cc6 5e3b
00000080: 54c9 f33c 6691 50bb fce0 dd3b 4b83 883c
00000090: 1fcd d7b9 b558 013c fa8c 973c caf4 16bc
000000a0: 7a1a 333c 08fb 4bbc c985 393c 0f23 f8bb
000000b0: 26e1 843c 38e8 573c 86b3 bfbb 1c62 2a3c
000000c0: df26 3abc d536 523c 5e9d a8b9 0104 a8bc
000000d0: e890 653b a30c 743c dbf5 3c3b 8887 fc3b
000000e0: 5ec3 86bb bcbb 17bd 98da 1fbc 65d5 b43c
000000f0: c769 a23a c216 4a3a e45b a63a cfb8 d8bc
00000100: 579b 0abc f6fa 95bb 24dd ddbb ff43 0a3d
00000110: b7d8 54bc 0b84 f4ba 3aa3 6f3c 66fc 123d
00000120: 61d5 b2bc 7464 873c 2faf b03a 5f44 af3c
00000130: a1b4 2f3a 84bf 8c3c 1f9c c8bc 265c 553c
00000140: 8813 0b3d 50a6 833c 2f89 8dbb e994 873c
00000150: 3d3d 0d3a 30e7 033b 2f67 5f3b b684 963c
00000160: e05c babb 15b6 63bb 513e a43b a7d7 173d
00000170: 4f90 d03c d974 2c3c dae0 d03b 4232 85bc
00000180: dd19 25bc 1175 543c dc41 06bc eba9 f9bc
00000190: 75c7 82bb 7f20 093c 5802 4b3b cff5 14bc
000001a0: 78b5 ae3c 9abb b138 4fb5 533c d68b 31bb
000001b0: f9e9 ad3c 750b 93bb 3083 083d 94fa 323b
000001c0: 43bf c93c dd3f a13b 9514 acbc 9998 87bc
000001d0: 68f0 723c 5269 bbbc 627a 32bc 0b5c d9bb
000001e0: a9aa eb3c a0b4 d93c b597 6d3c 6dc1 0f3c
000001f0: e380 f7bb 5e96 25bb c46a aabc 3cb5 32bc

network_body._body_endoder.seq_layers.2.weight f4 [128, 128]
0.010634999 -0.101891495 -0.019423967 -0.009279551 0.1166532 0.08426863 0.03421373 0.031500407
0.07887848 -0.1019684 0.06779979 0.13927738 0.058356244 -0.08502972 -0.0037282745 -0.025228169
0.0046379003 -0.15591457 -0.27115446 -0.030693578 0.16812263 0.11892843 -0.09689299 0.013684063
0.14416578 -0.053109355 -0.0035740605 0.0016919487 -0.052968454 0.07247314 -0.069891006 -0.054138802
0.13917015 -0.071794815 0.025903253 -0.008844628 0.005393408 -0.02807615 -0.16402532 -0.026499612
0.020687947 -0.03424697 -0.07685017 0.12109945 -0.046100333 0.032936398 0.07156122 -0.09124663
-0.038000215 -0.042415168 0.091497734 -0.045990374 -0.056182623 0.012169775 0.027318692 0.048598226
0.075938664 0.0764644 -0.09900343 0.035617284 0.15823437 0.13045712 0.037575632 -0.03398612
0.10206572 0.26804918 -0.05954256 -0.15203367 -0.029849399 -0.014350219 -0.18252678 0.06465434
0.0014442706 0.16367845 -0.009363557 -0.06336586 -0.04548512 -0.02654609 -0.042836435 0.029454436
0.041996855 0.061108354 0.09939355 0.13617833 0.13928917 -0.06647215 0.014231003 0.15535212
-0.1078868 0.055524882 -0.11588662 -0.0080466205 -0.023232905 -0.073530525 0.019996714 0.08980943
-0.06293444 -0.020526065 -0.185831 -0.03657103 0.08275985 0.08620078 -0.081820846 0.22936445
0.041609693 -0.0054578055 0.05328602 0.058815822 0.10543983 -0.043129407 -0.023823911 0.09085476
0.050543193 -0.27519783 0.080613226 0.14979517 0.103134364 0.03799797 -0.02160606 0.017006606
0.066496134 0.10103547 -0.037494533 -0.06702323 0.08105175 -0.0041509643 0.054177046 -0.04439645
0.04832772 -0.17738876 -0.0034408758 0.018659355 -0.044720277 0.036351956 0.05423264 0.10405447
0.11029228 -0.0823436 0.0034925719 -0.029572561 -0.012107068 -0.008124318 -0.0026868258 0.03199174
-0.11547112 0.042893626 -0.1520741 -0.15376095 0.013914783 -0.074227616 -0.054855615 0.050287057
0.17522725 0.06365568 -0.079930075 -0.04234969 0.06018693 -0.0111790355 -0.14845535 -0.13390054
0.049395207 -0.10521928 -0.0054019745 0.15417084 0.04542483 -0.13662991 -0.12282438 0.17809565
-0.07687923 -0.18668637 -0.06958799 0.06828061 -0.047908176 -0.0058229016 0.10557924 -0.1235299
-0.12059955 0.08245386 0.046407096 0.025242474 0.05362334 -0.16247772 0.058985453 0.096255794
-0.031707387 -0.015092547 0.11371569 0.0841062 0.047137804 0.018946378 -0.03803435 -0.0069279396
-0.049359415 0.021029867 0.08525474 0.11806816 0.0049971566 -0.015192194 0.024401093 0.03810552
-0.033857174 0.04028778 0.0885977 0.0155480085 0.14851017 0.07480641 -0.102222115 -0.12752618
-0.06820137 0.02015098 -0.0016485542 -0.067132786 0.13820703 -0.044093315 -0.037456315 -0.0447709
0.026532441 0.103824966 0.23068352 0.17095171 0.024850113 -0.14717716 0.026010036 -0.0012355099
-0.05803295 0.041206706 -0.03506947 0.007607625 -0.12988952 -0.02471536 0.07324913 0.034781646
0.009300868 -0.0652324 0.06589254 0.07892878 -0.07720414 0.044875816 0.0196932 0.08792886
0.03722278 -0.04198511 -0.22375624 -0.13393253 0.14170569 -0.0742007 0.06522682 0.0072099403
-0.04189007 0.14643781 -0.07791373 -0.09262801 -0.005935543 0.029275008 0.0031117671 0.024123278
00000000: 6b3e 2e3c 7dac d0bd 031f 9fbc 4209 18bc
00000010: dfe7 ee3d 0895 ac3d b223 0c3d 9206 013d
00000020: 0a8b a13d cfd4 d0bd 9eda 8a3d bb9e 0e3e
00000030: f506 6f3d 1024 aebd 1156 74bb 4eab cebc
00000040: 87f9 973b 12a8 1fbe c2d4 8abe 1971 fbbc
00000050: 5728 2c3e c090 f33d d56f c6bd 1f33 603c
00000060: 32a0 133e 3289 59bd c93a 6abb 61c4 dd3a
00000070: 73f5 58bd cc6c 943d 0423 8fbd a6c0 5dbd
00000080: 9f82 0e3e 2909 93bd 0f33 d43c 0fe9 10bc
00000090: 2fbb b03b f4ff e5bc 41f6 27be b715 d9bc
000000a0: c579 a93c 8d46 0cbd 9f63 9dbd fd02 f83d
000000b0: b4d3 3cbd 51e8 063d b08e 923d 83df babd
000000c0: 1da6 1bbd 87bb 2dbd 2a63 bb3d 6760 3cbd
000000d0: c01f 66bd bc63 473c 73cb df3c ef0e 473d
000000e0: bb85 9b3d 5e99 9c3d 4fc2 cabd 6ee3 113d
000000f0: 3108 223e 8d96 053e e8e8 193d 0835 0bbd
00000100: d507 d13d be3d 893e e6e2 73bd b7ae 1bbe
00000110: ba86 f4bc 2e1d 6bbc 4de8 3abe 7f69 843d
00000120: ae4d bd3a 539b 273e 9b69 19bc f6c5 81bd
00000130: 9b4e 3abd 3077 d9bc 4275 2fbd 6e4a f13c
00000140: e504 2c3d c14c 7a3d d88e cb3d 5572 0b3e
00000150: d2a1 0e3e 8d22 88bd 2729 693c a014 1f3e
00000160: c1f3 dcbd 0f6e 633d f755 edbd f9d5 03bc
00000170: ef52 bebc 2c97 96bd 26d0 a33c 02ee b73d
00000180: c6e3 80bd 4726 a8bc 7b4a 3ebe 81cb 15bd
00000190: ff7d a93d 098a b03d b091 a7bd 84de 6a3e
000001a0: ed6e 2a3d 64d7 b2bb 7142 5a3d dce8 703d
000001b0: d6f0 d73d 76a8 30bd 5d2a c3bc 0f12 ba3d
000001c0: 6106 4f3d bbe6 8cbe 8c18 a53d e863 193e
000001d0: 1c38 d33d c2a3 1b3d 31ff b0bc 7051 8b3c
000001e0: 202f 883d afeb ce3d de93 19bd 7a43 89bd
000001f0: 76fe a53d d004 88bb c0e8 5d3d 0dd9 35bd
00000200: 4af3 453d 66a5 35be 5180 61bb 81db 983c
00000210: 9c2c 37bd cae5 143d 0b23 5e3d 831a d53d
00000220: ebe0 e13d c3a3 a8bd a2e3 643b 2842 f2bc
00000230: b95c 46bc dc1b 05bc 7515 30bb c509 033d
00000240: 1f7c ecbd 3ab1 2f3d 50b9 1bbe 8373 1dbe
00000250: d4fa 633c a604 98bd 48b0 60bd cdf9 4d3d
00000260: c66e 333e e95d 823d 61b2 a3bd de76 2dbd
00000270: 9286 763d 4628 37bc ae04 18be 391d 09be
00000280: a152 4a3d 357d d7bd 0c03 b1bb f6de 1d3e
00000290: 630f 3a3d b6e8 0bbe 598b fbbd b55e 363e
000002a0: dc72 9dbd b62a 3fbe 2684 8ebd b4d6 8b3d
000002b0: 5d3b 44bd 0ace bebb ee39 d83d 3ffd fcbd
000002c0: e6fc f6bd 92dd a83d 5e15 3e3d 4ec9 ce3c
000002d0: 26a4 5b3d 8f60 26be bb9a 713d c221 c53d
000002e0: 9bdf 01bd bb46 77bc c6e3 e83d df3f ac3d
000002f0: 9213 413d 6f35 9b3c e8c9 1bbd c503 e3bb
00000300: 192d 4abd d446 ac3c 0a9a ae3d b8cd f13d
00000310: 30bf a33b aee8 78bc cde4 c73c 8914 1c3d
00000320: d2ad 0abd cd04 253d b672 b53d 13bd 7e3c
00000330: 0d13 183e 1a34 993d d459 d1bd 3996 02be
00000340: 29ad 8bbd ab13 a53c 4d14 d8ba ea7c 89bd
00000350: 2586 0d3e 319b 34bd cb6b 19bd b161 37bd
00000360: 905a d93c 2fa2 d43d 4d38 6c3e f70d 2f3e
00000370: 7792 cb3c 9cb5 16be 0013 d53c d5f0 a1ba
00000380: f5b3 6dbd 5dc8 283d 01a5 0fbd 6249 f93b
00000390: c201 05be de77 cabc a403 963d 3377 0e3d
000003a0: ab62 183c 9198 85bd abf2 863d 6aa5 a13d
000003b0: 341d 9ebd b4cf 373d a253 a13c 0c14 b43d
000003c0: ea76 183d 94f8 2bbd 5b20 65be 9c25 09be
000003d0: 4c1b 113e 89f6 97bd a495 853d 5d41 ec3b
000003e0: ec94 2bbd cbf3 153e 3c91 9fbd c1b3 bdbd
000003f0: f27e c2bb 24d2 ef3c caee 4b3b 2e9e c53c

network_body._body_endoder.seq_layers.2.bias f4 [128]
-0.007255887 0.005379529 -0.012453719 0.0049192156 0.025218615 -0.0058270427 -0.007205547 -0.0077852774
-0.010964875 0.012931273 0.007934554 0.0007333107 0.006835227 0.017186714 0.016812047 0.012390301
-0.0044419565 0.04308795 -0.01165247 -0.013774692 -0.012834138 0.012589275 0.009415602 -0.0032537687
0.01579748 0.010656227 0.0054132054 -0.014821202 0.0028148668 0.007542204 -0.01651129 -0.011678192
0.0020390865 0.011119625 0.008579891 -0.017690927 -0.011773441 0.012181771 0.001809198 -0.00049790676
0.0045185685 -0.00752574 0.0021862583 0.0035370118 0.014791594 -0.02211054 -0.021584623 0.0044796816
-0.010731961 -0.016770177 0.0154875005 -0.0077174124 0.02728055 0.023265261 0.0023535439 0.01312099
-0.006906634 0.0047281664 -0.01401252 -0.0067442507 -0.01209035 -0.01165611 -0.0059203645 0.01803046
0.009422197 0.013851097 -0.013860882 -0.008865267 -0.013616539 0.014820816 -0.0012332372 -0.012636051
-0.0039014285 0.0126937665 0.021469615 -0.008085008 0.011827409 0.008786399 0.005033525 0.01466031
-0.011916539 0.023986379 0.012295105 0.037820205 -0.014084736 0.0027520196 -0.007109779 0.0051554283
-0.011998938 -1.6927119e-05 -0.0015415751 -0.011881792 0.002123316 0.013477832 -0.0057849917 -0.012003984
0.029396165 0.004902094 0.018268993 0.003064016 0.019409614 0.012923742 -0.0041351547 -0.0003187907
-0.0015998838 -0.0060723685 0.006699575 -0.016615555 0.025438556 0.005665023 -0.0027307319 -0.010968389
0.0074812947 0.00859526 0.014473432 0.007201481 0.0010260174 -0.011850356 -0.00812773 0.0067006927
0.0027040134 0.0010171655 0.017970348 0.0047218446 0.000205244 0.003841669 -0.0010360677 0.011139288
00000000: cbc2 edbb c346 b03b af0a 4cbc 5f31 a13b
00000010: 4597 ce3c c7f0 bebb 821c ecbb a41b ffbb
00000020: 05a6 33bc b1dd 533c eeff 013c a63b 403a
00000030: 0afa df3b 27cb 8c3c 6bb9 893c b000 4b3c
00000040: d58d 91bb fe7c 303d 00ea 3ebc 3faf 61bc
00000050: 4746 52bc 3f43 4e3c e643 1a3c 2e3d 55bb
00000060: b769 813c 7597 2e3c 4261 b13b a0d4 72bc
00000070: a179 383b 9824 f73b af42 87bc e355 3fbc
00000080: 32a2 053b 162f 363c ac92 0c3c 90ec 90bc
00000090: 64e5 40bc 0d96 473c 9c22 ed3a f585 02ba
000000a0: 8010 943b 7c9a f6bb 5447 0f3b 36cd 673b
000000b0: 7158 723c 2a21 b5bc 3cd2 b0bc 4bca 923b
000000c0: 1bd5 2fbc 9c61 89bc 49bf 7d3c 59e2 fcbb
000000d0: 767b df3c ca96 be3c ea3d 1a3b 6cf9 563c
000000e0: 0c51 e2bb bcee 9a3b c594 65bc e0fe dcbb
000000f0: 9a16 46bc 45f9 3ebc 9eff c1bb 9eb4 933c
00000100: 8f5f 1a3c b6ef 623c c118 63bc a03f 11bc
00000110: e717 5fbc 02d3 723c 93a4 a1ba 7007 4fbc
00000120: 1caf 7fbb 84f9 4f3c 0ce1 af3c fb76 04bc
00000130: c0c7 413c d4f4 0f3c 45f0 a43b cc31 703c
00000140: 963d 43bc 157f c43c 6871 493c 5ce9 1a3d
00000150: aac3 66bc 3a5b 343b 26f9 e8bb deee a83b
00000160: 3297 44bc b6fe 8db7 ad0e caba d9ab 42bc
00000170: 5527 0b3b 20d2 5c3c 0790 bdbb 5cac 44bc
00000180: 3ad0 f03c bfa1 a03b dba8 953c a9cd 483b
00000190: e900 9f3c 1abe 533c 3180 87bb 5d23 a7b9
000001a0: 31b3 d1ba b8fa c6bb 1c88 db3b 581d 88bc
000001b0: 8564 d03c a8a1 b93b 14f6 32bb c2b4 33bc
000001c0: a625 f53b 22d3 0c3c f921 6d3c 67fa eb3b
000001d0: 6e7b 863a ff27 42bc 2c2a 05bc 7c91 db3b
000001e0: d135 313b 6952 853a 8d36 933c b4b9 9a3b
000001f0: c436 5739 83c4 7b3b aacc 87ba 8f81 363c

action_model._continuous_distribution.log_sigma f4 [1, 2]
0.0027258913 -0.014587523
00000000: dea4 323b 8200 6fbc

action_model._continuous_distribution.mu.weight f4 [2, 128]
-0.01354638 0.05373543 -0.0148317525 -0.018769098 0.0024013326 -0.00016081166 -0.035603683 0.037377875
-0.0012917853 -0.023053164 -0.0144409165 -0.0081346175 0.029749589 0.02721204 0.0102243535 -0.09293818
0.030689158 0.03915953 0.006251114 0.0066998596 -0.0031686376 -0.00021029398 -0.008173525 -0.019013667
-0.005575668 -0.059144653 -0.014100836 -0.0018874174 0.019026397 -0.023416683 0.008850386 -0.008991129
0.04296761 -0.0202808 -0.031013817 0.025040947 -0.003620289 -0.022692 0.007110304 0.00237035
0.0043340437 0.0009169088 0.033665877 0.009675601 0.039452605 -0.0182731 0.03394437 -0.015372847
0.01033593 0.008499802 -0.013529527 0.0064158654 0.039218273 0.043472026 -0.02002195 0.032710336
0.005121177 0.013902192 0.032727133 -0.013195234 -0.014582993 0.0017950815 0.0024335398 -0.03979982
-0.019832361 0.03469157 0.0055986387 -0.009729632 0.0026382778 -0.03718668 -0.0056009004 0.018799564
-0.00025452123 -0.047854774 -0.039898876 0.026700756 -0.021245655 -0.012400634 0.0175716 -0.026082909
0.004720614 0.0022521396 0.010088669 -0.042095944 -0.0010635318 0.035561737 -0.0036189975 -0.028716136
0.012054658 0.031854153 -0.0091418475 -0.0035781036 -0.019996306 -0.010109247 0.03102829 -0.00714685
0.060749654 0.019618537 -0.034919973 -0.031451143 -0.010096246 -0.026584502 -0.017322475 -0.0164398
0.015706247 -0.012465354 0.029654942 0.008632431 -0.02642987 0.027032807 0.054236434 0.027694948
0.023892725 -0.014923803 -0.008370738 0.046461247 0.01323835 -0.022191182 0.014824878 -0.02418084
0.030861115 0.022170013 0.040610533 0.032795787 -0.0073076496 0.007516134 0.033109058 -0.016689012
-0.02498247 0.011368844 -0.0032989776 -0.015516484 0.02807473 -0.008354281 -0.0334284 -0.0037774479
-0.0061082845 0.022093171 0.025008775 0.015057376 -0.02733058 -0.07713589 0.039123908 -0.0030405617
-0.020724922 0.018485883 0.004566199 -0.013162467 0.003296845 0.0036287692 0.019353803 -0.0009551287
0.035370555 -0.03860428 0.005034866 0.038639955 -0.014552808 0.016171226 -0.012465359 0.010310241
0.00048647495 -0.015724005 0.021251027 -0.025857227 -0.0013949248 0.014357927 -0.05392132 0.026883611
0.015692603 -0.03480772 0.02690358 0.03078723 -0.013113686 0.0074735004 -0.0017112698 -0.008524306
-0.04255628 -0.013176496 0.013664158 -0.04169589 -0.032842815 -0.029839497 -0.004373132 0.032539703
0.035655733 0.04012816 -0.019474812 -0.020259451 -0.0058997823 0.010459196 -0.02478881 -0.06912911
-0.005353173 0.030081626 -0.0016738557 0.03713332 0.0035463255 0.012948935 0.035447028 -0.0141367465
-0.009279901 0.006006095 -0.0011496929 -0.0040361346 0.01846134 0.0068198885 0.026274085 0.011641498
-0.010827061 -0.07413421 0.02956268 0.026649415 0.0048467987 -0.006346752 0.0026565082 0.0007202949
-0.04120652 0.022473076 0.02711141 -0.01574821 0.022414723 0.04529838 -0.032624993 -0.03058965
0.026449395 -0.006180198 -0.04069388 -0.011016259 -0.035259314 -0.06279817 -0.02747679 -0.04213862
-0.011427895 0.010878997 0.043650538 0.011668523 -0.039716717 0.0035810834 -0.040463045 -0.019415962
0.019785358 0.02735006 -0.015209981 -0.023484262 -0.034004543 0.021469256 -0.015521784 -0.013648635
0.013788838 0.00851805 0.014191987 -0.03199309 0.00036854376 -0.025710609 -0.01393063 -0.02132652
00000000: a3f1 5dbc af19 5c3d e100 73bc a7c1 99bc
00000010: ad5f 1d3b 8d9f 28b9 2bd5 11bd 8b19 193d
00000020: 1f51 a9ba fdd9 bcbc 9899 6cbc 0f47 05bc
00000030: 69b5 f33c c9eb de3c 0c84 273c 5f56 bebd
00000040: d467 fb3c be65 203d 25d6 cc3b 7f8a db3b
00000050: eba8 4fbb 5c82 5cb9 40ea 05bc 8dc2 9bbc
00000060: 18b4 b6bb aa41 72bd 3107 67bc 3863 f7ba
00000070: 3fdd 9b3c 58d4 bfbc 3601 113c 874f 13bc
00000080: cefe 2f3d ec23 a6bc b010 febc ac22 cd3c
00000090: 5f42 6dbb 93e4 b9bc 8efd e83b e057 1b3b
000000a0: 9804 8e3b b55c 703a 3be5 093d 6986 1e3c
000000b0: 0e99 213d 78b1 95bc 4009 0b3d 65de 7bbc
000000c0: 0858 293c c142 0b3c f3aa 5dbc 2e3c d23b
000000d0: 57a3 203d b90f 323d 1305 a4bc 46fb 053d
000000e0: 8ccf a73b 05c6 633c e30c 063d d330 58bc
000000f0: 82ed 6ebc f148 eb3a 067c 1f3b 2305 23bd
00000100: 7a77 a2bc bf18 0e3d c974 b73b 0969 1fbc
00000110: f5e6 2c3b 0f51 18bd c287 b7bb 8b01 9a3c
00000120: 4371 85b9 5e03 44bd 016d 23bd 8bbb da3c
00000130: 5e0b aebc 072c 4bbc 51f2 8f3c d3ab d5bc
00000140: 61af 9a3b a298 133b f24a 253c cc6c 2cbd
00000150: 3566 8bba 2fa9 113d b42c 6dbb 1a3e ebbc
00000160: e680 453c 8079 023d b0c7 15bc 9e7e 6abb
00000170: 4bcf a3bc 41a1 25bc 0a2f fe3c 2030 eabb
00000180: a1d4 783d 0eb7 a03c 3f08 0fbd ead2 00bd
00000190: ba6a 25bc bec7 d9bc dde7 8dbc c2ac 86bc
000001a0: 63aa 803c 7c3b 4cbc ecee f23c 0a6f 0d3c
000001b0: 7483 d8bc e873 dd3c 0627 5e3d 84e0 e23c
000001c0: adba c33c f782 74bc 6b25 09bc 264e 3e3d
000001d0: aae5 583c 48ca b5bc 0ce4 723c e616 c6bc
000001e0: 73d0 fc3c e39d b53c 3b57 263d e054 063d
000001f0: 0275 efbb e749 f63b 5d9d 073d 65b7 88bc
00000200: 09a8 ccbc 6344 3a3c a933 58bb da38 7ebc
00000210: fafc e53c 65e0 08bc 38ec 08bd 0f8f 77bb
00000220: 0128 c8bb bdfc b43c 34df cc3c 36b3 763c
00000230: 61e4 dfbc 6cf9 9dbd 6440 203d 2944 47bb
00000240: 50c7 a9bc b56f 973c 0ea0 953b 63a7 57bc
00000250: e10f 583b a5d0 6d3b de8b 9e3c 9a61 7aba
00000260: b7e0 103d 861f 1ebd 84fb a43b ee44 1e3d
00000270: e76e 6ebc 8579 843c 813b 4cbc 49ec 283c
00000280: 900d ff39 a1cf 80bc a216 ae3c 89d2 d3bc
00000290: e9d5 b6ba 833d 6b3c 9adc 5cbd 053b dc3c
000002a0: c68d 803c 8a92 0ebd e664 dc3c 8035 fc3c
000002b0: c9da 56bc 44e4 f43b b04c e0ba 88a9 0bbc
000002c0: 7e4f 2ebd 3be2 57bc a2df 5f3c 4fc9 2abd
000002d0: 3086 06bd f671 f4bc 7d4c 8fbb 5a48 053d
000002e0: bf0b 123d 6d5d 243d a489 9fbc 26f7 a5bc
000002f0: f652 c1bb 0c5d 2b3c e711 cbbc 9093 8dbd
00000300: ab69 afbb be6d f63c 4765 dbba 1c19 183d
00000310: 7869 683b c527 543c e730 113d d09d 67bc
00000320: ba0a 18bc c7ce c43b 4bb1 96ba 8d41 84bb
00000330: 3c3c 973c 5f79 df3b c03c d73c fbbb 3e3c
00000340: fc63 31bc add3 97bd 6f2d f23c e04f da3c
00000350: e5d1 9e3b 6af8 cfbb d018 2e3b 2cd2 3c3a
00000360: 2bc8 28bd 7519 b83c bf18 de3c 6402 81bc
00000370: 159f b73c cb8a 393d c9a1 05bd 2597 fabc
00000380: 67ac d83c 4283 cabb a0ae 26bd 8a7d 34bc
00000390: 126c 10bd 549c 80bd 0117 e1bc 8c99 2cbd
000003a0: 113c 3bbc d23d 323c e8ca 323d 552d 3f3c
000003b0: ffad 22bd 9cb0 6a3b 94bc 25bd 390e 9fbc
000003c0: e714 a23c 3c0d e03c 4933 79bc 1162 c0bc
000003d0: 5948 0bbd 4be0 af3c 154f 7ebc 869e 5fbc
000003e0: 94ea 613c 4b8f 0b3c 8285 683c 300b 03bd
000003f0: 1b39 c139 0e9f d2bc 4c3d 64bc f4b4 aebc

action_model._continuous_distribution.mu.bias f4 [2]
-0.0037565615 0.0099195335
00000000: a530 76bb 8a85 223c

action_model._discrete_distribution.branches.0.weight f4 [5, 128]
0.0040394855 0.008844187 0.008340271 0.012254838 -0.0075265383 0.02522458 0.025668725 0.013018497
0.007556545 0.006066215 -0.008552806 -0.008386993 -0.0053920117 0.0064765746 -0.01255062 0.006357594
-0.00043876172 0.003951718 0.023321375 0.0046171728 -0.0033136464 -0.0009934569 0.010915597 -0.0028998908
0.01277986 0.017392004 0.010895412 0.0032744897 0.024096424 0.014201254 -0.012995257 0.0145760765
-0.0035981592 0.0052319816 0.019035306 -0.00072235137 0.010650829 -0.004292893 -0.016584193 -0.023489743
0.009465777 0.0054228143 -0.0039330935 0.006450895 0.01181475 0.033285208 -0.0070332396 -0.005606629
0.0044659553 -0.00025460115 0.012792431 -0.00053039193 0.017578488 -0.0041552037 0.006669812 -0.0015445403
0.0016276054 0.0060621384 0.004924477 0.010551419 -0.008781672 0.0014070204 0.007633572 0.0049879113
-0.0034069223 -0.0041724867 -0.020421704 -0.005792726 -0.0021551626 -0.008599406 0.0048146322 0.009064519
0.005717997 -0.012600675 -0.03366908 0.0007084855 -0.0016077423 0.0057751993 0.017299335 0.004461898
0.0049883532 -0.0075503155 -0.016815126 -0.016665867 0.01522693 0.0022020126 -0.009062485 0.0019199614
0.0041520125 -0.007898173 -0.007410549 -0.00746156 -0.011828568 -0.01363553 0.0016138176 0.014059891
-0.023070266 -0.011982147 -0.020284276 0.034765832 -0.022262147 -0.0073331343 0.003867251 0.0071971957
0.02154647 0.011269665 0.011344705 0.006186963 0.00816737 -0.013324762 0.011976902 0.021002987
-0.0018318952 -0.015019947 -0.02144534 -0.008593083 -0.006059748 0.002350688 0.0074905073 -0.00020425215
-0.0009679059 -0.004677646 -0.013385682 0.0075682863 0.025781622 0.0043697343 -0.0070535317 -0.002247214
0.0005271728 -0.009116336 -0.0005523097 -0.0057888227 0.0049848775 -0.00059410627 0.0076768883 0.0034606927
-0.0045708837 0.01641621 0.015770687 -0.009209402 -0.0062446035 0.010014651 0.008286161 -0.0009158299
0.014975213 -0.0052816467 0.00042775556 0.005899793 -0.009816795 -0.008257584 -0.0021162059 0.014849648
0.008528278 -0.017891834 0.0048397407 0.00797231 -0.006176669 -0.0018539936 0.0055261827 0.0058152364
0.003696298 -0.008699065 0.016213542 -0.0037998578 -0.0023599926 0.00056131795 -0.005889358 0.012946069
-0.00044385612 0.01603286 0.01224493 0.0055493903 0.0058329897 0.0067199566 -0.017302994 -7.583479e-05
0.010361123 0.008998369 0.004138988 -0.0010831417 -0.02385363 -0.0105528915 -0.013032871 0.0072440603
0.0056729615 -0.0021279156 0.0020259141 0.008016452 -0.00043661872 -0.0032219281 0.009774745 -0.00901415
-0.007864948 -0.003940383 0.0077559496 0.009937567 -0.0055016153 0.00731572 0.01291127 -0.006147563
0.0041901856 -0.015665337 -0.011864806 -0.015556669 0.009734129 0.0090967445 0.013474104 -0.0048878165
-0.019993609 0.0021412855 -0.0027935589 0.020410314 0.005212599 0.013800553 -0.007114619 0.0070213275
-0.00062364305 0.0144899925 -0.004470896 -0.0032666137 0.0061084596 0.008158847 -0.0024914814 0.0129419975
0.0044649197 -0.0031386656 0.012910384 -0.015164562 -0.013642863 -0.0039603245 0.010363522 0.011312145
-0.012537426 0.0073623043 0.01799872 0.0042169485 0.0049143047 0.0060610943 0.0040583084 0.0056252084
0.0033113628 0.006798789 0.013233544 0.00018507888 -0.027890643 -0.015057474 -0.019317083 -0.00793076
-0.007855957 -0.0003406995 -0.014807166 0.004863466 0.0009477647 0.0015296957 -0.009796423 0.00699187
00000000: a95d 843b 35e7 103c a2a5 083c 84c8 483c
00000010: 2ea1 f6bb c7a3 ce3c 3847 d23c 894b 553c
00000020: e59c f73b 1ac7 c63b 1221 0cbc 9969 09bc
00000030: 79af b0bb 7239 d43b 1ea1 4dbc 5d53 d03b
00000040: 9a09 e6b9 6a7d 813b 780c bf3c a74b 973b
00000050: c329 59bb e236 82ba 55d7 323c 180c 3ebb
00000060: 9e62 513c ad79 8e3c ac82 323c d298 563b
00000070: dd65 c53c 60ac 683c 0fea 54bc 7fd0 6e3c
00000080: 18cf 6bbb 0b71 ab3b eeef 9b3c 2e5c 3dba
00000090: d180 2e3c 66ab 8cbb 93db 87bc 906d c0bc
000000a0: 5916 1b3c ddb1 b13b 2ee1 80bb 0862 d33b
000000b0: a792 413c 1256 083d 1777 e6bb d0b7 b7bb
000000c0: 2657 923b fd7b 85b9 5897 513c 000a 0bba
000000d0: c300 903c 6028 88bb 708e da3b 2c72 caba
000000e0: 6055 d53a e7a4 c63b 825d a13b dcdf 2c3c
000000f0: 01e1 0fbc c56b b83a 0b23 fa3b a271 a33b
00000100: ac46 5fbb 5bb9 88bb 6b4b a7bc e8d0 bdbb
00000110: a13d 0dbb 86e4 0cbc 10c4 9d3b 5983 143c
00000120: 095e bb3b 1073 4ebc 97e8 09bd a8b9 393a
00000130: e1ba d2ba e23d bd3b 56b7 8d3c 1d35 923b
00000140: 5775 a33b a368 f7bb e0bf 89bc db86 88bc
00000150: 607a 793c a44f 103b d17a 14bc 37a7 fb3a
00000160: 9b0d 883b 5767 01bc 31d4 f2bb 1a80 f4bb
00000170: 9ccc 41bc 8f67 5fbc bc86 d33a 755b 663c
00000180: dbfd bcbc c450 44bc 362b a6bc 9e66 0e3d
00000190: 1b5f b6bc ca4a f0bb b571 7d3b 74d6 eb3b
000001a0: 3982 b03c 67a4 383c 24df 393c 02bc ca3b
000001b0: 6fd0 053c 1a50 5abc c53a 443c 750e ac3c
000001c0: 341c f0ba 3916 76bc 23ae afbc 01ca 0cbc
000001d0: da90 c6bb 000e 1a3b ee72 f53b 852c 56b9
000001e0: 11bb 7dba f046 99bb 9f4f 5bbc 63ff f73b
000001f0: fb33 d33c fd2f 8f3b 5021 e7bb ff45 13bb
00000200: f831 0a3a af5c 15bc e0c8 10ba 2ab0 bdbb
00000210: 2f58 a33b ccbd 1bba 688e fb3b cacc 623b
00000220: 5ac7 95bb 4a7b 863c 8731 813c 08e3 16bc
00000230: 889f ccbb 7e14 243c aec2 073c 4e14 70ba
00000240: 995a 753c aa11 adbb 6144 e039 0d53 c13b
00000250: 9fd6 20bc d14a 07bc 0bb0 0abb f04b 733c
00000260: 31ba 0b3c e591 92bc b096 9e3b 4b9e 023c
00000270: a865 cabb b401 f3ba fb14 b53b bd8d be3b
00000280: 973d 723b 8686 0ebc 43d2 843c 0907 79bb
00000290: 1baa 1abb 6925 133a 84fb c0bb c01b 543c
000002a0: 5cb5 e8b9 5857 833c f59e 483c a9d7 b53b
000002b0: aa22 bf3b 1533 dc3b 02bf 8dbc 7e09 9fb8
000002c0: b3c1 293c e56d 133c 59a0 873b 34f8 8dba
000002d0: b068 c3bc 09e6 2cbc d387 55bc 955f ed3b
000002e0: 40e4 b93b 8074 0bbb 33c5 043b 7057 033c
000002f0: f9e9 e4b9 fc26 53bb 4126 203c 16b0 13bc
00000300: fcdb 00bc 541e 81bb 9f25 fe3b 2dd1 223c
00000310: e546 b4bb b5b8 ef3b cb89 533c 7f71 c9bb
00000320: d34d 893b 9854 80bc 9a64 42bc 66e1 7ebc
00000330: e57b 1f3c 830a 153c 7dc2 5c3c fa29 a0bb
00000340: a3c9 a3bc cf54 0c3b 2414 37bb 8833 a73c
00000350: 73ce aa3b b71b 623c c021 e9bb 2a13 e63b
00000360: fa7b 23ba 6f67 6d3c 9880 92bb af14 56bb
00000370: 7929 c83b afac 053c 1f48 23bb ac0a 543c
00000380: 764e 923b 12b2 4dbb 1386 533c c874 78bc
00000390: 5186 5fbc 9cc5 81bb c3cb 293c 9356 393c
000003a0: c769 4dbc 7c3f f13b 0d72 933c 542e 8a3b
000003b0: 2d08 a13b 259c c63b 8ffb 843b ab53 b83b
000003c0: 7303 593b 60c8 de3b 82d1 583c bc11 4239
000003d0: eb7a e4bc a0b3 76bc dc3e 9ebc 05f0 01bc
000003e0: 46b6 00bc ea9f b2b9 c199 72bc b65d 9f3b
000003f0: 6a73 783a 1280 c83a 2d81 20bc 0e1c e53b

action_model._discrete_distribution.branches.0.bias f4 [5]
0.0054923436 0.0019903744 -0.0064204903 -0.0008575243 0.0005697856
00000000: 1ef9 b33b f170 023b fa62 d2bb 7bcb 60ba
00000010: aa5d 153a
